…
I0323 02:21:04.760212 131744 net.cpp:294] The NetState phase (0) differed from the phase (1) specified by a rule in layer dataLayer
I0323 02:21:04.760453 131744 net.cpp:51] Initializing net from parameters: 
name: "Cifar-Resnet"
state {
  phase: TRAIN
  level: 0
  stage: ""
}
layer {
  name: "dataLayer"
  type: "Data"
  top: "data_top"
  top: "label"
  include {
    phase: TRAIN
  }
  transform_param {
    mirror: true
    crop_size: 32
    mean_file: "data/cifar100/mean.binaryproto"
  }
  data_param {
    source: "data/cifar100/cifar100_train_lmdb"
    batch_size: 259
    backend: LMDB
  }
  image_data_param {
    shuffle: true
  }
}
layer {
  name: "first"
  type: "Convolution"
  bottom: "data_top"
  top: "first_conv_top"
  convolution_param {
    num_output: 16
    pad: 1
    kernel_size: 3
    stride: 1
    weight_filler {
      type: "xavier"
    }
    bias_filler {
      type: "constant"
    }
  }
}
layer {
  name: "first_bn"
  type: "BatchNorm"
  bottom: "first_conv_top"
  top: "first_conv_top"
  param {
    lr_mult: 0
    decay_mult: 0
  }
  param {
    lr_mult: 0
    decay_mult: 0
  }
  param {
    lr_mult: 0
    decay_mult: 0
  }
  batch_norm_param {
    moving_average_fraction: 0.9
  }
}
layer {
  name: "first_scale"
  type: "Scale"
  bottom: "first_conv_top"
  top: "first_conv_top"
  scale_param {
    filler {
      value: 1
    }
    bias_term: true
    bias_filler {
      value: 0
    }
  }
}
layer {
  name: "first_relu"
  type: "ReLU"
  bottom: "first_conv_top"
  top: "first_conv_top"
}
layer {
  name: "group0_block0_conv0"
  type: "Convolution"
  bottom: "first_conv_top"
  top: "group0_block0_conv0_conv_top"
  convolution_param {
    num_output: 16
    pad: 1
    kernel_size: 3
    stride: 1
    weight_filler {
      type: "xavier"
    }
    bias_filler {
      type: "constant"
    }
  }
}
layer {
  name: "group0_block0_conv0_bn"
  type: "BatchNorm"
  bottom: "group0_block0_conv0_conv_top"
  top: "group0_block0_conv0_conv_top"
  param {
    lr_mult: 0
    decay_mult: 0
  }
  param {
    lr_mult: 0
    decay_mult: 0
  }
  param {
    lr_mult: 0
    decay_mult: 0
  }
  batch_norm_param {
    moving_average_fraction: 0.9
  }
}
layer {
  name: "group0_block0_conv0_scale"
  type: "Scale"
  bottom: "group0_block0_conv0_conv_top"
  top: "group0_block0_conv0_conv_top"
  scale_param {
    filler {
      value: 1
    }
    bias_term: true
    bias_filler {
      value: 0
    }
  }
}
layer {
  name: "group0_block0_conv0_relu"
  type: "ReLU"
  bottom: "group0_block0_conv0_conv_top"
  top: "group0_block0_conv0_conv_top"
}
layer {
  name: "group0_block0_conv1"
  type: "Convolution"
  bottom: "group0_block0_conv0_conv_top"
  top: "group0_block0_conv1_conv_top"
  convolution_param {
    num_output: 16
    pad: 1
    kernel_size: 3
    stride: 1
    weight_filler {
      type: "xavier"
    }
    bias_filler {
      type: "constant"
    }
  }
}
layer {
  name: "group0_block0_conv1_bn"
  type: "BatchNorm"
  bottom: "group0_block0_conv1_conv_top"
  top: "group0_block0_conv1_conv_top"
  param {
    lr_mult: 0
    decay_mult: 0
  }
  param {
    lr_mult: 0
    decay_mult: 0
  }
  param {
    lr_mult: 0
    decay_mult: 0
  }
  batch_norm_param {
    moving_average_fraction: 0.9
  }
}
layer {
  name: "group0_block0_conv1_scale"
  type: "Scale"
  bottom: "group0_block0_conv1_conv_top"
  top: "group0_block0_conv1_conv_top"
  scale_param {
    filler {
      value: 1
    }
    bias_term: true
    bias_filler {
      value: 0
    }
  }
}
layer {
  name: "group0_block0_sum_eltwise"
  type: "Eltwise"
  bottom: "group0_block0_conv1_conv_top"
  bottom: "first_conv_top"
  top: "group0_block0_sum_eltwise_top"
  eltwise_param {
    operation: SUM
  }
}
layer {
  name: "group0_block1_conv0"
  type: "Convolution"
  bottom: "group0_block0_sum_eltwise_top"
  top: "group0_block1_conv0_conv_top"
  convolution_param {
    num_output: 16
    pad: 1
    kernel_size: 3
    stride: 1
    weight_filler {
      type: "xavier"
    }
    bias_filler {
      type: "constant"
    }
  }
}
layer {
  name: "group0_block1_conv0_bn"
  type: "BatchNorm"
  bottom: "group0_block1_conv0_conv_top"
  top: "group0_block1_conv0_conv_top"
  param {
    lr_mult: 0
    decay_mult: 0
  }
  param {
    lr_mult: 0
    decay_mult: 0
  }
  param {
    lr_mult: 0
    decay_mult: 0
  }
  batch_norm_param {
    moving_average_fraction: 0.9
  }
}
layer {
  name: "group0_block1_conv0_scale"
  type: "Scale"
  bottom: "group0_block1_conv0_conv_top"
  top: "group0_block1_conv0_conv_top"
  scale_param {
    filler {
      value: 1
    }
    bias_term: true
    bias_filler {
      value: 0
    }
  }
}
layer {
  name: "group0_block1_conv0_relu"
  type: "ReLU"
  bottom: "group0_block1_conv0_conv_top"
  top: "group0_block1_conv0_conv_top"
}
layer {
  name: "group0_block1_conv1"
  type: "Convolution"
  bottom: "group0_block1_conv0_conv_top"
  top: "group0_block1_conv1_conv_top"
  convolution_param {
    num_output: 16
    pad: 1
    kernel_size: 3
    stride: 1
    weight_filler {
      type: "xavier"
    }
    bias_filler {
      type: "constant"
    }
  }
}
layer {
  name: "group0_block1_conv1_bn"
  type: "BatchNorm"
  bottom: "group0_block1_conv1_conv_top"
  top: "group0_block1_conv1_conv_top"
  param {
    lr_mult: 0
    decay_mult: 0
  }
  param {
    lr_mult: 0
    decay_mult: 0
  }
  param {
    lr_mult: 0
    decay_mult: 0
  }
  batch_norm_param {
    moving_average_fraction: 0.9
  }
}
layer {
  name: "group0_block1_conv1_scale"
  type: "Scale"
  bottom: "group0_block1_conv1_conv_top"
  top: "group0_block1_conv1_conv_top"
  scale_param {
    filler {
      value: 1
    }
    bias_term: true
    bias_filler {
      value: 0
    }
  }
}
layer {
  name: "group0_block1_sum_eltwise"
  type: "Eltwise"
  bottom: "group0_block1_conv1_conv_top"
  bottom: "group0_block0_sum_eltwise_top"
  top: "group0_block1_sum_eltwise_top"
  eltwise_param {
    operation: SUM
  }
}
layer {
  name: "group0_block2_conv0"
  type: "Convolution"
  bottom: "group0_block1_sum_eltwise_top"
  top: "group0_block2_conv0_conv_top"
  convolution_param {
    num_output: 16
    pad: 1
    kernel_size: 3
    stride: 1
    weight_filler {
      type: "xavier"
    }
    bias_filler {
      type: "constant"
    }
  }
}
layer {
  name: "group0_block2_conv0_bn"
  type: "BatchNorm"
  bottom: "group0_block2_conv0_conv_top"
  top: "group0_block2_conv0_conv_top"
  param {
    lr_mult: 0
    decay_mult: 0
  }
  param {
    lr_mult: 0
    decay_mult: 0
  }
  param {
    lr_mult: 0
    decay_mult: 0
  }
  batch_norm_param {
    moving_average_fraction: 0.9
  }
}
layer {
  name: "group0_block2_conv0_scale"
  type: "Scale"
  bottom: "group0_block2_conv0_conv_top"
  top: "group0_block2_conv0_conv_top"
  scale_param {
    filler {
      value: 1
    }
    bias_term: true
    bias_filler {
      value: 0
    }
  }
}
layer {
  name: "group0_block2_conv0_relu"
  type: "ReLU"
  bottom: "group0_block2_conv0_conv_top"
  top: "group0_block2_conv0_conv_top"
}
layer {
  name: "group0_block2_conv1"
  type: "Convolution"
  bottom: "group0_block2_conv0_conv_top"
  top: "group0_block2_conv1_conv_top"
  convolution_param {
    num_output: 16
    pad: 1
    kernel_size: 3
    stride: 1
    weight_filler {
      type: "xavier"
    }
    bias_filler {
      type: "constant"
    }
  }
}
layer {
  name: "group0_block2_conv1_bn"
  type: "BatchNorm"
  bottom: "group0_block2_conv1_conv_top"
  top: "group0_block2_conv1_conv_top"
  param {
    lr_mult: 0
    decay_mult: 0
  }
  param {
    lr_mult: 0
    decay_mult: 0
  }
  param {
    lr_mult: 0
    decay_mult: 0
  }
  batch_norm_param {
    moving_average_fraction: 0.9
  }
}
layer {
  name: "group0_block2_conv1_scale"
  type: "Scale"
  bottom: "group0_block2_conv1_conv_top"
  top: "group0_block2_conv1_conv_top"
  scale_param {
    filler {
      value: 1
    }
    bias_term: true
    bias_filler {
      value: 0
    }
  }
}
layer {
  name: "group0_block2_sum_eltwise"
  type: "Eltwise"
  bottom: "group0_block2_conv1_conv_top"
  bottom: "group0_block1_sum_eltwise_top"
  top: "group0_block2_sum_eltwise_top"
  eltwise_param {
    operation: SUM
  }
}
layer {
  name: "group0_block3_conv0"
  type: "Convolution"
  bottom: "group0_block2_sum_eltwise_top"
  top: "group0_block3_conv0_conv_top"
  convolution_param {
    num_output: 16
    pad: 1
    kernel_size: 3
    stride: 1
    weight_filler {
      type: "xavier"
    }
    bias_filler {
      type: "constant"
    }
  }
}
layer {
  name: "group0_block3_conv0_bn"
  type: "BatchNorm"
  bottom: "group0_block3_conv0_conv_top"
  top: "group0_block3_conv0_conv_top"
  param {
    lr_mult: 0
    decay_mult: 0
  }
  param {
    lr_mult: 0
    decay_mult: 0
  }
  param {
    lr_mult: 0
    decay_mult: 0
  }
  batch_norm_param {
    moving_average_fraction: 0.9
  }
}
layer {
  name: "group0_block3_conv0_scale"
  type: "Scale"
  bottom: "group0_block3_conv0_conv_top"
  top: "group0_block3_conv0_conv_top"
  scale_param {
    filler {
      value: 1
    }
    bias_term: true
    bias_filler {
      value: 0
    }
  }
}
layer {
  name: "group0_block3_conv0_relu"
  type: "ReLU"
  bottom: "group0_block3_conv0_conv_top"
  top: "group0_block3_conv0_conv_top"
}
layer {
  name: "group0_block3_conv1"
  type: "Convolution"
  bottom: "group0_block3_conv0_conv_top"
  top: "group0_block3_conv1_conv_top"
  convolution_param {
    num_output: 16
    pad: 1
    kernel_size: 3
    stride: 1
    weight_filler {
      type: "xavier"
    }
    bias_filler {
      type: "constant"
    }
  }
}
layer {
  name: "group0_block3_conv1_bn"
  type: "BatchNorm"
  bottom: "group0_block3_conv1_conv_top"
  top: "group0_block3_conv1_conv_top"
  param {
    lr_mult: 0
    decay_mult: 0
  }
  param {
    lr_mult: 0
    decay_mult: 0
  }
  param {
    lr_mult: 0
    decay_mult: 0
  }
  batch_norm_param {
    moving_average_fraction: 0.9
  }
}
layer {
  name: "group0_block3_conv1_scale"
  type: "Scale"
  bottom: "group0_block3_conv1_conv_top"
  top: "group0_block3_conv1_conv_top"
  scale_param {
    filler {
      value: 1
    }
    bias_term: true
    bias_filler {
      value: 0
    }
  }
}
layer {
  name: "group0_block3_sum_eltwise"
  type: "Eltwise"
  bottom: "group0_block3_conv1_conv_top"
  bottom: "group0_block2_sum_eltwise_top"
  top: "group0_block3_sum_eltwise_top"
  eltwise_param {
    operation: SUM
  }
}
layer {
  name: "group0_block4_conv0"
  type: "Convolution"
  bottom: "group0_block3_sum_eltwise_top"
  top: "group0_block4_conv0_conv_top"
  convolution_param {
    num_output: 16
    pad: 1
    kernel_size: 3
    stride: 1
    weight_filler {
      type: "xavier"
    }
    bias_filler {
      type: "constant"
    }
  }
}
layer {
  name: "group0_block4_conv0_bn"
  type: "BatchNorm"
  bottom: "group0_block4_conv0_conv_top"
  top: "group0_block4_conv0_conv_top"
  param {
    lr_mult: 0
    decay_mult: 0
  }
  param {
    lr_mult: 0
    decay_mult: 0
  }
  param {
    lr_mult: 0
    decay_mult: 0
  }
  batch_norm_param {
    moving_average_fraction: 0.9
  }
}
layer {
  name: "group0_block4_conv0_scale"
  type: "Scale"
  bottom: "group0_block4_conv0_conv_top"
  top: "group0_block4_conv0_conv_top"
  scale_param {
    filler {
      value: 1
    }
    bias_term: true
    bias_filler {
      value: 0
    }
  }
}
layer {
  name: "group0_block4_conv0_relu"
  type: "ReLU"
  bottom: "group0_block4_conv0_conv_top"
  top: "group0_block4_conv0_conv_top"
}
layer {
  name: "group0_block4_conv1"
  type: "Convolution"
  bottom: "group0_block4_conv0_conv_top"
  top: "group0_block4_conv1_conv_top"
  convolution_param {
    num_output: 16
    pad: 1
    kernel_size: 3
    stride: 1
    weight_filler {
      type: "xavier"
    }
    bias_filler {
      type: "constant"
    }
  }
}
layer {
  name: "group0_block4_conv1_bn"
  type: "BatchNorm"
  bottom: "group0_block4_conv1_conv_top"
  top: "group0_block4_conv1_conv_top"
  param {
    lr_mult: 0
    decay_mult: 0
  }
  param {
    lr_mult: 0
    decay_mult: 0
  }
  param {
    lr_mult: 0
    decay_mult: 0
  }
  batch_norm_param {
    moving_average_fraction: 0.9
  }
}
layer {
  name: "group0_block4_conv1_scale"
  type: "Scale"
  bottom: "group0_block4_conv1_conv_top"
  top: "group0_block4_conv1_conv_top"
  scale_param {
    filler {
      value: 1
    }
    bias_term: true
    bias_filler {
      value: 0
    }
  }
}
layer {
  name: "group0_block4_sum_eltwise"
  type: "Eltwise"
  bottom: "group0_block4_conv1_conv_top"
  bottom: "group0_block3_sum_eltwise_top"
  top: "group0_block4_sum_eltwise_top"
  eltwise_param {
    operation: SUM
  }
}
layer {
  name: "group0_block5_conv0"
  type: "Convolution"
  bottom: "group0_block4_sum_eltwise_top"
  top: "group0_block5_conv0_conv_top"
  convolution_param {
    num_output: 16
    pad: 1
    kernel_size: 3
    stride: 1
    weight_filler {
      type: "xavier"
    }
    bias_filler {
      type: "constant"
    }
  }
}
layer {
  name: "group0_block5_conv0_bn"
  type: "BatchNorm"
  bottom: "group0_block5_conv0_conv_top"
  top: "group0_block5_conv0_conv_top"
  param {
    lr_mult: 0
    decay_mult: 0
  }
  param {
    lr_mult: 0
    decay_mult: 0
  }
  param {
    lr_mult: 0
    decay_mult: 0
  }
  batch_norm_param {
    moving_average_fraction: 0.9
  }
}
layer {
  name: "group0_block5_conv0_scale"
  type: "Scale"
  bottom: "group0_block5_conv0_conv_top"
  top: "group0_block5_conv0_conv_top"
  scale_param {
    filler {
      value: 1
    }
    bias_term: true
    bias_filler {
      value: 0
    }
  }
}
layer {
  name: "group0_block5_conv0_relu"
  type: "ReLU"
  bottom: "group0_block5_conv0_conv_top"
  top: "group0_block5_conv0_conv_top"
}
layer {
  name: "group0_block5_conv1"
  type: "Convolution"
  bottom: "group0_block5_conv0_conv_top"
  top: "group0_block5_conv1_conv_top"
  convolution_param {
    num_output: 16
    pad: 1
    kernel_size: 3
    stride: 1
    weight_filler {
      type: "xavier"
    }
    bias_filler {
      type: "constant"
    }
  }
}
layer {
  name: "group0_block5_conv1_bn"
  type: "BatchNorm"
  bottom: "group0_block5_conv1_conv_top"
  top: "group0_block5_conv1_conv_top"
  param {
    lr_mult: 0
    decay_mult: 0
  }
  param {
    lr_mult: 0
    decay_mult: 0
  }
  param {
    lr_mult: 0
    decay_mult: 0
  }
  batch_norm_param {
    moving_average_fraction: 0.9
  }
}
layer {
  name: "group0_block5_conv1_scale"
  type: "Scale"
  bottom: "group0_block5_conv1_conv_top"
  top: "group0_block5_conv1_conv_top"
  scale_param {
    filler {
      value: 1
    }
    bias_term: true
    bias_filler {
      value: 0
    }
  }
}
layer {
  name: "group0_block5_sum_eltwise"
  type: "Eltwise"
  bottom: "group0_block5_conv1_conv_top"
  bottom: "group0_block4_sum_eltwise_top"
  top: "group0_block5_sum_eltwise_top"
  eltwise_param {
    operation: SUM
  }
}
layer {
  name: "group0_block6_conv0"
  type: "Convolution"
  bottom: "group0_block5_sum_eltwise_top"
  top: "group0_block6_conv0_conv_top"
  convolution_param {
    num_output: 16
    pad: 1
    kernel_size: 3
    stride: 1
    weight_filler {
      type: "xavier"
    }
    bias_filler {
      type: "constant"
    }
  }
}
layer {
  name: "group0_block6_conv0_bn"
  type: "BatchNorm"
  bottom: "group0_block6_conv0_conv_top"
  top: "group0_block6_conv0_conv_top"
  param {
    lr_mult: 0
    decay_mult: 0
  }
  param {
    lr_mult: 0
    decay_mult: 0
  }
  param {
    lr_mult: 0
    decay_mult: 0
  }
  batch_norm_param {
    moving_average_fraction: 0.9
  }
}
layer {
  name: "group0_block6_conv0_scale"
  type: "Scale"
  bottom: "group0_block6_conv0_conv_top"
  top: "group0_block6_conv0_conv_top"
  scale_param {
    filler {
      value: 1
    }
    bias_term: true
    bias_filler {
      value: 0
    }
  }
}
layer {
  name: "group0_block6_conv0_relu"
  type: "ReLU"
  bottom: "group0_block6_conv0_conv_top"
  top: "group0_block6_conv0_conv_top"
}
layer {
  name: "group0_block6_conv1"
  type: "Convolution"
  bottom: "group0_block6_conv0_conv_top"
  top: "group0_block6_conv1_conv_top"
  convolution_param {
    num_output: 16
    pad: 1
    kernel_size: 3
    stride: 1
    weight_filler {
      type: "xavier"
    }
    bias_filler {
      type: "constant"
    }
  }
}
layer {
  name: "group0_block6_conv1_bn"
  type: "BatchNorm"
  bottom: "group0_block6_conv1_conv_top"
  top: "group0_block6_conv1_conv_top"
  param {
    lr_mult: 0
    decay_mult: 0
  }
  param {
    lr_mult: 0
    decay_mult: 0
  }
  param {
    lr_mult: 0
    decay_mult: 0
  }
  batch_norm_param {
    moving_average_fraction: 0.9
  }
}
layer {
  name: "group0_block6_conv1_scale"
  type: "Scale"
  bottom: "group0_block6_conv1_conv_top"
  top: "group0_block6_conv1_conv_top"
  scale_param {
    filler {
      value: 1
    }
    bias_term: true
    bias_filler {
      value: 0
    }
  }
}
layer {
  name: "group0_block6_sum_eltwise"
  type: "Eltwise"
  bottom: "group0_block6_conv1_conv_top"
  bottom: "group0_block5_sum_eltwise_top"
  top: "group0_block6_sum_eltwise_top"
  eltwise_param {
    operation: SUM
  }
}
layer {
  name: "group0_block7_conv0"
  type: "Convolution"
  bottom: "group0_block6_sum_eltwise_top"
  top: "group0_block7_conv0_conv_top"
  convolution_param {
    num_output: 16
    pad: 1
    kernel_size: 3
    stride: 1
    weight_filler {
      type: "xavier"
    }
    bias_filler {
      type: "constant"
    }
  }
}
layer {
  name: "group0_block7_conv0_bn"
  type: "BatchNorm"
  bottom: "group0_block7_conv0_conv_top"
  top: "group0_block7_conv0_conv_top"
  param {
    lr_mult: 0
    decay_mult: 0
  }
  param {
    lr_mult: 0
    decay_mult: 0
  }
  param {
    lr_mult: 0
    decay_mult: 0
  }
  batch_norm_param {
    moving_average_fraction: 0.9
  }
}
layer {
  name: "group0_block7_conv0_scale"
  type: "Scale"
  bottom: "group0_block7_conv0_conv_top"
  top: "group0_block7_conv0_conv_top"
  scale_param {
    filler {
      value: 1
    }
    bias_term: true
    bias_filler {
      value: 0
    }
  }
}
layer {
  name: "group0_block7_conv0_relu"
  type: "ReLU"
  bottom: "group0_block7_conv0_conv_top"
  top: "group0_block7_conv0_conv_top"
}
layer {
  name: "group0_block7_conv1"
  type: "Convolution"
  bottom: "group0_block7_conv0_conv_top"
  top: "group0_block7_conv1_conv_top"
  convolution_param {
    num_output: 16
    pad: 1
    kernel_size: 3
    stride: 1
    weight_filler {
      type: "xavier"
    }
    bias_filler {
      type: "constant"
    }
  }
}
layer {
  name: "group0_block7_conv1_bn"
  type: "BatchNorm"
  bottom: "group0_block7_conv1_conv_top"
  top: "group0_block7_conv1_conv_top"
  param {
    lr_mult: 0
    decay_mult: 0
  }
  param {
    lr_mult: 0
    decay_mult: 0
  }
  param {
    lr_mult: 0
    decay_mult: 0
  }
  batch_norm_param {
    moving_average_fraction: 0.9
  }
}
layer {
  name: "group0_block7_conv1_scale"
  type: "Scale"
  bottom: "group0_block7_conv1_conv_top"
  top: "group0_block7_conv1_conv_top"
  scale_param {
    filler {
      value: 1
    }
    bias_term: true
    bias_filler {
      value: 0
    }
  }
}
layer {
  name: "group0_block7_sum_eltwise"
  type: "Eltwise"
  bottom: "group0_block7_conv1_conv_top"
  bottom: "group0_block6_sum_eltwise_top"
  top: "group0_block7_sum_eltwise_top"
  eltwise_param {
    operation: SUM
  }
}
layer {
  name: "group0_block8_conv0"
  type: "Convolution"
  bottom: "group0_block7_sum_eltwise_top"
  top: "group0_block8_conv0_conv_top"
  convolution_param {
    num_output: 32
    pad: 1
    kernel_size: 3
    stride: 2
    weight_filler {
      type: "xavier"
    }
    bias_filler {
      type: "constant"
    }
  }
}
layer {
  name: "group0_block8_conv0_bn"
  type: "BatchNorm"
  bottom: "group0_block8_conv0_conv_top"
  top: "group0_block8_conv0_conv_top"
  param {
    lr_mult: 0
    decay_mult: 0
  }
  param {
    lr_mult: 0
    decay_mult: 0
  }
  param {
    lr_mult: 0
    decay_mult: 0
  }
  batch_norm_param {
    moving_average_fraction: 0.9
  }
}
layer {
  name: "group0_block8_conv0_scale"
  type: "Scale"
  bottom: "group0_block8_conv0_conv_top"
  top: "group0_block8_conv0_conv_top"
  scale_param {
    filler {
      value: 1
    }
    bias_term: true
    bias_filler {
      value: 0
    }
  }
}
layer {
  name: "group0_block8_conv0_relu"
  type: "ReLU"
  bottom: "group0_block8_conv0_conv_top"
  top: "group0_block8_conv0_conv_top"
}
layer {
  name: "group0_block8_conv1"
  type: "Convolution"
  bottom: "group0_block8_conv0_conv_top"
  top: "group0_block8_conv1_conv_top"
  convolution_param {
    num_output: 32
    pad: 1
    kernel_size: 3
    stride: 1
    weight_filler {
      type: "xavier"
    }
    bias_filler {
      type: "constant"
    }
  }
}
layer {
  name: "group0_block8_conv1_bn"
  type: "BatchNorm"
  bottom: "group0_block8_conv1_conv_top"
  top: "group0_block8_conv1_conv_top"
  param {
    lr_mult: 0
    decay_mult: 0
  }
  param {
    lr_mult: 0
    decay_mult: 0
  }
  param {
    lr_mult: 0
    decay_mult: 0
  }
  batch_norm_param {
    moving_average_fraction: 0.9
  }
}
layer {
  name: "group0_block8_conv1_scale"
  type: "Scale"
  bottom: "group0_block8_conv1_conv_top"
  top: "group0_block8_conv1_conv_top"
  scale_param {
    filler {
      value: 1
    }
    bias_term: true
    bias_filler {
      value: 0
    }
  }
}
layer {
  name: "group0_block8_proj"
  type: "Convolution"
  bottom: "group0_block7_sum_eltwise_top"
  top: "group0_block8_proj_conv_top"
  convolution_param {
    num_output: 32
    pad: 0
    kernel_size: 2
    stride: 2
    weight_filler {
      type: "xavier"
    }
    bias_filler {
      type: "constant"
    }
  }
}
layer {
  name: "group0_block8_proj_bn"
  type: "BatchNorm"
  bottom: "group0_block8_proj_conv_top"
  top: "group0_block8_proj_conv_top"
  param {
    lr_mult: 0
    decay_mult: 0
  }
  param {
    lr_mult: 0
    decay_mult: 0
  }
  param {
    lr_mult: 0
    decay_mult: 0
  }
  batch_norm_param {
    moving_average_fraction: 0.9
  }
}
layer {
  name: "group0_block8_proj_scale"
  type: "Scale"
  bottom: "group0_block8_proj_conv_top"
  top: "group0_block8_proj_conv_top"
  scale_param {
    filler {
      value: 1
    }
    bias_term: true
    bias_filler {
      value: 0
    }
  }
}
layer {
  name: "group0_block8_sum_eltwise"
  type: "Eltwise"
  bottom: "group0_block8_conv1_conv_top"
  bottom: "group0_block8_proj_conv_top"
  top: "group0_block8_sum_eltwise_top"
  eltwise_param {
    operation: SUM
  }
}
layer {
  name: "group1_block0_conv0"
  type: "Convolution"
  bottom: "group0_block8_sum_eltwise_top"
  top: "group1_block0_conv0_conv_top"
  convolution_param {
    num_output: 32
    pad: 1
    kernel_size: 3
    stride: 1
    weight_filler {
      type: "xavier"
    }
    bias_filler {
      type: "constant"
    }
  }
}
layer {
  name: "group1_block0_conv0_bn"
  type: "BatchNorm"
  bottom: "group1_block0_conv0_conv_top"
  top: "group1_block0_conv0_conv_top"
  param {
    lr_mult: 0
    decay_mult: 0
  }
  param {
    lr_mult: 0
    decay_mult: 0
  }
  param {
    lr_mult: 0
    decay_mult: 0
  }
  batch_norm_param {
    moving_average_fraction: 0.9
  }
}
layer {
  name: "group1_block0_conv0_scale"
  type: "Scale"
  bottom: "group1_block0_conv0_conv_top"
  top: "group1_block0_conv0_conv_top"
  scale_param {
    filler {
      value: 1
    }
    bias_term: true
    bias_filler {
      value: 0
    }
  }
}
layer {
  name: "group1_block0_conv0_relu"
  type: "ReLU"
  bottom: "group1_block0_conv0_conv_top"
  top: "group1_block0_conv0_conv_top"
}
layer {
  name: "group1_block0_conv1"
  type: "Convolution"
  bottom: "group1_block0_conv0_conv_top"
  top: "group1_block0_conv1_conv_top"
  convolution_param {
    num_output: 32
    pad: 1
    kernel_size: 3
    stride: 1
    weight_filler {
      type: "xavier"
    }
    bias_filler {
      type: "constant"
    }
  }
}
layer {
  name: "group1_block0_conv1_bn"
  type: "BatchNorm"
  bottom: "group1_block0_conv1_conv_top"
  top: "group1_block0_conv1_conv_top"
  param {
    lr_mult: 0
    decay_mult: 0
  }
  param {
    lr_mult: 0
    decay_mult: 0
  }
  param {
    lr_mult: 0
    decay_mult: 0
  }
  batch_norm_param {
    moving_average_fraction: 0.9
  }
}
layer {
  name: "group1_block0_conv1_scale"
  type: "Scale"
  bottom: "group1_block0_conv1_conv_top"
  top: "group1_block0_conv1_conv_top"
  scale_param {
    filler {
      value: 1
    }
    bias_term: true
    bias_filler {
      value: 0
    }
  }
}
layer {
  name: "group1_block0_sum_eltwise"
  type: "Eltwise"
  bottom: "group1_block0_conv1_conv_top"
  bottom: "group0_block8_sum_eltwise_top"
  top: "group1_block0_sum_eltwise_top"
  eltwise_param {
    operation: SUM
  }
}
layer {
  name: "group1_block1_conv0"
  type: "Convolution"
  bottom: "group1_block0_sum_eltwise_top"
  top: "group1_block1_conv0_conv_top"
  convolution_param {
    num_output: 32
    pad: 1
    kernel_size: 3
    stride: 1
    weight_filler {
      type: "xavier"
    }
    bias_filler {
      type: "constant"
    }
  }
}
layer {
  name: "group1_block1_conv0_bn"
  type: "BatchNorm"
  bottom: "group1_block1_conv0_conv_top"
  top: "group1_block1_conv0_conv_top"
  param {
    lr_mult: 0
    decay_mult: 0
  }
  param {
    lr_mult: 0
    decay_mult: 0
  }
  param {
    lr_mult: 0
    decay_mult: 0
  }
  batch_norm_param {
    moving_average_fraction: 0.9
  }
}
layer {
  name: "group1_block1_conv0_scale"
  type: "Scale"
  bottom: "group1_block1_conv0_conv_top"
  top: "group1_block1_conv0_conv_top"
  scale_param {
    filler {
      value: 1
    }
    bias_term: true
    bias_filler {
      value: 0
    }
  }
}
layer {
  name: "group1_block1_conv0_relu"
  type: "ReLU"
  bottom: "group1_block1_conv0_conv_top"
  top: "group1_block1_conv0_conv_top"
}
layer {
  name: "group1_block1_conv1"
  type: "Convolution"
  bottom: "group1_block1_conv0_conv_top"
  top: "group1_block1_conv1_conv_top"
  convolution_param {
    num_output: 32
    pad: 1
    kernel_size: 3
    stride: 1
    weight_filler {
      type: "xavier"
    }
    bias_filler {
      type: "constant"
    }
  }
}
layer {
  name: "group1_block1_conv1_bn"
  type: "BatchNorm"
  bottom: "group1_block1_conv1_conv_top"
  top: "group1_block1_conv1_conv_top"
  param {
    lr_mult: 0
    decay_mult: 0
  }
  param {
    lr_mult: 0
    decay_mult: 0
  }
  param {
    lr_mult: 0
    decay_mult: 0
  }
  batch_norm_param {
    moving_average_fraction: 0.9
  }
}
layer {
  name: "group1_block1_conv1_scale"
  type: "Scale"
  bottom: "group1_block1_conv1_conv_top"
  top: "group1_block1_conv1_conv_top"
  scale_param {
    filler {
      value: 1
    }
    bias_term: true
    bias_filler {
      value: 0
    }
  }
}
layer {
  name: "group1_block1_sum_eltwise"
  type: "Eltwise"
  bottom: "group1_block1_conv1_conv_top"
  bottom: "group1_block0_sum_eltwise_top"
  top: "group1_block1_sum_eltwise_top"
  eltwise_param {
    operation: SUM
  }
}
layer {
  name: "group1_block2_conv0"
  type: "Convolution"
  bottom: "group1_block1_sum_eltwise_top"
  top: "group1_block2_conv0_conv_top"
  convolution_param {
    num_output: 32
    pad: 1
    kernel_size: 3
    stride: 1
    weight_filler {
      type: "xavier"
    }
    bias_filler {
      type: "constant"
    }
  }
}
layer {
  name: "group1_block2_conv0_bn"
  type: "BatchNorm"
  bottom: "group1_block2_conv0_conv_top"
  top: "group1_block2_conv0_conv_top"
  param {
    lr_mult: 0
    decay_mult: 0
  }
  param {
    lr_mult: 0
    decay_mult: 0
  }
  param {
    lr_mult: 0
    decay_mult: 0
  }
  batch_norm_param {
    moving_average_fraction: 0.9
  }
}
layer {
  name: "group1_block2_conv0_scale"
  type: "Scale"
  bottom: "group1_block2_conv0_conv_top"
  top: "group1_block2_conv0_conv_top"
  scale_param {
    filler {
      value: 1
    }
    bias_term: true
    bias_filler {
      value: 0
    }
  }
}
layer {
  name: "group1_block2_conv0_relu"
  type: "ReLU"
  bottom: "group1_block2_conv0_conv_top"
  top: "group1_block2_conv0_conv_top"
}
layer {
  name: "group1_block2_conv1"
  type: "Convolution"
  bottom: "group1_block2_conv0_conv_top"
  top: "group1_block2_conv1_conv_top"
  convolution_param {
    num_output: 32
    pad: 1
    kernel_size: 3
    stride: 1
    weight_filler {
      type: "xavier"
    }
    bias_filler {
      type: "constant"
    }
  }
}
layer {
  name: "group1_block2_conv1_bn"
  type: "BatchNorm"
  bottom: "group1_block2_conv1_conv_top"
  top: "group1_block2_conv1_conv_top"
  param {
    lr_mult: 0
    decay_mult: 0
  }
  param {
    lr_mult: 0
    decay_mult: 0
  }
  param {
    lr_mult: 0
    decay_mult: 0
  }
  batch_norm_param {
    moving_average_fraction: 0.9
  }
}
layer {
  name: "group1_block2_conv1_scale"
  type: "Scale"
  bottom: "group1_block2_conv1_conv_top"
  top: "group1_block2_conv1_conv_top"
  scale_param {
    filler {
      value: 1
    }
    bias_term: true
    bias_filler {
      value: 0
    }
  }
}
layer {
  name: "group1_block2_sum_eltwise"
  type: "Eltwise"
  bottom: "group1_block2_conv1_conv_top"
  bottom: "group1_block1_sum_eltwise_top"
  top: "group1_block2_sum_eltwise_top"
  eltwise_param {
    operation: SUM
  }
}
layer {
  name: "group1_block3_conv0"
  type: "Convolution"
  bottom: "group1_block2_sum_eltwise_top"
  top: "group1_block3_conv0_conv_top"
  convolution_param {
    num_output: 32
    pad: 1
    kernel_size: 3
    stride: 1
    weight_filler {
      type: "xavier"
    }
    bias_filler {
      type: "constant"
    }
  }
}
layer {
  name: "group1_block3_conv0_bn"
  type: "BatchNorm"
  bottom: "group1_block3_conv0_conv_top"
  top: "group1_block3_conv0_conv_top"
  param {
    lr_mult: 0
    decay_mult: 0
  }
  param {
    lr_mult: 0
    decay_mult: 0
  }
  param {
    lr_mult: 0
    decay_mult: 0
  }
  batch_norm_param {
    moving_average_fraction: 0.9
  }
}
layer {
  name: "group1_block3_conv0_scale"
  type: "Scale"
  bottom: "group1_block3_conv0_conv_top"
  top: "group1_block3_conv0_conv_top"
  scale_param {
    filler {
      value: 1
    }
    bias_term: true
    bias_filler {
      value: 0
    }
  }
}
layer {
  name: "group1_block3_conv0_relu"
  type: "ReLU"
  bottom: "group1_block3_conv0_conv_top"
  top: "group1_block3_conv0_conv_top"
}
layer {
  name: "group1_block3_conv1"
  type: "Convolution"
  bottom: "group1_block3_conv0_conv_top"
  top: "group1_block3_conv1_conv_top"
  convolution_param {
    num_output: 32
    pad: 1
    kernel_si
I0323 02:21:04.763695 131744 layer_factory.hpp:77] Creating layer dataLayer
I0323 02:21:04.766108 131744 db_lmdb.cpp:35] Opened lmdb data/cifar100/cifar100_train_lmdb
I0323 02:21:04.766285 131744 net.cpp:84] Creating Layer dataLayer
I0323 02:21:04.766304 131744 net.cpp:380] dataLayer -> data_top
I0323 02:21:04.766345 131744 net.cpp:380] dataLayer -> label
I0323 02:21:04.766374 131744 data_transformer.cpp:25] Loading mean file from: data/cifar100/mean.binaryproto
I0323 02:21:04.779255 131744 data_layer.cpp:45] output data size: 259,3,32,32
I0323 02:21:04.787081 131744 net.cpp:122] Setting up dataLayer
I0323 02:21:04.787107 131744 net.cpp:129] Top shape: 259 3 32 32 (795648)
I0323 02:21:04.787127 131744 net.cpp:129] Top shape: 259 (259)
I0323 02:21:04.787135 131744 net.cpp:137] Memory required for data: 3183628
I0323 02:21:04.787156 131744 layer_factory.hpp:77] Creating layer label_dataLayer_1_split
I0323 02:21:04.787174 131744 net.cpp:84] Creating Layer label_dataLayer_1_split
I0323 02:21:04.787186 131744 net.cpp:406] label_dataLayer_1_split <- label
I0323 02:21:04.787220 131744 net.cpp:380] label_dataLayer_1_split -> label_dataLayer_1_split_0
I0323 02:21:04.787237 131744 net.cpp:380] label_dataLayer_1_split -> label_dataLayer_1_split_1
I0323 02:21:04.787293 131744 net.cpp:122] Setting up label_dataLayer_1_split
I0323 02:21:04.787302 131744 net.cpp:129] Top shape: 259 (259)
I0323 02:21:04.787312 131744 net.cpp:129] Top shape: 259 (259)
I0323 02:21:04.787322 131744 net.cpp:137] Memory required for data: 3185700
I0323 02:21:04.787328 131744 layer_factory.hpp:77] Creating layer first
I0323 02:21:04.787354 131744 net.cpp:84] Creating Layer first
I0323 02:21:04.787361 131744 net.cpp:406] first <- data_top
I0323 02:21:04.787372 131744 net.cpp:380] first -> first_conv_top
I0323 02:21:05.301491 131744 net.cpp:122] Setting up first
I0323 02:21:05.301517 131744 net.cpp:129] Top shape: 259 16 32 32 (4243456)
I0323 02:21:05.301532 131744 net.cpp:137] Memory required for data: 20159524
I0323 02:21:05.301578 131744 layer_factory.hpp:77] Creating layer first_bn
I0323 02:21:05.301599 131744 net.cpp:84] Creating Layer first_bn
I0323 02:21:05.301606 131744 net.cpp:406] first_bn <- first_conv_top
I0323 02:21:05.301617 131744 net.cpp:367] first_bn -> first_conv_top (in-place)
I0323 02:21:05.301868 131744 net.cpp:122] Setting up first_bn
I0323 02:21:05.301877 131744 net.cpp:129] Top shape: 259 16 32 32 (4243456)
I0323 02:21:05.301887 131744 net.cpp:137] Memory required for data: 37133348
I0323 02:21:05.301905 131744 layer_factory.hpp:77] Creating layer first_scale
I0323 02:21:05.301923 131744 net.cpp:84] Creating Layer first_scale
I0323 02:21:05.301929 131744 net.cpp:406] first_scale <- first_conv_top
I0323 02:21:05.301939 131744 net.cpp:367] first_scale -> first_conv_top (in-place)
I0323 02:21:05.302000 131744 layer_factory.hpp:77] Creating layer first_scale
I0323 02:21:05.302155 131744 net.cpp:122] Setting up first_scale
I0323 02:21:05.302165 131744 net.cpp:129] Top shape: 259 16 32 32 (4243456)
I0323 02:21:05.302173 131744 net.cpp:137] Memory required for data: 54107172
I0323 02:21:05.302186 131744 layer_factory.hpp:77] Creating layer first_relu
I0323 02:21:05.302197 131744 net.cpp:84] Creating Layer first_relu
I0323 02:21:05.302204 131744 net.cpp:406] first_relu <- first_conv_top
I0323 02:21:05.302213 131744 net.cpp:367] first_relu -> first_conv_top (in-place)
I0323 02:21:05.302705 131744 net.cpp:122] Setting up first_relu
I0323 02:21:05.302713 131744 net.cpp:129] Top shape: 259 16 32 32 (4243456)
I0323 02:21:05.302722 131744 net.cpp:137] Memory required for data: 71080996
I0323 02:21:05.302729 131744 layer_factory.hpp:77] Creating layer first_conv_top_first_relu_0_split
I0323 02:21:05.302739 131744 net.cpp:84] Creating Layer first_conv_top_first_relu_0_split
I0323 02:21:05.302748 131744 net.cpp:406] first_conv_top_first_relu_0_split <- first_conv_top
I0323 02:21:05.302757 131744 net.cpp:380] first_conv_top_first_relu_0_split -> first_conv_top_first_relu_0_split_0
I0323 02:21:05.302769 131744 net.cpp:380] first_conv_top_first_relu_0_split -> first_conv_top_first_relu_0_split_1
I0323 02:21:05.302815 131744 net.cpp:122] Setting up first_conv_top_first_relu_0_split
I0323 02:21:05.302824 131744 net.cpp:129] Top shape: 259 16 32 32 (4243456)
I0323 02:21:05.302834 131744 net.cpp:129] Top shape: 259 16 32 32 (4243456)
I0323 02:21:05.302841 131744 net.cpp:137] Memory required for data: 105028644
I0323 02:21:05.302848 131744 layer_factory.hpp:77] Creating layer group0_block0_conv0
I0323 02:21:05.302863 131744 net.cpp:84] Creating Layer group0_block0_conv0
I0323 02:21:05.302870 131744 net.cpp:406] group0_block0_conv0 <- first_conv_top_first_relu_0_split_0
I0323 02:21:05.302881 131744 net.cpp:380] group0_block0_conv0 -> group0_block0_conv0_conv_top
I0323 02:21:05.305552 131744 net.cpp:122] Setting up group0_block0_conv0
I0323 02:21:05.305562 131744 net.cpp:129] Top shape: 259 16 32 32 (4243456)
I0323 02:21:05.305572 131744 net.cpp:137] Memory required for data: 122002468
I0323 02:21:05.305588 131744 layer_factory.hpp:77] Creating layer group0_block0_conv0_bn
I0323 02:21:05.305599 131744 net.cpp:84] Creating Layer group0_block0_conv0_bn
I0323 02:21:05.305608 131744 net.cpp:406] group0_block0_conv0_bn <- group0_block0_conv0_conv_top
I0323 02:21:05.305618 131744 net.cpp:367] group0_block0_conv0_bn -> group0_block0_conv0_conv_top (in-place)
I0323 02:21:05.305847 131744 net.cpp:122] Setting up group0_block0_conv0_bn
I0323 02:21:05.305858 131744 net.cpp:129] Top shape: 259 16 32 32 (4243456)
I0323 02:21:05.305867 131744 net.cpp:137] Memory required for data: 138976292
I0323 02:21:05.305881 131744 layer_factory.hpp:77] Creating layer group0_block0_conv0_scale
I0323 02:21:05.305891 131744 net.cpp:84] Creating Layer group0_block0_conv0_scale
I0323 02:21:05.305898 131744 net.cpp:406] group0_block0_conv0_scale <- group0_block0_conv0_conv_top
I0323 02:21:05.305907 131744 net.cpp:367] group0_block0_conv0_scale -> group0_block0_conv0_conv_top (in-place)
I0323 02:21:05.305953 131744 layer_factory.hpp:77] Creating layer group0_block0_conv0_scale
I0323 02:21:05.306089 131744 net.cpp:122] Setting up group0_block0_conv0_scale
I0323 02:21:05.306098 131744 net.cpp:129] Top shape: 259 16 32 32 (4243456)
I0323 02:21:05.306107 131744 net.cpp:137] Memory required for data: 155950116
I0323 02:21:05.306119 131744 layer_factory.hpp:77] Creating layer group0_block0_conv0_relu
I0323 02:21:05.306128 131744 net.cpp:84] Creating Layer group0_block0_conv0_relu
I0323 02:21:05.306135 131744 net.cpp:406] group0_block0_conv0_relu <- group0_block0_conv0_conv_top
I0323 02:21:05.306144 131744 net.cpp:367] group0_block0_conv0_relu -> group0_block0_conv0_conv_top (in-place)
I0323 02:21:05.306634 131744 net.cpp:122] Setting up group0_block0_conv0_relu
I0323 02:21:05.306643 131744 net.cpp:129] Top shape: 259 16 32 32 (4243456)
I0323 02:21:05.306653 131744 net.cpp:137] Memory required for data: 172923940
I0323 02:21:05.306659 131744 layer_factory.hpp:77] Creating layer group0_block0_conv1
I0323 02:21:05.306671 131744 net.cpp:84] Creating Layer group0_block0_conv1
I0323 02:21:05.306679 131744 net.cpp:406] group0_block0_conv1 <- group0_block0_conv0_conv_top
I0323 02:21:05.306689 131744 net.cpp:380] group0_block0_conv1 -> group0_block0_conv1_conv_top
I0323 02:21:05.308895 131744 net.cpp:122] Setting up group0_block0_conv1
I0323 02:21:05.308907 131744 net.cpp:129] Top shape: 259 16 32 32 (4243456)
I0323 02:21:05.308917 131744 net.cpp:137] Memory required for data: 189897764
I0323 02:21:05.308928 131744 layer_factory.hpp:77] Creating layer group0_block0_conv1_bn
I0323 02:21:05.308938 131744 net.cpp:84] Creating Layer group0_block0_conv1_bn
I0323 02:21:05.308946 131744 net.cpp:406] group0_block0_conv1_bn <- group0_block0_conv1_conv_top
I0323 02:21:05.308955 131744 net.cpp:367] group0_block0_conv1_bn -> group0_block0_conv1_conv_top (in-place)
I0323 02:21:05.309197 131744 net.cpp:122] Setting up group0_block0_conv1_bn
I0323 02:21:05.309206 131744 net.cpp:129] Top shape: 259 16 32 32 (4243456)
I0323 02:21:05.309216 131744 net.cpp:137] Memory required for data: 206871588
I0323 02:21:05.309232 131744 layer_factory.hpp:77] Creating layer group0_block0_conv1_scale
I0323 02:21:05.309243 131744 net.cpp:84] Creating Layer group0_block0_conv1_scale
I0323 02:21:05.309250 131744 net.cpp:406] group0_block0_conv1_scale <- group0_block0_conv1_conv_top
I0323 02:21:05.309260 131744 net.cpp:367] group0_block0_conv1_scale -> group0_block0_conv1_conv_top (in-place)
I0323 02:21:05.309309 131744 layer_factory.hpp:77] Creating layer group0_block0_conv1_scale
I0323 02:21:05.309448 131744 net.cpp:122] Setting up group0_block0_conv1_scale
I0323 02:21:05.309456 131744 net.cpp:129] Top shape: 259 16 32 32 (4243456)
I0323 02:21:05.309465 131744 net.cpp:137] Memory required for data: 223845412
I0323 02:21:05.309476 131744 layer_factory.hpp:77] Creating layer group0_block0_sum_eltwise
I0323 02:21:05.309489 131744 net.cpp:84] Creating Layer group0_block0_sum_eltwise
I0323 02:21:05.309496 131744 net.cpp:406] group0_block0_sum_eltwise <- group0_block0_conv1_conv_top
I0323 02:21:05.309505 131744 net.cpp:406] group0_block0_sum_eltwise <- first_conv_top_first_relu_0_split_1
I0323 02:21:05.309514 131744 net.cpp:380] group0_block0_sum_eltwise -> group0_block0_sum_eltwise_top
I0323 02:21:05.309554 131744 net.cpp:122] Setting up group0_block0_sum_eltwise
I0323 02:21:05.309562 131744 net.cpp:129] Top shape: 259 16 32 32 (4243456)
I0323 02:21:05.309571 131744 net.cpp:137] Memory required for data: 240819236
I0323 02:21:05.309581 131744 layer_factory.hpp:77] Creating layer group0_block0_sum_eltwise_top_group0_block0_sum_eltwise_0_split
I0323 02:21:05.309589 131744 net.cpp:84] Creating Layer group0_block0_sum_eltwise_top_group0_block0_sum_eltwise_0_split
I0323 02:21:05.309597 131744 net.cpp:406] group0_block0_sum_eltwise_top_group0_block0_sum_eltwise_0_split <- group0_block0_sum_eltwise_top
I0323 02:21:05.309605 131744 net.cpp:380] group0_block0_sum_eltwise_top_group0_block0_sum_eltwise_0_split -> group0_block0_sum_eltwise_top_group0_block0_sum_eltwise_0_split_0
I0323 02:21:05.309617 131744 net.cpp:380] group0_block0_sum_eltwise_top_group0_block0_sum_eltwise_0_split -> group0_block0_sum_eltwise_top_group0_block0_sum_eltwise_0_split_1
I0323 02:21:05.309660 131744 net.cpp:122] Setting up group0_block0_sum_eltwise_top_group0_block0_sum_eltwise_0_split
I0323 02:21:05.309669 131744 net.cpp:129] Top shape: 259 16 32 32 (4243456)
I0323 02:21:05.309679 131744 net.cpp:129] Top shape: 259 16 32 32 (4243456)
I0323 02:21:05.309687 131744 net.cpp:137] Memory required for data: 274766884
I0323 02:21:05.309695 131744 layer_factory.hpp:77] Creating layer group0_block1_conv0
I0323 02:21:05.309708 131744 net.cpp:84] Creating Layer group0_block1_conv0
I0323 02:21:05.309716 131744 net.cpp:406] group0_block1_conv0 <- group0_block0_sum_eltwise_top_group0_block0_sum_eltwise_0_split_0
I0323 02:21:05.309726 131744 net.cpp:380] group0_block1_conv0 -> group0_block1_conv0_conv_top
I0323 02:21:05.311939 131744 net.cpp:122] Setting up group0_block1_conv0
I0323 02:21:05.311949 131744 net.cpp:129] Top shape: 259 16 32 32 (4243456)
I0323 02:21:05.311959 131744 net.cpp:137] Memory required for data: 291740708
I0323 02:21:05.311970 131744 layer_factory.hpp:77] Creating layer group0_block1_conv0_bn
I0323 02:21:05.311980 131744 net.cpp:84] Creating Layer group0_block1_conv0_bn
I0323 02:21:05.311987 131744 net.cpp:406] group0_block1_conv0_bn <- group0_block1_conv0_conv_top
I0323 02:21:05.311997 131744 net.cpp:367] group0_block1_conv0_bn -> group0_block1_conv0_conv_top (in-place)
I0323 02:21:05.312237 131744 net.cpp:122] Setting up group0_block1_conv0_bn
I0323 02:21:05.312245 131744 net.cpp:129] Top shape: 259 16 32 32 (4243456)
I0323 02:21:05.312255 131744 net.cpp:137] Memory required for data: 308714532
I0323 02:21:05.312268 131744 layer_factory.hpp:77] Creating layer group0_block1_conv0_scale
I0323 02:21:05.312278 131744 net.cpp:84] Creating Layer group0_block1_conv0_scale
I0323 02:21:05.312285 131744 net.cpp:406] group0_block1_conv0_scale <- group0_block1_conv0_conv_top
I0323 02:21:05.312294 131744 net.cpp:367] group0_block1_conv0_scale -> group0_block1_conv0_conv_top (in-place)
I0323 02:21:05.312342 131744 layer_factory.hpp:77] Creating layer group0_block1_conv0_scale
I0323 02:21:05.312479 131744 net.cpp:122] Setting up group0_block1_conv0_scale
I0323 02:21:05.312489 131744 net.cpp:129] Top shape: 259 16 32 32 (4243456)
I0323 02:21:05.312497 131744 net.cpp:137] Memory required for data: 325688356
I0323 02:21:05.312510 131744 layer_factory.hpp:77] Creating layer group0_block1_conv0_relu
I0323 02:21:05.312518 131744 net.cpp:84] Creating Layer group0_block1_conv0_relu
I0323 02:21:05.312525 131744 net.cpp:406] group0_block1_conv0_relu <- group0_block1_conv0_conv_top
I0323 02:21:05.312535 131744 net.cpp:367] group0_block1_conv0_relu -> group0_block1_conv0_conv_top (in-place)
I0323 02:21:05.313442 131744 net.cpp:122] Setting up group0_block1_conv0_relu
I0323 02:21:05.313452 131744 net.cpp:129] Top shape: 259 16 32 32 (4243456)
I0323 02:21:05.313462 131744 net.cpp:137] Memory required for data: 342662180
I0323 02:21:05.313468 131744 layer_factory.hpp:77] Creating layer group0_block1_conv1
I0323 02:21:05.313482 131744 net.cpp:84] Creating Layer group0_block1_conv1
I0323 02:21:05.313488 131744 net.cpp:406] group0_block1_conv1 <- group0_block1_conv0_conv_top
I0323 02:21:05.313499 131744 net.cpp:380] group0_block1_conv1 -> group0_block1_conv1_conv_top
I0323 02:21:05.315696 131744 net.cpp:122] Setting up group0_block1_conv1
I0323 02:21:05.315706 131744 net.cpp:129] Top shape: 259 16 32 32 (4243456)
I0323 02:21:05.315718 131744 net.cpp:137] Memory required for data: 359636004
I0323 02:21:05.315731 131744 layer_factory.hpp:77] Creating layer group0_block1_conv1_bn
I0323 02:21:05.315740 131744 net.cpp:84] Creating Layer group0_block1_conv1_bn
I0323 02:21:05.315747 131744 net.cpp:406] group0_block1_conv1_bn <- group0_block1_conv1_conv_top
I0323 02:21:05.315757 131744 net.cpp:367] group0_block1_conv1_bn -> group0_block1_conv1_conv_top (in-place)
I0323 02:21:05.315992 131744 net.cpp:122] Setting up group0_block1_conv1_bn
I0323 02:21:05.316001 131744 net.cpp:129] Top shape: 259 16 32 32 (4243456)
I0323 02:21:05.316011 131744 net.cpp:137] Memory required for data: 376609828
I0323 02:21:05.316030 131744 layer_factory.hpp:77] Creating layer group0_block1_conv1_scale
I0323 02:21:05.316040 131744 net.cpp:84] Creating Layer group0_block1_conv1_scale
I0323 02:21:05.316048 131744 net.cpp:406] group0_block1_conv1_scale <- group0_block1_conv1_conv_top
I0323 02:21:05.316057 131744 net.cpp:367] group0_block1_conv1_scale -> group0_block1_conv1_conv_top (in-place)
I0323 02:21:05.316105 131744 layer_factory.hpp:77] Creating layer group0_block1_conv1_scale
I0323 02:21:05.316251 131744 net.cpp:122] Setting up group0_block1_conv1_scale
I0323 02:21:05.316259 131744 net.cpp:129] Top shape: 259 16 32 32 (4243456)
I0323 02:21:05.316268 131744 net.cpp:137] Memory required for data: 393583652
I0323 02:21:05.316280 131744 layer_factory.hpp:77] Creating layer group0_block1_sum_eltwise
I0323 02:21:05.316289 131744 net.cpp:84] Creating Layer group0_block1_sum_eltwise
I0323 02:21:05.316298 131744 net.cpp:406] group0_block1_sum_eltwise <- group0_block1_conv1_conv_top
I0323 02:21:05.316305 131744 net.cpp:406] group0_block1_sum_eltwise <- group0_block0_sum_eltwise_top_group0_block0_sum_eltwise_0_split_1
I0323 02:21:05.316315 131744 net.cpp:380] group0_block1_sum_eltwise -> group0_block1_sum_eltwise_top
I0323 02:21:05.316345 131744 net.cpp:122] Setting up group0_block1_sum_eltwise
I0323 02:21:05.316354 131744 net.cpp:129] Top shape: 259 16 32 32 (4243456)
I0323 02:21:05.316364 131744 net.cpp:137] Memory required for data: 410557476
I0323 02:21:05.316370 131744 layer_factory.hpp:77] Creating layer group0_block1_sum_eltwise_top_group0_block1_sum_eltwise_0_split
I0323 02:21:05.316380 131744 net.cpp:84] Creating Layer group0_block1_sum_eltwise_top_group0_block1_sum_eltwise_0_split
I0323 02:21:05.316386 131744 net.cpp:406] group0_block1_sum_eltwise_top_group0_block1_sum_eltwise_0_split <- group0_block1_sum_eltwise_top
I0323 02:21:05.316395 131744 net.cpp:380] group0_block1_sum_eltwise_top_group0_block1_sum_eltwise_0_split -> group0_block1_sum_eltwise_top_group0_block1_sum_eltwise_0_split_0
I0323 02:21:05.316406 131744 net.cpp:380] group0_block1_sum_eltwise_top_group0_block1_sum_eltwise_0_split -> group0_block1_sum_eltwise_top_group0_block1_sum_eltwise_0_split_1
I0323 02:21:05.316453 131744 net.cpp:122] Setting up group0_block1_sum_eltwise_top_group0_block1_sum_eltwise_0_split
I0323 02:21:05.316462 131744 net.cpp:129] Top shape: 259 16 32 32 (4243456)
I0323 02:21:05.316471 131744 net.cpp:129] Top shape: 259 16 32 32 (4243456)
I0323 02:21:05.316480 131744 net.cpp:137] Memory required for data: 444505124
I0323 02:21:05.316488 131744 layer_factory.hpp:77] Creating layer group0_block2_conv0
I0323 02:21:05.316499 131744 net.cpp:84] Creating Layer group0_block2_conv0
I0323 02:21:05.316507 131744 net.cpp:406] group0_block2_conv0 <- group0_block1_sum_eltwise_top_group0_block1_sum_eltwise_0_split_0
I0323 02:21:05.316519 131744 net.cpp:380] group0_block2_conv0 -> group0_block2_conv0_conv_top
I0323 02:21:05.318720 131744 net.cpp:122] Setting up group0_block2_conv0
I0323 02:21:05.318730 131744 net.cpp:129] Top shape: 259 16 32 32 (4243456)
I0323 02:21:05.318740 131744 net.cpp:137] Memory required for data: 461478948
I0323 02:21:05.318753 131744 layer_factory.hpp:77] Creating layer group0_block2_conv0_bn
I0323 02:21:05.318763 131744 net.cpp:84] Creating Layer group0_block2_conv0_bn
I0323 02:21:05.318770 131744 net.cpp:406] group0_block2_conv0_bn <- group0_block2_conv0_conv_top
I0323 02:21:05.318781 131744 net.cpp:367] group0_block2_conv0_bn -> group0_block2_conv0_conv_top (in-place)
I0323 02:21:05.319021 131744 net.cpp:122] Setting up group0_block2_conv0_bn
I0323 02:21:05.319030 131744 net.cpp:129] Top shape: 259 16 32 32 (4243456)
I0323 02:21:05.319039 131744 net.cpp:137] Memory required for data: 478452772
I0323 02:21:05.319052 131744 layer_factory.hpp:77] Creating layer group0_block2_conv0_scale
I0323 02:21:05.319061 131744 net.cpp:84] Creating Layer group0_block2_conv0_scale
I0323 02:21:05.319069 131744 net.cpp:406] group0_block2_conv0_scale <- group0_block2_conv0_conv_top
I0323 02:21:05.319078 131744 net.cpp:367] group0_block2_conv0_scale -> group0_block2_conv0_conv_top (in-place)
I0323 02:21:05.319126 131744 layer_factory.hpp:77] Creating layer group0_block2_conv0_scale
I0323 02:21:05.319272 131744 net.cpp:122] Setting up group0_block2_conv0_scale
I0323 02:21:05.319280 131744 net.cpp:129] Top shape: 259 16 32 32 (4243456)
I0323 02:21:05.319289 131744 net.cpp:137] Memory required for data: 495426596
I0323 02:21:05.319301 131744 layer_factory.hpp:77] Creating layer group0_block2_conv0_relu
I0323 02:21:05.319310 131744 net.cpp:84] Creating Layer group0_block2_conv0_relu
I0323 02:21:05.319317 131744 net.cpp:406] group0_block2_conv0_relu <- group0_block2_conv0_conv_top
I0323 02:21:05.319326 131744 net.cpp:367] group0_block2_conv0_relu -> group0_block2_conv0_conv_top (in-place)
I0323 02:21:05.319802 131744 net.cpp:122] Setting up group0_block2_conv0_relu
I0323 02:21:05.319810 131744 net.cpp:129] Top shape: 259 16 32 32 (4243456)
I0323 02:21:05.319820 131744 net.cpp:137] Memory required for data: 512400420
I0323 02:21:05.319828 131744 layer_factory.hpp:77] Creating layer group0_block2_conv1
I0323 02:21:05.319839 131744 net.cpp:84] Creating Layer group0_block2_conv1
I0323 02:21:05.319846 131744 net.cpp:406] group0_block2_conv1 <- group0_block2_conv0_conv_top
I0323 02:21:05.319857 131744 net.cpp:380] group0_block2_conv1 -> group0_block2_conv1_conv_top
I0323 02:21:05.322083 131744 net.cpp:122] Setting up group0_block2_conv1
I0323 02:21:05.322093 131744 net.cpp:129] Top shape: 259 16 32 32 (4243456)
I0323 02:21:05.322104 131744 net.cpp:137] Memory required for data: 529374244
I0323 02:21:05.322116 131744 layer_factory.hpp:77] Creating layer group0_block2_conv1_bn
I0323 02:21:05.322126 131744 net.cpp:84] Creating Layer group0_block2_conv1_bn
I0323 02:21:05.322134 131744 net.cpp:406] group0_block2_conv1_bn <- group0_block2_conv1_conv_top
I0323 02:21:05.322144 131744 net.cpp:367] group0_block2_conv1_bn -> group0_block2_conv1_conv_top (in-place)
I0323 02:21:05.322383 131744 net.cpp:122] Setting up group0_block2_conv1_bn
I0323 02:21:05.322392 131744 net.cpp:129] Top shape: 259 16 32 32 (4243456)
I0323 02:21:05.322402 131744 net.cpp:137] Memory required for data: 546348068
I0323 02:21:05.322414 131744 layer_factory.hpp:77] Creating layer group0_block2_conv1_scale
I0323 02:21:05.322424 131744 net.cpp:84] Creating Layer group0_block2_conv1_scale
I0323 02:21:05.322432 131744 net.cpp:406] group0_block2_conv1_scale <- group0_block2_conv1_conv_top
I0323 02:21:05.322440 131744 net.cpp:367] group0_block2_conv1_scale -> group0_block2_conv1_conv_top (in-place)
I0323 02:21:05.322487 131744 layer_factory.hpp:77] Creating layer group0_block2_conv1_scale
I0323 02:21:05.322628 131744 net.cpp:122] Setting up group0_block2_conv1_scale
I0323 02:21:05.322638 131744 net.cpp:129] Top shape: 259 16 32 32 (4243456)
I0323 02:21:05.322648 131744 net.cpp:137] Memory required for data: 563321892
I0323 02:21:05.322659 131744 layer_factory.hpp:77] Creating layer group0_block2_sum_eltwise
I0323 02:21:05.322672 131744 net.cpp:84] Creating Layer group0_block2_sum_eltwise
I0323 02:21:05.322679 131744 net.cpp:406] group0_block2_sum_eltwise <- group0_block2_conv1_conv_top
I0323 02:21:05.322688 131744 net.cpp:406] group0_block2_sum_eltwise <- group0_block1_sum_eltwise_top_group0_block1_sum_eltwise_0_split_1
I0323 02:21:05.322697 131744 net.cpp:380] group0_block2_sum_eltwise -> group0_block2_sum_eltwise_top
I0323 02:21:05.322728 131744 net.cpp:122] Setting up group0_block2_sum_eltwise
I0323 02:21:05.322737 131744 net.cpp:129] Top shape: 259 16 32 32 (4243456)
I0323 02:21:05.322746 131744 net.cpp:137] Memory required for data: 580295716
I0323 02:21:05.322753 131744 layer_factory.hpp:77] Creating layer group0_block2_sum_eltwise_top_group0_block2_sum_eltwise_0_split
I0323 02:21:05.322762 131744 net.cpp:84] Creating Layer group0_block2_sum_eltwise_top_group0_block2_sum_eltwise_0_split
I0323 02:21:05.322769 131744 net.cpp:406] group0_block2_sum_eltwise_top_group0_block2_sum_eltwise_0_split <- group0_block2_sum_eltwise_top
I0323 02:21:05.322778 131744 net.cpp:380] group0_block2_sum_eltwise_top_group0_block2_sum_eltwise_0_split -> group0_block2_sum_eltwise_top_group0_block2_sum_eltwise_0_split_0
I0323 02:21:05.322789 131744 net.cpp:380] group0_block2_sum_eltwise_top_group0_block2_sum_eltwise_0_split -> group0_block2_sum_eltwise_top_group0_block2_sum_eltwise_0_split_1
I0323 02:21:05.322834 131744 net.cpp:122] Setting up group0_block2_sum_eltwise_top_group0_block2_sum_eltwise_0_split
I0323 02:21:05.322842 131744 net.cpp:129] Top shape: 259 16 32 32 (4243456)
I0323 02:21:05.322851 131744 net.cpp:129] Top shape: 259 16 32 32 (4243456)
I0323 02:21:05.322860 131744 net.cpp:137] Memory required for data: 614243364
I0323 02:21:05.322866 131744 layer_factory.hpp:77] Creating layer group0_block3_conv0
I0323 02:21:05.322878 131744 net.cpp:84] Creating Layer group0_block3_conv0
I0323 02:21:05.322886 131744 net.cpp:406] group0_block3_conv0 <- group0_block2_sum_eltwise_top_group0_block2_sum_eltwise_0_split_0
I0323 02:21:05.322896 131744 net.cpp:380] group0_block3_conv0 -> group0_block3_conv0_conv_top
I0323 02:21:05.325134 131744 net.cpp:122] Setting up group0_block3_conv0
I0323 02:21:05.325145 131744 net.cpp:129] Top shape: 259 16 32 32 (4243456)
I0323 02:21:05.325155 131744 net.cpp:137] Memory required for data: 631217188
I0323 02:21:05.325167 131744 layer_factory.hpp:77] Creating layer group0_block3_conv0_bn
I0323 02:21:05.325177 131744 net.cpp:84] Creating Layer group0_block3_conv0_bn
I0323 02:21:05.325184 131744 net.cpp:406] group0_block3_conv0_bn <- group0_block3_conv0_conv_top
I0323 02:21:05.325194 131744 net.cpp:367] group0_block3_conv0_bn -> group0_block3_conv0_conv_top (in-place)
I0323 02:21:05.325431 131744 net.cpp:122] Setting up group0_block3_conv0_bn
I0323 02:21:05.325440 131744 net.cpp:129] Top shape: 259 16 32 32 (4243456)
I0323 02:21:05.325449 131744 net.cpp:137] Memory required for data: 648191012
I0323 02:21:05.325462 131744 layer_factory.hpp:77] Creating layer group0_block3_conv0_scale
I0323 02:21:05.325472 131744 net.cpp:84] Creating Layer group0_block3_conv0_scale
I0323 02:21:05.325480 131744 net.cpp:406] group0_block3_conv0_scale <- group0_block3_conv0_conv_top
I0323 02:21:05.325489 131744 net.cpp:367] group0_block3_conv0_scale -> group0_block3_conv0_conv_top (in-place)
I0323 02:21:05.325536 131744 layer_factory.hpp:77] Creating layer group0_block3_conv0_scale
I0323 02:21:05.325677 131744 net.cpp:122] Setting up group0_block3_conv0_scale
I0323 02:21:05.325686 131744 net.cpp:129] Top shape: 259 16 32 32 (4243456)
I0323 02:21:05.325695 131744 net.cpp:137] Memory required for data: 665164836
I0323 02:21:05.325707 131744 layer_factory.hpp:77] Creating layer group0_block3_conv0_relu
I0323 02:21:05.325716 131744 net.cpp:84] Creating Layer group0_block3_conv0_relu
I0323 02:21:05.325723 131744 net.cpp:406] group0_block3_conv0_relu <- group0_block3_conv0_conv_top
I0323 02:21:05.325732 131744 net.cpp:367] group0_block3_conv0_relu -> group0_block3_conv0_conv_top (in-place)
I0323 02:21:05.326213 131744 net.cpp:122] Setting up group0_block3_conv0_relu
I0323 02:21:05.326222 131744 net.cpp:129] Top shape: 259 16 32 32 (4243456)
I0323 02:21:05.326231 131744 net.cpp:137] Memory required for data: 682138660
I0323 02:21:05.326238 131744 layer_factory.hpp:77] Creating layer group0_block3_conv1
I0323 02:21:05.326251 131744 net.cpp:84] Creating Layer group0_block3_conv1
I0323 02:21:05.326258 131744 net.cpp:406] group0_block3_conv1 <- group0_block3_conv0_conv_top
I0323 02:21:05.326270 131744 net.cpp:380] group0_block3_conv1 -> group0_block3_conv1_conv_top
I0323 02:21:05.328517 131744 net.cpp:122] Setting up group0_block3_conv1
I0323 02:21:05.328527 131744 net.cpp:129] Top shape: 259 16 32 32 (4243456)
I0323 02:21:05.328537 131744 net.cpp:137] Memory required for data: 699112484
I0323 02:21:05.328550 131744 layer_factory.hpp:77] Creating layer group0_block3_conv1_bn
I0323 02:21:05.328560 131744 net.cpp:84] Creating Layer group0_block3_conv1_bn
I0323 02:21:05.328567 131744 net.cpp:406] group0_block3_conv1_bn <- group0_block3_conv1_conv_top
I0323 02:21:05.328577 131744 net.cpp:367] group0_block3_conv1_bn -> group0_block3_conv1_conv_top (in-place)
I0323 02:21:05.328814 131744 net.cpp:122] Setting up group0_block3_conv1_bn
I0323 02:21:05.328824 131744 net.cpp:129] Top shape: 259 16 32 32 (4243456)
I0323 02:21:05.328832 131744 net.cpp:137] Memory required for data: 716086308
I0323 02:21:05.328845 131744 layer_factory.hpp:77] Creating layer group0_block3_conv1_scale
I0323 02:21:05.328855 131744 net.cpp:84] Creating Layer group0_block3_conv1_scale
I0323 02:21:05.328863 131744 net.cpp:406] group0_block3_conv1_scale <- group0_block3_conv1_conv_top
I0323 02:21:05.328872 131744 net.cpp:367] group0_block3_conv1_scale -> group0_block3_conv1_conv_top (in-place)
I0323 02:21:05.328920 131744 layer_factory.hpp:77] Creating layer group0_block3_conv1_scale
I0323 02:21:05.329068 131744 net.cpp:122] Setting up group0_block3_conv1_scale
I0323 02:21:05.329077 131744 net.cpp:129] Top shape: 259 16 32 32 (4243456)
I0323 02:21:05.329087 131744 net.cpp:137] Memory required for data: 733060132
I0323 02:21:05.329098 131744 layer_factory.hpp:77] Creating layer group0_block3_sum_eltwise
I0323 02:21:05.329108 131744 net.cpp:84] Creating Layer group0_block3_sum_eltwise
I0323 02:21:05.329115 131744 net.cpp:406] group0_block3_sum_eltwise <- group0_block3_conv1_conv_top
I0323 02:21:05.329123 131744 net.cpp:406] group0_block3_sum_eltwise <- group0_block2_sum_eltwise_top_group0_block2_sum_eltwise_0_split_1
I0323 02:21:05.329133 131744 net.cpp:380] group0_block3_sum_eltwise -> group0_block3_sum_eltwise_top
I0323 02:21:05.329162 131744 net.cpp:122] Setting up group0_block3_sum_eltwise
I0323 02:21:05.329170 131744 net.cpp:129] Top shape: 259 16 32 32 (4243456)
I0323 02:21:05.329180 131744 net.cpp:137] Memory required for data: 750033956
I0323 02:21:05.329187 131744 layer_factory.hpp:77] Creating layer group0_block3_sum_eltwise_top_group0_block3_sum_eltwise_0_split
I0323 02:21:05.329196 131744 net.cpp:84] Creating Layer group0_block3_sum_eltwise_top_group0_block3_sum_eltwise_0_split
I0323 02:21:05.329203 131744 net.cpp:406] group0_block3_sum_eltwise_top_group0_block3_sum_eltwise_0_split <- group0_block3_sum_eltwise_top
I0323 02:21:05.329212 131744 net.cpp:380] group0_block3_sum_eltwise_top_group0_block3_sum_eltwise_0_split -> group0_block3_sum_eltwise_top_group0_block3_sum_eltwise_0_split_0
I0323 02:21:05.329223 131744 net.cpp:380] group0_block3_sum_eltwise_top_group0_block3_sum_eltwise_0_split -> group0_block3_sum_eltwise_top_group0_block3_sum_eltwise_0_split_1
I0323 02:21:05.329268 131744 net.cpp:122] Setting up group0_block3_sum_eltwise_top_group0_block3_sum_eltwise_0_split
I0323 02:21:05.329277 131744 net.cpp:129] Top shape: 259 16 32 32 (4243456)
I0323 02:21:05.329285 131744 net.cpp:129] Top shape: 259 16 32 32 (4243456)
I0323 02:21:05.329294 131744 net.cpp:137] Memory required for data: 783981604
I0323 02:21:05.329301 131744 layer_factory.hpp:77] Creating layer group0_block4_conv0
I0323 02:21:05.329313 131744 net.cpp:84] Creating Layer group0_block4_conv0
I0323 02:21:05.329320 131744 net.cpp:406] group0_block4_conv0 <- group0_block3_sum_eltwise_top_group0_block3_sum_eltwise_0_split_0
I0323 02:21:05.329330 131744 net.cpp:380] group0_block4_conv0 -> group0_block4_conv0_conv_top
I0323 02:21:05.331557 131744 net.cpp:122] Setting up group0_block4_conv0
I0323 02:21:05.331568 131744 net.cpp:129] Top shape: 259 16 32 32 (4243456)
I0323 02:21:05.331578 131744 net.cpp:137] Memory required for data: 800955428
I0323 02:21:05.331604 131744 layer_factory.hpp:77] Creating layer group0_block4_conv0_bn
I0323 02:21:05.331614 131744 net.cpp:84] Creating Layer group0_block4_conv0_bn
I0323 02:21:05.331621 131744 net.cpp:406] group0_block4_conv0_bn <- group0_block4_conv0_conv_top
I0323 02:21:05.331632 131744 net.cpp:367] group0_block4_conv0_bn -> group0_block4_conv0_conv_top (in-place)
I0323 02:21:05.331878 131744 net.cpp:122] Setting up group0_block4_conv0_bn
I0323 02:21:05.331888 131744 net.cpp:129] Top shape: 259 16 32 32 (4243456)
I0323 02:21:05.331897 131744 net.cpp:137] Memory required for data: 817929252
I0323 02:21:05.331912 131744 layer_factory.hpp:77] Creating layer group0_block4_conv0_scale
I0323 02:21:05.331920 131744 net.cpp:84] Creating Layer group0_block4_conv0_scale
I0323 02:21:05.331928 131744 net.cpp:406] group0_block4_conv0_scale <- group0_block4_conv0_conv_top
I0323 02:21:05.331938 131744 net.cpp:367] group0_block4_conv0_scale -> group0_block4_conv0_conv_top (in-place)
I0323 02:21:05.331985 131744 layer_factory.hpp:77] Creating layer group0_block4_conv0_scale
I0323 02:21:05.332126 131744 net.cpp:122] Setting up group0_block4_conv0_scale
I0323 02:21:05.332135 131744 net.cpp:129] Top shape: 259 16 32 32 (4243456)
I0323 02:21:05.332144 131744 net.cpp:137] Memory required for data: 834903076
I0323 02:21:05.332156 131744 layer_factory.hpp:77] Creating layer group0_block4_conv0_relu
I0323 02:21:05.332165 131744 net.cpp:84] Creating Layer group0_block4_conv0_relu
I0323 02:21:05.332172 131744 net.cpp:406] group0_block4_conv0_relu <- group0_block4_conv0_conv_top
I0323 02:21:05.332181 131744 net.cpp:367] group0_block4_conv0_relu -> group0_block4_conv0_conv_top (in-place)
I0323 02:21:05.333086 131744 net.cpp:122] Setting up group0_block4_conv0_relu
I0323 02:21:05.333094 131744 net.cpp:129] Top shape: 259 16 32 32 (4243456)
I0323 02:21:05.333104 131744 net.cpp:137] Memory required for data: 851876900
I0323 02:21:05.333112 131744 layer_factory.hpp:77] Creating layer group0_block4_conv1
I0323 02:21:05.333124 131744 net.cpp:84] Creating Layer group0_block4_conv1
I0323 02:21:05.333132 131744 net.cpp:406] group0_block4_conv1 <- group0_block4_conv0_conv_top
I0323 02:21:05.333142 131744 net.cpp:380] group0_block4_conv1 -> group0_block4_conv1_conv_top
I0323 02:21:05.335392 131744 net.cpp:122] Setting up group0_block4_conv1
I0323 02:21:05.335403 131744 net.cpp:129] Top shape: 259 16 32 32 (4243456)
I0323 02:21:05.335413 131744 net.cpp:137] Memory required for data: 868850724
I0323 02:21:05.335425 131744 layer_factory.hpp:77] Creating layer group0_block4_conv1_bn
I0323 02:21:05.335435 131744 net.cpp:84] Creating Layer group0_block4_conv1_bn
I0323 02:21:05.335443 131744 net.cpp:406] group0_block4_conv1_bn <- group0_block4_conv1_conv_top
I0323 02:21:05.335453 131744 net.cpp:367] group0_block4_conv1_bn -> group0_block4_conv1_conv_top (in-place)
I0323 02:21:05.335695 131744 net.cpp:122] Setting up group0_block4_conv1_bn
I0323 02:21:05.335705 131744 net.cpp:129] Top shape: 259 16 32 32 (4243456)
I0323 02:21:05.335714 131744 net.cpp:137] Memory required for data: 885824548
I0323 02:21:05.335727 131744 layer_factory.hpp:77] Creating layer group0_block4_conv1_scale
I0323 02:21:05.335736 131744 net.cpp:84] Creating Layer group0_block4_conv1_scale
I0323 02:21:05.335744 131744 net.cpp:406] group0_block4_conv1_scale <- group0_block4_conv1_conv_top
I0323 02:21:05.335753 131744 net.cpp:367] group0_block4_conv1_scale -> group0_block4_conv1_conv_top (in-place)
I0323 02:21:05.335801 131744 layer_factory.hpp:77] Creating layer group0_block4_conv1_scale
I0323 02:21:05.335943 131744 net.cpp:122] Setting up group0_block4_conv1_scale
I0323 02:21:05.335952 131744 net.cpp:129] Top shape: 259 16 32 32 (4243456)
I0323 02:21:05.335961 131744 net.cpp:137] Memory required for data: 902798372
I0323 02:21:05.335973 131744 layer_factory.hpp:77] Creating layer group0_block4_sum_eltwise
I0323 02:21:05.335983 131744 net.cpp:84] Creating Layer group0_block4_sum_eltwise
I0323 02:21:05.335989 131744 net.cpp:406] group0_block4_sum_eltwise <- group0_block4_conv1_conv_top
I0323 02:21:05.336019 131744 net.cpp:406] group0_block4_sum_eltwise <- group0_block3_sum_eltwise_top_group0_block3_sum_eltwise_0_split_1
I0323 02:21:05.336030 131744 net.cpp:380] group0_block4_sum_eltwise -> group0_block4_sum_eltwise_top
I0323 02:21:05.336061 131744 net.cpp:122] Setting up group0_block4_sum_eltwise
I0323 02:21:05.336068 131744 net.cpp:129] Top shape: 259 16 32 32 (4243456)
I0323 02:21:05.336077 131744 net.cpp:137] Memory required for data: 919772196
I0323 02:21:05.336084 131744 layer_factory.hpp:77] Creating layer group0_block4_sum_eltwise_top_group0_block4_sum_eltwise_0_split
I0323 02:21:05.336093 131744 net.cpp:84] Creating Layer group0_block4_sum_eltwise_top_group0_block4_sum_eltwise_0_split
I0323 02:21:05.336100 131744 net.cpp:406] group0_block4_sum_eltwise_top_group0_block4_sum_eltwise_0_split <- group0_block4_sum_eltwise_top
I0323 02:21:05.336110 131744 net.cpp:380] group0_block4_sum_eltwise_top_group0_block4_sum_eltwise_0_split -> group0_block4_sum_eltwise_top_group0_block4_sum_eltwise_0_split_0
I0323 02:21:05.336120 131744 net.cpp:380] group0_block4_sum_eltwise_top_group0_block4_sum_eltwise_0_split -> group0_block4_sum_eltwise_top_group0_block4_sum_eltwise_0_split_1
I0323 02:21:05.336165 131744 net.cpp:122] Setting up group0_block4_sum_eltwise_top_group0_block4_sum_eltwise_0_split
I0323 02:21:05.336174 131744 net.cpp:129] Top shape: 259 16 32 32 (4243456)
I0323 02:21:05.336182 131744 net.cpp:129] Top shape: 259 16 32 32 (4243456)
I0323 02:21:05.336191 131744 net.cpp:137] Memory required for data: 953719844
I0323 02:21:05.336199 131744 layer_factory.hpp:77] Creating layer group0_block5_conv0
I0323 02:21:05.336210 131744 net.cpp:84] Creating Layer group0_block5_conv0
I0323 02:21:05.336217 131744 net.cpp:406] group0_block5_conv0 <- group0_block4_sum_eltwise_top_group0_block4_sum_eltwise_0_split_0
I0323 02:21:05.336239 131744 net.cpp:380] group0_block5_conv0 -> group0_block5_conv0_conv_top
I0323 02:21:05.338475 131744 net.cpp:122] Setting up group0_block5_conv0
I0323 02:21:05.338485 131744 net.cpp:129] Top shape: 259 16 32 32 (4243456)
I0323 02:21:05.338496 131744 net.cpp:137] Memory required for data: 970693668
I0323 02:21:05.338508 131744 layer_factory.hpp:77] Creating layer group0_block5_conv0_bn
I0323 02:21:05.338517 131744 net.cpp:84] Creating Layer group0_block5_conv0_bn
I0323 02:21:05.338526 131744 net.cpp:406] group0_block5_conv0_bn <- group0_block5_conv0_conv_top
I0323 02:21:05.338536 131744 net.cpp:367] group0_block5_conv0_bn -> group0_block5_conv0_conv_top (in-place)
I0323 02:21:05.338779 131744 net.cpp:122] Setting up group0_block5_conv0_bn
I0323 02:21:05.338788 131744 net.cpp:129] Top shape: 259 16 32 32 (4243456)
I0323 02:21:05.338798 131744 net.cpp:137] Memory required for data: 987667492
I0323 02:21:05.338811 131744 layer_factory.hpp:77] Creating layer group0_block5_conv0_scale
I0323 02:21:05.338820 131744 net.cpp:84] Creating Layer group0_block5_conv0_scale
I0323 02:21:05.338827 131744 net.cpp:406] group0_block5_conv0_scale <- group0_block5_conv0_conv_top
I0323 02:21:05.338837 131744 net.cpp:367] group0_block5_conv0_scale -> group0_block5_conv0_conv_top (in-place)
I0323 02:21:05.338886 131744 layer_factory.hpp:77] Creating layer group0_block5_conv0_scale
I0323 02:21:05.339033 131744 net.cpp:122] Setting up group0_block5_conv0_scale
I0323 02:21:05.339041 131744 net.cpp:129] Top shape: 259 16 32 32 (4243456)
I0323 02:21:05.339051 131744 net.cpp:137] Memory required for data: 1004641316
I0323 02:21:05.339062 131744 layer_factory.hpp:77] Creating layer group0_block5_conv0_relu
I0323 02:21:05.339071 131744 net.cpp:84] Creating Layer group0_block5_conv0_relu
I0323 02:21:05.339078 131744 net.cpp:406] group0_block5_conv0_relu <- group0_block5_conv0_conv_top
I0323 02:21:05.339087 131744 net.cpp:367] group0_block5_conv0_relu -> group0_block5_conv0_conv_top (in-place)
I0323 02:21:05.339568 131744 net.cpp:122] Setting up group0_block5_conv0_relu
I0323 02:21:05.339577 131744 net.cpp:129] Top shape: 259 16 32 32 (4243456)
I0323 02:21:05.339587 131744 net.cpp:137] Memory required for data: 1021615140
I0323 02:21:05.339594 131744 layer_factory.hpp:77] Creating layer group0_block5_conv1
I0323 02:21:05.339607 131744 net.cpp:84] Creating Layer group0_block5_conv1
I0323 02:21:05.339613 131744 net.cpp:406] group0_block5_conv1 <- group0_block5_conv0_conv_top
I0323 02:21:05.339624 131744 net.cpp:380] group0_block5_conv1 -> group0_block5_conv1_conv_top
I0323 02:21:05.341869 131744 net.cpp:122] Setting up group0_block5_conv1
I0323 02:21:05.341881 131744 net.cpp:129] Top shape: 259 16 32 32 (4243456)
I0323 02:21:05.341891 131744 net.cpp:137] Memory required for data: 1038588964
I0323 02:21:05.341902 131744 layer_factory.hpp:77] Creating layer group0_block5_conv1_bn
I0323 02:21:05.341912 131744 net.cpp:84] Creating Layer group0_block5_conv1_bn
I0323 02:21:05.341920 131744 net.cpp:406] group0_block5_conv1_bn <- group0_block5_conv1_conv_top
I0323 02:21:05.341930 131744 net.cpp:367] group0_block5_conv1_bn -> group0_block5_conv1_conv_top (in-place)
I0323 02:21:05.342178 131744 net.cpp:122] Setting up group0_block5_conv1_bn
I0323 02:21:05.342187 131744 net.cpp:129] Top shape: 259 16 32 32 (4243456)
I0323 02:21:05.342196 131744 net.cpp:137] Memory required for data: 1055562788
I0323 02:21:05.342209 131744 layer_factory.hpp:77] Creating layer group0_block5_conv1_scale
I0323 02:21:05.342219 131744 net.cpp:84] Creating Layer group0_block5_conv1_scale
I0323 02:21:05.342226 131744 net.cpp:406] group0_block5_conv1_scale <- group0_block5_conv1_conv_top
I0323 02:21:05.342236 131744 net.cpp:367] group0_block5_conv1_scale -> group0_block5_conv1_conv_top (in-place)
I0323 02:21:05.342284 131744 layer_factory.hpp:77] Creating layer group0_block5_conv1_scale
I0323 02:21:05.342428 131744 net.cpp:122] Setting up group0_block5_conv1_scale
I0323 02:21:05.342437 131744 net.cpp:129] Top shape: 259 16 32 32 (4243456)
I0323 02:21:05.342447 131744 net.cpp:137] Memory required for data: 1072536612
I0323 02:21:05.342458 131744 layer_factory.hpp:77] Creating layer group0_block5_sum_eltwise
I0323 02:21:05.342468 131744 net.cpp:84] Creating Layer group0_block5_sum_eltwise
I0323 02:21:05.342474 131744 net.cpp:406] group0_block5_sum_eltwise <- group0_block5_conv1_conv_top
I0323 02:21:05.342483 131744 net.cpp:406] group0_block5_sum_eltwise <- group0_block4_sum_eltwise_top_group0_block4_sum_eltwise_0_split_1
I0323 02:21:05.342492 131744 net.cpp:380] group0_block5_sum_eltwise -> group0_block5_sum_eltwise_top
I0323 02:21:05.342521 131744 net.cpp:122] Setting up group0_block5_sum_eltwise
I0323 02:21:05.342530 131744 net.cpp:129] Top shape: 259 16 32 32 (4243456)
I0323 02:21:05.342538 131744 net.cpp:137] Memory required for data: 1089510436
I0323 02:21:05.342546 131744 layer_factory.hpp:77] Creating layer group0_block5_sum_eltwise_top_group0_block5_sum_eltwise_0_split
I0323 02:21:05.342555 131744 net.cpp:84] Creating Layer group0_block5_sum_eltwise_top_group0_block5_sum_eltwise_0_split
I0323 02:21:05.342562 131744 net.cpp:406] group0_block5_sum_eltwise_top_group0_block5_sum_eltwise_0_split <- group0_block5_sum_eltwise_top
I0323 02:21:05.342571 131744 net.cpp:380] group0_block5_sum_eltwise_top_group0_block5_sum_eltwise_0_split -> group0_block5_sum_eltwise_top_group0_block5_sum_eltwise_0_split_0
I0323 02:21:05.342582 131744 net.cpp:380] group0_block5_sum_eltwise_top_group0_block5_sum_eltwise_0_split -> group0_block5_sum_eltwise_top_group0_block5_sum_eltwise_0_split_1
I0323 02:21:05.342627 131744 net.cpp:122] Setting up group0_block5_sum_eltwise_top_group0_block5_sum_eltwise_0_split
I0323 02:21:05.342635 131744 net.cpp:129] Top shape: 259 16 32 32 (4243456)
I0323 02:21:05.342644 131744 net.cpp:129] Top shape: 259 16 32 32 (4243456)
I0323 02:21:05.342653 131744 net.cpp:137] Memory required for data: 1123458084
I0323 02:21:05.342660 131744 layer_factory.hpp:77] Creating layer group0_block6_conv0
I0323 02:21:05.342671 131744 net.cpp:84] Creating Layer group0_block6_conv0
I0323 02:21:05.342679 131744 net.cpp:406] group0_block6_conv0 <- group0_block5_sum_eltwise_top_group0_block5_sum_eltwise_0_split_0
I0323 02:21:05.342689 131744 net.cpp:380] group0_block6_conv0 -> group0_block6_conv0_conv_top
I0323 02:21:05.344920 131744 net.cpp:122] Setting up group0_block6_conv0
I0323 02:21:05.344930 131744 net.cpp:129] Top shape: 259 16 32 32 (4243456)
I0323 02:21:05.344940 131744 net.cpp:137] Memory required for data: 1140431908
I0323 02:21:05.344952 131744 layer_factory.hpp:77] Creating layer group0_block6_conv0_bn
I0323 02:21:05.344962 131744 net.cpp:84] Creating Layer group0_block6_conv0_bn
I0323 02:21:05.344969 131744 net.cpp:406] group0_block6_conv0_bn <- group0_block6_conv0_conv_top
I0323 02:21:05.344980 131744 net.cpp:367] group0_block6_conv0_bn -> group0_block6_conv0_conv_top (in-place)
I0323 02:21:05.345227 131744 net.cpp:122] Setting up group0_block6_conv0_bn
I0323 02:21:05.345235 131744 net.cpp:129] Top shape: 259 16 32 32 (4243456)
I0323 02:21:05.345245 131744 net.cpp:137] Memory required for data: 1157405732
I0323 02:21:05.345258 131744 layer_factory.hpp:77] Creating layer group0_block6_conv0_scale
I0323 02:21:05.345268 131744 net.cpp:84] Creating Layer group0_block6_conv0_scale
I0323 02:21:05.345275 131744 net.cpp:406] group0_block6_conv0_scale <- group0_block6_conv0_conv_top
I0323 02:21:05.345285 131744 net.cpp:367] group0_block6_conv0_scale -> group0_block6_conv0_conv_top (in-place)
I0323 02:21:05.345333 131744 layer_factory.hpp:77] Creating layer group0_block6_conv0_scale
I0323 02:21:05.345476 131744 net.cpp:122] Setting up group0_block6_conv0_scale
I0323 02:21:05.345485 131744 net.cpp:129] Top shape: 259 16 32 32 (4243456)
I0323 02:21:05.345494 131744 net.cpp:137] Memory required for data: 1174379556
I0323 02:21:05.345505 131744 layer_factory.hpp:77] Creating layer group0_block6_conv0_relu
I0323 02:21:05.345525 131744 net.cpp:84] Creating Layer group0_block6_conv0_relu
I0323 02:21:05.345532 131744 net.cpp:406] group0_block6_conv0_relu <- group0_block6_conv0_conv_top
I0323 02:21:05.345541 131744 net.cpp:367] group0_block6_conv0_relu -> group0_block6_conv0_conv_top (in-place)
I0323 02:21:05.346017 131744 net.cpp:122] Setting up group0_block6_conv0_relu
I0323 02:21:05.346026 131744 net.cpp:129] Top shape: 259 16 32 32 (4243456)
I0323 02:21:05.346036 131744 net.cpp:137] Memory required for data: 1191353380
I0323 02:21:05.346045 131744 layer_factory.hpp:77] Creating layer group0_block6_conv1
I0323 02:21:05.346055 131744 net.cpp:84] Creating Layer group0_block6_conv1
I0323 02:21:05.346063 131744 net.cpp:406] group0_block6_conv1 <- group0_block6_conv0_conv_top
I0323 02:21:05.346073 131744 net.cpp:380] group0_block6_conv1 -> group0_block6_conv1_conv_top
I0323 02:21:05.348340 131744 net.cpp:122] Setting up group0_block6_conv1
I0323 02:21:05.348351 131744 net.cpp:129] Top shape: 259 16 32 32 (4243456)
I0323 02:21:05.348361 131744 net.cpp:137] Memory required for data: 1208327204
I0323 02:21:05.348372 131744 layer_factory.hpp:77] Creating layer group0_block6_conv1_bn
I0323 02:21:05.348382 131744 net.cpp:84] Creating Layer group0_block6_conv1_bn
I0323 02:21:05.348389 131744 net.cpp:406] group0_block6_conv1_bn <- group0_block6_conv1_conv_top
I0323 02:21:05.348399 131744 net.cpp:367] group0_block6_conv1_bn -> group0_block6_conv1_conv_top (in-place)
I0323 02:21:05.348649 131744 net.cpp:122] Setting up group0_block6_conv1_bn
I0323 02:21:05.348657 131744 net.cpp:129] Top shape: 259 16 32 32 (4243456)
I0323 02:21:05.348667 131744 net.cpp:137] Memory required for data: 1225301028
I0323 02:21:05.348680 131744 layer_factory.hpp:77] Creating layer group0_block6_conv1_scale
I0323 02:21:05.348690 131744 net.cpp:84] Creating Layer group0_block6_conv1_scale
I0323 02:21:05.348696 131744 net.cpp:406] group0_block6_conv1_scale <- group0_block6_conv1_conv_top
I0323 02:21:05.348706 131744 net.cpp:367] group0_block6_conv1_scale -> group0_block6_conv1_conv_top (in-place)
I0323 02:21:05.348755 131744 layer_factory.hpp:77] Creating layer group0_block6_conv1_scale
I0323 02:21:05.348908 131744 net.cpp:122] Setting up group0_block6_conv1_scale
I0323 02:21:05.348917 131744 net.cpp:129] Top shape: 259 16 32 32 (4243456)
I0323 02:21:05.348927 131744 net.cpp:137] Memory required for data: 1242274852
I0323 02:21:05.348938 131744 layer_factory.hpp:77] Creating layer group0_block6_sum_eltwise
I0323 02:21:05.348948 131744 net.cpp:84] Creating Layer group0_block6_sum_eltwise
I0323 02:21:05.348954 131744 net.cpp:406] group0_block6_sum_eltwise <- group0_block6_conv1_conv_top
I0323 02:21:05.348963 131744 net.cpp:406] group0_block6_sum_eltwise <- group0_block5_sum_eltwise_top_group0_block5_sum_eltwise_0_split_1
I0323 02:21:05.348973 131744 net.cpp:380] group0_block6_sum_eltwise -> group0_block6_sum_eltwise_top
I0323 02:21:05.349004 131744 net.cpp:122] Setting up group0_block6_sum_eltwise
I0323 02:21:05.349011 131744 net.cpp:129] Top shape: 259 16 32 32 (4243456)
I0323 02:21:05.349020 131744 net.cpp:137] Memory required for data: 1259248676
I0323 02:21:05.349027 131744 layer_factory.hpp:77] Creating layer group0_block6_sum_eltwise_top_group0_block6_sum_eltwise_0_split
I0323 02:21:05.349036 131744 net.cpp:84] Creating Layer group0_block6_sum_eltwise_top_group0_block6_sum_eltwise_0_split
I0323 02:21:05.349043 131744 net.cpp:406] group0_block6_sum_eltwise_top_group0_block6_sum_eltwise_0_split <- group0_block6_sum_eltwise_top
I0323 02:21:05.349053 131744 net.cpp:380] group0_block6_sum_eltwise_top_group0_block6_sum_eltwise_0_split -> group0_block6_sum_eltwise_top_group0_block6_sum_eltwise_0_split_0
I0323 02:21:05.349064 131744 net.cpp:380] group0_block6_sum_eltwise_top_group0_block6_sum_eltwise_0_split -> group0_block6_sum_eltwise_top_group0_block6_sum_eltwise_0_split_1
I0323 02:21:05.349110 131744 net.cpp:122] Setting up group0_block6_sum_eltwise_top_group0_block6_sum_eltwise_0_split
I0323 02:21:05.349118 131744 net.cpp:129] Top shape: 259 16 32 32 (4243456)
I0323 02:21:05.349128 131744 net.cpp:129] Top shape: 259 16 32 32 (4243456)
I0323 02:21:05.349136 131744 net.cpp:137] Memory required for data: 1293196324
I0323 02:21:05.349143 131744 layer_factory.hpp:77] Creating layer group0_block7_conv0
I0323 02:21:05.349155 131744 net.cpp:84] Creating Layer group0_block7_conv0
I0323 02:21:05.349164 131744 net.cpp:406] group0_block7_conv0 <- group0_block6_sum_eltwise_top_group0_block6_sum_eltwise_0_split_0
I0323 02:21:05.349174 131744 net.cpp:380] group0_block7_conv0 -> group0_block7_conv0_conv_top
I0323 02:21:05.351444 131744 net.cpp:122] Setting up group0_block7_conv0
I0323 02:21:05.351455 131744 net.cpp:129] Top shape: 259 16 32 32 (4243456)
I0323 02:21:05.351465 131744 net.cpp:137] Memory required for data: 1310170148
I0323 02:21:05.351478 131744 layer_factory.hpp:77] Creating layer group0_block7_conv0_bn
I0323 02:21:05.351487 131744 net.cpp:84] Creating Layer group0_block7_conv0_bn
I0323 02:21:05.351495 131744 net.cpp:406] group0_block7_conv0_bn <- group0_block7_conv0_conv_top
I0323 02:21:05.351505 131744 net.cpp:367] group0_block7_conv0_bn -> group0_block7_conv0_conv_top (in-place)
I0323 02:21:05.351753 131744 net.cpp:122] Setting up group0_block7_conv0_bn
I0323 02:21:05.351763 131744 net.cpp:129] Top shape: 259 16 32 32 (4243456)
I0323 02:21:05.351773 131744 net.cpp:137] Memory required for data: 1327143972
I0323 02:21:05.351785 131744 layer_factory.hpp:77] Creating layer group0_block7_conv0_scale
I0323 02:21:05.351794 131744 net.cpp:84] Creating Layer group0_block7_conv0_scale
I0323 02:21:05.351802 131744 net.cpp:406] group0_block7_conv0_scale <- group0_block7_conv0_conv_top
I0323 02:21:05.351811 131744 net.cpp:367] group0_block7_conv0_scale -> group0_block7_conv0_conv_top (in-place)
I0323 02:21:05.351861 131744 layer_factory.hpp:77] Creating layer group0_block7_conv0_scale
I0323 02:21:05.352011 131744 net.cpp:122] Setting up group0_block7_conv0_scale
I0323 02:21:05.352020 131744 net.cpp:129] Top shape: 259 16 32 32 (4243456)
I0323 02:21:05.352030 131744 net.cpp:137] Memory required for data: 1344117796
I0323 02:21:05.352041 131744 layer_factory.hpp:77] Creating layer group0_block7_conv0_relu
I0323 02:21:05.352051 131744 net.cpp:84] Creating Layer group0_block7_conv0_relu
I0323 02:21:05.352057 131744 net.cpp:406] group0_block7_conv0_relu <- group0_block7_conv0_conv_top
I0323 02:21:05.352066 131744 net.cpp:367] group0_block7_conv0_relu -> group0_block7_conv0_conv_top (in-place)
I0323 02:21:05.352550 131744 net.cpp:122] Setting up group0_block7_conv0_relu
I0323 02:21:05.352560 131744 net.cpp:129] Top shape: 259 16 32 32 (4243456)
I0323 02:21:05.352568 131744 net.cpp:137] Memory required for data: 1361091620
I0323 02:21:05.352576 131744 layer_factory.hpp:77] Creating layer group0_block7_conv1
I0323 02:21:05.352587 131744 net.cpp:84] Creating Layer group0_block7_conv1
I0323 02:21:05.352596 131744 net.cpp:406] group0_block7_conv1 <- group0_block7_conv0_conv_top
I0323 02:21:05.352605 131744 net.cpp:380] group0_block7_conv1 -> group0_block7_conv1_conv_top
I0323 02:21:05.354876 131744 net.cpp:122] Setting up group0_block7_conv1
I0323 02:21:05.354885 131744 net.cpp:129] Top shape: 259 16 32 32 (4243456)
I0323 02:21:05.354895 131744 net.cpp:137] Memory required for data: 1378065444
I0323 02:21:05.354907 131744 layer_factory.hpp:77] Creating layer group0_block7_conv1_bn
I0323 02:21:05.354918 131744 net.cpp:84] Creating Layer group0_block7_conv1_bn
I0323 02:21:05.354925 131744 net.cpp:406] group0_block7_conv1_bn <- group0_block7_conv1_conv_top
I0323 02:21:05.354934 131744 net.cpp:367] group0_block7_conv1_bn -> group0_block7_conv1_conv_top (in-place)
I0323 02:21:05.355191 131744 net.cpp:122] Setting up group0_block7_conv1_bn
I0323 02:21:05.355201 131744 net.cpp:129] Top shape: 259 16 32 32 (4243456)
I0323 02:21:05.355209 131744 net.cpp:137] Memory required for data: 1395039268
I0323 02:21:05.355222 131744 layer_factory.hpp:77] Creating layer group0_block7_conv1_scale
I0323 02:21:05.355232 131744 net.cpp:84] Creating Layer group0_block7_conv1_scale
I0323 02:21:05.355239 131744 net.cpp:406] group0_block7_conv1_scale <- group0_block7_conv1_conv_top
I0323 02:21:05.355248 131744 net.cpp:367] group0_block7_conv1_scale -> group0_block7_conv1_conv_top (in-place)
I0323 02:21:05.355299 131744 layer_factory.hpp:77] Creating layer group0_block7_conv1_scale
I0323 02:21:05.355446 131744 net.cpp:122] Setting up group0_block7_conv1_scale
I0323 02:21:05.355455 131744 net.cpp:129] Top shape: 259 16 32 32 (4243456)
I0323 02:21:05.355464 131744 net.cpp:137] Memory required for data: 1412013092
I0323 02:21:05.355476 131744 layer_factory.hpp:77] Creating layer group0_block7_sum_eltwise
I0323 02:21:05.355485 131744 net.cpp:84] Creating Layer group0_block7_sum_eltwise
I0323 02:21:05.355492 131744 net.cpp:406] group0_block7_sum_eltwise <- group0_block7_conv1_conv_top
I0323 02:21:05.355501 131744 net.cpp:406] group0_block7_sum_eltwise <- group0_block6_sum_eltwise_top_group0_block6_sum_eltwise_0_split_1
I0323 02:21:05.355510 131744 net.cpp:380] group0_block7_sum_eltwise -> group0_block7_sum_eltwise_top
I0323 02:21:05.355540 131744 net.cpp:122] Setting up group0_block7_sum_eltwise
I0323 02:21:05.355548 131744 net.cpp:129] Top shape: 259 16 32 32 (4243456)
I0323 02:21:05.355558 131744 net.cpp:137] Memory required for data: 1428986916
I0323 02:21:05.355566 131744 layer_factory.hpp:77] Creating layer group0_block7_sum_eltwise_top_group0_block7_sum_eltwise_0_split
I0323 02:21:05.355573 131744 net.cpp:84] Creating Layer group0_block7_sum_eltwise_top_group0_block7_sum_eltwise_0_split
I0323 02:21:05.355581 131744 net.cpp:406] group0_block7_sum_eltwise_top_group0_block7_sum_eltwise_0_split <- group0_block7_sum_eltwise_top
I0323 02:21:05.355590 131744 net.cpp:380] group0_block7_sum_eltwise_top_group0_block7_sum_eltwise_0_split -> group0_block7_sum_eltwise_top_group0_block7_sum_eltwise_0_split_0
I0323 02:21:05.355602 131744 net.cpp:380] group0_block7_sum_eltwise_top_group0_block7_sum_eltwise_0_split -> group0_block7_sum_eltwise_top_group0_block7_sum_eltwise_0_split_1
I0323 02:21:05.355648 131744 net.cpp:122] Setting up group0_block7_sum_eltwise_top_group0_block7_sum_eltwise_0_split
I0323 02:21:05.355655 131744 net.cpp:129] Top shape: 259 16 32 32 (4243456)
I0323 02:21:05.355664 131744 net.cpp:129] Top shape: 259 16 32 32 (4243456)
I0323 02:21:05.355674 131744 net.cpp:137] Memory required for data: 1462934564
I0323 02:21:05.355680 131744 layer_factory.hpp:77] Creating layer group0_block8_conv0
I0323 02:21:05.355692 131744 net.cpp:84] Creating Layer group0_block8_conv0
I0323 02:21:05.355700 131744 net.cpp:406] group0_block8_conv0 <- group0_block7_sum_eltwise_top_group0_block7_sum_eltwise_0_split_0
I0323 02:21:05.355710 131744 net.cpp:380] group0_block8_conv0 -> group0_block8_conv0_conv_top
I0323 02:21:05.359341 131744 net.cpp:122] Setting up group0_block8_conv0
I0323 02:21:05.359355 131744 net.cpp:129] Top shape: 259 32 16 16 (2121728)
I0323 02:21:05.359366 131744 net.cpp:137] Memory required for data: 1471421476
I0323 02:21:05.359378 131744 layer_factory.hpp:77] Creating layer group0_block8_conv0_bn
I0323 02:21:05.359390 131744 net.cpp:84] Creating Layer group0_block8_conv0_bn
I0323 02:21:05.359398 131744 net.cpp:406] group0_block8_conv0_bn <- group0_block8_conv0_conv_top
I0323 02:21:05.359408 131744 net.cpp:367] group0_block8_conv0_bn -> group0_block8_conv0_conv_top (in-place)
I0323 02:21:05.359652 131744 net.cpp:122] Setting up group0_block8_conv0_bn
I0323 02:21:05.359659 131744 net.cpp:129] Top shape: 259 32 16 16 (2121728)
I0323 02:21:05.359669 131744 net.cpp:137] Memory required for data: 1479908388
I0323 02:21:05.359683 131744 layer_factory.hpp:77] Creating layer group0_block8_conv0_scale
I0323 02:21:05.359692 131744 net.cpp:84] Creating Layer group0_block8_conv0_scale
I0323 02:21:05.359699 131744 net.cpp:406] group0_block8_conv0_scale <- group0_block8_conv0_conv_top
I0323 02:21:05.359709 131744 net.cpp:367] group0_block8_conv0_scale -> group0_block8_conv0_conv_top (in-place)
I0323 02:21:05.359760 131744 layer_factory.hpp:77] Creating layer group0_block8_conv0_scale
I0323 02:21:05.359912 131744 net.cpp:122] Setting up group0_block8_conv0_scale
I0323 02:21:05.359920 131744 net.cpp:129] Top shape: 259 32 16 16 (2121728)
I0323 02:21:05.359930 131744 net.cpp:137] Memory required for data: 1488395300
I0323 02:21:05.359941 131744 layer_factory.hpp:77] Creating layer group0_block8_conv0_relu
I0323 02:21:05.359951 131744 net.cpp:84] Creating Layer group0_block8_conv0_relu
I0323 02:21:05.359958 131744 net.cpp:406] group0_block8_conv0_relu <- group0_block8_conv0_conv_top
I0323 02:21:05.359967 131744 net.cpp:367] group0_block8_conv0_relu -> group0_block8_conv0_conv_top (in-place)
I0323 02:21:05.360918 131744 net.cpp:122] Setting up group0_block8_conv0_relu
I0323 02:21:05.360927 131744 net.cpp:129] Top shape: 259 32 16 16 (2121728)
I0323 02:21:05.360936 131744 net.cpp:137] Memory required for data: 1496882212
I0323 02:21:05.360944 131744 layer_factory.hpp:77] Creating layer group0_block8_conv1
I0323 02:21:05.360957 131744 net.cpp:84] Creating Layer group0_block8_conv1
I0323 02:21:05.360965 131744 net.cpp:406] group0_block8_conv1 <- group0_block8_conv0_conv_top
I0323 02:21:05.360975 131744 net.cpp:380] group0_block8_conv1 -> group0_block8_conv1_conv_top
I0323 02:21:05.363302 131744 net.cpp:122] Setting up group0_block8_conv1
I0323 02:21:05.363312 131744 net.cpp:129] Top shape: 259 32 16 16 (2121728)
I0323 02:21:05.363322 131744 net.cpp:137] Memory required for data: 1505369124
I0323 02:21:05.363335 131744 layer_factory.hpp:77] Creating layer group0_block8_conv1_bn
I0323 02:21:05.363345 131744 net.cpp:84] Creating Layer group0_block8_conv1_bn
I0323 02:21:05.363353 131744 net.cpp:406] group0_block8_conv1_bn <- group0_block8_conv1_conv_top
I0323 02:21:05.363363 131744 net.cpp:367] group0_block8_conv1_bn -> group0_block8_conv1_conv_top (in-place)
I0323 02:21:05.363616 131744 net.cpp:122] Setting up group0_block8_conv1_bn
I0323 02:21:05.363626 131744 net.cpp:129] Top shape: 259 32 16 16 (2121728)
I0323 02:21:05.363634 131744 net.cpp:137] Memory required for data: 1513856036
I0323 02:21:05.363679 131744 layer_factory.hpp:77] Creating layer group0_block8_conv1_scale
I0323 02:21:05.363690 131744 net.cpp:84] Creating Layer group0_block8_conv1_scale
I0323 02:21:05.363698 131744 net.cpp:406] group0_block8_conv1_scale <- group0_block8_conv1_conv_top
I0323 02:21:05.363708 131744 net.cpp:367] group0_block8_conv1_scale -> group0_block8_conv1_conv_top (in-place)
I0323 02:21:05.363759 131744 layer_factory.hpp:77] Creating layer group0_block8_conv1_scale
I0323 02:21:05.363907 131744 net.cpp:122] Setting up group0_block8_conv1_scale
I0323 02:21:05.363916 131744 net.cpp:129] Top shape: 259 32 16 16 (2121728)
I0323 02:21:05.363926 131744 net.cpp:137] Memory required for data: 1522342948
I0323 02:21:05.363937 131744 layer_factory.hpp:77] Creating layer group0_block8_proj
I0323 02:21:05.363950 131744 net.cpp:84] Creating Layer group0_block8_proj
I0323 02:21:05.363956 131744 net.cpp:406] group0_block8_proj <- group0_block7_sum_eltwise_top_group0_block7_sum_eltwise_0_split_1
I0323 02:21:05.363967 131744 net.cpp:380] group0_block8_proj -> group0_block8_proj_conv_top
I0323 02:21:05.366245 131744 net.cpp:122] Setting up group0_block8_proj
I0323 02:21:05.366255 131744 net.cpp:129] Top shape: 259 32 16 16 (2121728)
I0323 02:21:05.366264 131744 net.cpp:137] Memory required for data: 1530829860
I0323 02:21:05.366276 131744 layer_factory.hpp:77] Creating layer group0_block8_proj_bn
I0323 02:21:05.366286 131744 net.cpp:84] Creating Layer group0_block8_proj_bn
I0323 02:21:05.366294 131744 net.cpp:406] group0_block8_proj_bn <- group0_block8_proj_conv_top
I0323 02:21:05.366303 131744 net.cpp:367] group0_block8_proj_bn -> group0_block8_proj_conv_top (in-place)
I0323 02:21:05.366559 131744 net.cpp:122] Setting up group0_block8_proj_bn
I0323 02:21:05.366569 131744 net.cpp:129] Top shape: 259 32 16 16 (2121728)
I0323 02:21:05.366578 131744 net.cpp:137] Memory required for data: 1539316772
I0323 02:21:05.366591 131744 layer_factory.hpp:77] Creating layer group0_block8_proj_scale
I0323 02:21:05.366600 131744 net.cpp:84] Creating Layer group0_block8_proj_scale
I0323 02:21:05.366607 131744 net.cpp:406] group0_block8_proj_scale <- group0_block8_proj_conv_top
I0323 02:21:05.366617 131744 net.cpp:367] group0_block8_proj_scale -> group0_block8_proj_conv_top (in-place)
I0323 02:21:05.366667 131744 layer_factory.hpp:77] Creating layer group0_block8_proj_scale
I0323 02:21:05.366812 131744 net.cpp:122] Setting up group0_block8_proj_scale
I0323 02:21:05.366822 131744 net.cpp:129] Top shape: 259 32 16 16 (2121728)
I0323 02:21:05.366830 131744 net.cpp:137] Memory required for data: 1547803684
I0323 02:21:05.366842 131744 layer_factory.hpp:77] Creating layer group0_block8_sum_eltwise
I0323 02:21:05.366852 131744 net.cpp:84] Creating Layer group0_block8_sum_eltwise
I0323 02:21:05.366859 131744 net.cpp:406] group0_block8_sum_eltwise <- group0_block8_conv1_conv_top
I0323 02:21:05.366868 131744 net.cpp:406] group0_block8_sum_eltwise <- group0_block8_proj_conv_top
I0323 02:21:05.366878 131744 net.cpp:380] group0_block8_sum_eltwise -> group0_block8_sum_eltwise_top
I0323 02:21:05.366909 131744 net.cpp:122] Setting up group0_block8_sum_eltwise
I0323 02:21:05.366916 131744 net.cpp:129] Top shape: 259 32 16 16 (2121728)
I0323 02:21:05.366926 131744 net.cpp:137] Memory required for data: 1556290596
I0323 02:21:05.366933 131744 layer_factory.hpp:77] Creating layer group0_block8_sum_eltwise_top_group0_block8_sum_eltwise_0_split
I0323 02:21:05.366942 131744 net.cpp:84] Creating Layer group0_block8_sum_eltwise_top_group0_block8_sum_eltwise_0_split
I0323 02:21:05.366950 131744 net.cpp:406] group0_block8_sum_eltwise_top_group0_block8_sum_eltwise_0_split <- group0_block8_sum_eltwise_top
I0323 02:21:05.366958 131744 net.cpp:380] group0_block8_sum_eltwise_top_group0_block8_sum_eltwise_0_split -> group0_block8_sum_eltwise_top_group0_block8_sum_eltwise_0_split_0
I0323 02:21:05.366971 131744 net.cpp:380] group0_block8_sum_eltwise_top_group0_block8_sum_eltwise_0_split -> group0_block8_sum_eltwise_top_group0_block8_sum_eltwise_0_split_1
I0323 02:21:05.367017 131744 net.cpp:122] Setting up group0_block8_sum_eltwise_top_group0_block8_sum_eltwise_0_split
I0323 02:21:05.367024 131744 net.cpp:129] Top shape: 259 32 16 16 (2121728)
I0323 02:21:05.367033 131744 net.cpp:129] Top shape: 259 32 16 16 (2121728)
I0323 02:21:05.367043 131744 net.cpp:137] Memory required for data: 1573264420
I0323 02:21:05.367049 131744 layer_factory.hpp:77] Creating layer group1_block0_conv0
I0323 02:21:05.367060 131744 net.cpp:84] Creating Layer group1_block0_conv0
I0323 02:21:05.367069 131744 net.cpp:406] group1_block0_conv0 <- group0_block8_sum_eltwise_top_group0_block8_sum_eltwise_0_split_0
I0323 02:21:05.367079 131744 net.cpp:380] group1_block0_conv0 -> group1_block0_conv0_conv_top
I0323 02:21:05.369405 131744 net.cpp:122] Setting up group1_block0_conv0
I0323 02:21:05.369415 131744 net.cpp:129] Top shape: 259 32 16 16 (2121728)
I0323 02:21:05.369426 131744 net.cpp:137] Memory required for data: 1581751332
I0323 02:21:05.369437 131744 layer_factory.hpp:77] Creating layer group1_block0_conv0_bn
I0323 02:21:05.369447 131744 net.cpp:84] Creating Layer group1_block0_conv0_bn
I0323 02:21:05.369455 131744 net.cpp:406] group1_block0_conv0_bn <- group1_block0_conv0_conv_top
I0323 02:21:05.369464 131744 net.cpp:367] group1_block0_conv0_bn -> group1_block0_conv0_conv_top (in-place)
I0323 02:21:05.369729 131744 net.cpp:122] Setting up group1_block0_conv0_bn
I0323 02:21:05.369737 131744 net.cpp:129] Top shape: 259 32 16 16 (2121728)
I0323 02:21:05.369746 131744 net.cpp:137] Memory required for data: 1590238244
I0323 02:21:05.369760 131744 layer_factory.hpp:77] Creating layer group1_block0_conv0_scale
I0323 02:21:05.369770 131744 net.cpp:84] Creating Layer group1_block0_conv0_scale
I0323 02:21:05.369776 131744 net.cpp:406] group1_block0_conv0_scale <- group1_block0_conv0_conv_top
I0323 02:21:05.369786 131744 net.cpp:367] group1_block0_conv0_scale -> group1_block0_conv0_conv_top (in-place)
I0323 02:21:05.369837 131744 layer_factory.hpp:77] Creating layer group1_block0_conv0_scale
I0323 02:21:05.369982 131744 net.cpp:122] Setting up group1_block0_conv0_scale
I0323 02:21:05.369990 131744 net.cpp:129] Top shape: 259 32 16 16 (2121728)
I0323 02:21:05.369999 131744 net.cpp:137] Memory required for data: 1598725156
I0323 02:21:05.370012 131744 layer_factory.hpp:77] Creating layer group1_block0_conv0_relu
I0323 02:21:05.370020 131744 net.cpp:84] Creating Layer group1_block0_conv0_relu
I0323 02:21:05.370028 131744 net.cpp:406] group1_block0_conv0_relu <- group1_block0_conv0_conv_top
I0323 02:21:05.370036 131744 net.cpp:367] group1_block0_conv0_relu -> group1_block0_conv0_conv_top (in-place)
I0323 02:21:05.370520 131744 net.cpp:122] Setting up group1_block0_conv0_relu
I0323 02:21:05.370529 131744 net.cpp:129] Top shape: 259 32 16 16 (2121728)
I0323 02:21:05.370538 131744 net.cpp:137] Memory required for data: 1607212068
I0323 02:21:05.370546 131744 layer_factory.hpp:77] Creating layer group1_block0_conv1
I0323 02:21:05.370558 131744 net.cpp:84] Creating Layer group1_block0_conv1
I0323 02:21:05.370565 131744 net.cpp:406] group1_block0_conv1 <- group1_block0_conv0_conv_top
I0323 02:21:05.370576 131744 net.cpp:380] group1_block0_conv1 -> group1_block0_conv1_conv_top
I0323 02:21:05.373378 131744 net.cpp:122] Setting up group1_block0_conv1
I0323 02:21:05.373389 131744 net.cpp:129] Top shape: 259 32 16 16 (2121728)
I0323 02:21:05.373399 131744 net.cpp:137] Memory required for data: 1615698980
I0323 02:21:05.373411 131744 layer_factory.hpp:77] Creating layer group1_block0_conv1_bn
I0323 02:21:05.373421 131744 net.cpp:84] Creating Layer group1_block0_conv1_bn
I0323 02:21:05.373430 131744 net.cpp:406] group1_block0_conv1_bn <- group1_block0_conv1_conv_top
I0323 02:21:05.373440 131744 net.cpp:367] group1_block0_conv1_bn -> group1_block0_conv1_conv_top (in-place)
I0323 02:21:05.373694 131744 net.cpp:122] Setting up group1_block0_conv1_bn
I0323 02:21:05.373703 131744 net.cpp:129] Top shape: 259 32 16 16 (2121728)
I0323 02:21:05.373713 131744 net.cpp:137] Memory required for data: 1624185892
I0323 02:21:05.373725 131744 layer_factory.hpp:77] Creating layer group1_block0_conv1_scale
I0323 02:21:05.373735 131744 net.cpp:84] Creating Layer group1_block0_conv1_scale
I0323 02:21:05.373742 131744 net.cpp:406] group1_block0_conv1_scale <- group1_block0_conv1_conv_top
I0323 02:21:05.373751 131744 net.cpp:367] group1_block0_conv1_scale -> group1_block0_conv1_conv_top (in-place)
I0323 02:21:05.373802 131744 layer_factory.hpp:77] Creating layer group1_block0_conv1_scale
I0323 02:21:05.373952 131744 net.cpp:122] Setting up group1_block0_conv1_scale
I0323 02:21:05.373961 131744 net.cpp:129] Top shape: 259 32 16 16 (2121728)
I0323 02:21:05.373970 131744 net.cpp:137] Memory required for data: 1632672804
I0323 02:21:05.373982 131744 layer_factory.hpp:77] Creating layer group1_block0_sum_eltwise
I0323 02:21:05.373991 131744 net.cpp:84] Creating Layer group1_block0_sum_eltwise
I0323 02:21:05.373998 131744 net.cpp:406] group1_block0_sum_eltwise <- group1_block0_conv1_conv_top
I0323 02:21:05.374006 131744 net.cpp:406] group1_block0_sum_eltwise <- group0_block8_sum_eltwise_top_group0_block8_sum_eltwise_0_split_1
I0323 02:21:05.374017 131744 net.cpp:380] group1_block0_sum_eltwise -> group1_block0_sum_eltwise_top
I0323 02:21:05.374047 131744 net.cpp:122] Setting up group1_block0_sum_eltwise
I0323 02:21:05.374055 131744 net.cpp:129] Top shape: 259 32 16 16 (2121728)
I0323 02:21:05.374064 131744 net.cpp:137] Memory required for data: 1641159716
I0323 02:21:05.374071 131744 layer_factory.hpp:77] Creating layer group1_block0_sum_eltwise_top_group1_block0_sum_eltwise_0_split
I0323 02:21:05.374080 131744 net.cpp:84] Creating Layer group1_block0_sum_eltwise_top_group1_block0_sum_eltwise_0_split
I0323 02:21:05.374088 131744 net.cpp:406] group1_block0_sum_eltwise_top_group1_block0_sum_eltwise_0_split <- group1_block0_sum_eltwise_top
I0323 02:21:05.374096 131744 net.cpp:380] group1_block0_sum_eltwise_top_group1_block0_sum_eltwise_0_split -> group1_block0_sum_eltwise_top_group1_block0_sum_eltwise_0_split_0
I0323 02:21:05.374107 131744 net.cpp:380] group1_block0_sum_eltwise_top_group1_block0_sum_eltwise_0_split -> group1_block0_sum_eltwise_top_group1_block0_sum_eltwise_0_split_1
I0323 02:21:05.374153 131744 net.cpp:122] Setting up group1_block0_sum_eltwise_top_group1_block0_sum_eltwise_0_split
I0323 02:21:05.374162 131744 net.cpp:129] Top shape: 259 32 16 16 (2121728)
I0323 02:21:05.374171 131744 net.cpp:129] Top shape: 259 32 16 16 (2121728)
I0323 02:21:05.374181 131744 net.cpp:137] Memory required for data: 1658133540
I0323 02:21:05.374187 131744 layer_factory.hpp:77] Creating layer group1_block1_conv0
I0323 02:21:05.374204 131744 net.cpp:84] Creating Layer group1_block1_conv0
I0323 02:21:05.374212 131744 net.cpp:406] group1_block1_conv0 <- group1_block0_sum_eltwise_top_group1_block0_sum_eltwise_0_split_0
I0323 02:21:05.374222 131744 net.cpp:380] group1_block1_conv0 -> group1_block1_conv0_conv_top
I0323 02:21:05.376547 131744 net.cpp:122] Setting up group1_block1_conv0
I0323 02:21:05.376557 131744 net.cpp:129] Top shape: 259 32 16 16 (2121728)
I0323 02:21:05.376567 131744 net.cpp:137] Memory required for data: 1666620452
I0323 02:21:05.376579 131744 layer_factory.hpp:77] Creating layer group1_block1_conv0_bn
I0323 02:21:05.376590 131744 net.cpp:84] Creating Layer group1_block1_conv0_bn
I0323 02:21:05.376597 131744 net.cpp:406] group1_block1_conv0_bn <- group1_block1_conv0_conv_top
I0323 02:21:05.376606 131744 net.cpp:367] group1_block1_conv0_bn -> group1_block1_conv0_conv_top (in-place)
I0323 02:21:05.376858 131744 net.cpp:122] Setting up group1_block1_conv0_bn
I0323 02:21:05.376868 131744 net.cpp:129] Top shape: 259 32 16 16 (2121728)
I0323 02:21:05.376878 131744 net.cpp:137] Memory required for data: 1675107364
I0323 02:21:05.376890 131744 layer_factory.hpp:77] Creating layer group1_block1_conv0_scale
I0323 02:21:05.376899 131744 net.cpp:84] Creating Layer group1_block1_conv0_scale
I0323 02:21:05.376907 131744 net.cpp:406] group1_block1_conv0_scale <- group1_block1_conv0_conv_top
I0323 02:21:05.376916 131744 net.cpp:367] group1_block1_conv0_scale -> group1_block1_conv0_conv_top (in-place)
I0323 02:21:05.376965 131744 layer_factory.hpp:77] Creating layer group1_block1_conv0_scale
I0323 02:21:05.377115 131744 net.cpp:122] Setting up group1_block1_conv0_scale
I0323 02:21:05.377123 131744 net.cpp:129] Top shape: 259 32 16 16 (2121728)
I0323 02:21:05.377132 131744 net.cpp:137] Memory required for data: 1683594276
I0323 02:21:05.377143 131744 layer_factory.hpp:77] Creating layer group1_block1_conv0_relu
I0323 02:21:05.377152 131744 net.cpp:84] Creating Layer group1_block1_conv0_relu
I0323 02:21:05.377161 131744 net.cpp:406] group1_block1_conv0_relu <- group1_block1_conv0_conv_top
I0323 02:21:05.377169 131744 net.cpp:367] group1_block1_conv0_relu -> group1_block1_conv0_conv_top (in-place)
I0323 02:21:05.377656 131744 net.cpp:122] Setting up group1_block1_conv0_relu
I0323 02:21:05.377665 131744 net.cpp:129] Top shape: 259 32 16 16 (2121728)
I0323 02:21:05.377674 131744 net.cpp:137] Memory required for data: 1692081188
I0323 02:21:05.377681 131744 layer_factory.hpp:77] Creating layer group1_block1_conv1
I0323 02:21:05.377693 131744 net.cpp:84] Creating Layer group1_block1_conv1
I0323 02:21:05.377701 131744 net.cpp:406] group1_block1_conv1 <- group1_block1_conv0_conv_top
I0323 02:21:05.377712 131744 net.cpp:380] group1_block1_conv1 -> group1_block1_conv1_conv_top
I0323 02:21:05.380060 131744 net.cpp:122] Setting up group1_block1_conv1
I0323 02:21:05.380071 131744 net.cpp:129] Top shape: 259 32 16 16 (2121728)
I0323 02:21:05.380081 131744 net.cpp:137] Memory required for data: 1700568100
I0323 02:21:05.380093 131744 layer_factory.hpp:77] Creating layer group1_block1_conv1_bn
I0323 02:21:05.380103 131744 net.cpp:84] Creating Layer group1_block1_conv1_bn
I0323 02:21:05.380111 131744 net.cpp:406] group1_block1_conv1_bn <- group1_block1_conv1_conv_top
I0323 02:21:05.380120 131744 net.cpp:367] group1_block1_conv1_bn -> group1_block1_conv1_conv_top (in-place)
I0323 02:21:05.380381 131744 net.cpp:122] Setting up group1_block1_conv1_bn
I0323 02:21:05.380390 131744 net.cpp:129] Top shape: 259 32 16 16 (2121728)
I0323 02:21:05.380399 131744 net.cpp:137] Memory required for data: 1709055012
I0323 02:21:05.380414 131744 layer_factory.hpp:77] Creating layer group1_block1_conv1_scale
I0323 02:21:05.380422 131744 net.cpp:84] Creating Layer group1_block1_conv1_scale
I0323 02:21:05.380429 131744 net.cpp:406] group1_block1_conv1_scale <- group1_block1_conv1_conv_top
I0323 02:21:05.380439 131744 net.cpp:367] group1_block1_conv1_scale -> group1_block1_conv1_conv_top (in-place)
I0323 02:21:05.380489 131744 layer_factory.hpp:77] Creating layer group1_block1_conv1_scale
I0323 02:21:05.380637 131744 net.cpp:122] Setting up group1_block1_conv1_scale
I0323 02:21:05.380646 131744 net.cpp:129] Top shape: 259 32 16 16 (2121728)
I0323 02:21:05.380656 131744 net.cpp:137] Memory required for data: 1717541924
I0323 02:21:05.380667 131744 layer_factory.hpp:77] Creating layer group1_block1_sum_eltwise
I0323 02:21:05.380677 131744 net.cpp:84] Creating Layer group1_block1_sum_eltwise
I0323 02:21:05.380684 131744 net.cpp:406] group1_block1_sum_eltwise <- group1_block1_conv1_conv_top
I0323 02:21:05.380692 131744 net.cpp:406] group1_block1_sum_eltwise <- group1_block0_sum_eltwise_top_group1_block0_sum_eltwise_0_split_1
I0323 02:21:05.380702 131744 net.cpp:380] group1_block1_sum_eltwise -> group1_block1_sum_eltwise_top
I0323 02:21:05.380733 131744 net.cpp:122] Setting up group1_block1_sum_eltwise
I0323 02:21:05.380741 131744 net.cpp:129] Top shape: 259 32 16 16 (2121728)
I0323 02:21:05.380750 131744 net.cpp:137] Memory required for data: 1726028836
I0323 02:21:05.380758 131744 layer_factory.hpp:77] Creating layer group1_block1_sum_eltwise_top_group1_block1_sum_eltwise_0_split
I0323 02:21:05.380766 131744 net.cpp:84] Creating Layer group1_block1_sum_eltwise_top_group1_block1_sum_eltwise_0_split
I0323 02:21:05.380774 131744 net.cpp:406] group1_block1_sum_eltwise_top_group1_block1_sum_eltwise_0_split <- group1_block1_sum_eltwise_top
I0323 02:21:05.380784 131744 net.cpp:380] group1_block1_sum_eltwise_top_group1_block1_sum_eltwise_0_split -> group1_block1_sum_eltwise_top_group1_block1_sum_eltwise_0_split_0
I0323 02:21:05.380795 131744 net.cpp:380] group1_block1_sum_eltwise_top_group1_block1_sum_eltwise_0_split -> group1_block1_sum_eltwise_top_group1_block1_sum_eltwise_0_split_1
I0323 02:21:05.380841 131744 net.cpp:122] Setting up group1_block1_sum_eltwise_top_group1_block1_sum_eltwise_0_split
I0323 02:21:05.380856 131744 net.cpp:129] Top shape: 259 32 16 16 (2121728)
I0323 02:21:05.380865 131744 net.cpp:129] Top shape: 259 32 16 16 (2121728)
I0323 02:21:05.380874 131744 net.cpp:137] Memory required for data: 1743002660
I0323 02:21:05.380882 131744 layer_factory.hpp:77] Creating layer group1_block2_conv0
I0323 02:21:05.380892 131744 net.cpp:84] Creating Layer group1_block2_conv0
I0323 02:21:05.380900 131744 net.cpp:406] group1_block2_conv0 <- group1_block1_sum_eltwise_top_group1_block1_sum_eltwise_0_split_0
I0323 02:21:05.380910 131744 net.cpp:380] group1_block2_conv0 -> group1_block2_conv0_conv_top
I0323 02:21:05.383227 131744 net.cpp:122] Setting up group1_block2_conv0
I0323 02:21:05.383239 131744 net.cpp:129] Top shape: 259 32 16 16 (2121728)
I0323 02:21:05.383249 131744 net.cpp:137] Memory required for data: 1751489572
I0323 02:21:05.383260 131744 layer_factory.hpp:77] Creating layer group1_block2_conv0_bn
I0323 02:21:05.383270 131744 net.cpp:84] Creating Layer group1_block2_conv0_bn
I0323 02:21:05.383278 131744 net.cpp:406] group1_block2_conv0_bn <- group1_block2_conv0_conv_top
I0323 02:21:05.383287 131744 net.cpp:367] group1_block2_conv0_bn -> group1_block2_conv0_conv_top (in-place)
I0323 02:21:05.383550 131744 net.cpp:122] Setting up group1_block2_conv0_bn
I0323 02:21:05.383559 131744 net.cpp:129] Top shape: 259 32 16 16 (2121728)
I0323 02:21:05.383569 131744 net.cpp:137] Memory required for data: 1759976484
I0323 02:21:05.383582 131744 layer_factory.hpp:77] Creating layer group1_block2_conv0_scale
I0323 02:21:05.383591 131744 net.cpp:84] Creating Layer group1_block2_conv0_scale
I0323 02:21:05.383599 131744 net.cpp:406] group1_block2_conv0_scale <- group1_block2_conv0_conv_top
I0323 02:21:05.383608 131744 net.cpp:367] group1_block2_conv0_scale -> group1_block2_conv0_conv_top (in-place)
I0323 02:21:05.383659 131744 layer_factory.hpp:77] Creating layer group1_block2_conv0_scale
I0323 02:21:05.383810 131744 net.cpp:122] Setting up group1_block2_conv0_scale
I0323 02:21:05.383818 131744 net.cpp:129] Top shape: 259 32 16 16 (2121728)
I0323 02:21:05.383827 131744 net.cpp:137] Memory required for data: 1768463396
I0323 02:21:05.383838 131744 layer_factory.hpp:77] Creating layer group1_block2_conv0_relu
I0323 02:21:05.383847 131744 net.cpp:84] Creating Layer group1_block2_conv0_relu
I0323 02:21:05.383855 131744 net.cpp:406] group1_block2_conv0_relu <- group1_block2_conv0_conv_top
I0323 02:21:05.383864 131744 net.cpp:367] group1_block2_conv0_relu -> group1_block2_conv0_conv_top (in-place)
I0323 02:21:05.384842 131744 net.cpp:122] Setting up group1_block2_conv0_relu
I0323 02:21:05.384852 131744 net.cpp:129] Top shape: 259 32 16 16 (2121728)
I0323 02:21:05.384862 131744 net.cpp:137] Memory required for data: 1776950308
I0323 02:21:05.384871 131744 layer_factory.hpp:77] Creating layer group1_block2_conv1
I0323 02:21:05.384882 131744 net.cpp:84] Creating Layer group1_block2_conv1
I0323 02:21:05.384891 131744 net.cpp:406] group1_block2_conv1 <- group1_block2_conv0_conv_top
I0323 02:21:05.384902 131744 net.cpp:380] group1_block2_conv1 -> group1_block2_conv1_conv_top
I0323 02:21:05.387243 131744 net.cpp:122] Setting up group1_block2_conv1
I0323 02:21:05.387254 131744 net.cpp:129] Top shape: 259 32 16 16 (2121728)
I0323 02:21:05.387264 131744 net.cpp:137] Memory required for data: 1785437220
I0323 02:21:05.387276 131744 layer_factory.hpp:77] Creating layer group1_block2_conv1_bn
I0323 02:21:05.387286 131744 net.cpp:84] Creating Layer group1_block2_conv1_bn
I0323 02:21:05.387295 131744 net.cpp:406] group1_block2_conv1_bn <- group1_block2_conv1_conv_top
I0323 02:21:05.387305 131744 net.cpp:367] group1_block2_conv1_bn -> group1_block2_conv1_conv_top (in-place)
I0323 02:21:05.387560 131744 net.cpp:122] Setting up group1_block2_conv1_bn
I0323 02:21:05.387569 131744 net.cpp:129] Top shape: 259 32 16 16 (2121728)
I0323 02:21:05.387578 131744 net.cpp:137] Memory required for data: 1793924132
I0323 02:21:05.387593 131744 layer_factory.hpp:77] Creating layer group1_block2_conv1_scale
I0323 02:21:05.387601 131744 net.cpp:84] Creating Layer group1_block2_conv1_scale
I0323 02:21:05.387609 131744 net.cpp:406] group1_block2_conv1_scale <- group1_block2_conv1_conv_top
I0323 02:21:05.387619 131744 net.cpp:367] group1_block2_conv1_scale -> group1_block2_conv1_conv_top (in-place)
I0323 02:21:05.387670 131744 layer_factory.hpp:77] Creating layer group1_block2_conv1_scale
I0323 02:21:05.387830 131744 net.cpp:122] Setting up group1_block2_conv1_scale
I0323 02:21:05.387838 131744 net.cpp:129] Top shape: 259 32 16 16 (2121728)
I0323 02:21:05.387847 131744 net.cpp:137] Memory required for data: 1802411044
I0323 02:21:05.387859 131744 layer_factory.hpp:77] Creating layer group1_block2_sum_eltwise
I0323 02:21:05.387868 131744 net.cpp:84] Creating Layer group1_block2_sum_eltwise
I0323 02:21:05.387876 131744 net.cpp:406] group1_block2_sum_eltwise <- group1_block2_conv1_conv_top
I0323 02:21:05.387884 131744 net.cpp:406] group1_block2_sum_eltwise <- group1_block1_sum_eltwise_top_group1_block1_sum_eltwise_0_split_1
I0323 02:21:05.387893 131744 net.cpp:380] group1_block2_sum_eltwise -> group1_block2_sum_eltwise_top
I0323 02:21:05.387925 131744 net.cpp:122] Setting up group1_block2_sum_eltwise
I0323 02:21:05.387934 131744 net.cpp:129] Top shape: 259 32 16 16 (2121728)
I0323 02:21:05.387943 131744 net.cpp:137] Memory required for data: 1810897956
I0323 02:21:05.387950 131744 layer_factory.hpp:77] Creating layer group1_block2_sum_eltwise_top_group1_block2_sum_eltwise_0_split
I0323 02:21:05.387959 131744 net.cpp:84] Creating Layer group1_block2_sum_eltwise_top_group1_block2_sum_eltwise_0_split
I0323 02:21:05.387966 131744 net.cpp:406] group1_block2_sum_eltwise_top_group1_block2_sum_eltwise_0_split <- group1_block2_sum_eltwise_top
I0323 02:21:05.387975 131744 net.cpp:380] group1_block2_sum_eltwise_top_group1_block2_sum_eltwise_0_split -> group1_block2_sum_eltwise_top_group1_block2_sum_eltwise_0_split_0
I0323 02:21:05.387986 131744 net.cpp:380] group1_block2_sum_eltwise_top_group1_block2_sum_eltwise_0_split -> group1_block2_sum_eltwise_top_group1_block2_sum_eltwise_0_split_1
I0323 02:21:05.388034 131744 net.cpp:122] Setting up group1_block2_sum_eltwise_top_group1_block2_sum_eltwise_0_split
I0323 02:21:05.388042 131744 net.cpp:129] Top shape: 259 32 16 16 (2121728)
I0323 02:21:05.388051 131744 net.cpp:129] Top shape: 259 32 16 16 (2121728)
I0323 02:21:05.388061 131744 net.cpp:137] Memory required for data: 1827871780
I0323 02:21:05.388068 131744 layer_factory.hpp:77] Creating layer group1_block3_conv0
I0323 02:21:05.388079 131744 net.cpp:84] Creating Layer group1_block3_conv0
I0323 02:21:05.388087 131744 net.cpp:406] group1_block3_conv0 <- group1_block2_sum_eltwise_top_group1_block2_sum_eltwise_0_split_0
I0323 02:21:05.388098 131744 net.cpp:380] group1_block3_conv0 -> group1_block3_conv0_conv_top
I0323 02:21:05.390430 131744 net.cpp:122] Setting up group1_block3_conv0
I0323 02:21:05.390441 131744 net.cpp:129] Top shape: 259 32 16 16 (2121728)
I0323 02:21:05.390451 131744 net.cpp:137] Memory required for data: 1836358692
I0323 02:21:05.390463 131744 layer_factory.hpp:77] Creating layer group1_block3_conv0_bn
I0323 02:21:05.390473 131744 net.cpp:84] Creating Layer group1_block3_conv0_bn
I0323 02:21:05.390481 131744 net.cpp:406] group1_block3_conv0_bn <- group1_block3_conv0_conv_top
I0323 02:21:05.390491 131744 net.cpp:367] group1_block3_conv0_bn -> group1_block3_conv0_conv_top (in-place)
I0323 02:21:05.390751 131744 net.cpp:122] Setting up group1_block3_conv0_bn
I0323 02:21:05.390760 131744 net.cpp:129] Top shape: 259 32 16 16 (2121728)
I0323 02:21:05.390769 131744 net.cpp:137] Memory required for data: 1844845604
I0323 02:21:05.390784 131744 layer_factory.hpp:77] Creating layer group1_block3_conv0_scale
I0323 02:21:05.390792 131744 net.cpp:84] Creating Layer group1_block3_conv0_scale
I0323 02:21:05.390799 131744 net.cpp:406] group1_block3_conv0_scale <- group1_block3_conv0_conv_top
I0323 02:21:05.390810 131744 net.cpp:367] group1_block3_conv0_scale -> group1_block3_conv0_conv_top (in-place)
I0323 02:21:05.390872 131744 layer_factory.hpp:77] Creating layer group1_block3_conv0_scale
I0323 02:21:05.391031 131744 net.cpp:122] Setting up group1_block3_conv0_scale
I0323 02:21:05.391041 131744 net.cpp:129] Top shape: 259 32 16 16 (2121728)
I0323 02:21:05.391050 131744 net.cpp:137] Memory required for data: 1853332516
I0323 02:21:05.391062 131744 layer_factory.hpp:77] Creating layer group1_block3_conv0_relu
I0323 02:21:05.391070 131744 net.cpp:84] Creating Layer group1_block3_conv0_relu
I0323 02:21:05.391078 131744 net.cpp:406] group1_block3_conv0_relu <- group1_block3_conv0_conv_top
I0323 02:21:05.391088 131744 net.cpp:367] group1_block3_conv0_relu -> group1_block3_conv0_conv_top (in-place)
I0323 02:21:05.391569 131744 net.cpp:122] Setting up group1_block3_conv0_relu
I0323 02:21:05.391578 131744 net.cpp:129] Top shape: 259 32 16 16 (2121728)
I0323 02:21:05.391587 131744 net.cpp:137] Memory required for data: 1861819428
I0323 02:21:05.391595 131744 layer_factory.hpp:77] Creating layer group1_block3_conv1
I0323 02:21:05.391607 131744 net.cpp:84] Creating Layer group1_block3_conv1
I0323 02:21:05.391614 131744 net.cpp:406] group1_block3_conv1 <- group1_block3_conv0_conv_top
I0323 02:21:05.391624 131744 net.cpp:380] group1_block3_conv1 -> group1_block3_conv1_conv_top
I0323 02:21:05.393976 131744 net.cpp:122] Setting up group1_block3_conv1
I0323 02:21:05.393987 131744 net.cpp:129] Top shape: 259 32 16 16 (2121728)
I0323 02:21:05.393997 131744 net.cpp:137] Memory required for data: 1870306340
I0323 02:21:05.394009 131744 layer_factory.hpp:77] Creating layer group1_block3_conv1_bn
I0323 02:21:05.394019 131744 net.cpp:84] Creating Layer group1_block3_conv1_bn
I0323 02:21:05.394026 131744 net.cpp:406] group1_block3_conv1_bn <- group1_block3_conv1_conv_top
I0323 02:21:05.394037 131744 net.cpp:367] group1_block3_conv1_bn -> group1_block3_conv1_conv_top (in-place)
I0323 02:21:05.394299 131744 net.cpp:122] Setting up group1_block3_conv1_bn
I0323 02:21:05.394307 131744 net.cpp:129] Top shape: 259 32 16 16 (2121728)
I0323 02:21:05.394317 131744 net.cpp:137] Memory required for data: 1878793252
I0323 02:21:05.394330 131744 layer_factory.hpp:77] Creating layer group1_block3_conv1_scale
I0323 02:21:05.394340 131744 net.cpp:84] Creating Layer group1_block3_conv1_scale
I0323 02:21:05.394347 131744 net.cpp:406] group1_block3_conv1_scale <- group1_block3_conv1_conv_top
I0323 02:21:05.394356 131744 net.cpp:367] group1_block3_conv1_scale -> group1_block3_conv1_conv_top (in-place)
I0323 02:21:05.394407 131744 layer_factory.hpp:77] Creating layer group1_block3_conv1_scale
I0323 02:21:05.394558 131744 net.cpp:122] Setting up group1_block3_conv1_scale
I0323 02:21:05.394567 131744 net.cpp:129] Top shape: 259 32 16 16 (2121728)
I0323 02:21:05.394577 131744 net.cpp:137] Memory required for data: 1887280164
I0323 02:21:05.394588 131744 layer_factory.hpp:77] Creating layer group1_block3_sum_eltwise
I0323 02:21:05.394598 131744 net.cpp:84] Creating Layer group1_block3_sum_eltwise
I0323 02:21:05.394605 131744 net.cpp:406] group1_block3_sum_eltwise <- group1_block3_conv1_conv_top
I0323 02:21:05.394613 131744 net.cpp:406] group1_block3_sum_eltwise <- group1_block2_sum_eltwise_top_group1_block2_sum_eltwise_0_split_1
I0323 02:21:05.394623 131744 net.cpp:380] group1_block3_sum_eltwise -> group1_block3_sum_eltwise_top
I0323 02:21:05.394654 131744 net.cpp:122] Setting up group1_block3_sum_eltwise
I0323 02:21:05.394664 131744 net.cpp:129] Top shape: 259 32 16 16 (2121728)
I0323 02:21:05.394672 131744 net.cpp:137] Memory required for data: 1895767076
I0323 02:21:05.394680 131744 layer_factory.hpp:77] Creating layer group1_block3_sum_eltwise_top_group1_block3_sum_eltwise_0_split
I0323 02:21:05.394688 131744 net.cpp:84] Creating Layer group1_block3_sum_eltwise_top_group1_block3_sum_eltwise_0_split
I0323 02:21:05.394695 131744 net.cpp:406] group1_block3_sum_eltwise_top_group1_block3_sum_eltwise_0_split <- group1_block3_sum_eltwise_top
I0323 02:21:05.394704 131744 net.cpp:380] group1_block3_sum_eltwise_top_group1_block3_sum_eltwise_0_split -> group1_block3_sum_eltwise_top_group1_block3_sum_eltwise_0_split_0
I0323 02:21:05.394716 131744 net.cpp:380] group1_block3_sum_eltwise_top_group1_block3_sum_eltwise_0_split -> group1_block3_sum_eltwise_top_group1_block3_sum_eltwise_0_split_1
I0323 02:21:05.394763 131744 net.cpp:122] Setting up group1_block3_sum_eltwise_top_group1_block3_sum_eltwise_0_split
I0323 02:21:05.394771 131744 net.cpp:129] Top shape: 259 32 16 16 (2121728)
I0323 02:21:05.394780 131744 net.cpp:129] Top shape: 259 32 16 16 (2121728)
I0323 02:21:05.394789 131744 net.cpp:137] Memory required for data: 1912740900
I0323 02:21:05.394796 131744 layer_factory.hpp:77] Creating layer group1_block4_conv0
I0323 02:21:05.394807 131744 net.cpp:84] Creating Layer group1_block4_conv0
I0323 02:21:05.394815 131744 net.cpp:406] group1_block4_conv0 <- group1_block3_sum_eltwise_top_group1_block3_sum_eltwise_0_split_0
I0323 02:21:05.394825 131744 net.cpp:380] group1_block4_conv0 -> group1_block4_conv0_conv_top
I0323 02:21:05.397158 131744 net.cpp:122] Setting up group1_block4_conv0
I0323 02:21:05.397168 131744 net.cpp:129] Top shape: 259 32 16 16 (2121728)
I0323 02:21:05.397178 131744 net.cpp:137] Memory required for data: 1921227812
I0323 02:21:05.397191 131744 layer_factory.hpp:77] Creating layer group1_block4_conv0_bn
I0323 02:21:05.397224 131744 net.cpp:84] Creating Layer group1_block4_conv0_bn
I0323 02:21:05.397233 131744 net.cpp:406] group1_block4_conv0_bn <- group1_block4_conv0_conv_top
I0323 02:21:05.397243 131744 net.cpp:367] group1_block4_conv0_bn -> group1_block4_conv0_conv_top (in-place)
I0323 02:21:05.397505 131744 net.cpp:122] Setting up group1_block4_conv0_bn
I0323 02:21:05.397514 131744 net.cpp:129] Top shape: 259 32 16 16 (2121728)
I0323 02:21:05.397524 131744 net.cpp:137] Memory required for data: 1929714724
I0323 02:21:05.397538 131744 layer_factory.hpp:77] Creating layer group1_block4_conv0_scale
I0323 02:21:05.397547 131744 net.cpp:84] Creating Layer group1_block4_conv0_scale
I0323 02:21:05.397554 131744 net.cpp:406] group1_block4_conv0_scale <- group1_block4_conv0_conv_top
I0323 02:21:05.397564 131744 net.cpp:367] group1_block4_conv0_scale -> group1_block4_conv0_conv_top (in-place)
I0323 02:21:05.397615 131744 layer_factory.hpp:77] Creating layer group1_block4_conv0_scale
I0323 02:21:05.397766 131744 net.cpp:122] Setting up group1_block4_conv0_scale
I0323 02:21:05.397775 131744 net.cpp:129] Top shape: 259 32 16 16 (2121728)
I0323 02:21:05.397784 131744 net.cpp:137] Memory required for data: 1938201636
I0323 02:21:05.397796 131744 layer_factory.hpp:77] Creating layer group1_block4_conv0_relu
I0323 02:21:05.397805 131744 net.cpp:84] Creating Layer group1_block4_conv0_relu
I0323 02:21:05.397812 131744 net.cpp:406] group1_block4_conv0_relu <- group1_block4_conv0_conv_top
I0323 02:21:05.397821 131744 net.cpp:367] group1_block4_conv0_relu -> group1_block4_conv0_conv_top (in-place)
I0323 02:21:05.398308 131744 net.cpp:122] Setting up group1_block4_conv0_relu
I0323 02:21:05.398316 131744 net.cpp:129] Top shape: 259 32 16 16 (2121728)
I0323 02:21:05.398325 131744 net.cpp:137] Memory required for data: 1946688548
I0323 02:21:05.398332 131744 layer_factory.hpp:77] Creating layer group1_block4_conv1
I0323 02:21:05.398344 131744 net.cpp:84] Creating Layer group1_block4_conv1
I0323 02:21:05.398352 131744 net.cpp:406] group1_block4_conv1 <- group1_block4_conv0_conv_top
I0323 02:21:05.398362 131744 net.cpp:380] group1_block4_conv1 -> group1_block4_conv1_conv_top
I0323 02:21:05.400702 131744 net.cpp:122] Setting up group1_block4_conv1
I0323 02:21:05.400712 131744 net.cpp:129] Top shape: 259 32 16 16 (2121728)
I0323 02:21:05.400722 131744 net.cpp:137] Memory required for data: 1955175460
I0323 02:21:05.400734 131744 layer_factory.hpp:77] Creating layer group1_block4_conv1_bn
I0323 02:21:05.400744 131744 net.cpp:84] Creating Layer group1_block4_conv1_bn
I0323 02:21:05.400753 131744 net.cpp:406] group1_block4_conv1_bn <- group1_block4_conv1_conv_top
I0323 02:21:05.400761 131744 net.cpp:367] group1_block4_conv1_bn -> group1_block4_conv1_conv_top (in-place)
I0323 02:21:05.401032 131744 net.cpp:122] Setting up group1_block4_conv1_bn
I0323 02:21:05.401042 131744 net.cpp:129] Top shape: 259 32 16 16 (2121728)
I0323 02:21:05.401051 131744 net.cpp:137] Memory required for data: 1963662372
I0323 02:21:05.401065 131744 layer_factory.hpp:77] Creating layer group1_block4_conv1_scale
I0323 02:21:05.401074 131744 net.cpp:84] Creating Layer group1_block4_conv1_scale
I0323 02:21:05.401082 131744 net.cpp:406] group1_block4_conv1_scale <- group1_block4_conv1_conv_top
I0323 02:21:05.401091 131744 net.cpp:367] group1_block4_conv1_scale -> group1_block4_conv1_conv_top (in-place)
I0323 02:21:05.401142 131744 layer_factory.hpp:77] Creating layer group1_block4_conv1_scale
I0323 02:21:05.401294 131744 net.cpp:122] Setting up group1_block4_conv1_scale
I0323 02:21:05.401304 131744 net.cpp:129] Top shape: 259 32 16 16 (2121728)
I0323 02:21:05.401312 131744 net.cpp:137] Memory required for data: 1972149284
I0323 02:21:05.401324 131744 layer_factory.hpp:77] Creating layer group1_block4_sum_eltwise
I0323 02:21:05.401334 131744 net.cpp:84] Creating Layer group1_block4_sum_eltwise
I0323 02:21:05.401340 131744 net.cpp:406] group1_block4_sum_eltwise <- group1_block4_conv1_conv_top
I0323 02:21:05.401350 131744 net.cpp:406] group1_block4_sum_eltwise <- group1_block3_sum_eltwise_top_group1_block3_sum_eltwise_0_split_1
I0323 02:21:05.401358 131744 net.cpp:380] group1_block4_sum_eltwise -> group1_block4_sum_eltwise_top
I0323 02:21:05.401389 131744 net.cpp:122] Setting up group1_block4_sum_eltwise
I0323 02:21:05.401398 131744 net.cpp:129] Top shape: 259 32 16 16 (2121728)
I0323 02:21:05.401407 131744 net.cpp:137] Memory required for data: 1980636196
I0323 02:21:05.401414 131744 layer_factory.hpp:77] Creating layer group1_block4_sum_eltwise_top_group1_block4_sum_eltwise_0_split
I0323 02:21:05.401423 131744 net.cpp:84] Creating Layer group1_block4_sum_eltwise_top_group1_block4_sum_eltwise_0_split
I0323 02:21:05.401430 131744 net.cpp:406] group1_block4_sum_eltwise_top_group1_block4_sum_eltwise_0_split <- group1_block4_sum_eltwise_top
I0323 02:21:05.401439 131744 net.cpp:380] group1_block4_sum_eltwise_top_group1_block4_sum_eltwise_0_split -> group1_block4_sum_eltwise_top_group1_block4_sum_eltwise_0_split_0
I0323 02:21:05.401450 131744 net.cpp:380] group1_block4_sum_eltwise_top_group1_block4_sum_eltwise_0_split -> group1_block4_sum_eltwise_top_group1_block4_sum_eltwise_0_split_1
I0323 02:21:05.401499 131744 net.cpp:122] Setting up group1_block4_sum_eltwise_top_group1_block4_sum_eltwise_0_split
I0323 02:21:05.401506 131744 net.cpp:129] Top shape: 259 32 16 16 (2121728)
I0323 02:21:05.401516 131744 net.cpp:129] Top shape: 259 32 16 16 (2121728)
I0323 02:21:05.401525 131744 net.cpp:137] Memory required for data: 1997610020
I0323 02:21:05.401532 131744 layer_factory.hpp:77] Creating layer group1_block5_conv0
I0323 02:21:05.401543 131744 net.cpp:84] Creating Layer group1_block5_conv0
I0323 02:21:05.401551 131744 net.cpp:406] group1_block5_conv0 <- group1_block4_sum_eltwise_top_group1_block4_sum_eltwise_0_split_0
I0323 02:21:05.401561 131744 net.cpp:380] group1_block5_conv0 -> group1_block5_conv0_conv_top
I0323 02:21:05.403897 131744 net.cpp:122] Setting up group1_block5_conv0
I0323 02:21:05.403908 131744 net.cpp:129] Top shape: 259 32 16 16 (2121728)
I0323 02:21:05.403918 131744 net.cpp:137] Memory required for data: 2006096932
I0323 02:21:05.403929 131744 layer_factory.hpp:77] Creating layer group1_block5_conv0_bn
I0323 02:21:05.403939 131744 net.cpp:84] Creating Layer group1_block5_conv0_bn
I0323 02:21:05.403946 131744 net.cpp:406] group1_block5_conv0_bn <- group1_block5_conv0_conv_top
I0323 02:21:05.403956 131744 net.cpp:367] group1_block5_conv0_bn -> group1_block5_conv0_conv_top (in-place)
I0323 02:21:05.404225 131744 net.cpp:122] Setting up group1_block5_conv0_bn
I0323 02:21:05.404234 131744 net.cpp:129] Top shape: 259 32 16 16 (2121728)
I0323 02:21:05.404244 131744 net.cpp:137] Memory required for data: 2014583844
I0323 02:21:05.404258 131744 layer_factory.hpp:77] Creating layer group1_block5_conv0_scale
I0323 02:21:05.404268 131744 net.cpp:84] Creating Layer group1_block5_conv0_scale
I0323 02:21:05.404274 131744 net.cpp:406] group1_block5_conv0_scale <- group1_block5_conv0_conv_top
I0323 02:21:05.404284 131744 net.cpp:367] group1_block5_conv0_scale -> group1_block5_conv0_conv_top (in-place)
I0323 02:21:05.404335 131744 layer_factory.hpp:77] Creating layer group1_block5_conv0_scale
I0323 02:21:05.404486 131744 net.cpp:122] Setting up group1_block5_conv0_scale
I0323 02:21:05.404495 131744 net.cpp:129] Top shape: 259 32 16 16 (2121728)
I0323 02:21:05.404505 131744 net.cpp:137] Memory required for data: 2023070756
I0323 02:21:05.404515 131744 layer_factory.hpp:77] Creating layer group1_block5_conv0_relu
I0323 02:21:05.404525 131744 net.cpp:84] Creating Layer group1_block5_conv0_relu
I0323 02:21:05.404531 131744 net.cpp:406] group1_block5_conv0_relu <- group1_block5_conv0_conv_top
I0323 02:21:05.404541 131744 net.cpp:367] group1_block5_conv0_relu -> group1_block5_conv0_conv_top (in-place)
I0323 02:21:05.405469 131744 net.cpp:122] Setting up group1_block5_conv0_relu
I0323 02:21:05.405479 131744 net.cpp:129] Top shape: 259 32 16 16 (2121728)
I0323 02:21:05.405489 131744 net.cpp:137] Memory required for data: 2031557668
I0323 02:21:05.405496 131744 layer_factory.hpp:77] Creating layer group1_block5_conv1
I0323 02:21:05.405508 131744 net.cpp:84] Creating Layer group1_block5_conv1
I0323 02:21:05.405516 131744 net.cpp:406] group1_block5_conv1 <- group1_block5_conv0_conv_top
I0323 02:21:05.405526 131744 net.cpp:380] group1_block5_conv1 -> group1_block5_conv1_conv_top
I0323 02:21:05.408329 131744 net.cpp:122] Setting up group1_block5_conv1
I0323 02:21:05.408340 131744 net.cpp:129] Top shape: 259 32 16 16 (2121728)
I0323 02:21:05.408350 131744 net.cpp:137] Memory required for data: 2040044580
I0323 02:21:05.408362 131744 layer_factory.hpp:77] Creating layer group1_block5_conv1_bn
I0323 02:21:05.408372 131744 net.cpp:84] Creating Layer group1_block5_conv1_bn
I0323 02:21:05.408380 131744 net.cpp:406] group1_block5_conv1_bn <- group1_block5_conv1_conv_top
I0323 02:21:05.408390 131744 net.cpp:367] group1_block5_conv1_bn -> group1_block5_conv1_conv_top (in-place)
I0323 02:21:05.408650 131744 net.cpp:122] Setting up group1_block5_conv1_bn
I0323 02:21:05.408659 131744 net.cpp:129] Top shape: 259 32 16 16 (2121728)
I0323 02:21:05.408669 131744 net.cpp:137] Memory required for data: 2048531492
I0323 02:21:05.408682 131744 layer_factory.hpp:77] Creating layer group1_block5_conv1_scale
I0323 02:21:05.408691 131744 net.cpp:84] Creating Layer group1_block5_conv1_scale
I0323 02:21:05.408699 131744 net.cpp:406] group1_block5_conv1_scale <- group1_block5_conv1_conv_top
I0323 02:21:05.408707 131744 net.cpp:367] group1_block5_conv1_scale -> group1_block5_conv1_conv_top (in-place)
I0323 02:21:05.408758 131744 layer_factory.hpp:77] Creating layer group1_block5_conv1_scale
I0323 02:21:05.408923 131744 net.cpp:122] Setting up group1_block5_conv1_scale
I0323 02:21:05.408932 131744 net.cpp:129] Top shape: 259 32 16 16 (2121728)
I0323 02:21:05.408941 131744 net.cpp:137] Memory required for data: 2057018404
I0323 02:21:05.408953 131744 layer_factory.hpp:77] Creating layer group1_block5_sum_eltwise
I0323 02:21:05.408962 131744 net.cpp:84] Creating Layer group1_block5_sum_eltwise
I0323 02:21:05.408970 131744 net.cpp:406] group1_block5_sum_eltwise <- group1_block5_conv1_conv_top
I0323 02:21:05.408978 131744 net.cpp:406] group1_block5_sum_eltwise <- group1_block4_sum_eltwise_top_group1_block4_sum_eltwise_0_split_1
I0323 02:21:05.408987 131744 net.cpp:380] group1_block5_sum_eltwise -> group1_block5_sum_eltwise_top
I0323 02:21:05.409020 131744 net.cpp:122] Setting up group1_block5_sum_eltwise
I0323 02:21:05.409029 131744 net.cpp:129] Top shape: 259 32 16 16 (2121728)
I0323 02:21:05.409037 131744 net.cpp:137] Memory required for data: 2065505316
I0323 02:21:05.409044 131744 layer_factory.hpp:77] Creating layer group1_block5_sum_eltwise_top_group1_block5_sum_eltwise_0_split
I0323 02:21:05.409054 131744 net.cpp:84] Creating Layer group1_block5_sum_eltwise_top_group1_block5_sum_eltwise_0_split
I0323 02:21:05.409061 131744 net.cpp:406] group1_block5_sum_eltwise_top_group1_block5_sum_eltwise_0_split <- group1_block5_sum_eltwise_top
I0323 02:21:05.409070 131744 net.cpp:380] group1_block5_sum_eltwise_top_group1_block5_sum_eltwise_0_split -> group1_block5_sum_eltwise_top_group1_block5_sum_eltwise_0_split_0
I0323 02:21:05.409099 131744 net.cpp:380] group1_block5_sum_eltwise_top_group1_block5_sum_eltwise_0_split -> group1_block5_sum_eltwise_top_group1_block5_sum_eltwise_0_split_1
I0323 02:21:05.409149 131744 net.cpp:122] Setting up group1_block5_sum_eltwise_top_group1_block5_sum_eltwise_0_split
I0323 02:21:05.409157 131744 net.cpp:129] Top shape: 259 32 16 16 (2121728)
I0323 02:21:05.409166 131744 net.cpp:129] Top shape: 259 32 16 16 (2121728)
I0323 02:21:05.409176 131744 net.cpp:137] Memory required for data: 2082479140
I0323 02:21:05.409183 131744 layer_factory.hpp:77] Creating layer group1_block6_conv0
I0323 02:21:05.409195 131744 net.cpp:84] Creating Layer group1_block6_conv0
I0323 02:21:05.409202 131744 net.cpp:406] group1_block6_conv0 <- group1_block5_sum_eltwise_top_group1_block5_sum_eltwise_0_split_0
I0323 02:21:05.409214 131744 net.cpp:380] group1_block6_conv0 -> group1_block6_conv0_conv_top
I0323 02:21:05.411587 131744 net.cpp:122] Setting up group1_block6_conv0
I0323 02:21:05.411598 131744 net.cpp:129] Top shape: 259 32 16 16 (2121728)
I0323 02:21:05.411609 131744 net.cpp:137] Memory required for data: 2090966052
I0323 02:21:05.411622 131744 layer_factory.hpp:77] Creating layer group1_block6_conv0_bn
I0323 02:21:05.411631 131744 net.cpp:84] Creating Layer group1_block6_conv0_bn
I0323 02:21:05.411639 131744 net.cpp:406] group1_block6_conv0_bn <- group1_block6_conv0_conv_top
I0323 02:21:05.411648 131744 net.cpp:367] group1_block6_conv0_bn -> group1_block6_conv0_conv_top (in-place)
I0323 02:21:05.411908 131744 net.cpp:122] Setting up group1_block6_conv0_bn
I0323 02:21:05.411917 131744 net.cpp:129] Top shape: 259 32 16 16 (2121728)
I0323 02:21:05.411927 131744 net.cpp:137] Memory required for data: 2099452964
I0323 02:21:05.411940 131744 layer_factory.hpp:77] Creating layer group1_block6_conv0_scale
I0323 02:21:05.411949 131744 net.cpp:84] Creating Layer group1_block6_conv0_scale
I0323 02:21:05.411957 131744 net.cpp:406] group1_block6_conv0_scale <- group1_block6_conv0_conv_top
I0323 02:21:05.411967 131744 net.cpp:367] group1_block6_conv0_scale -> group1_block6_conv0_conv_top (in-place)
I0323 02:21:05.412022 131744 layer_factory.hpp:77] Creating layer group1_block6_conv0_scale
I0323 02:21:05.412176 131744 net.cpp:122] Setting up group1_block6_conv0_scale
I0323 02:21:05.412185 131744 net.cpp:129] Top shape: 259 32 16 16 (2121728)
I0323 02:21:05.412195 131744 net.cpp:137] Memory required for data: 2107939876
I0323 02:21:05.412206 131744 layer_factory.hpp:77] Creating layer group1_block6_conv0_relu
I0323 02:21:05.412215 131744 net.cpp:84] Creating Layer group1_block6_conv0_relu
I0323 02:21:05.412223 131744 net.cpp:406] group1_block6_conv0_relu <- group1_block6_conv0_conv_top
I0323 02:21:05.412231 131744 net.cpp:367] group1_block6_conv0_relu -> group1_block6_conv0_conv_top (in-place)
I0323 02:21:05.412714 131744 net.cpp:122] Setting up group1_block6_conv0_relu
I0323 02:21:05.412724 131744 net.cpp:129] Top shape: 259 32 16 16 (2121728)
I0323 02:21:05.412732 131744 net.cpp:137] Memory required for data: 2116426788
I0323 02:21:05.412739 131744 layer_factory.hpp:77] Creating layer group1_block6_conv1
I0323 02:21:05.412752 131744 net.cpp:84] Creating Layer group1_block6_conv1
I0323 02:21:05.412760 131744 net.cpp:406] group1_block6_conv1 <- group1_block6_conv0_conv_top
I0323 02:21:05.412770 131744 net.cpp:380] group1_block6_conv1 -> group1_block6_conv1_conv_top
I0323 02:21:05.415107 131744 net.cpp:122] Setting up group1_block6_conv1
I0323 02:21:05.415117 131744 net.cpp:129] Top shape: 259 32 16 16 (2121728)
I0323 02:21:05.415127 131744 net.cpp:137] Memory required for data: 2124913700
I0323 02:21:05.415138 131744 layer_factory.hpp:77] Creating layer group1_block6_conv1_bn
I0323 02:21:05.415148 131744 net.cpp:84] Creating Layer group1_block6_conv1_bn
I0323 02:21:05.415156 131744 net.cpp:406] group1_block6_conv1_bn <- group1_block6_conv1_conv_top
I0323 02:21:05.415166 131744 net.cpp:367] group1_block6_conv1_bn -> group1_block6_conv1_conv_top (in-place)
I0323 02:21:05.415434 131744 net.cpp:122] Setting up group1_block6_conv1_bn
I0323 02:21:05.415443 131744 net.cpp:129] Top shape: 259 32 16 16 (2121728)
I0323 02:21:05.415453 131744 net.cpp:137] Memory required for data: 2133400612
I0323 02:21:05.415467 131744 layer_factory.hpp:77] Creating layer group1_block6_conv1_scale
I0323 02:21:05.415477 131744 net.cpp:84] Creating Layer group1_block6_conv1_scale
I0323 02:21:05.415483 131744 net.cpp:406] group1_block6_conv1_scale <- group1_block6_conv1_conv_top
I0323 02:21:05.415493 131744 net.cpp:367] group1_block6_conv1_scale -> group1_block6_conv1_conv_top (in-place)
I0323 02:21:05.415545 131744 layer_factory.hpp:77] Creating layer group1_block6_conv1_scale
I0323 02:21:05.415700 131744 net.cpp:122] Setting up group1_block6_conv1_scale
I0323 02:21:05.415709 131744 net.cpp:129] Top shape: 259 32 16 16 (2121728)
I0323 02:21:05.415719 131744 net.cpp:137] Memory required for data: 2141887524
I0323 02:21:05.415730 131744 layer_factory.hpp:77] Creating layer group1_block6_sum_eltwise
I0323 02:21:05.415740 131744 net.cpp:84] Creating Layer group1_block6_sum_eltwise
I0323 02:21:05.415746 131744 net.cpp:406] group1_block6_sum_eltwise <- group1_block6_conv1_conv_top
I0323 02:21:05.415755 131744 net.cpp:406] group1_block6_sum_eltwise <- group1_block5_sum_eltwise_top_group1_block5_sum_eltwise_0_split_1
I0323 02:21:05.415765 131744 net.cpp:380] group1_block6_sum_eltwise -> group1_block6_sum_eltwise_top
I0323 02:21:05.415796 131744 net.cpp:122] Setting up group1_block6_sum_eltwise
I0323 02:21:05.415804 131744 net.cpp:129] Top shape: 259 32 16 16 (2121728)
I0323 02:21:05.415813 131744 net.cpp:137] Memory required for data: 2150374436
I0323 02:21:05.415820 131744 layer_factory.hpp:77] Creating layer group1_block6_sum_eltwise_top_group1_block6_sum_eltwise_0_split
I0323 02:21:05.415829 131744 net.cpp:84] Creating Layer group1_block6_sum_eltwise_top_group1_block6_sum_eltwise_0_split
I0323 02:21:05.415837 131744 net.cpp:406] group1_block6_sum_eltwise_top_group1_block6_sum_eltwise_0_split <- group1_block6_sum_eltwise_top
I0323 02:21:05.415846 131744 net.cpp:380] group1_block6_sum_eltwise_top_group1_block6_sum_eltwise_0_split -> group1_block6_sum_eltwise_top_group1_block6_sum_eltwise_0_split_0
I0323 02:21:05.415858 131744 net.cpp:380] group1_block6_sum_eltwise_top_group1_block6_sum_eltwise_0_split -> group1_block6_sum_eltwise_top_group1_block6_sum_eltwise_0_split_1
I0323 02:21:05.415905 131744 net.cpp:122] Setting up group1_block6_sum_eltwise_top_group1_block6_sum_eltwise_0_split
I0323 02:21:05.415913 131744 net.cpp:129] Top shape: 259 32 16 16 (2121728)
I0323 02:21:05.415922 131744 net.cpp:129] Top shape: 259 32 16 16 (2121728)
I0323 02:21:05.415931 131744 net.cpp:137] Memory required for data: 2167348260
I0323 02:21:05.415938 131744 layer_factory.hpp:77] Creating layer group1_block7_conv0
I0323 02:21:05.415951 131744 net.cpp:84] Creating Layer group1_block7_conv0
I0323 02:21:05.415957 131744 net.cpp:406] group1_block7_conv0 <- group1_block6_sum_eltwise_top_group1_block6_sum_eltwise_0_split_0
I0323 02:21:05.415968 131744 net.cpp:380] group1_block7_conv0 -> group1_block7_conv0_conv_top
I0323 02:21:05.418319 131744 net.cpp:122] Setting up group1_block7_conv0
I0323 02:21:05.418329 131744 net.cpp:129] Top shape: 259 32 16 16 (2121728)
I0323 02:21:05.418339 131744 net.cpp:137] Memory required for data: 2175835172
I0323 02:21:05.418351 131744 layer_factory.hpp:77] Creating layer group1_block7_conv0_bn
I0323 02:21:05.418361 131744 net.cpp:84] Creating Layer group1_block7_conv0_bn
I0323 02:21:05.418370 131744 net.cpp:406] group1_block7_conv0_bn <- group1_block7_conv0_conv_top
I0323 02:21:05.418378 131744 net.cpp:367] group1_block7_conv0_bn -> group1_block7_conv0_conv_top (in-place)
I0323 02:21:05.418643 131744 net.cpp:122] Setting up group1_block7_conv0_bn
I0323 02:21:05.418651 131744 net.cpp:129] Top shape: 259 32 16 16 (2121728)
I0323 02:21:05.418661 131744 net.cpp:137] Memory required for data: 2184322084
I0323 02:21:05.418674 131744 layer_factory.hpp:77] Creating layer group1_block7_conv0_scale
I0323 02:21:05.418684 131744 net.cpp:84] Creating Layer group1_block7_conv0_scale
I0323 02:21:05.418691 131744 net.cpp:406] group1_block7_conv0_scale <- group1_block7_conv0_conv_top
I0323 02:21:05.418700 131744 net.cpp:367] group1_block7_conv0_scale -> group1_block7_conv0_conv_top (in-place)
I0323 02:21:05.418751 131744 layer_factory.hpp:77] Creating layer group1_block7_conv0_scale
I0323 02:21:05.418905 131744 net.cpp:122] Setting up group1_block7_conv0_scale
I0323 02:21:05.418913 131744 net.cpp:129] Top shape: 259 32 16 16 (2121728)
I0323 02:21:05.418922 131744 net.cpp:137] Memory required for data: 2192808996
I0323 02:21:05.418934 131744 layer_factory.hpp:77] Creating layer group1_block7_conv0_relu
I0323 02:21:05.418943 131744 net.cpp:84] Creating Layer group1_block7_conv0_relu
I0323 02:21:05.418951 131744 net.cpp:406] group1_block7_conv0_relu <- group1_block7_conv0_conv_top
I0323 02:21:05.418959 131744 net.cpp:367] group1_block7_conv0_relu -> group1_block7_conv0_conv_top (in-place)
I0323 02:21:05.419446 131744 net.cpp:122] Setting up group1_block7_conv0_relu
I0323 02:21:05.419456 131744 net.cpp:129] Top shape: 259 32 16 16 (2121728)
I0323 02:21:05.419464 131744 net.cpp:137] Memory required for data: 2201295908
I0323 02:21:05.419471 131744 layer_factory.hpp:77] Creating layer group1_block7_conv1
I0323 02:21:05.419483 131744 net.cpp:84] Creating Layer group1_block7_conv1
I0323 02:21:05.419492 131744 net.cpp:406] group1_block7_conv1 <- group1_block7_conv0_conv_top
I0323 02:21:05.419502 131744 net.cpp:380] group1_block7_conv1 -> group1_block7_conv1_conv_top
I0323 02:21:05.422395 131744 net.cpp:122] Setting up group1_block7_conv1
I0323 02:21:05.422406 131744 net.cpp:129] Top shape: 259 32 16 16 (2121728)
I0323 02:21:05.422417 131744 net.cpp:137] Memory required for data: 2209782820
I0323 02:21:05.422430 131744 layer_factory.hpp:77] Creating layer group1_block7_conv1_bn
I0323 02:21:05.422441 131744 net.cpp:84] Creating Layer group1_block7_conv1_bn
I0323 02:21:05.422447 131744 net.cpp:406] group1_block7_conv1_bn <- group1_block7_conv1_conv_top
I0323 02:21:05.422457 131744 net.cpp:367] group1_block7_conv1_bn -> group1_block7_conv1_conv_top (in-place)
I0323 02:21:05.422725 131744 net.cpp:122] Setting up group1_block7_conv1_bn
I0323 02:21:05.422734 131744 net.cpp:129] Top shape: 259 32 16 16 (2121728)
I0323 02:21:05.422744 131744 net.cpp:137] Memory required for data: 2218269732
I0323 02:21:05.422756 131744 layer_factory.hpp:77] Creating layer group1_block7_conv1_scale
I0323 02:21:05.422765 131744 net.cpp:84] Creating Layer group1_block7_conv1_scale
I0323 02:21:05.422772 131744 net.cpp:406] group1_block7_conv1_scale <- group1_block7_conv1_conv_top
I0323 02:21:05.422782 131744 net.cpp:367] group1_block7_conv1_scale -> group1_block7_conv1_conv_top (in-place)
I0323 02:21:05.422839 131744 layer_factory.hpp:77] Creating layer group1_block7_conv1_scale
I0323 02:21:05.422996 131744 net.cpp:122] Setting up group1_block7_conv1_scale
I0323 02:21:05.423005 131744 net.cpp:129] Top shape: 259 32 16 16 (2121728)
I0323 02:21:05.423015 131744 net.cpp:137] Memory required for data: 2226756644
I0323 02:21:05.423027 131744 layer_factory.hpp:77] Creating layer group1_block7_sum_eltwise
I0323 02:21:05.423035 131744 net.cpp:84] Creating Layer group1_block7_sum_eltwise
I0323 02:21:05.423043 131744 net.cpp:406] group1_block7_sum_eltwise <- group1_block7_conv1_conv_top
I0323 02:21:05.423051 131744 net.cpp:406] group1_block7_sum_eltwise <- group1_block6_sum_eltwise_top_group1_block6_sum_eltwise_0_split_1
I0323 02:21:05.423061 131744 net.cpp:380] group1_block7_sum_eltwise -> group1_block7_sum_eltwise_top
I0323 02:21:05.423092 131744 net.cpp:122] Setting up group1_block7_sum_eltwise
I0323 02:21:05.423101 131744 net.cpp:129] Top shape: 259 32 16 16 (2121728)
I0323 02:21:05.423110 131744 net.cpp:137] Memory required for data: 2235243556
I0323 02:21:05.423117 131744 layer_factory.hpp:77] Creating layer group1_block7_sum_eltwise_top_group1_block7_sum_eltwise_0_split
I0323 02:21:05.423126 131744 net.cpp:84] Creating Layer group1_block7_sum_eltwise_top_group1_block7_sum_eltwise_0_split
I0323 02:21:05.423133 131744 net.cpp:406] group1_block7_sum_eltwise_top_group1_block7_sum_eltwise_0_split <- group1_block7_sum_eltwise_top
I0323 02:21:05.423142 131744 net.cpp:380] group1_block7_sum_eltwise_top_group1_block7_sum_eltwise_0_split -> group1_block7_sum_eltwise_top_group1_block7_sum_eltwise_0_split_0
I0323 02:21:05.423153 131744 net.cpp:380] group1_block7_sum_eltwise_top_group1_block7_sum_eltwise_0_split -> group1_block7_sum_eltwise_top_group1_block7_sum_eltwise_0_split_1
I0323 02:21:05.423202 131744 net.cpp:122] Setting up group1_block7_sum_eltwise_top_group1_block7_sum_eltwise_0_split
I0323 02:21:05.423211 131744 net.cpp:129] Top shape: 259 32 16 16 (2121728)
I0323 02:21:05.423220 131744 net.cpp:129] Top shape: 259 32 16 16 (2121728)
I0323 02:21:05.423229 131744 net.cpp:137] Memory required for data: 2252217380
I0323 02:21:05.423236 131744 layer_factory.hpp:77] Creating layer group1_block8_conv0
I0323 02:21:05.423247 131744 net.cpp:84] Creating Layer group1_block8_conv0
I0323 02:21:05.423255 131744 net.cpp:406] group1_block8_conv0 <- group1_block7_sum_eltwise_top_group1_block7_sum_eltwise_0_split_0
I0323 02:21:05.423265 131744 net.cpp:380] group1_block8_conv0 -> group1_block8_conv0_conv_top
I0323 02:21:05.426548 131744 net.cpp:122] Setting up group1_block8_conv0
I0323 02:21:05.426563 131744 net.cpp:129] Top shape: 259 64 8 8 (1060864)
I0323 02:21:05.426574 131744 net.cpp:137] Memory required for data: 2256460836
I0323 02:21:05.426586 131744 layer_factory.hpp:77] Creating layer group1_block8_conv0_bn
I0323 02:21:05.426599 131744 net.cpp:84] Creating Layer group1_block8_conv0_bn
I0323 02:21:05.426606 131744 net.cpp:406] group1_block8_conv0_bn <- group1_block8_conv0_conv_top
I0323 02:21:05.426617 131744 net.cpp:367] group1_block8_conv0_bn -> group1_block8_conv0_conv_top (in-place)
I0323 02:21:05.426906 131744 net.cpp:122] Setting up group1_block8_conv0_bn
I0323 02:21:05.426914 131744 net.cpp:129] Top shape: 259 64 8 8 (1060864)
I0323 02:21:05.426924 131744 net.cpp:137] Memory required for data: 2260704292
I0323 02:21:05.426986 131744 layer_factory.hpp:77] Creating layer group1_block8_conv0_scale
I0323 02:21:05.426997 131744 net.cpp:84] Creating Layer group1_block8_conv0_scale
I0323 02:21:05.427004 131744 net.cpp:406] group1_block8_conv0_scale <- group1_block8_conv0_conv_top
I0323 02:21:05.427013 131744 net.cpp:367] group1_block8_conv0_scale -> group1_block8_conv0_conv_top (in-place)
I0323 02:21:05.427068 131744 layer_factory.hpp:77] Creating layer group1_block8_conv0_scale
I0323 02:21:05.427230 131744 net.cpp:122] Setting up group1_block8_conv0_scale
I0323 02:21:05.427239 131744 net.cpp:129] Top shape: 259 64 8 8 (1060864)
I0323 02:21:05.427248 131744 net.cpp:137] Memory required for data: 2264947748
I0323 02:21:05.427259 131744 layer_factory.hpp:77] Creating layer group1_block8_conv0_relu
I0323 02:21:05.427269 131744 net.cpp:84] Creating Layer group1_block8_conv0_relu
I0323 02:21:05.427276 131744 net.cpp:406] group1_block8_conv0_relu <- group1_block8_conv0_conv_top
I0323 02:21:05.427285 131744 net.cpp:367] group1_block8_conv0_relu -> group1_block8_conv0_conv_top (in-place)
I0323 02:21:05.427778 131744 net.cpp:122] Setting up group1_block8_conv0_relu
I0323 02:21:05.427786 131744 net.cpp:129] Top shape: 259 64 8 8 (1060864)
I0323 02:21:05.427796 131744 net.cpp:137] Memory required for data: 2269191204
I0323 02:21:05.427803 131744 layer_factory.hpp:77] Creating layer group1_block8_conv1
I0323 02:21:05.427816 131744 net.cpp:84] Creating Layer group1_block8_conv1
I0323 02:21:05.427824 131744 net.cpp:406] group1_block8_conv1 <- group1_block8_conv0_conv_top
I0323 02:21:05.427834 131744 net.cpp:380] group1_block8_conv1 -> group1_block8_conv1_conv_top
I0323 02:21:05.430433 131744 net.cpp:122] Setting up group1_block8_conv1
I0323 02:21:05.430445 131744 net.cpp:129] Top shape: 259 64 8 8 (1060864)
I0323 02:21:05.430455 131744 net.cpp:137] Memory required for data: 2273434660
I0323 02:21:05.430467 131744 layer_factory.hpp:77] Creating layer group1_block8_conv1_bn
I0323 02:21:05.430477 131744 net.cpp:84] Creating Layer group1_block8_conv1_bn
I0323 02:21:05.430485 131744 net.cpp:406] group1_block8_conv1_bn <- group1_block8_conv1_conv_top
I0323 02:21:05.430495 131744 net.cpp:367] group1_block8_conv1_bn -> group1_block8_conv1_conv_top (in-place)
I0323 02:21:05.430776 131744 net.cpp:122] Setting up group1_block8_conv1_bn
I0323 02:21:05.430785 131744 net.cpp:129] Top shape: 259 64 8 8 (1060864)
I0323 02:21:05.430794 131744 net.cpp:137] Memory required for data: 2277678116
I0323 02:21:05.430809 131744 layer_factory.hpp:77] Creating layer group1_block8_conv1_scale
I0323 02:21:05.430817 131744 net.cpp:84] Creating Layer group1_block8_conv1_scale
I0323 02:21:05.430824 131744 net.cpp:406] group1_block8_conv1_scale <- group1_block8_conv1_conv_top
I0323 02:21:05.430833 131744 net.cpp:367] group1_block8_conv1_scale -> group1_block8_conv1_conv_top (in-place)
I0323 02:21:05.430896 131744 layer_factory.hpp:77] Creating layer group1_block8_conv1_scale
I0323 02:21:05.431064 131744 net.cpp:122] Setting up group1_block8_conv1_scale
I0323 02:21:05.431072 131744 net.cpp:129] Top shape: 259 64 8 8 (1060864)
I0323 02:21:05.431082 131744 net.cpp:137] Memory required for data: 2281921572
I0323 02:21:05.431094 131744 layer_factory.hpp:77] Creating layer group1_block8_proj
I0323 02:21:05.431107 131744 net.cpp:84] Creating Layer group1_block8_proj
I0323 02:21:05.431113 131744 net.cpp:406] group1_block8_proj <- group1_block7_sum_eltwise_top_group1_block7_sum_eltwise_0_split_1
I0323 02:21:05.431124 131744 net.cpp:380] group1_block8_proj -> group1_block8_proj_conv_top
I0323 02:21:05.433486 131744 net.cpp:122] Setting up group1_block8_proj
I0323 02:21:05.433497 131744 net.cpp:129] Top shape: 259 64 8 8 (1060864)
I0323 02:21:05.433507 131744 net.cpp:137] Memory required for data: 2286165028
I0323 02:21:05.433519 131744 layer_factory.hpp:77] Creating layer group1_block8_proj_bn
I0323 02:21:05.433529 131744 net.cpp:84] Creating Layer group1_block8_proj_bn
I0323 02:21:05.433537 131744 net.cpp:406] group1_block8_proj_bn <- group1_block8_proj_conv_top
I0323 02:21:05.433547 131744 net.cpp:367] group1_block8_proj_bn -> group1_block8_proj_conv_top (in-place)
I0323 02:21:05.433825 131744 net.cpp:122] Setting up group1_block8_proj_bn
I0323 02:21:05.433835 131744 net.cpp:129] Top shape: 259 64 8 8 (1060864)
I0323 02:21:05.433843 131744 net.cpp:137] Memory required for data: 2290408484
I0323 02:21:05.433856 131744 layer_factory.hpp:77] Creating layer group1_block8_proj_scale
I0323 02:21:05.433866 131744 net.cpp:84] Creating Layer group1_block8_proj_scale
I0323 02:21:05.433873 131744 net.cpp:406] group1_block8_proj_scale <- group1_block8_proj_conv_top
I0323 02:21:05.433882 131744 net.cpp:367] group1_block8_proj_scale -> group1_block8_proj_conv_top (in-place)
I0323 02:21:05.433935 131744 layer_factory.hpp:77] Creating layer group1_block8_proj_scale
I0323 02:21:05.434114 131744 net.cpp:122] Setting up group1_block8_proj_scale
I0323 02:21:05.434123 131744 net.cpp:129] Top shape: 259 64 8 8 (1060864)
I0323 02:21:05.434132 131744 net.cpp:137] Memory required for data: 2294651940
I0323 02:21:05.434144 131744 layer_factory.hpp:77] Creating layer group1_block8_sum_eltwise
I0323 02:21:05.434154 131744 net.cpp:84] Creating Layer group1_block8_sum_eltwise
I0323 02:21:05.434162 131744 net.cpp:406] group1_block8_sum_eltwise <- group1_block8_conv1_conv_top
I0323 02:21:05.434170 131744 net.cpp:406] group1_block8_sum_eltwise <- group1_block8_proj_conv_top
I0323 02:21:05.434180 131744 net.cpp:380] group1_block8_sum_eltwise -> group1_block8_sum_eltwise_top
I0323 02:21:05.434214 131744 net.cpp:122] Setting up group1_block8_sum_eltwise
I0323 02:21:05.434222 131744 net.cpp:129] Top shape: 259 64 8 8 (1060864)
I0323 02:21:05.434231 131744 net.cpp:137] Memory required for data: 2298895396
…
I0323 02:21:05.666765 131744 layer_factory.hpp:77] Creating layer group2_block0_conv0_relu
I0323 02:21:05.666774 131744 net.cpp:84] Creating Layer group2_block0_conv0_relu
I0323 02:21:05.666782 131744 net.cpp:406] group2_block0_conv0_relu <- group2_block0_conv0_conv_top
I0323 02:21:05.666791 131744 net.cpp:367] group2_block0_conv0_relu -> group2_block0_conv0_conv_top (in-place)
I0323 02:21:05.667747 131744 net.cpp:122] Setting up group2_block0_conv0_relu
I0323 02:21:05.667757 131744 net.cpp:129] Top shape: 32 64 8 8 (131072)
I0323 02:21:05.667767 131744 net.cpp:137] Memory required for data: 287179136
I0323 02:21:05.667773 131744 layer_factory.hpp:77] Creating layer group2_block0_conv1
I0323 02:21:05.667785 131744 net.cpp:84] Creating Layer group2_block0_conv1
I0323 02:21:05.667793 131744 net.cpp:406] group2_block0_conv1 <- group2_block0_conv0_conv_top
I0323 02:21:05.667804 131744 net.cpp:380] group2_block0_conv1 -> group2_block0_conv1_conv_top
I0323 02:21:05.670819 131744 net.cpp:122] Setting up group2_block0_conv1
I0323 02:21:05.670830 131744 net.cpp:129] Top shape: 32 64 8 8 (131072)
I0323 02:21:05.670840 131744 net.cpp:137] Memory required for data: 287703424
I0323 02:21:05.670861 131744 layer_factory.hpp:77] Creating layer group2_block0_conv1_bn
I0323 02:21:05.670873 131744 net.cpp:84] Creating Layer group2_block0_conv1_bn
I0323 02:21:05.670881 131744 net.cpp:406] group2_block0_conv1_bn <- group2_block0_conv1_conv_top
I0323 02:21:05.670892 131744 net.cpp:367] group2_block0_conv1_bn -> group2_block0_conv1_conv_top (in-place)
I0323 02:21:05.671128 131744 net.cpp:122] Setting up group2_block0_conv1_bn
I0323 02:21:05.671138 131744 net.cpp:129] Top shape: 32 64 8 8 (131072)
I0323 02:21:05.671146 131744 net.cpp:137] Memory required for data: 288227712
I0323 02:21:05.671160 131744 layer_factory.hpp:77] Creating layer group2_block0_conv1_scale
I0323 02:21:05.671169 131744 net.cpp:84] Creating Layer group2_block0_conv1_scale
I0323 02:21:05.671176 131744 net.cpp:406] group2_block0_conv1_scale <- group2_block0_conv1_conv_top
I0323 02:21:05.671186 131744 net.cpp:367] group2_block0_conv1_scale -> group2_block0_conv1_conv_top (in-place)
I0323 02:21:05.671234 131744 layer_factory.hpp:77] Creating layer group2_block0_conv1_scale
I0323 02:21:05.671372 131744 net.cpp:122] Setting up group2_block0_conv1_scale
I0323 02:21:05.671381 131744 net.cpp:129] Top shape: 32 64 8 8 (131072)
I0323 02:21:05.671391 131744 net.cpp:137] Memory required for data: 288752000
I0323 02:21:05.671402 131744 layer_factory.hpp:77] Creating layer group2_block0_sum_eltwise
I0323 02:21:05.671411 131744 net.cpp:84] Creating Layer group2_block0_sum_eltwise
I0323 02:21:05.671418 131744 net.cpp:406] group2_block0_sum_eltwise <- group2_block0_conv1_conv_top
I0323 02:21:05.671427 131744 net.cpp:406] group2_block0_sum_eltwise <- group1_block8_sum_eltwise_top_group1_block8_sum_eltwise_0_split_1
I0323 02:21:05.671437 131744 net.cpp:380] group2_block0_sum_eltwise -> group2_block0_sum_eltwise_top
I0323 02:21:05.671465 131744 net.cpp:122] Setting up group2_block0_sum_eltwise
I0323 02:21:05.671473 131744 net.cpp:129] Top shape: 32 64 8 8 (131072)
I0323 02:21:05.671483 131744 net.cpp:137] Memory required for data: 289276288
I0323 02:21:05.671490 131744 layer_factory.hpp:77] Creating layer group2_block0_sum_eltwise_top_group2_block0_sum_eltwise_0_split
I0323 02:21:05.671499 131744 net.cpp:84] Creating Layer group2_block0_sum_eltwise_top_group2_block0_sum_eltwise_0_split
I0323 02:21:05.671506 131744 net.cpp:406] group2_block0_sum_eltwise_top_group2_block0_sum_eltwise_0_split <- group2_block0_sum_eltwise_top
I0323 02:21:05.671515 131744 net.cpp:380] group2_block0_sum_eltwise_top_group2_block0_sum_eltwise_0_split -> group2_block0_sum_eltwise_top_group2_block0_sum_eltwise_0_split_0
I0323 02:21:05.671526 131744 net.cpp:380] group2_block0_sum_eltwise_top_group2_block0_sum_eltwise_0_split -> group2_block0_sum_eltwise_top_group2_block0_sum_eltwise_0_split_1
I0323 02:21:05.671569 131744 net.cpp:122] Setting up group2_block0_sum_eltwise_top_group2_block0_sum_eltwise_0_split
I0323 02:21:05.671578 131744 net.cpp:129] Top shape: 32 64 8 8 (131072)
I0323 02:21:05.671587 131744 net.cpp:129] Top shape: 32 64 8 8 (131072)
I0323 02:21:05.671597 131744 net.cpp:137] Memory required for data: 290324864
I0323 02:21:05.671603 131744 layer_factory.hpp:77] Creating layer group2_block1_conv0
I0323 02:21:05.671614 131744 net.cpp:84] Creating Layer group2_block1_conv0
I0323 02:21:05.671622 131744 net.cpp:406] group2_block1_conv0 <- group2_block0_sum_eltwise_top_group2_block0_sum_eltwise_0_split_0
I0323 02:21:05.671638 131744 net.cpp:380] group2_block1_conv0 -> group2_block1_conv0_conv_top
I0323 02:21:05.674815 131744 net.cpp:122] Setting up group2_block1_conv0
I0323 02:21:05.674826 131744 net.cpp:129] Top shape: 32 64 8 8 (131072)
I0323 02:21:05.674836 131744 net.cpp:137] Memory required for data: 290849152
I0323 02:21:05.674849 131744 layer_factory.hpp:77] Creating layer group2_block1_conv0_bn
I0323 02:21:05.674860 131744 net.cpp:84] Creating Layer group2_block1_conv0_bn
I0323 02:21:05.674867 131744 net.cpp:406] group2_block1_conv0_bn <- group2_block1_conv0_conv_top
I0323 02:21:05.674876 131744 net.cpp:367] group2_block1_conv0_bn -> group2_block1_conv0_conv_top (in-place)
I0323 02:21:05.675117 131744 net.cpp:122] Setting up group2_block1_conv0_bn
I0323 02:21:05.675127 131744 net.cpp:129] Top shape: 32 64 8 8 (131072)
I0323 02:21:05.675137 131744 net.cpp:137] Memory required for data: 291373440
I0323 02:21:05.675149 131744 layer_factory.hpp:77] Creating layer group2_block1_conv0_scale
I0323 02:21:05.675158 131744 net.cpp:84] Creating Layer group2_block1_conv0_scale
I0323 02:21:05.675166 131744 net.cpp:406] group2_block1_conv0_scale <- group2_block1_conv0_conv_top
I0323 02:21:05.675175 131744 net.cpp:367] group2_block1_conv0_scale -> group2_block1_conv0_conv_top (in-place)
I0323 02:21:05.675223 131744 layer_factory.hpp:77] Creating layer group2_block1_conv0_scale
I0323 02:21:05.675361 131744 net.cpp:122] Setting up group2_block1_conv0_scale
I0323 02:21:05.675370 131744 net.cpp:129] Top shape: 32 64 8 8 (131072)
I0323 02:21:05.675379 131744 net.cpp:137] Memory required for data: 291897728
I0323 02:21:05.675391 131744 layer_factory.hpp:77] Creating layer group2_block1_conv0_relu
I0323 02:21:05.675400 131744 net.cpp:84] Creating Layer group2_block1_conv0_relu
I0323 02:21:05.675407 131744 net.cpp:406] group2_block1_conv0_relu <- group2_block1_conv0_conv_top
I0323 02:21:05.675416 131744 net.cpp:367] group2_block1_conv0_relu -> group2_block1_conv0_conv_top (in-place)
I0323 02:21:05.675931 131744 net.cpp:122] Setting up group2_block1_conv0_relu
I0323 02:21:05.675940 131744 net.cpp:129] Top shape: 32 64 8 8 (131072)
I0323 02:21:05.675951 131744 net.cpp:137] Memory required for data: 292422016
I0323 02:21:05.675957 131744 layer_factory.hpp:77] Creating layer group2_block1_conv1
I0323 02:21:05.675969 131744 net.cpp:84] Creating Layer group2_block1_conv1
I0323 02:21:05.675977 131744 net.cpp:406] group2_block1_conv1 <- group2_block1_conv0_conv_top
I0323 02:21:05.675988 131744 net.cpp:380] group2_block1_conv1 -> group2_block1_conv1_conv_top
I0323 02:21:05.679041 131744 net.cpp:122] Setting up group2_block1_conv1
I0323 02:21:05.679051 131744 net.cpp:129] Top shape: 32 64 8 8 (131072)
I0323 02:21:05.679061 131744 net.cpp:137] Memory required for data: 292946304
I0323 02:21:05.679075 131744 layer_factory.hpp:77] Creating layer group2_block1_conv1_bn
I0323 02:21:05.679085 131744 net.cpp:84] Creating Layer group2_block1_conv1_bn
I0323 02:21:05.679092 131744 net.cpp:406] group2_block1_conv1_bn <- group2_block1_conv1_conv_top
I0323 02:21:05.679102 131744 net.cpp:367] group2_block1_conv1_bn -> group2_block1_conv1_conv_top (in-place)
I0323 02:21:05.679345 131744 net.cpp:122] Setting up group2_block1_conv1_bn
I0323 02:21:05.679354 131744 net.cpp:129] Top shape: 32 64 8 8 (131072)
I0323 02:21:05.679364 131744 net.cpp:137] Memory required for data: 293470592
I0323 02:21:05.679378 131744 layer_factory.hpp:77] Creating layer group2_block1_conv1_scale
I0323 02:21:05.679386 131744 net.cpp:84] Creating Layer group2_block1_conv1_scale
I0323 02:21:05.679394 131744 net.cpp:406] group2_block1_conv1_scale <- group2_block1_conv1_conv_top
I0323 02:21:05.679404 131744 net.cpp:367] group2_block1_conv1_scale -> group2_block1_conv1_conv_top (in-place)
I0323 02:21:05.679451 131744 layer_factory.hpp:77] Creating layer group2_block1_conv1_scale
I0323 02:21:05.679589 131744 net.cpp:122] Setting up group2_block1_conv1_scale
I0323 02:21:05.679599 131744 net.cpp:129] Top shape: 32 64 8 8 (131072)
I0323 02:21:05.679607 131744 net.cpp:137] Memory required for data: 293994880
I0323 02:21:05.679620 131744 layer_factory.hpp:77] Creating layer group2_block1_sum_eltwise
I0323 02:21:05.679628 131744 net.cpp:84] Creating Layer group2_block1_sum_eltwise
I0323 02:21:05.679636 131744 net.cpp:406] group2_block1_sum_eltwise <- group2_block1_conv1_conv_top
I0323 02:21:05.679644 131744 net.cpp:406] group2_block1_sum_eltwise <- group2_block0_sum_eltwise_top_group2_block0_sum_eltwise_0_split_1
I0323 02:21:05.679654 131744 net.cpp:380] group2_block1_sum_eltwise -> group2_block1_sum_eltwise_top
I0323 02:21:05.679682 131744 net.cpp:122] Setting up group2_block1_sum_eltwise
I0323 02:21:05.679692 131744 net.cpp:129] Top shape: 32 64 8 8 (131072)
I0323 02:21:05.679700 131744 net.cpp:137] Memory required for data: 294519168
I0323 02:21:05.679708 131744 layer_factory.hpp:77] Creating layer group2_block1_sum_eltwise_top_group2_block1_sum_eltwise_0_split
I0323 02:21:05.679716 131744 net.cpp:84] Creating Layer group2_block1_sum_eltwise_top_group2_block1_sum_eltwise_0_split
I0323 02:21:05.679723 131744 net.cpp:406] group2_block1_sum_eltwise_top_group2_block1_sum_eltwise_0_split <- group2_block1_sum_eltwise_top
I0323 02:21:05.679733 131744 net.cpp:380] group2_block1_sum_eltwise_top_group2_block1_sum_eltwise_0_split -> group2_block1_sum_eltwise_top_group2_block1_sum_eltwise_0_split_0
I0323 02:21:05.679744 131744 net.cpp:380] group2_block1_sum_eltwise_top_group2_block1_sum_eltwise_0_split -> group2_block1_sum_eltwise_top_group2_block1_sum_eltwise_0_split_1
I0323 02:21:05.679787 131744 net.cpp:122] Setting up group2_block1_sum_eltwise_top_group2_block1_sum_eltwise_0_split
I0323 02:21:05.679795 131744 net.cpp:129] Top shape: 32 64 8 8 (131072)
I0323 02:21:05.679805 131744 net.cpp:129] Top shape: 32 64 8 8 (131072)
I0323 02:21:05.679813 131744 net.cpp:137] Memory required for data: 295567744
I0323 02:21:05.679821 131744 layer_factory.hpp:77] Creating layer group2_block2_conv0
I0323 02:21:05.679832 131744 net.cpp:84] Creating Layer group2_block2_conv0
I0323 02:21:05.679841 131744 net.cpp:406] group2_block2_conv0 <- group2_block1_sum_eltwise_top_group2_block1_sum_eltwise_0_split_0
I0323 02:21:05.679850 131744 net.cpp:380] group2_block2_conv0 -> group2_block2_conv0_conv_top
I0323 02:21:05.682920 131744 net.cpp:122] Setting up group2_block2_conv0
I0323 02:21:05.682947 131744 net.cpp:129] Top shape: 32 64 8 8 (131072)
I0323 02:21:05.682958 131744 net.cpp:137] Memory required for data: 296092032
I0323 02:21:05.682971 131744 layer_factory.hpp:77] Creating layer group2_block2_conv0_bn
I0323 02:21:05.682981 131744 net.cpp:84] Creating Layer group2_block2_conv0_bn
I0323 02:21:05.682988 131744 net.cpp:406] group2_block2_conv0_bn <- group2_block2_conv0_conv_top
I0323 02:21:05.682998 131744 net.cpp:367] group2_block2_conv0_bn -> group2_block2_conv0_conv_top (in-place)
I0323 02:21:05.683239 131744 net.cpp:122] Setting up group2_block2_conv0_bn
I0323 02:21:05.683249 131744 net.cpp:129] Top shape: 32 64 8 8 (131072)
I0323 02:21:05.683259 131744 net.cpp:137] Memory required for data: 296616320
I0323 02:21:05.683271 131744 layer_factory.hpp:77] Creating layer group2_block2_conv0_scale
I0323 02:21:05.683281 131744 net.cpp:84] Creating Layer group2_block2_conv0_scale
I0323 02:21:05.683290 131744 net.cpp:406] group2_block2_conv0_scale <- group2_block2_conv0_conv_top
I0323 02:21:05.683298 131744 net.cpp:367] group2_block2_conv0_scale -> group2_block2_conv0_conv_top (in-place)
I0323 02:21:05.683347 131744 layer_factory.hpp:77] Creating layer group2_block2_conv0_scale
I0323 02:21:05.683485 131744 net.cpp:122] Setting up group2_block2_conv0_scale
I0323 02:21:05.683492 131744 net.cpp:129] Top shape: 32 64 8 8 (131072)
I0323 02:21:05.683502 131744 net.cpp:137] Memory required for data: 297140608
I0323 02:21:05.683514 131744 layer_factory.hpp:77] Creating layer group2_block2_conv0_relu
I0323 02:21:05.683523 131744 net.cpp:84] Creating Layer group2_block2_conv0_relu
I0323 02:21:05.683531 131744 net.cpp:406] group2_block2_conv0_relu <- group2_block2_conv0_conv_top
I0323 02:21:05.683539 131744 net.cpp:367] group2_block2_conv0_relu -> group2_block2_conv0_conv_top (in-place)
I0323 02:21:05.684060 131744 net.cpp:122] Setting up group2_block2_conv0_relu
I0323 02:21:05.684069 131744 net.cpp:129] Top shape: 32 64 8 8 (131072)
I0323 02:21:05.684079 131744 net.cpp:137] Memory required for data: 297664896
I0323 02:21:05.684087 131744 layer_factory.hpp:77] Creating layer group2_block2_conv1
I0323 02:21:05.684098 131744 net.cpp:84] Creating Layer group2_block2_conv1
I0323 02:21:05.684105 131744 net.cpp:406] group2_block2_conv1 <- group2_block2_conv0_conv_top
I0323 02:21:05.684116 131744 net.cpp:380] group2_block2_conv1 -> group2_block2_conv1_conv_top
I0323 02:21:05.687152 131744 net.cpp:122] Setting up group2_block2_conv1
I0323 02:21:05.687163 131744 net.cpp:129] Top shape: 32 64 8 8 (131072)
I0323 02:21:05.687173 131744 net.cpp:137] Memory required for data: 298189184
I0323 02:21:05.687186 131744 layer_factory.hpp:77] Creating layer group2_block2_conv1_bn
I0323 02:21:05.687196 131744 net.cpp:84] Creating Layer group2_block2_conv1_bn
I0323 02:21:05.687204 131744 net.cpp:406] group2_block2_conv1_bn <- group2_block2_conv1_conv_top
I0323 02:21:05.687213 131744 net.cpp:367] group2_block2_conv1_bn -> group2_block2_conv1_conv_top (in-place)
I0323 02:21:05.687451 131744 net.cpp:122] Setting up group2_block2_conv1_bn
I0323 02:21:05.687460 131744 net.cpp:129] Top shape: 32 64 8 8 (131072)
I0323 02:21:05.687469 131744 net.cpp:137] Memory required for data: 298713472
I0323 02:21:05.687484 131744 layer_factory.hpp:77] Creating layer group2_block2_conv1_scale
I0323 02:21:05.687492 131744 net.cpp:84] Creating Layer group2_block2_conv1_scale
I0323 02:21:05.687500 131744 net.cpp:406] group2_block2_conv1_scale <- group2_block2_conv1_conv_top
I0323 02:21:05.687510 131744 net.cpp:367] group2_block2_conv1_scale -> group2_block2_conv1_conv_top (in-place)
I0323 02:21:05.687556 131744 layer_factory.hpp:77] Creating layer group2_block2_conv1_scale
I0323 02:21:05.687700 131744 net.cpp:122] Setting up group2_block2_conv1_scale
I0323 02:21:05.687710 131744 net.cpp:129] Top shape: 32 64 8 8 (131072)
I0323 02:21:05.687718 131744 net.cpp:137] Memory required for data: 299237760
I0323 02:21:05.687731 131744 layer_factory.hpp:77] Creating layer group2_block2_sum_eltwise
I0323 02:21:05.687739 131744 net.cpp:84] Creating Layer group2_block2_sum_eltwise
I0323 02:21:05.687747 131744 net.cpp:406] group2_block2_sum_eltwise <- group2_block2_conv1_conv_top
I0323 02:21:05.687755 131744 net.cpp:406] group2_block2_sum_eltwise <- group2_block1_sum_eltwise_top_group2_block1_sum_eltwise_0_split_1
I0323 02:21:05.687765 131744 net.cpp:380] group2_block2_sum_eltwise -> group2_block2_sum_eltwise_top
I0323 02:21:05.687794 131744 net.cpp:122] Setting up group2_block2_sum_eltwise
I0323 02:21:05.687803 131744 net.cpp:129] Top shape: 32 64 8 8 (131072)
I0323 02:21:05.687811 131744 net.cpp:137] Memory required for data: 299762048
I0323 02:21:05.687819 131744 layer_factory.hpp:77] Creating layer group2_block2_sum_eltwise_top_group2_block2_sum_eltwise_0_split
I0323 02:21:05.687827 131744 net.cpp:84] Creating Layer group2_block2_sum_eltwise_top_group2_block2_sum_eltwise_0_split
I0323 02:21:05.687834 131744 net.cpp:406] group2_block2_sum_eltwise_top_group2_block2_sum_eltwise_0_split <- group2_block2_sum_eltwise_top
I0323 02:21:05.687844 131744 net.cpp:380] group2_block2_sum_eltwise_top_group2_block2_sum_eltwise_0_split -> group2_block2_sum_eltwise_top_group2_block2_sum_eltwise_0_split_0
I0323 02:21:05.687855 131744 net.cpp:380] group2_block2_sum_eltwise_top_group2_block2_sum_eltwise_0_split -> group2_block2_sum_eltwise_top_group2_block2_sum_eltwise_0_split_1
I0323 02:21:05.687898 131744 net.cpp:122] Setting up group2_block2_sum_eltwise_top_group2_block2_sum_eltwise_0_split
I0323 02:21:05.687906 131744 net.cpp:129] Top shape: 32 64 8 8 (131072)
I0323 02:21:05.687916 131744 net.cpp:129] Top shape: 32 64 8 8 (131072)
I0323 02:21:05.687924 131744 net.cpp:137] Memory required for data: 300810624
I0323 02:21:05.687932 131744 layer_factory.hpp:77] Creating layer group2_block3_conv0
I0323 02:21:05.687943 131744 net.cpp:84] Creating Layer group2_block3_conv0
I0323 02:21:05.687950 131744 net.cpp:406] group2_block3_conv0 <- group2_block2_sum_eltwise_top_group2_block2_sum_eltwise_0_split_0
I0323 02:21:05.687961 131744 net.cpp:380] group2_block3_conv0 -> group2_block3_conv0_conv_top
I0323 02:21:05.691013 131744 net.cpp:122] Setting up group2_block3_conv0
I0323 02:21:05.691025 131744 net.cpp:129] Top shape: 32 64 8 8 (131072)
I0323 02:21:05.691036 131744 net.cpp:137] Memory required for data: 301334912
I0323 02:21:05.691048 131744 layer_factory.hpp:77] Creating layer group2_block3_conv0_bn
I0323 02:21:05.691059 131744 net.cpp:84] Creating Layer group2_block3_conv0_bn
I0323 02:21:05.691067 131744 net.cpp:406] group2_block3_conv0_bn <- group2_block3_conv0_conv_top
I0323 02:21:05.691076 131744 net.cpp:367] group2_block3_conv0_bn -> group2_block3_conv0_conv_top (in-place)
I0323 02:21:05.691316 131744 net.cpp:122] Setting up group2_block3_conv0_bn
I0323 02:21:05.691325 131744 net.cpp:129] Top shape: 32 64 8 8 (131072)
I0323 02:21:05.691334 131744 net.cpp:137] Memory required for data: 301859200
I0323 02:21:05.691347 131744 layer_factory.hpp:77] Creating layer group2_block3_conv0_scale
I0323 02:21:05.691357 131744 net.cpp:84] Creating Layer group2_block3_conv0_scale
I0323 02:21:05.691365 131744 net.cpp:406] group2_block3_conv0_scale <- group2_block3_conv0_conv_top
I0323 02:21:05.691375 131744 net.cpp:367] group2_block3_conv0_scale -> group2_block3_conv0_conv_top (in-place)
I0323 02:21:05.691421 131744 layer_factory.hpp:77] Creating layer group2_block3_conv0_scale
I0323 02:21:05.691565 131744 net.cpp:122] Setting up group2_block3_conv0_scale
I0323 02:21:05.691574 131744 net.cpp:129] Top shape: 32 64 8 8 (131072)
I0323 02:21:05.691583 131744 net.cpp:137] Memory required for data: 302383488
I0323 02:21:05.691596 131744 layer_factory.hpp:77] Creating layer group2_block3_conv0_relu
I0323 02:21:05.691604 131744 net.cpp:84] Creating Layer group2_block3_conv0_relu
I0323 02:21:05.691612 131744 net.cpp:406] group2_block3_conv0_relu <- group2_block3_conv0_conv_top
I0323 02:21:05.691620 131744 net.cpp:367] group2_block3_conv0_relu -> group2_block3_conv0_conv_top (in-place)
I0323 02:21:05.692580 131744 net.cpp:122] Setting up group2_block3_conv0_relu
I0323 02:21:05.692590 131744 net.cpp:129] Top shape: 32 64 8 8 (131072)
I0323 02:21:05.692600 131744 net.cpp:137] Memory required for data: 302907776
I0323 02:21:05.692607 131744 layer_factory.hpp:77] Creating layer group2_block3_conv1
I0323 02:21:05.692620 131744 net.cpp:84] Creating Layer group2_block3_conv1
I0323 02:21:05.692627 131744 net.cpp:406] group2_block3_conv1 <- group2_block3_conv0_conv_top
I0323 02:21:05.692637 131744 net.cpp:380] group2_block3_conv1 -> group2_block3_conv1_conv_top
I0323 02:21:05.695705 131744 net.cpp:122] Setting up group2_block3_conv1
I0323 02:21:05.695716 131744 net.cpp:129] Top shape: 32 64 8 8 (131072)
I0323 02:21:05.695727 131744 net.cpp:137] Memory required for data: 303432064
I0323 02:21:05.695739 131744 layer_factory.hpp:77] Creating layer group2_block3_conv1_bn
I0323 02:21:05.695753 131744 net.cpp:84] Creating Layer group2_block3_conv1_bn
I0323 02:21:05.695761 131744 net.cpp:406] group2_block3_conv1_bn <- group2_block3_conv1_conv_top
I0323 02:21:05.695771 131744 net.cpp:367] group2_block3_conv1_bn -> group2_block3_conv1_conv_top (in-place)
I0323 02:21:05.696015 131744 net.cpp:122] Setting up group2_block3_conv1_bn
I0323 02:21:05.696024 131744 net.cpp:129] Top shape: 32 64 8 8 (131072)
I0323 02:21:05.696033 131744 net.cpp:137] Memory required for data: 303956352
I0323 02:21:05.696048 131744 layer_factory.hpp:77] Creating layer group2_block3_conv1_scale
I0323 02:21:05.696056 131744 net.cpp:84] Creating Layer group2_block3_conv1_scale
I0323 02:21:05.696064 131744 net.cpp:406] group2_block3_conv1_scale <- group2_block3_conv1_conv_top
I0323 02:21:05.696074 131744 net.cpp:367] group2_block3_conv1_scale -> group2_block3_conv1_conv_top (in-place)
I0323 02:21:05.696122 131744 layer_factory.hpp:77] Creating layer group2_block3_conv1_scale
I0323 02:21:05.696266 131744 net.cpp:122] Setting up group2_block3_conv1_scale
I0323 02:21:05.696275 131744 net.cpp:129] Top shape: 32 64 8 8 (131072)
I0323 02:21:05.696285 131744 net.cpp:137] Memory required for data: 304480640
I0323 02:21:05.696296 131744 layer_factory.hpp:77] Creating layer group2_block3_sum_eltwise
I0323 02:21:05.696305 131744 net.cpp:84] Creating Layer group2_block3_sum_eltwise
I0323 02:21:05.696312 131744 net.cpp:406] group2_block3_sum_eltwise <- group2_block3_conv1_conv_top
I0323 02:21:05.696321 131744 net.cpp:406] group2_block3_sum_eltwise <- group2_block2_sum_eltwise_top_group2_block2_sum_eltwise_0_split_1
I0323 02:21:05.696331 131744 net.cpp:380] group2_block3_sum_eltwise -> group2_block3_sum_eltwise_top
I0323 02:21:05.696360 131744 net.cpp:122] Setting up group2_block3_sum_eltwise
I0323 02:21:05.696368 131744 net.cpp:129] Top shape: 32 64 8 8 (131072)
I0323 02:21:05.696377 131744 net.cpp:137] Memory required for data: 305004928
I0323 02:21:05.696384 131744 layer_factory.hpp:77] Creating layer group2_block3_sum_eltwise_top_group2_block3_sum_eltwise_0_split
I0323 02:21:05.696393 131744 net.cpp:84] Creating Layer group2_block3_sum_eltwise_top_group2_block3_sum_eltwise_0_split
I0323 02:21:05.696400 131744 net.cpp:406] group2_block3_sum_eltwise_top_group2_block3_sum_eltwise_0_split <- group2_block3_sum_eltwise_top
I0323 02:21:05.696410 131744 net.cpp:380] group2_block3_sum_eltwise_top_group2_block3_sum_eltwise_0_split -> group2_block3_sum_eltwise_top_group2_block3_sum_eltwise_0_split_0
I0323 02:21:05.696421 131744 net.cpp:380] group2_block3_sum_eltwise_top_group2_block3_sum_eltwise_0_split -> group2_block3_sum_eltwise_top_group2_block3_sum_eltwise_0_split_1
I0323 02:21:05.696465 131744 net.cpp:122] Setting up group2_block3_sum_eltwise_top_group2_block3_sum_eltwise_0_split
I0323 02:21:05.696473 131744 net.cpp:129] Top shape: 32 64 8 8 (131072)
I0323 02:21:05.696483 131744 net.cpp:129] Top shape: 32 64 8 8 (131072)
I0323 02:21:05.696492 131744 net.cpp:137] Memory required for data: 306053504
I0323 02:21:05.696499 131744 layer_factory.hpp:77] Creating layer group2_block4_conv0
I0323 02:21:05.696511 131744 net.cpp:84] Creating Layer group2_block4_conv0
I0323 02:21:05.696518 131744 net.cpp:406] group2_block4_conv0 <- group2_block3_sum_eltwise_top_group2_block3_sum_eltwise_0_split_0
I0323 02:21:05.696528 131744 net.cpp:380] group2_block4_conv0 -> group2_block4_conv0_conv_top
I0323 02:21:05.700445 131744 net.cpp:122] Setting up group2_block4_conv0
I0323 02:21:05.700460 131744 net.cpp:129] Top shape: 32 64 8 8 (131072)
I0323 02:21:05.700471 131744 net.cpp:137] Memory required for data: 306577792
I0323 02:21:05.700485 131744 layer_factory.hpp:77] Creating layer group2_block4_conv0_bn
I0323 02:21:05.700496 131744 net.cpp:84] Creating Layer group2_block4_conv0_bn
I0323 02:21:05.700505 131744 net.cpp:406] group2_block4_conv0_bn <- group2_block4_conv0_conv_top
I0323 02:21:05.700515 131744 net.cpp:367] group2_block4_conv0_bn -> group2_block4_conv0_conv_top (in-place)
I0323 02:21:05.700767 131744 net.cpp:122] Setting up group2_block4_conv0_bn
I0323 02:21:05.700776 131744 net.cpp:129] Top shape: 32 64 8 8 (131072)
I0323 02:21:05.700786 131744 net.cpp:137] Memory required for data: 307102080
I0323 02:21:05.700799 131744 layer_factory.hpp:77] Creating layer group2_block4_conv0_scale
I0323 02:21:05.700809 131744 net.cpp:84] Creating Layer group2_block4_conv0_scale
I0323 02:21:05.700816 131744 net.cpp:406] group2_block4_conv0_scale <- group2_block4_conv0_conv_top
I0323 02:21:05.700826 131744 net.cpp:367] group2_block4_conv0_scale -> group2_block4_conv0_conv_top (in-place)
I0323 02:21:05.700891 131744 layer_factory.hpp:77] Creating layer group2_block4_conv0_scale
I0323 02:21:05.701036 131744 net.cpp:122] Setting up group2_block4_conv0_scale
I0323 02:21:05.701045 131744 net.cpp:129] Top shape: 32 64 8 8 (131072)
I0323 02:21:05.701055 131744 net.cpp:137] Memory required for data: 307626368
I0323 02:21:05.701066 131744 layer_factory.hpp:77] Creating layer group2_block4_conv0_relu
I0323 02:21:05.701076 131744 net.cpp:84] Creating Layer group2_block4_conv0_relu
I0323 02:21:05.701082 131744 net.cpp:406] group2_block4_conv0_relu <- group2_block4_conv0_conv_top
I0323 02:21:05.701092 131744 net.cpp:367] group2_block4_conv0_relu -> group2_block4_conv0_conv_top (in-place)
I0323 02:21:05.701617 131744 net.cpp:122] Setting up group2_block4_conv0_relu
I0323 02:21:05.701627 131744 net.cpp:129] Top shape: 32 64 8 8 (131072)
I0323 02:21:05.701637 131744 net.cpp:137] Memory required for data: 308150656
I0323 02:21:05.701644 131744 layer_factory.hpp:77] Creating layer group2_block4_conv1
I0323 02:21:05.701656 131744 net.cpp:84] Creating Layer group2_block4_conv1
I0323 02:21:05.701664 131744 net.cpp:406] group2_block4_conv1 <- group2_block4_conv0_conv_top
I0323 02:21:05.701675 131744 net.cpp:380] group2_block4_conv1 -> group2_block4_conv1_conv_top
I0323 02:21:05.704741 131744 net.cpp:122] Setting up group2_block4_conv1
I0323 02:21:05.704753 131744 net.cpp:129] Top shape: 32 64 8 8 (131072)
I0323 02:21:05.704763 131744 net.cpp:137] Memory required for data: 308674944
I0323 02:21:05.704777 131744 layer_factory.hpp:77] Creating layer group2_block4_conv1_bn
I0323 02:21:05.704787 131744 net.cpp:84] Creating Layer group2_block4_conv1_bn
I0323 02:21:05.704794 131744 net.cpp:406] group2_block4_conv1_bn <- group2_block4_conv1_conv_top
I0323 02:21:05.704804 131744 net.cpp:367] group2_block4_conv1_bn -> group2_block4_conv1_conv_top (in-place)
I0323 02:21:05.705051 131744 net.cpp:122] Setting up group2_block4_conv1_bn
I0323 02:21:05.705060 131744 net.cpp:129] Top shape: 32 64 8 8 (131072)
I0323 02:21:05.705070 131744 net.cpp:137] Memory required for data: 309199232
I0323 02:21:05.705083 131744 layer_factory.hpp:77] Creating layer group2_block4_conv1_scale
I0323 02:21:05.705092 131744 net.cpp:84] Creating Layer group2_block4_conv1_scale
I0323 02:21:05.705101 131744 net.cpp:406] group2_block4_conv1_scale <- group2_block4_conv1_conv_top
I0323 02:21:05.705109 131744 net.cpp:367] group2_block4_conv1_scale -> group2_block4_conv1_conv_top (in-place)
I0323 02:21:05.705158 131744 layer_factory.hpp:77] Creating layer group2_block4_conv1_scale
I0323 02:21:05.705301 131744 net.cpp:122] Setting up group2_block4_conv1_scale
I0323 02:21:05.705308 131744 net.cpp:129] Top shape: 32 64 8 8 (131072)
I0323 02:21:05.705318 131744 net.cpp:137] Memory required for data: 309723520
I0323 02:21:05.705329 131744 layer_factory.hpp:77] Creating layer group2_block4_sum_eltwise
I0323 02:21:05.705339 131744 net.cpp:84] Creating Layer group2_block4_sum_eltwise
I0323 02:21:05.705346 131744 net.cpp:406] group2_block4_sum_eltwise <- group2_block4_conv1_conv_top
I0323 02:21:05.705355 131744 net.cpp:406] group2_block4_sum_eltwise <- group2_block3_sum_eltwise_top_group2_block3_sum_eltwise_0_split_1
I0323 02:21:05.705364 131744 net.cpp:380] group2_block4_sum_eltwise -> group2_block4_sum_eltwise_top
I0323 02:21:05.705394 131744 net.cpp:122] Setting up group2_block4_sum_eltwise
I0323 02:21:05.705402 131744 net.cpp:129] Top shape: 32 64 8 8 (131072)
I0323 02:21:05.705411 131744 net.cpp:137] Memory required for data: 310247808
I0323 02:21:05.705418 131744 layer_factory.hpp:77] Creating layer group2_block4_sum_eltwise_top_group2_block4_sum_eltwise_0_split
I0323 02:21:05.705427 131744 net.cpp:84] Creating Layer group2_block4_sum_eltwise_top_group2_block4_sum_eltwise_0_split
I0323 02:21:05.705435 131744 net.cpp:406] group2_block4_sum_eltwise_top_group2_block4_sum_eltwise_0_split <- group2_block4_sum_eltwise_top
I0323 02:21:05.705444 131744 net.cpp:380] group2_block4_sum_eltwise_top_group2_block4_sum_eltwise_0_split -> group2_block4_sum_eltwise_top_group2_block4_sum_eltwise_0_split_0
I0323 02:21:05.705456 131744 net.cpp:380] group2_block4_sum_eltwise_top_group2_block4_sum_eltwise_0_split -> group2_block4_sum_eltwise_top_group2_block4_sum_eltwise_0_split_1
I0323 02:21:05.705499 131744 net.cpp:122] Setting up group2_block4_sum_eltwise_top_group2_block4_sum_eltwise_0_split
I0323 02:21:05.705507 131744 net.cpp:129] Top shape: 32 64 8 8 (131072)
I0323 02:21:05.705518 131744 net.cpp:129] Top shape: 32 64 8 8 (131072)
I0323 02:21:05.705526 131744 net.cpp:137] Memory required for data: 311296384
I0323 02:21:05.705533 131744 layer_factory.hpp:77] Creating layer group2_block5_conv0
I0323 02:21:05.705544 131744 net.cpp:84] Creating Layer group2_block5_conv0
I0323 02:21:05.705552 131744 net.cpp:406] group2_block5_conv0 <- group2_block4_sum_eltwise_top_group2_block4_sum_eltwise_0_split_0
I0323 02:21:05.705562 131744 net.cpp:380] group2_block5_conv0 -> group2_block5_conv0_conv_top
I0323 02:21:05.708626 131744 net.cpp:122] Setting up group2_block5_conv0
I0323 02:21:05.708638 131744 net.cpp:129] Top shape: 32 64 8 8 (131072)
I0323 02:21:05.708648 131744 net.cpp:137] Memory required for data: 311820672
I0323 02:21:05.708662 131744 layer_factory.hpp:77] Creating layer group2_block5_conv0_bn
I0323 02:21:05.708672 131744 net.cpp:84] Creating Layer group2_block5_conv0_bn
I0323 02:21:05.708679 131744 net.cpp:406] group2_block5_conv0_bn <- group2_block5_conv0_conv_top
I0323 02:21:05.708689 131744 net.cpp:367] group2_block5_conv0_bn -> group2_block5_conv0_conv_top (in-place)
I0323 02:21:05.708938 131744 net.cpp:122] Setting up group2_block5_conv0_bn
I0323 02:21:05.708947 131744 net.cpp:129] Top shape: 32 64 8 8 (131072)
I0323 02:21:05.708956 131744 net.cpp:137] Memory required for data: 312344960
I0323 02:21:05.708971 131744 layer_factory.hpp:77] Creating layer group2_block5_conv0_scale
I0323 02:21:05.708979 131744 net.cpp:84] Creating Layer group2_block5_conv0_scale
I0323 02:21:05.708987 131744 net.cpp:406] group2_block5_conv0_scale <- group2_block5_conv0_conv_top
I0323 02:21:05.708997 131744 net.cpp:367] group2_block5_conv0_scale -> group2_block5_conv0_conv_top (in-place)
I0323 02:21:05.709045 131744 layer_factory.hpp:77] Creating layer group2_block5_conv0_scale
I0323 02:21:05.709187 131744 net.cpp:122] Setting up group2_block5_conv0_scale
I0323 02:21:05.709195 131744 net.cpp:129] Top shape: 32 64 8 8 (131072)
I0323 02:21:05.709204 131744 net.cpp:137] Memory required for data: 312869248
I0323 02:21:05.709215 131744 layer_factory.hpp:77] Creating layer group2_block5_conv0_relu
I0323 02:21:05.709224 131744 net.cpp:84] Creating Layer group2_block5_conv0_relu
I0323 02:21:05.709233 131744 net.cpp:406] group2_block5_conv0_relu <- group2_block5_conv0_conv_top
I0323 02:21:05.709241 131744 net.cpp:367] group2_block5_conv0_relu -> group2_block5_conv0_conv_top (in-place)
I0323 02:21:05.709756 131744 net.cpp:122] Setting up group2_block5_conv0_relu
I0323 02:21:05.709766 131744 net.cpp:129] Top shape: 32 64 8 8 (131072)
I0323 02:21:05.709775 131744 net.cpp:137] Memory required for data: 313393536
I0323 02:21:05.709784 131744 layer_factory.hpp:77] Creating layer group2_block5_conv1
I0323 02:21:05.709794 131744 net.cpp:84] Creating Layer group2_block5_conv1
I0323 02:21:05.709802 131744 net.cpp:406] group2_block5_conv1 <- group2_block5_conv0_conv_top
I0323 02:21:05.709812 131744 net.cpp:380] group2_block5_conv1 -> group2_block5_conv1_conv_top
I0323 02:21:05.713349 131744 net.cpp:122] Setting up group2_block5_conv1
I0323 02:21:05.713361 131744 net.cpp:129] Top shape: 32 64 8 8 (131072)
I0323 02:21:05.713371 131744 net.cpp:137] Memory required for data: 313917824
I0323 02:21:05.713383 131744 layer_factory.hpp:77] Creating layer group2_block5_conv1_bn
I0323 02:21:05.713394 131744 net.cpp:84] Creating Layer group2_block5_conv1_bn
I0323 02:21:05.713402 131744 net.cpp:406] group2_block5_conv1_bn <- group2_block5_conv1_conv_top
I0323 02:21:05.713412 131744 net.cpp:367] group2_block5_conv1_bn -> group2_block5_conv1_conv_top (in-place)
I0323 02:21:05.713660 131744 net.cpp:122] Setting up group2_block5_conv1_bn
I0323 02:21:05.713670 131744 net.cpp:129] Top shape: 32 64 8 8 (131072)
I0323 02:21:05.713680 131744 net.cpp:137] Memory required for data: 314442112
I0323 02:21:05.713692 131744 layer_factory.hpp:77] Creating layer group2_block5_conv1_scale
I0323 02:21:05.713701 131744 net.cpp:84] Creating Layer group2_block5_conv1_scale
I0323 02:21:05.713709 131744 net.cpp:406] group2_block5_conv1_scale <- group2_block5_conv1_conv_top
I0323 02:21:05.713718 131744 net.cpp:367] group2_block5_conv1_scale -> group2_block5_conv1_conv_top (in-place)
I0323 02:21:05.713768 131744 layer_factory.hpp:77] Creating layer group2_block5_conv1_scale
I0323 02:21:05.713917 131744 net.cpp:122] Setting up group2_block5_conv1_scale
I0323 02:21:05.713927 131744 net.cpp:129] Top shape: 32 64 8 8 (131072)
I0323 02:21:05.713937 131744 net.cpp:137] Memory required for data: 314966400
I0323 02:21:05.713948 131744 layer_factory.hpp:77] Creating layer group2_block5_sum_eltwise
I0323 02:21:05.713956 131744 net.cpp:84] Creating Layer group2_block5_sum_eltwise
I0323 02:21:05.713964 131744 net.cpp:406] group2_block5_sum_eltwise <- group2_block5_conv1_conv_top
I0323 02:21:05.713973 131744 net.cpp:406] group2_block5_sum_eltwise <- group2_block4_sum_eltwise_top_group2_block4_sum_eltwise_0_split_1
I0323 02:21:05.713982 131744 net.cpp:380] group2_block5_sum_eltwise -> group2_block5_sum_eltwise_top
I0323 02:21:05.714012 131744 net.cpp:122] Setting up group2_block5_sum_eltwise
I0323 02:21:05.714020 131744 net.cpp:129] Top shape: 32 64 8 8 (131072)
I0323 02:21:05.714030 131744 net.cpp:137] Memory required for data: 315490688
I0323 02:21:05.714036 131744 layer_factory.hpp:77] Creating layer group2_block5_sum_eltwise_top_group2_block5_sum_eltwise_0_split
I0323 02:21:05.714046 131744 net.cpp:84] Creating Layer group2_block5_sum_eltwise_top_group2_block5_sum_eltwise_0_split
I0323 02:21:05.714052 131744 net.cpp:406] group2_block5_sum_eltwise_top_group2_block5_sum_eltwise_0_split <- group2_block5_sum_eltwise_top
I0323 02:21:05.714062 131744 net.cpp:380] group2_block5_sum_eltwise_top_group2_block5_sum_eltwise_0_split -> group2_block5_sum_eltwise_top_group2_block5_sum_eltwise_0_split_0
I0323 02:21:05.714073 131744 net.cpp:380] group2_block5_sum_eltwise_top_group2_block5_sum_eltwise_0_split -> group2_block5_sum_eltwise_top_group2_block5_sum_eltwise_0_split_1
I0323 02:21:05.714148 131744 net.cpp:122] Setting up group2_block5_sum_eltwise_top_group2_block5_sum_eltwise_0_split
I0323 02:21:05.714156 131744 net.cpp:129] Top shape: 32 64 8 8 (131072)
I0323 02:21:05.714166 131744 net.cpp:129] Top shape: 32 64 8 8 (131072)
I0323 02:21:05.714175 131744 net.cpp:137] Memory required for data: 316539264
I0323 02:21:05.714182 131744 layer_factory.hpp:77] Creating layer group2_block6_conv0
I0323 02:21:05.714195 131744 net.cpp:84] Creating Layer group2_block6_conv0
I0323 02:21:05.714201 131744 net.cpp:406] group2_block6_conv0 <- group2_block5_sum_eltwise_top_group2_block5_sum_eltwise_0_split_0
I0323 02:21:05.714212 131744 net.cpp:380] group2_block6_conv0 -> group2_block6_conv0_conv_top
I0323 02:21:05.717268 131744 net.cpp:122] Setting up group2_block6_conv0
I0323 02:21:05.717279 131744 net.cpp:129] Top shape: 32 64 8 8 (131072)
I0323 02:21:05.717289 131744 net.cpp:137] Memory required for data: 317063552
I0323 02:21:05.717303 131744 layer_factory.hpp:77] Creating layer group2_block6_conv0_bn
I0323 02:21:05.717312 131744 net.cpp:84] Creating Layer group2_block6_conv0_bn
I0323 02:21:05.717320 131744 net.cpp:406] group2_block6_conv0_bn <- group2_block6_conv0_conv_top
I0323 02:21:05.717330 131744 net.cpp:367] group2_block6_conv0_bn -> group2_block6_conv0_conv_top (in-place)
I0323 02:21:05.717582 131744 net.cpp:122] Setting up group2_block6_conv0_bn
I0323 02:21:05.717591 131744 net.cpp:129] Top shape: 32 64 8 8 (131072)
I0323 02:21:05.717600 131744 net.cpp:137] Memory required for data: 317587840
I0323 02:21:05.717613 131744 layer_factory.hpp:77] Creating layer group2_block6_conv0_scale
I0323 02:21:05.717623 131744 net.cpp:84] Creating Layer group2_block6_conv0_scale
I0323 02:21:05.717630 131744 net.cpp:406] group2_block6_conv0_scale <- group2_block6_conv0_conv_top
I0323 02:21:05.717643 131744 net.cpp:367] group2_block6_conv0_scale -> group2_block6_conv0_conv_top (in-place)
I0323 02:21:05.717694 131744 layer_factory.hpp:77] Creating layer group2_block6_conv0_scale
I0323 02:21:05.717839 131744 net.cpp:122] Setting up group2_block6_conv0_scale
I0323 02:21:05.717847 131744 net.cpp:129] Top shape: 32 64 8 8 (131072)
I0323 02:21:05.717857 131744 net.cpp:137] Memory required for data: 318112128
I0323 02:21:05.717869 131744 layer_factory.hpp:77] Creating layer group2_block6_conv0_relu
I0323 02:21:05.717877 131744 net.cpp:84] Creating Layer group2_block6_conv0_relu
I0323 02:21:05.717885 131744 net.cpp:406] group2_block6_conv0_relu <- group2_block6_conv0_conv_top
I0323 02:21:05.717895 131744 net.cpp:367] group2_block6_conv0_relu -> group2_block6_conv0_conv_top (in-place)
I0323 02:21:05.718853 131744 net.cpp:122] Setting up group2_block6_conv0_relu
I0323 02:21:05.718863 131744 net.cpp:129] Top shape: 32 64 8 8 (131072)
I0323 02:21:05.718873 131744 net.cpp:137] Memory required for data: 318636416
I0323 02:21:05.718880 131744 layer_factory.hpp:77] Creating layer group2_block6_conv1
I0323 02:21:05.718892 131744 net.cpp:84] Creating Layer group2_block6_conv1
I0323 02:21:05.718900 131744 net.cpp:406] group2_block6_conv1 <- group2_block6_conv0_conv_top
I0323 02:21:05.718911 131744 net.cpp:380] group2_block6_conv1 -> group2_block6_conv1_conv_top
I0323 02:21:05.722512 131744 net.cpp:122] Setting up group2_block6_conv1
I0323 02:21:05.722524 131744 net.cpp:129] Top shape: 32 64 8 8 (131072)
I0323 02:21:05.722534 131744 net.cpp:137] Memory required for data: 319160704
I0323 02:21:05.722548 131744 layer_factory.hpp:77] Creating layer group2_block6_conv1_bn
I0323 02:21:05.722558 131744 net.cpp:84] Creating Layer group2_block6_conv1_bn
I0323 02:21:05.722565 131744 net.cpp:406] group2_block6_conv1_bn <- group2_block6_conv1_conv_top
I0323 02:21:05.722575 131744 net.cpp:367] group2_block6_conv1_bn -> group2_block6_conv1_conv_top (in-place)
I0323 02:21:05.722823 131744 net.cpp:122] Setting up group2_block6_conv1_bn
I0323 02:21:05.722832 131744 net.cpp:129] Top shape: 32 64 8 8 (131072)
I0323 02:21:05.722841 131744 net.cpp:137] Memory required for data: 319684992
I0323 02:21:05.722856 131744 layer_factory.hpp:77] Creating layer group2_block6_conv1_scale
I0323 02:21:05.722864 131744 net.cpp:84] Creating Layer group2_block6_conv1_scale
I0323 02:21:05.722872 131744 net.cpp:406] group2_block6_conv1_scale <- group2_block6_conv1_conv_top
I0323 02:21:05.722882 131744 net.cpp:367] group2_block6_conv1_scale -> group2_block6_conv1_conv_top (in-place)
I0323 02:21:05.722931 131744 layer_factory.hpp:77] Creating layer group2_block6_conv1_scale
I0323 02:21:05.723075 131744 net.cpp:122] Setting up group2_block6_conv1_scale
I0323 02:21:05.723084 131744 net.cpp:129] Top shape: 32 64 8 8 (131072)
I0323 02:21:05.723094 131744 net.cpp:137] Memory required for data: 320209280
I0323 02:21:05.723105 131744 layer_factory.hpp:77] Creating layer group2_block6_sum_eltwise
I0323 02:21:05.723114 131744 net.cpp:84] Creating Layer group2_block6_sum_eltwise
I0323 02:21:05.723122 131744 net.cpp:406] group2_block6_sum_eltwise <- group2_block6_conv1_conv_top
I0323 02:21:05.723130 131744 net.cpp:406] group2_block6_sum_eltwise <- group2_block5_sum_eltwise_top_group2_block5_sum_eltwise_0_split_1
I0323 02:21:05.723140 131744 net.cpp:380] group2_block6_sum_eltwise -> group2_block6_sum_eltwise_top
I0323 02:21:05.723170 131744 net.cpp:122] Setting up group2_block6_sum_eltwise
I0323 02:21:05.723177 131744 net.cpp:129] Top shape: 32 64 8 8 (131072)
I0323 02:21:05.723187 131744 net.cpp:137] Memory required for data: 320733568
I0323 02:21:05.723194 131744 layer_factory.hpp:77] Creating layer group2_block6_sum_eltwise_top_group2_block6_sum_eltwise_0_split
I0323 02:21:05.723202 131744 net.cpp:84] Creating Layer group2_block6_sum_eltwise_top_group2_block6_sum_eltwise_0_split
I0323 02:21:05.723211 131744 net.cpp:406] group2_block6_sum_eltwise_top_group2_block6_sum_eltwise_0_split <- group2_block6_sum_eltwise_top
I0323 02:21:05.723219 131744 net.cpp:380] group2_block6_sum_eltwise_top_group2_block6_sum_eltwise_0_split -> group2_block6_sum_eltwise_top_group2_block6_sum_eltwise_0_split_0
I0323 02:21:05.723230 131744 net.cpp:380] group2_block6_sum_eltwise_top_group2_block6_sum_eltwise_0_split -> group2_block6_sum_eltwise_top_group2_block6_sum_eltwise_0_split_1
I0323 02:21:05.723275 131744 net.cpp:122] Setting up group2_block6_sum_eltwise_top_group2_block6_sum_eltwise_0_split
I0323 02:21:05.723284 131744 net.cpp:129] Top shape: 32 64 8 8 (131072)
I0323 02:21:05.723299 131744 net.cpp:129] Top shape: 32 64 8 8 (131072)
I0323 02:21:05.723307 131744 net.cpp:137] Memory required for data: 321782144
I0323 02:21:05.723315 131744 layer_factory.hpp:77] Creating layer group2_block7_conv0
I0323 02:21:05.723326 131744 net.cpp:84] Creating Layer group2_block7_conv0
I0323 02:21:05.723335 131744 net.cpp:406] group2_block7_conv0 <- group2_block6_sum_eltwise_top_group2_block6_sum_eltwise_0_split_0
I0323 02:21:05.723345 131744 net.cpp:380] group2_block7_conv0 -> group2_block7_conv0_conv_top
I0323 02:21:05.726418 131744 net.cpp:122] Setting up group2_block7_conv0
I0323 02:21:05.726429 131744 net.cpp:129] Top shape: 32 64 8 8 (131072)
I0323 02:21:05.726439 131744 net.cpp:137] Memory required for data: 322306432
I0323 02:21:05.726452 131744 layer_factory.hpp:77] Creating layer group2_block7_conv0_bn
I0323 02:21:05.726464 131744 net.cpp:84] Creating Layer group2_block7_conv0_bn
I0323 02:21:05.726470 131744 net.cpp:406] group2_block7_conv0_bn <- group2_block7_conv0_conv_top
I0323 02:21:05.726480 131744 net.cpp:367] group2_block7_conv0_bn -> group2_block7_conv0_conv_top (in-place)
I0323 02:21:05.726733 131744 net.cpp:122] Setting up group2_block7_conv0_bn
I0323 02:21:05.726742 131744 net.cpp:129] Top shape: 32 64 8 8 (131072)
I0323 02:21:05.726752 131744 net.cpp:137] Memory required for data: 322830720
I0323 02:21:05.726764 131744 layer_factory.hpp:77] Creating layer group2_block7_conv0_scale
I0323 02:21:05.726774 131744 net.cpp:84] Creating Layer group2_block7_conv0_scale
I0323 02:21:05.726781 131744 net.cpp:406] group2_block7_conv0_scale <- group2_block7_conv0_conv_top
I0323 02:21:05.726791 131744 net.cpp:367] group2_block7_conv0_scale -> group2_block7_conv0_conv_top (in-place)
I0323 02:21:05.726841 131744 layer_factory.hpp:77] Creating layer group2_block7_conv0_scale
I0323 02:21:05.726987 131744 net.cpp:122] Setting up group2_block7_conv0_scale
I0323 02:21:05.726996 131744 net.cpp:129] Top shape: 32 64 8 8 (131072)
I0323 02:21:05.727006 131744 net.cpp:137] Memory required for data: 323355008
I0323 02:21:05.727017 131744 layer_factory.hpp:77] Creating layer group2_block7_conv0_relu
I0323 02:21:05.727026 131744 net.cpp:84] Creating Layer group2_block7_conv0_relu
I0323 02:21:05.727033 131744 net.cpp:406] group2_block7_conv0_relu <- group2_block7_conv0_conv_top
I0323 02:21:05.727042 131744 net.cpp:367] group2_block7_conv0_relu -> group2_block7_conv0_conv_top (in-place)
I0323 02:21:05.727561 131744 net.cpp:122] Setting up group2_block7_conv0_relu
I0323 02:21:05.727571 131744 net.cpp:129] Top shape: 32 64 8 8 (131072)
I0323 02:21:05.727581 131744 net.cpp:137] Memory required for data: 323879296
I0323 02:21:05.727587 131744 layer_factory.hpp:77] Creating layer group2_block7_conv1
I0323 02:21:05.727600 131744 net.cpp:84] Creating Layer group2_block7_conv1
I0323 02:21:05.727607 131744 net.cpp:406] group2_block7_conv1 <- group2_block7_conv0_conv_top
I0323 02:21:05.727617 131744 net.cpp:380] group2_block7_conv1 -> group2_block7_conv1_conv_top
I0323 02:21:05.730705 131744 net.cpp:122] Setting up group2_block7_conv1
I0323 02:21:05.730717 131744 net.cpp:129] Top shape: 32 64 8 8 (131072)
I0323 02:21:05.730727 131744 net.cpp:137] Memory required for data: 324403584
I0323 02:21:05.730741 131744 layer_factory.hpp:77] Creating layer group2_block7_conv1_bn
I0323 02:21:05.730751 131744 net.cpp:84] Creating Layer group2_block7_conv1_bn
I0323 02:21:05.730758 131744 net.cpp:406] group2_block7_conv1_bn <- group2_block7_conv1_conv_top
I0323 02:21:05.730767 131744 net.cpp:367] group2_block7_conv1_bn -> group2_block7_conv1_conv_top (in-place)
I0323 02:21:05.731039 131744 net.cpp:122] Setting up group2_block7_conv1_bn
I0323 02:21:05.731047 131744 net.cpp:129] Top shape: 32 64 8 8 (131072)
I0323 02:21:05.731057 131744 net.cpp:137] Memory required for data: 324927872
I0323 02:21:05.731070 131744 layer_factory.hpp:77] Creating layer group2_block7_conv1_scale
I0323 02:21:05.731081 131744 net.cpp:84] Creating Layer group2_block7_conv1_scale
I0323 02:21:05.731088 131744 net.cpp:406] group2_block7_conv1_scale <- group2_block7_conv1_conv_top
I0323 02:21:05.731097 131744 net.cpp:367] group2_block7_conv1_scale -> group2_block7_conv1_conv_top (in-place)
I0323 02:21:05.731148 131744 layer_factory.hpp:77] Creating layer group2_block7_conv1_scale
I0323 02:21:05.731294 131744 net.cpp:122] Setting up group2_block7_conv1_scale
I0323 02:21:05.731303 131744 net.cpp:129] Top shape: 32 64 8 8 (131072)
I0323 02:21:05.731313 131744 net.cpp:137] Memory required for data: 325452160
I0323 02:21:05.731324 131744 layer_factory.hpp:77] Creating layer group2_block7_sum_eltwise
I0323 02:21:05.731334 131744 net.cpp:84] Creating Layer group2_block7_sum_eltwise
I0323 02:21:05.731341 131744 net.cpp:406] group2_block7_sum_eltwise <- group2_block7_conv1_conv_top
I0323 02:21:05.731349 131744 net.cpp:406] group2_block7_sum_eltwise <- group2_block6_sum_eltwise_top_group2_block6_sum_eltwise_0_split_1
I0323 02:21:05.731359 131744 net.cpp:380] group2_block7_sum_eltwise -> group2_block7_sum_eltwise_top
I0323 02:21:05.731389 131744 net.cpp:122] Setting up group2_block7_sum_eltwise
I0323 02:21:05.731398 131744 net.cpp:129] Top shape: 32 64 8 8 (131072)
I0323 02:21:05.731407 131744 net.cpp:137] Memory required for data: 325976448
I0323 02:21:05.731415 131744 layer_factory.hpp:77] Creating layer post_pool
I0323 02:21:05.731423 131744 net.cpp:84] Creating Layer post_pool
I0323 02:21:05.731431 131744 net.cpp:406] post_pool <- group2_block7_sum_eltwise_top
I0323 02:21:05.731441 131744 net.cpp:380] post_pool -> post_pool
I0323 02:21:05.731984 131744 net.cpp:122] Setting up post_pool
I0323 02:21:05.731993 131744 net.cpp:129] Top shape: 32 64 1 1 (2048)
I0323 02:21:05.732003 131744 net.cpp:137] Memory required for data: 325984640
I0323 02:21:05.732010 131744 layer_factory.hpp:77] Creating layer post_FC
I0323 02:21:05.732022 131744 net.cpp:84] Creating Layer post_FC
I0323 02:21:05.732028 131744 net.cpp:406] post_FC <- post_pool
I0323 02:21:05.732038 131744 net.cpp:380] post_FC -> post_FC_top
I0323 02:21:05.732219 131744 net.cpp:122] Setting up post_FC
I0323 02:21:05.732228 131744 net.cpp:129] Top shape: 32 100 (3200)
I0323 02:21:05.732239 131744 net.cpp:137] Memory required for data: 325997440
I0323 02:21:05.732249 131744 layer_factory.hpp:77] Creating layer post_FC_top_post_FC_0_split
I0323 02:21:05.732259 131744 net.cpp:84] Creating Layer post_FC_top_post_FC_0_split
I0323 02:21:05.732266 131744 net.cpp:406] post_FC_top_post_FC_0_split <- post_FC_top
I0323 02:21:05.732275 131744 net.cpp:380] post_FC_top_post_FC_0_split -> post_FC_top_post_FC_0_split_0
I0323 02:21:05.732286 131744 net.cpp:380] post_FC_top_post_FC_0_split -> post_FC_top_post_FC_0_split_1
I0323 02:21:05.732333 131744 net.cpp:122] Setting up post_FC_top_post_FC_0_split
I0323 02:21:05.732342 131744 net.cpp:129] Top shape: 32 100 (3200)
I0323 02:21:05.732352 131744 net.cpp:129] Top shape: 32 100 (3200)
I0323 02:21:05.732359 131744 net.cpp:137] Memory required for data: 326023040
I0323 02:21:05.732367 131744 layer_factory.hpp:77] Creating layer loss
I0323 02:21:05.732376 131744 net.cpp:84] Creating Layer loss
I0323 02:21:05.732383 131744 net.cpp:406] loss <- post_FC_top_post_FC_0_split_0
I0323 02:21:05.732391 131744 net.cpp:406] loss <- label_dataLayer_1_split_0
I0323 02:21:05.732401 131744 net.cpp:380] loss -> loss
I0323 02:21:05.732414 131744 layer_factory.hpp:77] Creating layer loss
I0323 02:21:05.733054 131744 net.cpp:122] Setting up loss
I0323 02:21:05.733064 131744 net.cpp:129] Top shape: (1)
I0323 02:21:05.733073 131744 net.cpp:132]     with loss weight 1
I0323 02:21:05.733088 131744 net.cpp:137] Memory required for data: 326023044
I0323 02:21:05.733094 131744 layer_factory.hpp:77] Creating layer softmax
I0323 02:21:05.733103 131744 net.cpp:84] Creating Layer softmax
I0323 02:21:05.733111 131744 net.cpp:406] softmax <- post_FC_top_post_FC_0_split_1
I0323 02:21:05.733120 131744 net.cpp:380] softmax -> softmax
I0323 02:21:05.734164 131744 net.cpp:122] Setting up softmax
I0323 02:21:05.734174 131744 net.cpp:129] Top shape: 32 100 (3200)
I0323 02:21:05.734184 131744 net.cpp:137] Memory required for data: 326035844
I0323 02:21:05.734191 131744 layer_factory.hpp:77] Creating layer accuracy
I0323 02:21:05.734200 131744 net.cpp:84] Creating Layer accuracy
I0323 02:21:05.734207 131744 net.cpp:406] accuracy <- softmax
I0323 02:21:05.734216 131744 net.cpp:406] accuracy <- label_dataLayer_1_split_1
I0323 02:21:05.734225 131744 net.cpp:380] accuracy -> accuracy
…
