…
I0321 09:01:36.593521 154467 solver.cpp:87] Creating training net from net file: examples/skipConnections/architectures/aarch.prototxt
I0321 09:01:36.596024 154467 net.cpp:294] The NetState phase (0) differed from the phase (1) specified by a rule in layer cifar
I0321 09:01:36.596076 154467 net.cpp:51] Initializing net from parameters: 
name: "CIFAR10_full"
state {
  phase: TRAIN
  level: 0
  stage: ""
}
layer {
  name: "cifar"
  type: "Data"
  top: "data"
  top: "label"
  include {
    phase: TRAIN
  }
  transform_param {
    mean_file: "data/cifar100/mean.binaryproto"
  }
  data_param {
    source: "data/cifar100/cifar100_train_lmdb"
    batch_size: 128
    backend: LMDB
  }
}
layer {
  name: "conv1"
  type: "Convolution"
  bottom: "data"
  top: "conv1"
  param {
    lr_mult: 1
  }
  param {
    lr_mult: 2
  }
  convolution_param {
    num_output: 32
    pad: 2
    kernel_size: 5
    stride: 1
    weight_filler {
      type: "gaussian"
      std: 0.0001
    }
    bias_filler {
      type: "constant"
    }
  }
}
layer {
  name: "pool1"
  type: "Pooling"
  bottom: "conv1"
  top: "pool1"
  pooling_param {
    pool: MAX
    kernel_size: 3
    stride: 2
  }
}
layer {
  name: "relu1"
  type: "ReLU"
  bottom: "pool1"
  top: "pool1"
}
layer {
  name: "norm1"
  type: "LRN"
  bottom: "pool1"
  top: "norm1"
  lrn_param {
    local_size: 3
    alpha: 5e-05
    beta: 0.75
    norm_region: WITHIN_CHANNEL
  }
}
layer {
  name: "conv2"
  type: "Convolution"
  bottom: "norm1"
  top: "conv2"
  param {
    lr_mult: 1
  }
  param {
    lr_mult: 2
  }
  convolution_param {
    num_output: 32
    pad: 2
    kernel_size: 5
    stride: 1
    weight_filler {
      type: "gaussian"
      std: 0.01
    }
    bias_filler {
      type: "constant"
    }
  }
}
layer {
  name: "relu2"
  type: "ReLU"
  bottom: "conv2"
  top: "conv2"
}
layer {
  name: "pool2"
  type: "Pooling"
  bottom: "conv2"
  top: "pool2"
  pooling_param {
    pool: AVE
    kernel_size: 3
    stride: 2
  }
}
layer {
  name: "norm2"
  type: "LRN"
  bottom: "pool2"
  top: "norm2"
  lrn_param {
    local_size: 3
    alpha: 5e-05
    beta: 0.75
    norm_region: WITHIN_CHANNEL
  }
}
layer {
  name: "conv3"
  type: "Convolution"
  bottom: "norm2"
  top: "conv3"
  convolution_param {
    num_output: 64
    pad: 2
    kernel_size: 5
    stride: 1
    weight_filler {
      type: "gaussian"
      std: 0.01
    }
    bias_filler {
      type: "constant"
    }
  }
}
layer {
  name: "relu3"
  type: "ReLU"
  bottom: "conv3"
  top: "conv3"
}
layer {
  name: "pool3"
  type: "Pooling"
  bottom: "conv3"
  top: "pool3"
  pooling_param {
    pool: AVE
    kernel_size: 3
    stride: 2
  }
}
layer {
  name: "ip1"
  type: "InnerProduct"
  bottom: "pool3"
  top: "ip1"
  param {
    lr_mult: 1
    decay_mult: 250
  }
  param {
    lr_mult: 2
    decay_mult: 0
  }
  inner_product_param {
    num_output: 100
    weight_filler {
      type: "gaussian"
      std: 0.01
    }
    bias_filler {
      type: "constant"
    }
  }
}
layer {
  name: "accuracy"
  type: "Accuracy"
  bottom: "ip1"
  bottom: "label"
  top: "accuracy"
}
layer {
  name: "loss"
  type: "SoftmaxWithLoss"
  bottom: "ip1"
  bottom: "label"
  top: "loss"
}
I0321 09:01:36.596372 154467 layer_factory.hpp:77] Creating layer cifar
I0321 09:01:36.598506 154467 db_lmdb.cpp:35] Opened lmdb data/cifar100/cifar100_train_lmdb
I0321 09:01:36.599858 154467 net.cpp:84] Creating Layer cifar
I0321 09:01:36.599881 154467 net.cpp:380] cifar -> data
I0321 09:01:36.599930 154467 net.cpp:380] cifar -> label
I0321 09:01:36.599967 154467 data_transformer.cpp:25] Loading mean file from: data/cifar100/mean.binaryproto
I0321 09:01:36.601805 154467 data_layer.cpp:45] output data size: 128,3,32,32
I0321 09:01:36.618296 154467 net.cpp:122] Setting up cifar
I0321 09:01:36.618329 154467 net.cpp:129] Top shape: 128 3 32 32 (393216)
I0321 09:01:36.618352 154467 net.cpp:129] Top shape: 128 (128)
I0321 09:01:36.618368 154467 net.cpp:137] Memory required for data: 1573376
I0321 09:01:36.618392 154467 layer_factory.hpp:77] Creating layer label_cifar_1_split
I0321 09:01:36.618417 154467 net.cpp:84] Creating Layer label_cifar_1_split
I0321 09:01:36.618432 154467 net.cpp:406] label_cifar_1_split <- label
I0321 09:01:36.618476 154467 net.cpp:380] label_cifar_1_split -> label_cifar_1_split_0
I0321 09:01:36.618500 154467 net.cpp:380] label_cifar_1_split -> label_cifar_1_split_1
I0321 09:01:36.618562 154467 net.cpp:122] Setting up label_cifar_1_split
I0321 09:01:36.618573 154467 net.cpp:129] Top shape: 128 (128)
I0321 09:01:36.618588 154467 net.cpp:129] Top shape: 128 (128)
I0321 09:01:36.618602 154467 net.cpp:137] Memory required for data: 1574400
I0321 09:01:36.618613 154467 layer_factory.hpp:77] Creating layer conv1
I0321 09:01:36.618649 154467 net.cpp:84] Creating Layer conv1
I0321 09:01:36.618661 154467 net.cpp:406] conv1 <- data
I0321 09:01:36.618680 154467 net.cpp:380] conv1 -> conv1
I0321 09:01:37.131289 154467 net.cpp:122] Setting up conv1
I0321 09:01:37.131319 154467 net.cpp:129] Top shape: 128 32 32 32 (4194304)
I0321 09:01:37.131338 154467 net.cpp:137] Memory required for data: 18351616
I0321 09:01:37.131398 154467 layer_factory.hpp:77] Creating layer pool1
I0321 09:01:37.131423 154467 net.cpp:84] Creating Layer pool1
I0321 09:01:37.131436 154467 net.cpp:406] pool1 <- conv1
I0321 09:01:37.131453 154467 net.cpp:380] pool1 -> pool1
I0321 09:01:37.131537 154467 net.cpp:122] Setting up pool1
I0321 09:01:37.131548 154467 net.cpp:129] Top shape: 128 32 16 16 (1048576)
I0321 09:01:37.131563 154467 net.cpp:137] Memory required for data: 22545920
I0321 09:01:37.131574 154467 layer_factory.hpp:77] Creating layer relu1
I0321 09:01:37.131592 154467 net.cpp:84] Creating Layer relu1
I0321 09:01:37.131603 154467 net.cpp:406] relu1 <- pool1
I0321 09:01:37.131616 154467 net.cpp:367] relu1 -> pool1 (in-place)
I0321 09:01:37.132140 154467 net.cpp:122] Setting up relu1
I0321 09:01:37.132151 154467 net.cpp:129] Top shape: 128 32 16 16 (1048576)
I0321 09:01:37.132166 154467 net.cpp:137] Memory required for data: 26740224
I0321 09:01:37.132177 154467 layer_factory.hpp:77] Creating layer norm1
I0321 09:01:37.132201 154467 net.cpp:84] Creating Layer norm1
I0321 09:01:37.132212 154467 net.cpp:406] norm1 <- pool1
I0321 09:01:37.132226 154467 net.cpp:380] norm1 -> norm1
I0321 09:01:37.133812 154467 net.cpp:122] Setting up norm1
I0321 09:01:37.133823 154467 net.cpp:129] Top shape: 128 32 16 16 (1048576)
I0321 09:01:37.133839 154467 net.cpp:137] Memory required for data: 30934528
I0321 09:01:37.133850 154467 layer_factory.hpp:77] Creating layer conv2
I0321 09:01:37.133875 154467 net.cpp:84] Creating Layer conv2
I0321 09:01:37.133886 154467 net.cpp:406] conv2 <- norm1
I0321 09:01:37.133903 154467 net.cpp:380] conv2 -> conv2
I0321 09:01:37.138306 154467 net.cpp:122] Setting up conv2
I0321 09:01:37.138322 154467 net.cpp:129] Top shape: 128 32 16 16 (1048576)
I0321 09:01:37.138337 154467 net.cpp:137] Memory required for data: 35128832
I0321 09:01:37.138362 154467 layer_factory.hpp:77] Creating layer relu2
I0321 09:01:37.138377 154467 net.cpp:84] Creating Layer relu2
I0321 09:01:37.138388 154467 net.cpp:406] relu2 <- conv2
I0321 09:01:37.138403 154467 net.cpp:367] relu2 -> conv2 (in-place)
I0321 09:01:37.139304 154467 net.cpp:122] Setting up relu2
I0321 09:01:37.139317 154467 net.cpp:129] Top shape: 128 32 16 16 (1048576)
I0321 09:01:37.139334 154467 net.cpp:137] Memory required for data: 39323136
I0321 09:01:37.139345 154467 layer_factory.hpp:77] Creating layer pool2
I0321 09:01:37.139364 154467 net.cpp:84] Creating Layer pool2
I0321 09:01:37.139374 154467 net.cpp:406] pool2 <- conv2
I0321 09:01:37.139389 154467 net.cpp:380] pool2 -> pool2
I0321 09:01:37.139919 154467 net.cpp:122] Setting up pool2
I0321 09:01:37.139932 154467 net.cpp:129] Top shape: 128 32 8 8 (262144)
I0321 09:01:37.139947 154467 net.cpp:137] Memory required for data: 40371712
I0321 09:01:37.139958 154467 layer_factory.hpp:77] Creating layer norm2
I0321 09:01:37.139974 154467 net.cpp:84] Creating Layer norm2
I0321 09:01:37.139984 154467 net.cpp:406] norm2 <- pool2
I0321 09:01:37.139999 154467 net.cpp:380] norm2 -> norm2
I0321 09:01:37.141062 154467 net.cpp:122] Setting up norm2
I0321 09:01:37.141073 154467 net.cpp:129] Top shape: 128 32 8 8 (262144)
I0321 09:01:37.141089 154467 net.cpp:137] Memory required for data: 41420288
I0321 09:01:37.141100 154467 layer_factory.hpp:77] Creating layer conv3
I0321 09:01:37.141120 154467 net.cpp:84] Creating Layer conv3
I0321 09:01:37.141131 154467 net.cpp:406] conv3 <- norm2
I0321 09:01:37.141147 154467 net.cpp:380] conv3 -> conv3
I0321 09:01:37.146265 154467 net.cpp:122] Setting up conv3
I0321 09:01:37.146277 154467 net.cpp:129] Top shape: 128 64 8 8 (524288)
I0321 09:01:37.146293 154467 net.cpp:137] Memory required for data: 43517440
I0321 09:01:37.146317 154467 layer_factory.hpp:77] Creating layer relu3
I0321 09:01:37.146332 154467 net.cpp:84] Creating Layer relu3
I0321 09:01:37.146343 154467 net.cpp:406] relu3 <- conv3
I0321 09:01:37.146356 154467 net.cpp:367] relu3 -> conv3 (in-place)
I0321 09:01:37.147260 154467 net.cpp:122] Setting up relu3
I0321 09:01:37.147271 154467 net.cpp:129] Top shape: 128 64 8 8 (524288)
I0321 09:01:37.147287 154467 net.cpp:137] Memory required for data: 45614592
I0321 09:01:37.147298 154467 layer_factory.hpp:77] Creating layer pool3
I0321 09:01:37.147313 154467 net.cpp:84] Creating Layer pool3
I0321 09:01:37.147325 154467 net.cpp:406] pool3 <- conv3
I0321 09:01:37.147337 154467 net.cpp:380] pool3 -> pool3
I0321 09:01:37.147838 154467 net.cpp:122] Setting up pool3
I0321 09:01:37.147850 154467 net.cpp:129] Top shape: 128 64 4 4 (131072)
I0321 09:01:37.147866 154467 net.cpp:137] Memory required for data: 46138880
I0321 09:01:37.147876 154467 layer_factory.hpp:77] Creating layer ip1
I0321 09:01:37.147895 154467 net.cpp:84] Creating Layer ip1
I0321 09:01:37.147907 154467 net.cpp:406] ip1 <- pool3
I0321 09:01:37.147922 154467 net.cpp:380] ip1 -> ip1
I0321 09:01:37.153990 154467 net.cpp:122] Setting up ip1
I0321 09:01:37.154001 154467 net.cpp:129] Top shape: 128 100 (12800)
I0321 09:01:37.154016 154467 net.cpp:137] Memory required for data: 46190080
I0321 09:01:37.154034 154467 layer_factory.hpp:77] Creating layer ip1_ip1_0_split
I0321 09:01:37.154048 154467 net.cpp:84] Creating Layer ip1_ip1_0_split
I0321 09:01:37.154059 154467 net.cpp:406] ip1_ip1_0_split <- ip1
I0321 09:01:37.154073 154467 net.cpp:380] ip1_ip1_0_split -> ip1_ip1_0_split_0
I0321 09:01:37.154090 154467 net.cpp:380] ip1_ip1_0_split -> ip1_ip1_0_split_1
I0321 09:01:37.154145 154467 net.cpp:122] Setting up ip1_ip1_0_split
I0321 09:01:37.154155 154467 net.cpp:129] Top shape: 128 100 (12800)
I0321 09:01:37.154170 154467 net.cpp:129] Top shape: 128 100 (12800)
I0321 09:01:37.154183 154467 net.cpp:137] Memory required for data: 46292480
I0321 09:01:37.154194 154467 layer_factory.hpp:77] Creating layer accuracy
I0321 09:01:37.154211 154467 net.cpp:84] Creating Layer accuracy
I0321 09:01:37.154222 154467 net.cpp:406] accuracy <- ip1_ip1_0_split_0
I0321 09:01:37.154234 154467 net.cpp:406] accuracy <- label_cifar_1_split_0
I0321 09:01:37.154248 154467 net.cpp:380] accuracy -> accuracy
…
I0321 09:01:37.156821 154467 solver.cpp:172] Creating test net (#0) specified by net file: examples/skipConnections/architectures/aarch.prototxt
I0321 09:01:37.156874 154467 net.cpp:294] The NetState phase (1) differed from the phase (0) specified by a rule in layer cifar
I0321 09:01:37.156910 154467 net.cpp:51] Initializing net from parameters: 
name: "CIFAR10_full"
state {
  phase: TEST
}
layer {
  name: "cifar"
  type: "Data"
  top: "data"
  top: "label"
  include {
    phase: TEST
  }
  transform_param {
    mean_file: "data/cifar100/mean.binaryproto"
  }
  data_param {
    source: "data/cifar100/cifar100_test_lmdb"
    batch_size: 100
    backend: LMDB
  }
}
layer {
  name: "conv1"
  type: "Convolution"
  bottom: "data"
  top: "conv1"
  param {
    lr_mult: 1
  }
  param {
    lr_mult: 2
  }
  convolution_param {
    num_output: 32
    pad: 2
    kernel_size: 5
    stride: 1
    weight_filler {
      type: "gaussian"
      std: 0.0001
    }
    bias_filler {
      type: "constant"
    }
  }
}
layer {
  name: "pool1"
  type: "Pooling"
  bottom: "conv1"
  top: "pool1"
  pooling_param {
    pool: MAX
    kernel_size: 3
    stride: 2
  }
}
layer {
  name: "relu1"
  type: "ReLU"
  bottom: "pool1"
  top: "pool1"
}
layer {
  name: "norm1"
  type: "LRN"
  bottom: "pool1"
  top: "norm1"
  lrn_param {
    local_size: 3
    alpha: 5e-05
    beta: 0.75
    norm_region: WITHIN_CHANNEL
  }
}
layer {
  name: "conv2"
  type: "Convolution"
  bottom: "norm1"
  top: "conv2"
  param {
    lr_mult: 1
  }
  param {
    lr_mult: 2
  }
  convolution_param {
    num_output: 32
    pad: 2
    kernel_size: 5
    stride: 1
    weight_filler {
      type: "gaussian"
      std: 0.01
    }
    bias_filler {
      type: "constant"
    }
  }
}
layer {
  name: "relu2"
  type: "ReLU"
  bottom: "conv2"
  top: "conv2"
}
layer {
  name: "pool2"
  type: "Pooling"
  bottom: "conv2"
  top: "pool2"
  pooling_param {
    pool: AVE
    kernel_size: 3
    stride: 2
  }
}
layer {
  name: "norm2"
  type: "LRN"
  bottom: "pool2"
  top: "norm2"
  lrn_param {
    local_size: 3
    alpha: 5e-05
    beta: 0.75
    norm_region: WITHIN_CHANNEL
  }
}
layer {
  name: "conv3"
  type: "Convolution"
  bottom: "norm2"
  top: "conv3"
  convolution_param {
    num_output: 64
    pad: 2
    kernel_size: 5
    stride: 1
    weight_filler {
      type: "gaussian"
      std: 0.01
    }
    bias_filler {
      type: "constant"
    }
  }
}
layer {
  name: "relu3"
  type: "ReLU"
  bottom: "conv3"
  top: "conv3"
}
layer {
  name: "pool3"
  type: "Pooling"
  bottom: "conv3"
  top: "pool3"
  pooling_param {
    pool: AVE
    kernel_size: 3
    stride: 2
  }
}
layer {
  name: "ip1"
  type: "InnerProduct"
  bottom: "pool3"
  top: "ip1"
  param {
    lr_mult: 1
    decay_mult: 250
  }
  param {
    lr_mult: 2
    decay_mult: 0
  }
  inner_product_param {
    num_output: 100
    weight_filler {
      type: "gaussian"
      std: 0.01
    }
    bias_filler {
      type: "constant"
    }
  }
}
layer {
  name: "accuracy"
  type: "Accuracy"
  bottom: "ip1"
  bottom: "label"
  top: "accuracy"
}
layer {
  name: "loss"
  type: "SoftmaxWithLoss"
  bottom: "ip1"
  bottom: "label"
  top: "loss"
}
I0321 09:01:37.157182 154467 layer_factory.hpp:77] Creating layer cifar
I0321 09:01:37.159684 154467 db_lmdb.cpp:35] Opened lmdb data/cifar100/cifar100_test_lmdb
I0321 09:01:37.160215 154467 net.cpp:84] Creating Layer cifar
I0321 09:01:37.160228 154467 net.cpp:380] cifar -> data
I0321 09:01:37.160248 154467 net.cpp:380] cifar -> label
I0321 09:01:37.160267 154467 data_transformer.cpp:25] Loading mean file from: data/cifar100/mean.binaryproto
I0321 09:01:37.160508 154467 data_layer.cpp:45] output data size: 100,3,32,32
I0321 09:01:37.166121 154467 net.cpp:122] Setting up cifar
I0321 09:01:37.166147 154467 net.cpp:129] Top shape: 100 3 32 32 (307200)
I0321 09:01:37.166167 154467 net.cpp:129] Top shape: 100 (100)
I0321 09:01:37.166182 154467 net.cpp:137] Memory required for data: 1229200
I0321 09:01:37.166195 154467 layer_factory.hpp:77] Creating layer label_cifar_1_split
I0321 09:01:37.166216 154467 net.cpp:84] Creating Layer label_cifar_1_split
I0321 09:01:37.166229 154467 net.cpp:406] label_cifar_1_split <- label
I0321 09:01:37.166245 154467 net.cpp:380] label_cifar_1_split -> label_cifar_1_split_0
I0321 09:01:37.166268 154467 net.cpp:380] label_cifar_1_split -> label_cifar_1_split_1
I0321 09:01:37.166342 154467 net.cpp:122] Setting up label_cifar_1_split
I0321 09:01:37.166352 154467 net.cpp:129] Top shape: 100 (100)
I0321 09:01:37.166368 154467 net.cpp:129] Top shape: 100 (100)
I0321 09:01:37.166381 154467 net.cpp:137] Memory required for data: 1230000
I0321 09:01:37.166393 154467 layer_factory.hpp:77] Creating layer conv1
I0321 09:01:37.166417 154467 net.cpp:84] Creating Layer conv1
I0321 09:01:37.166429 154467 net.cpp:406] conv1 <- data
I0321 09:01:37.166445 154467 net.cpp:380] conv1 -> conv1
I0321 09:01:37.168893 154467 net.cpp:122] Setting up conv1
I0321 09:01:37.168906 154467 net.cpp:129] Top shape: 100 32 32 32 (3276800)
I0321 09:01:37.168922 154467 net.cpp:137] Memory required for data: 14337200
I0321 09:01:37.168949 154467 layer_factory.hpp:77] Creating layer pool1
I0321 09:01:37.168967 154467 net.cpp:84] Creating Layer pool1
I0321 09:01:37.168977 154467 net.cpp:406] pool1 <- conv1
I0321 09:01:37.168992 154467 net.cpp:380] pool1 -> pool1
I0321 09:01:37.169054 154467 net.cpp:122] Setting up pool1
I0321 09:01:37.169064 154467 net.cpp:129] Top shape: 100 32 16 16 (819200)
I0321 09:01:37.169078 154467 net.cpp:137] Memory required for data: 17614000
I0321 09:01:37.169090 154467 layer_factory.hpp:77] Creating layer relu1
I0321 09:01:37.169106 154467 net.cpp:84] Creating Layer relu1
I0321 09:01:37.169116 154467 net.cpp:406] relu1 <- pool1
I0321 09:01:37.169131 154467 net.cpp:367] relu1 -> pool1 (in-place)
I0321 09:01:37.169625 154467 net.cpp:122] Setting up relu1
I0321 09:01:37.169636 154467 net.cpp:129] Top shape: 100 32 16 16 (819200)
I0321 09:01:37.169651 154467 net.cpp:137] Memory required for data: 20890800
I0321 09:01:37.169664 154467 layer_factory.hpp:77] Creating layer norm1
I0321 09:01:37.169680 154467 net.cpp:84] Creating Layer norm1
I0321 09:01:37.169692 154467 net.cpp:406] norm1 <- pool1
I0321 09:01:37.169706 154467 net.cpp:380] norm1 -> norm1
I0321 09:01:37.171727 154467 net.cpp:122] Setting up norm1
I0321 09:01:37.171739 154467 net.cpp:129] Top shape: 100 32 16 16 (819200)
I0321 09:01:37.171756 154467 net.cpp:137] Memory required for data: 24167600
I0321 09:01:37.171766 154467 layer_factory.hpp:77] Creating layer conv2
I0321 09:01:37.171787 154467 net.cpp:84] Creating Layer conv2
I0321 09:01:37.171798 154467 net.cpp:406] conv2 <- norm1
I0321 09:01:37.171814 154467 net.cpp:380] conv2 -> conv2
I0321 09:01:37.175530 154467 net.cpp:122] Setting up conv2
I0321 09:01:37.175544 154467 net.cpp:129] Top shape: 100 32 16 16 (819200)
I0321 09:01:37.175559 154467 net.cpp:137] Memory required for data: 27444400
I0321 09:01:37.175581 154467 layer_factory.hpp:77] Creating layer relu2
I0321 09:01:37.175595 154467 net.cpp:84] Creating Layer relu2
I0321 09:01:37.175606 154467 net.cpp:406] relu2 <- conv2
I0321 09:01:37.175621 154467 net.cpp:367] relu2 -> conv2 (in-place)
I0321 09:01:37.176120 154467 net.cpp:122] Setting up relu2
I0321 09:01:37.176131 154467 net.cpp:129] Top shape: 100 32 16 16 (819200)
I0321 09:01:37.176146 154467 net.cpp:137] Memory required for data: 30721200
I0321 09:01:37.176158 154467 layer_factory.hpp:77] Creating layer pool2
I0321 09:01:37.176175 154467 net.cpp:84] Creating Layer pool2
I0321 09:01:37.176185 154467 net.cpp:406] pool2 <- conv2
I0321 09:01:37.176200 154467 net.cpp:380] pool2 -> pool2
I0321 09:01:37.176709 154467 net.cpp:122] Setting up pool2
I0321 09:01:37.176723 154467 net.cpp:129] Top shape: 100 32 8 8 (204800)
I0321 09:01:37.176738 154467 net.cpp:137] Memory required for data: 31540400
I0321 09:01:37.176748 154467 layer_factory.hpp:77] Creating layer norm2
I0321 09:01:37.176764 154467 net.cpp:84] Creating Layer norm2
I0321 09:01:37.176774 154467 net.cpp:406] norm2 <- pool2
I0321 09:01:37.176787 154467 net.cpp:380] norm2 -> norm2
I0321 09:01:37.177841 154467 net.cpp:122] Setting up norm2
I0321 09:01:37.177853 154467 net.cpp:129] Top shape: 100 32 8 8 (204800)
I0321 09:01:37.177868 154467 net.cpp:137] Memory required for data: 32359600
I0321 09:01:37.177880 154467 layer_factory.hpp:77] Creating layer conv3
I0321 09:01:37.177898 154467 net.cpp:84] Creating Layer conv3
I0321 09:01:37.177909 154467 net.cpp:406] conv3 <- norm2
I0321 09:01:37.177925 154467 net.cpp:380] conv3 -> conv3
I0321 09:01:37.183272 154467 net.cpp:122] Setting up conv3
I0321 09:01:37.183286 154467 net.cpp:129] Top shape: 100 64 8 8 (409600)
I0321 09:01:37.183302 154467 net.cpp:137] Memory required for data: 33998000
I0321 09:01:37.183326 154467 layer_factory.hpp:77] Creating layer relu3
I0321 09:01:37.183346 154467 net.cpp:84] Creating Layer relu3
I0321 09:01:37.183357 154467 net.cpp:406] relu3 <- conv3
I0321 09:01:37.183370 154467 net.cpp:367] relu3 -> conv3 (in-place)
I0321 09:01:37.184020 154467 net.cpp:122] Setting up relu3
I0321 09:01:37.184034 154467 net.cpp:129] Top shape: 100 64 8 8 (409600)
I0321 09:01:37.184049 154467 net.cpp:137] Memory required for data: 35636400
I0321 09:01:37.184062 154467 layer_factory.hpp:77] Creating layer pool3
I0321 09:01:37.184078 154467 net.cpp:84] Creating Layer pool3
I0321 09:01:37.184090 154467 net.cpp:406] pool3 <- conv3
I0321 09:01:37.184104 154467 net.cpp:380] pool3 -> pool3
I0321 09:01:37.184615 154467 net.cpp:122] Setting up pool3
I0321 09:01:37.184626 154467 net.cpp:129] Top shape: 100 64 4 4 (102400)
I0321 09:01:37.184645 154467 net.cpp:137] Memory required for data: 36046000
I0321 09:01:37.184657 154467 layer_factory.hpp:77] Creating layer ip1
I0321 09:01:37.184676 154467 net.cpp:84] Creating Layer ip1
I0321 09:01:37.184689 154467 net.cpp:406] ip1 <- pool3
I0321 09:01:37.184703 154467 net.cpp:380] ip1 -> ip1
I0321 09:01:37.190764 154467 net.cpp:122] Setting up ip1
I0321 09:01:37.190776 154467 net.cpp:129] Top shape: 100 100 (10000)
I0321 09:01:37.190790 154467 net.cpp:137] Memory required for data: 36086000
I0321 09:01:37.190811 154467 layer_factory.hpp:77] Creating layer ip1_ip1_0_split
I0321 09:01:37.190825 154467 net.cpp:84] Creating Layer ip1_ip1_0_split
I0321 09:01:37.190836 154467 net.cpp:406] ip1_ip1_0_split <- ip1
I0321 09:01:37.190850 154467 net.cpp:380] ip1_ip1_0_split -> ip1_ip1_0_split_0
I0321 09:01:37.190867 154467 net.cpp:380] ip1_ip1_0_split -> ip1_ip1_0_split_1
I0321 09:01:37.190927 154467 net.cpp:122] Setting up ip1_ip1_0_split
I0321 09:01:37.190937 154467 net.cpp:129] Top shape: 100 100 (10000)
I0321 09:01:37.190953 154467 net.cpp:129] Top shape: 100 100 (10000)
I0321 09:01:37.190965 154467 net.cpp:137] Memory required for data: 36166000
I0321 09:01:37.190976 154467 layer_factory.hpp:77] Creating layer accuracy
I0321 09:01:37.190990 154467 net.cpp:84] Creating Layer accuracy
I0321 09:01:37.191001 154467 net.cpp:406] accuracy <- ip1_ip1_0_split_0
I0321 09:01:37.191015 154467 net.cpp:406] accuracy <- label_cifar_1_split_0
I0321 09:01:37.191028 154467 net.cpp:380] accuracy -> accuracy
…
