…
I0316 09:18:47.332415 108905 net.cpp:294] The NetState phase (0) differed from the phase (1) specified by a rule in layer dataLayer
I0316 09:18:47.332660 108905 net.cpp:51] Initializing net from parameters: 
name: "Cifar-Densenet"
state {
  phase: TRAIN
  level: 0
  stage: ""
}
layer {
  name: "dataLayer"
  type: "Data"
  top: "data_top"
  top: "label"
  include {
    phase: TRAIN
  }
  transform_param {
    mirror: true
    crop_size: 32
    mean_file: "examples/cifar10/mean.binaryproto"
  }
  data_param {
    source: "examples/cifar10/cifar10_train_lmdb"
    batch_size: 131
    backend: LMDB
  }
  image_data_param {
    shuffle: true
  }
}
layer {
  name: "pre_conv"
  type: "Convolution"
  bottom: "data_top"
  top: "pre_conv_top"
  convolution_param {
    num_output: 16
    bias_term: false
    pad: 1
    kernel_size: 3
    stride: 1
    weight_filler {
      type: "xavier"
    }
    bias_filler {
      type: "constant"
    }
  }
}
layer {
  name: "group0_b0_bn"
  type: "BatchNorm"
  bottom: "pre_conv_top"
  top: "group0_b0_bn_top"
  param {
    lr_mult: 0
    decay_mult: 0
  }
  param {
    lr_mult: 0
    decay_mult: 0
  }
  param {
    lr_mult: 0
    decay_mult: 0
  }
  batch_norm_param {
    moving_average_fraction: 0.999
  }
}
layer {
  name: "group0_b0_scale"
  type: "Scale"
  bottom: "group0_b0_bn_top"
  top: "group0_b0_bn_top"
  scale_param {
    filler {
      value: 1
    }
    bias_term: true
    bias_filler {
      value: 0
    }
  }
}
layer {
  name: "group0_b0_relu"
  type: "ReLU"
  bottom: "group0_b0_bn_top"
  top: "group0_b0_bn_top"
}
layer {
  name: "group0_b0_conv"
  type: "Convolution"
  bottom: "group0_b0_bn_top"
  top: "group0_b0_conv_top"
  convolution_param {
    num_output: 12
    bias_term: false
    pad: 1
    kernel_size: 3
    stride: 1
    weight_filler {
      type: "xavier"
    }
    bias_filler {
      type: "constant"
    }
  }
}
layer {
  name: "group0_b0_dropout"
  type: "Dropout"
  bottom: "group0_b0_conv_top"
  top: "group0_b0_dropout"
  dropout_param {
    dropout_ratio: 0.2
  }
}
layer {
  name: "group0_b0_concat"
  type: "Concat"
  bottom: "group0_b0_dropout"
  bottom: "pre_conv_top"
  top: "group0_b0_concat"
  concat_param {
    axis: 1
  }
}
layer {
  name: "group0_b1_bn"
  type: "BatchNorm"
  bottom: "group0_b0_concat"
  top: "group0_b1_bn_top"
  param {
    lr_mult: 0
    decay_mult: 0
  }
  param {
    lr_mult: 0
    decay_mult: 0
  }
  param {
    lr_mult: 0
    decay_mult: 0
  }
  batch_norm_param {
    moving_average_fraction: 0.999
  }
}
layer {
  name: "group0_b1_scale"
  type: "Scale"
  bottom: "group0_b1_bn_top"
  top: "group0_b1_bn_top"
  scale_param {
    filler {
      value: 1
    }
    bias_term: true
    bias_filler {
      value: 0
    }
  }
}
layer {
  name: "group0_b1_relu"
  type: "ReLU"
  bottom: "group0_b1_bn_top"
  top: "group0_b1_bn_top"
}
layer {
  name: "group0_b1_conv"
  type: "Convolution"
  bottom: "group0_b1_bn_top"
  top: "group0_b1_conv_top"
  convolution_param {
    num_output: 12
    bias_term: false
    pad: 1
    kernel_size: 3
    stride: 1
    weight_filler {
      type: "xavier"
    }
    bias_filler {
      type: "constant"
    }
  }
}
layer {
  name: "group0_b1_dropout"
  type: "Dropout"
  bottom: "group0_b1_conv_top"
  top: "group0_b1_dropout"
  dropout_param {
    dropout_ratio: 0.2
  }
}
layer {
  name: "group0_b1_concat"
  type: "Concat"
  bottom: "group0_b1_dropout"
  bottom: "group0_b0_concat"
  top: "group0_b1_concat"
  concat_param {
    axis: 1
  }
}
layer {
  name: "group0_b2_bn"
  type: "BatchNorm"
  bottom: "group0_b1_concat"
  top: "group0_b2_bn_top"
  param {
    lr_mult: 0
    decay_mult: 0
  }
  param {
    lr_mult: 0
    decay_mult: 0
  }
  param {
    lr_mult: 0
    decay_mult: 0
  }
  batch_norm_param {
    moving_average_fraction: 0.999
  }
}
layer {
  name: "group0_b2_scale"
  type: "Scale"
  bottom: "group0_b2_bn_top"
  top: "group0_b2_bn_top"
  scale_param {
    filler {
      value: 1
    }
    bias_term: true
    bias_filler {
      value: 0
    }
  }
}
layer {
  name: "group0_b2_relu"
  type: "ReLU"
  bottom: "group0_b2_bn_top"
  top: "group0_b2_bn_top"
}
layer {
  name: "group0_b2_conv"
  type: "Convolution"
  bottom: "group0_b2_bn_top"
  top: "group0_b2_conv_top"
  convolution_param {
    num_output: 12
    bias_term: false
    pad: 1
    kernel_size: 3
    stride: 1
    weight_filler {
      type: "xavier"
    }
    bias_filler {
      type: "constant"
    }
  }
}
layer {
  name: "group0_b2_dropout"
  type: "Dropout"
  bottom: "group0_b2_conv_top"
  top: "group0_b2_dropout"
  dropout_param {
    dropout_ratio: 0.2
  }
}
layer {
  name: "group0_b2_concat"
  type: "Concat"
  bottom: "group0_b2_dropout"
  bottom: "group0_b1_concat"
  top: "group0_b2_concat"
  concat_param {
    axis: 1
  }
}
layer {
  name: "group0_b3_bn"
  type: "BatchNorm"
  bottom: "group0_b2_concat"
  top: "group0_b3_bn_top"
  param {
    lr_mult: 0
    decay_mult: 0
  }
  param {
    lr_mult: 0
    decay_mult: 0
  }
  param {
    lr_mult: 0
    decay_mult: 0
  }
  batch_norm_param {
    moving_average_fraction: 0.999
  }
}
layer {
  name: "group0_b3_scale"
  type: "Scale"
  bottom: "group0_b3_bn_top"
  top: "group0_b3_bn_top"
  scale_param {
    filler {
      value: 1
    }
    bias_term: true
    bias_filler {
      value: 0
    }
  }
}
layer {
  name: "group0_b3_relu"
  type: "ReLU"
  bottom: "group0_b3_bn_top"
  top: "group0_b3_bn_top"
}
layer {
  name: "group0_b3_conv"
  type: "Convolution"
  bottom: "group0_b3_bn_top"
  top: "group0_b3_conv_top"
  convolution_param {
    num_output: 12
    bias_term: false
    pad: 1
    kernel_size: 3
    stride: 1
    weight_filler {
      type: "xavier"
    }
    bias_filler {
      type: "constant"
    }
  }
}
layer {
  name: "group0_b3_dropout"
  type: "Dropout"
  bottom: "group0_b3_conv_top"
  top: "group0_b3_dropout"
  dropout_param {
    dropout_ratio: 0.2
  }
}
layer {
  name: "group0_b3_concat"
  type: "Concat"
  bottom: "group0_b3_dropout"
  bottom: "group0_b2_concat"
  top: "group0_b3_concat"
  concat_param {
    axis: 1
  }
}
layer {
  name: "group0_b4_bn"
  type: "BatchNorm"
  bottom: "group0_b3_concat"
  top: "group0_b4_bn_top"
  param {
    lr_mult: 0
    decay_mult: 0
  }
  param {
    lr_mult: 0
    decay_mult: 0
  }
  param {
    lr_mult: 0
    decay_mult: 0
  }
  batch_norm_param {
    moving_average_fraction: 0.999
  }
}
layer {
  name: "group0_b4_scale"
  type: "Scale"
  bottom: "group0_b4_bn_top"
  top: "group0_b4_bn_top"
  scale_param {
    filler {
      value: 1
    }
    bias_term: true
    bias_filler {
      value: 0
    }
  }
}
layer {
  name: "group0_b4_relu"
  type: "ReLU"
  bottom: "group0_b4_bn_top"
  top: "group0_b4_bn_top"
}
layer {
  name: "group0_b4_conv"
  type: "Convolution"
  bottom: "group0_b4_bn_top"
  top: "group0_b4_conv_top"
  convolution_param {
    num_output: 12
    bias_term: false
    pad: 1
    kernel_size: 3
    stride: 1
    weight_filler {
      type: "xavier"
    }
    bias_filler {
      type: "constant"
    }
  }
}
layer {
  name: "group0_b4_dropout"
  type: "Dropout"
  bottom: "group0_b4_conv_top"
  top: "group0_b4_dropout"
  dropout_param {
    dropout_ratio: 0.2
  }
}
layer {
  name: "group0_b4_concat"
  type: "Concat"
  bottom: "group0_b4_dropout"
  bottom: "group0_b3_concat"
  top: "group0_b4_concat"
  concat_param {
    axis: 1
  }
}
layer {
  name: "group0_b5_bn"
  type: "BatchNorm"
  bottom: "group0_b4_concat"
  top: "group0_b5_bn_top"
  param {
    lr_mult: 0
    decay_mult: 0
  }
  param {
    lr_mult: 0
    decay_mult: 0
  }
  param {
    lr_mult: 0
    decay_mult: 0
  }
  batch_norm_param {
    moving_average_fraction: 0.999
  }
}
layer {
  name: "group0_b5_scale"
  type: "Scale"
  bottom: "group0_b5_bn_top"
  top: "group0_b5_bn_top"
  scale_param {
    filler {
      value: 1
    }
    bias_term: true
    bias_filler {
      value: 0
    }
  }
}
layer {
  name: "group0_b5_relu"
  type: "ReLU"
  bottom: "group0_b5_bn_top"
  top: "group0_b5_bn_top"
}
layer {
  name: "group0_b5_conv"
  type: "Convolution"
  bottom: "group0_b5_bn_top"
  top: "group0_b5_conv_top"
  convolution_param {
    num_output: 12
    bias_term: false
    pad: 1
    kernel_size: 3
    stride: 1
    weight_filler {
      type: "xavier"
    }
    bias_filler {
      type: "constant"
    }
  }
}
layer {
  name: "group0_b5_dropout"
  type: "Dropout"
  bottom: "group0_b5_conv_top"
  top: "group0_b5_dropout"
  dropout_param {
    dropout_ratio: 0.2
  }
}
layer {
  name: "group0_b5_concat"
  type: "Concat"
  bottom: "group0_b5_dropout"
  bottom: "group0_b4_concat"
  top: "group0_b5_concat"
  concat_param {
    axis: 1
  }
}
layer {
  name: "group0_b6_bn"
  type: "BatchNorm"
  bottom: "group0_b5_concat"
  top: "group0_b6_bn_top"
  param {
    lr_mult: 0
    decay_mult: 0
  }
  param {
    lr_mult: 0
    decay_mult: 0
  }
  param {
    lr_mult: 0
    decay_mult: 0
  }
  batch_norm_param {
    moving_average_fraction: 0.999
  }
}
layer {
  name: "group0_b6_scale"
  type: "Scale"
  bottom: "group0_b6_bn_top"
  top: "group0_b6_bn_top"
  scale_param {
    filler {
      value: 1
    }
    bias_term: true
    bias_filler {
      value: 0
    }
  }
}
layer {
  name: "group0_b6_relu"
  type: "ReLU"
  bottom: "group0_b6_bn_top"
  top: "group0_b6_bn_top"
}
layer {
  name: "group0_b6_conv"
  type: "Convolution"
  bottom: "group0_b6_bn_top"
  top: "group0_b6_conv_top"
  convolution_param {
    num_output: 12
    bias_term: false
    pad: 1
    kernel_size: 3
    stride: 1
    weight_filler {
      type: "xavier"
    }
    bias_filler {
      type: "constant"
    }
  }
}
layer {
  name: "group0_b6_dropout"
  type: "Dropout"
  bottom: "group0_b6_conv_top"
  top: "group0_b6_dropout"
  dropout_param {
    dropout_ratio: 0.2
  }
}
layer {
  name: "group0_b6_concat"
  type: "Concat"
  bottom: "group0_b6_dropout"
  bottom: "group0_b5_concat"
  top: "group0_b6_concat"
  concat_param {
    axis: 1
  }
}
layer {
  name: "group0_b7_bn"
  type: "BatchNorm"
  bottom: "group0_b6_concat"
  top: "group0_b7_bn_top"
  param {
    lr_mult: 0
    decay_mult: 0
  }
  param {
    lr_mult: 0
    decay_mult: 0
  }
  param {
    lr_mult: 0
    decay_mult: 0
  }
  batch_norm_param {
    moving_average_fraction: 0.999
  }
}
layer {
  name: "group0_b7_scale"
  type: "Scale"
  bottom: "group0_b7_bn_top"
  top: "group0_b7_bn_top"
  scale_param {
    filler {
      value: 1
    }
    bias_term: true
    bias_filler {
      value: 0
    }
  }
}
layer {
  name: "group0_b7_relu"
  type: "ReLU"
  bottom: "group0_b7_bn_top"
  top: "group0_b7_bn_top"
}
layer {
  name: "group0_b7_conv"
  type: "Convolution"
  bottom: "group0_b7_bn_top"
  top: "group0_b7_conv_top"
  convolution_param {
    num_output: 12
    bias_term: false
    pad: 1
    kernel_size: 3
    stride: 1
    weight_filler {
      type: "xavier"
    }
    bias_filler {
      type: "constant"
    }
  }
}
layer {
  name: "group0_b7_dropout"
  type: "Dropout"
  bottom: "group0_b7_conv_top"
  top: "group0_b7_dropout"
  dropout_param {
    dropout_ratio: 0.2
  }
}
layer {
  name: "group0_b7_concat"
  type: "Concat"
  bottom: "group0_b7_dropout"
  bottom: "group0_b6_concat"
  top: "group0_b7_concat"
  concat_param {
    axis: 1
  }
}
layer {
  name: "group0_b8_bn"
  type: "BatchNorm"
  bottom: "group0_b7_concat"
  top: "group0_b8_bn_top"
  param {
    lr_mult: 0
    decay_mult: 0
  }
  param {
    lr_mult: 0
    decay_mult: 0
  }
  param {
    lr_mult: 0
    decay_mult: 0
  }
  batch_norm_param {
    moving_average_fraction: 0.999
  }
}
layer {
  name: "group0_b8_scale"
  type: "Scale"
  bottom: "group0_b8_bn_top"
  top: "group0_b8_bn_top"
  scale_param {
    filler {
      value: 1
    }
    bias_term: true
    bias_filler {
      value: 0
    }
  }
}
layer {
  name: "group0_b8_relu"
  type: "ReLU"
  bottom: "group0_b8_bn_top"
  top: "group0_b8_bn_top"
}
layer {
  name: "group0_b8_conv"
  type: "Convolution"
  bottom: "group0_b8_bn_top"
  top: "group0_b8_conv_top"
  convolution_param {
    num_output: 12
    bias_term: false
    pad: 1
    kernel_size: 3
    stride: 1
    weight_filler {
      type: "xavier"
    }
    bias_filler {
      type: "constant"
    }
  }
}
layer {
  name: "group0_b8_dropout"
  type: "Dropout"
  bottom: "group0_b8_conv_top"
  top: "group0_b8_dropout"
  dropout_param {
    dropout_ratio: 0.2
  }
}
layer {
  name: "group0_b8_concat"
  type: "Concat"
  bottom: "group0_b8_dropout"
  bottom: "group0_b7_concat"
  top: "group0_b8_concat"
  concat_param {
    axis: 1
  }
}
layer {
  name: "group0_b9_bn"
  type: "BatchNorm"
  bottom: "group0_b8_concat"
  top: "group0_b9_bn_top"
  param {
    lr_mult: 0
    decay_mult: 0
  }
  param {
    lr_mult: 0
    decay_mult: 0
  }
  param {
    lr_mult: 0
    decay_mult: 0
  }
  batch_norm_param {
    moving_average_fraction: 0.999
  }
}
layer {
  name: "group0_b9_scale"
  type: "Scale"
  bottom: "group0_b9_bn_top"
  top: "group0_b9_bn_top"
  scale_param {
    filler {
      value: 1
    }
    bias_term: true
    bias_filler {
      value: 0
    }
  }
}
layer {
  name: "group0_b9_relu"
  type: "ReLU"
  bottom: "group0_b9_bn_top"
  top: "group0_b9_bn_top"
}
layer {
  name: "group0_b9_conv"
  type: "Convolution"
  bottom: "group0_b9_bn_top"
  top: "group0_b9_conv_top"
  convolution_param {
    num_output: 12
    bias_term: false
    pad: 1
    kernel_size: 3
    stride: 1
    weight_filler {
      type: "xavier"
    }
    bias_filler {
      type: "constant"
    }
  }
}
layer {
  name: "group0_b9_dropout"
  type: "Dropout"
  bottom: "group0_b9_conv_top"
  top: "group0_b9_dropout"
  dropout_param {
    dropout_ratio: 0.2
  }
}
layer {
  name: "group0_b9_concat"
  type: "Concat"
  bottom: "group0_b9_dropout"
  bottom: "group0_b8_concat"
  top: "group0_b9_concat"
  concat_param {
    axis: 1
  }
}
layer {
  name: "group0_b10_bn"
  type: "BatchNorm"
  bottom: "group0_b9_concat"
  top: "group0_b10_bn_top"
  param {
    lr_mult: 0
    decay_mult: 0
  }
  param {
    lr_mult: 0
    decay_mult: 0
  }
  param {
    lr_mult: 0
    decay_mult: 0
  }
  batch_norm_param {
    moving_average_fraction: 0.999
  }
}
layer {
  name: "group0_b10_scale"
  type: "Scale"
  bottom: "group0_b10_bn_top"
  top: "group0_b10_bn_top"
  scale_param {
    filler {
      value: 1
    }
    bias_term: true
    bias_filler {
      value: 0
    }
  }
}
layer {
  name: "group0_b10_relu"
  type: "ReLU"
  bottom: "group0_b10_bn_top"
  top: "group0_b10_bn_top"
}
layer {
  name: "group0_b10_conv"
  type: "Convolution"
  bottom: "group0_b10_bn_top"
  top: "group0_b10_conv_top"
  convolution_param {
    num_output: 12
    bias_term: false
    pad: 1
    kernel_size: 3
    stride: 1
    weight_filler {
      type: "xavier"
    }
    bias_filler {
      type: "constant"
    }
  }
}
layer {
  name: "group0_b10_dropout"
  type: "Dropout"
  bottom: "group0_b10_conv_top"
  top: "group0_b10_dropout"
  dropout_param {
    dropout_ratio: 0.2
  }
}
layer {
  name: "group0_b10_concat"
  type: "Concat"
  bottom: "group0_b10_dropout"
  bottom: "group0_b9_concat"
  top: "group0_b10_concat"
  concat_param {
    axis: 1
  }
}
layer {
  name: "group0_b11_bn"
  type: "BatchNorm"
  bottom: "group0_b10_concat"
  top: "group0_b11_bn_top"
  param {
    lr_mult: 0
    decay_mult: 0
  }
  param {
    lr_mult: 0
    decay_mult: 0
  }
  param {
    lr_mult: 0
    decay_mult: 0
  }
  batch_norm_param {
    moving_average_fraction: 0.999
  }
}
layer {
  name: "group0_b11_scale"
  type: "Scale"
  bottom: "group0_b11_bn_top"
  top: "group0_b11_bn_top"
  scale_param {
    filler {
      value: 1
    }
    bias_term: true
    bias_filler {
      value: 0
    }
  }
}
layer {
  name: "group0_b11_relu"
  type: "ReLU"
  bottom: "group0_b11_bn_top"
  top: "group0_b11_bn_top"
}
layer {
  name: "group0_b11_conv"
  type: "Convolution"
  bottom: "group0_b11_bn_top"
  top: "group0_b11_conv_top"
  convolution_param {
    num_output: 12
    bias_term: false
    pad: 1
    kernel_size: 3
    stride: 1
    weight_filler {
      type: "xavier"
    }
    bias_filler {
      type: "constant"
    }
  }
}
layer {
  name: "group0_b11_dropout"
  type: "Dropout"
  bottom: "group0_b11_conv_top"
  top: "group0_b11_dropout"
  dropout_param {
    dropout_ratio: 0.2
  }
}
layer {
  name: "group0_b11_concat"
  type: "Concat"
  bottom: "group0_b11_dropout"
  bottom: "group0_b10_concat"
  top: "group0_b11_concat"
  concat_param {
    axis: 1
  }
}
layer {
  name: "group0_b12_bn"
  type: "BatchNorm"
  bottom: "group0_b11_concat"
  top: "group0_b12_bn_top"
  param {
    lr_mult: 0
    decay_mult: 0
  }
  param {
    lr_mult: 0
    decay_mult: 0
  }
  param {
    lr_mult: 0
    decay_mult: 0
  }
  batch_norm_param {
    moving_average_fraction: 0.999
  }
}
layer {
  name: "group0_b12_scale"
  type: "Scale"
  bottom: "group0_b12_bn_top"
  top: "group0_b12_bn_top"
  scale_param {
    filler {
      value: 1
    }
    bias_term: true
    bias_filler {
      value: 0
    }
  }
}
layer {
  name: "group0_b12_relu"
  type: "ReLU"
  bottom: "group0_b12_bn_top"
  top: "group0_b12_bn_top"
}
layer {
  name: "group0_b12_conv"
  type: "Convolution"
  bottom: "group0_b12_bn_top"
  top: "group0_b12_conv_top"
  convolution_param {
    num_output: 160
    bias_term: false
    pad: 0
    kernel_size: 1
    stride: 1
    weight_filler {
      type: "xavier"
    }
    bias_filler {
      type: "constant"
    }
  }
}
layer {
  name: "group0_b12_dropout"
  type: "Dropout"
  bottom: "group0_b12_conv_top"
  top: "group0_b12_dropout"
  dropout_param {
    dropout_ratio: 0.2
  }
}
layer {
  name: "group0_b12_pool"
  type: "Pooling"
  bottom: "group0_b12_dropout"
  top: "group0_b12_pool"
  pooling_param {
    pool: AVE
    kernel_size: 2
    stride: 2
  }
}
layer {
  name: "group1_b0_bn"
  type: "BatchNorm"
  bottom: "group0_b12_pool"
  top: "group1_b0_bn_top"
  param {
    lr_mult: 0
    decay_mult: 0
  }
  param {
    lr_mult: 0
    decay_mult: 0
  }
  param {
    lr_mult: 0
    decay_mult: 0
  }
  batch_norm_param {
    moving_average_fraction: 0.999
  }
}
layer {
  name: "group1_b0_scale"
  type: "Scale"
  bottom: "group1_b0_bn_top"
  top: "group1_b0_bn_top"
  scale_param {
    filler {
      value: 1
    }
    bias_term: true
    bias_filler {
      value: 0
    }
  }
}
layer {
  name: "group1_b0_relu"
  type: "ReLU"
  bottom: "group1_b0_bn_top"
  top: "group1_b0_bn_top"
}
layer {
  name: "group1_b0_conv"
  type: "Convolution"
  bottom: "group1_b0_bn_top"
  top: "group1_b0_conv_top"
  convolution_param {
    num_output: 12
    bias_term: false
    pad: 1
    kernel_size: 3
    stride: 1
    weight_filler {
      type: "xavier"
    }
    bias_filler {
      type: "constant"
    }
  }
}
layer {
  name: "group1_b0_dropout"
  type: "Dropout"
  bottom: "group1_b0_conv_top"
  top: "group1_b0_dropout"
  dropout_param {
    dropout_ratio: 0.2
  }
}
layer {
  name: "group1_b0_concat"
  type: "Concat"
  bottom: "group1_b0_dropout"
  bottom: "group0_b12_pool"
  top: "group1_b0_concat"
  concat_param {
    axis: 1
  }
}
layer {
  name: "group1_b1_bn"
  type: "BatchNorm"
  bottom: "group1_b0_concat"
  top: "group1_b1_bn_top"
  param {
    lr_mult: 0
    decay_mult: 0
  }
  param {
    lr_mult: 0
    decay_mult: 0
  }
  param {
    lr_mult: 0
    decay_mult: 0
  }
  batch_norm_param {
    moving_average_fraction: 0.999
  }
}
layer {
  name: "group1_b1_scale"
  type: "Scale"
  bottom: "group1_b1_bn_top"
  top: "group1_b1_bn_top"
  scale_param {
    filler {
      value: 1
    }
    bias_term: true
    bias_filler {
      value: 0
    }
  }
}
layer {
  name: "group1_b1_relu"
  type: "ReLU"
  bottom: "group1_b1_bn_top"
  top: "group1_b1_bn_top"
}
layer {
  name: "group1_b1_conv"
  type: "Convolution"
  bottom: "group1_b1_bn_top"
  top: "group1_b1_conv_top"
  convolution_param {
    num_output: 12
    bias_term: false
    pad: 1
    kernel_size: 3
    stride: 1
    weight_filler {
      type: "xavier"
    }
    bias_filler {
      type: "constant"
    }
  }
}
layer {
  name: "group1_b1_dropout"
  type: "Dropout"
  bottom: "group1_b1_conv_top"
  top: "group1_b1_dropout"
  dropout_param {
    dropout_ratio: 0.2
  }
}
layer {
  name: "group1_b1_concat"
  type: "Concat"
  bottom: "group1_b1_dropout"
  bottom: "group1_b0_concat"
  top: "group1_b1_concat"
  concat_param {
    axis: 1
  }
}
layer {
  name: "group1_b2_bn"
  type: "BatchNorm"
  bottom: "group1_b1_concat"
  top: "group1_b2_bn_top"
  param {
    lr_mult: 0
    decay_mult: 0
  }
  param {
    lr_mult: 0
    decay_mult: 0
  }
  param {
    lr_mult: 0
    decay_mult: 0
  }
  batch_norm_param {
    moving_average_fraction: 0.999
  }
}
layer {
  name: "group1_b2_scale"
  type: "Scale"
  bottom: "group1_b2_bn_top"
  top: "group1_b2_bn_top"
  scale_param {
    filler {
      value: 1
    }
    bias_term: true
    bias_filler {
      value: 0
    }
  }
}
layer {
  name: "group1_b2_relu"
  type: "ReLU"
  bottom: "group1_b2_bn_top"
  top: "group1_b2_bn_top"
}
layer {
  name: "group1_b2_conv"
  type: "Convolution"
  bottom: "group1_b2_bn_top"
  top: "group1_b2_conv_top"
  convolution_param {
    num_output: 12
    bias_term: false
    pad: 1
    kernel_size: 3
    stride: 1
    weight_filler {
      type: "xavier"
    }
    bias_filler {
      type: "constant"
    }
  }
}
layer {
  name: "group1_b2_dropout"
  type: "Dropout"
  bottom: "group1_b2_conv_top"
  top: "group1_b2_dropout"
  dropout_param {
    dropout_ratio: 0.2
  }
}
layer {
  name: "group1_b2_concat"
  type: "Concat"
  bottom: "group1_b2_dropout"
  bottom: "group1_b1_concat"
  top: "group1_b2_concat"
  concat_param {
    axis: 1
  }
}
layer {
  name: "group1_b3_bn"
  type: "BatchNorm"
  bottom: "group1_b2_concat"
  top: "group1_b3_bn_top"
  param {
    lr_mult: 0
    decay_mult: 0
  }
  param {
    lr_mult: 0
    decay_mult: 0
  }
  param {
    lr_mult: 0
    decay_mult: 0
  }
  batch_norm_param {
    moving_average_fraction: 0.999
  }
}
layer {
  name: "group1_b3_scale"
  type: "Scale"
  bottom: "group1_b3_bn_top"
  top: "group1_b3_bn_top"
  scale_param {
    filler {
      value: 1
    }
    bias_term: true
    bias_filler {
      value: 0
    }
  }
}
layer {
  name: "group1_b3_relu"
  type: "ReLU"
  bottom: "group1_b3_bn_top"
  top: "group1_b3_bn_top"
}
layer {
  name: "group1_b3_conv"
  type: "Convolution"
  bottom: "group1_b3_bn_top"
  top: "group1_b3_conv_top"
  convolution_param {
    num_output: 12
    bias_term: false
    pad: 1
    kernel_size: 3
    stride: 1
    weight_filler {
      type: "xavier"
    }
    bias_filler {
      type: "constant"
    }
  }
}
layer {
  name: "group1_b3_dropout"
  type: "Dropout"
  bottom: "group1_b3_conv_top"
  top: "group1_b3_dropout"
  dropout_param {
    dropout_ratio: 0.2
  }
}
layer {
  name: "group1_b3_concat"
  type: "Concat"
  bottom: "group1_b3_dropout"
  bottom: "group1_b2_concat"
  top: "group1_b3_concat"
  concat_param {
    axis: 1
  }
}
layer {
  name: "group1_b4_bn"
  type: "BatchNorm"
  bottom: "group1_b3_concat"
  top: "group1_b4_bn_top"
  param {
    lr_mult: 0
    decay_mult: 0
  }
  param {
    lr_mult: 0
    decay_mult: 0
  }
  param {
    lr_mult: 0
    decay_mult: 0
  }
  batch_norm_param {
    moving_average_fraction: 0.999
  }
}
layer {
  name: "group1_b4_scale"
  type: "Scale"
  bottom: "group1_b4_bn_top"
  top: "group1_b4_bn_top"
  scale_param {
    filler {
      value: 1
    }
    bias_term: true
    bias_filler {
      value: 0
    }
  }
}
layer {
  name: "group1_b4_relu"
  type: "ReLU"
  bottom: "group1_b4_bn_top"
  top: "group1_b4_bn_top"
}
layer {
  name: "group1_b4_conv"
  type: "Convolution"
  bottom: "group1_b4_bn_top"
  top: "group1_b4_conv_top"
  convolution_param {
    num_output: 12
    bias_term: false
    pad: 1
    kernel_size: 3
    stride: 1
    weight_filler {
      type: "xavier"
    }
    bias_filler {
      type: "constant"
    }
  }
}
layer {
  name: "group1_b4_dropout"
  type: "Dropout"
  bottom: "group1_b4_conv_top"
  top: "group1_b4_dropout"
  dropout_param {
    dropout_ratio: 0.2
  }
}
layer {
  name: "group1_b4_concat"
  type: "Concat"
  bottom: "group1_b4_dropout"
  bottom: "group1_b3_concat"
  top: "group1_b4_concat"
  concat_param {
    axis: 1
  }
}
layer {
  name: "group1_b5_bn"
  type: "BatchNorm"
  bottom: "group1_b4_concat"
  top: "group1_b5_bn_top"
  param {
    lr_mult: 0
    decay_mult: 0
  }
  param {
    lr_mult: 0
    decay_mult: 0
  }
  param {
    lr_mult: 0
    decay_mult: 0
  }
  batch_norm_param {
    moving_average_fraction: 0.999
  }
}
layer {
  name: "group1_b5_scale"
  type: "Scale"
  bottom: "group1_b5_bn_top"
  top: "group1_b5_bn_top"
  scale_param {
    filler {
      value: 1
    }
    bias_term: true
    bias_filler {
      value: 0
    }
  }
}
layer {
  name: "group1_b5_relu"
  type: "ReLU"
  bottom: "group1_b5_bn_top"
  top: "group1_b5_bn_top"
}
layer {
  name: "group1_b5_conv"
  type: "Convolution"
  bottom: "group1_b5_bn_top"
  top: "group1_b5_conv_top"
  convolution_param {
    num_output: 12
    bias_term: false
    pad: 1
    kernel_size: 3
    stride: 1
    weight_filler {
      type: "xavier"
    }
    bias_filler {
      type: "constant"
    }
  }
}
layer {
  name: "group1_b5_dropout"
  type: "Dropout"
  bottom: "group1_b5_conv_top"
  top: "group1_b5_dropout"
  dropout_param {
    dropout_ratio: 0.2
  }
}
layer {
  name: "group1_b5_concat"
  type: "Concat"
  bottom: "group1_b5_dropout"
  bottom: "group1_b4_concat"
  top: "group1_b5_concat"
  concat_param {
    axis: 1
  }
}
layer {
  name: "group1_b6_bn"
  type: "BatchNorm"
  bottom: "group1_b5_concat"
  top: "group1_b6_bn_top"
  param {
    lr_mult: 0
    decay_mult: 0
  }
  param {
    lr_mult: 0
    decay_mult: 0
  }
  param {
    lr_mult: 0
    decay_mult: 0
  }
  batch_norm_param {
    moving_average_fraction: 0.999
  }
}
layer {
  name: "group1_b6_scale"
  type: "Scale"
  bottom: "group1_b6_bn_top"
  top: "group1_b6_bn_top"
  scale_param {
    filler {
      value: 1
    }
    bias_term: true
    bias_filler {
      value: 0
    }
  }
}
layer {
  name: "group1_b6_relu"
  type: "ReLU"
  bottom: "group1_b6_bn_top"
  top: "group1_b6_bn_top"
}
layer {
  name: "group1_b6_conv"
  type: "Convolution"
  bottom: "group1_b6_bn_top"
  top: "group1_b6_conv_top"
  convolution_param {
    num_output: 12
    bias_term: false
    pad: 1
    kernel_size: 3
    stride: 1
    weight_filler {
      type: "xavier"
    }
    bias_filler {
      type: "constant"
    }
  }
}
layer {
  name: "group1_b6_dropout"
  type: "Dropout"
  bottom: "group1_b6_conv_top"
  top: "group1_b6_dropout"
  dropout_param {
    dropout_ratio: 0.2
  }
}
layer {
  name: "group1_b6_concat"
  type: "Concat"
  bottom: "group1_b6_dropout"
  bottom: "group1_b5_concat"
  top: "group1_b6_concat"
  concat_param {
    axis: 1
  }
}
layer {
  name: "group1_b7_bn"
  type: "BatchNorm"
  bottom: "group1_b6_concat"
  top: "group1_b7_bn_top"
  param {
    lr_mult: 0
    decay_mult: 0
  }
  param {
    lr_mult: 0
    decay_mult: 0
  }
  param {
    lr_mult: 0
    decay_mult: 0
  }
  batch_norm_param {
    moving_average_fraction: 0.999
  }
}
layer {
  name: "group1_b7_scale"
  type: "Scale"
  bottom: "group1_b7_bn_top"
  top: "group1_b7_bn_top"
  scale_param {
    filler {
      value: 1
    }
    bias_term: true
    bias_filler {
      value: 0
    }
  }
}
layer {
  name: "group1_b7_relu"
  type: "ReLU"
  bottom: "group1_b7_bn_top"
  top: "group1_b7_bn_top"
}
layer {
  name: "group1_b7_conv"
  type: "Convolution"
  bottom: "group1_b7_bn_top"
  top: "group1_b7_conv_top"
  convolution_param {
    num_output: 12
    bias_term: false
    pad: 1
    kernel_size: 3
    stride: 1
    weight_filler {
      type: "xavier"
    }
    bias_filler {
      type: "constant"
    }
  }
}
layer {
  name: "group1_b7_dropout"
  type: "Dropout"
  bottom: "group1_b7_conv_top"
  top: "group1_b7_dropout"
  dropout_param {
    dropout_ratio: 0.2
  }
}
layer {
  name: "group1_b7_concat"
  type: "Concat"
  bottom: "group1_b7_dropout"
  bottom: "group1_b6_concat"
  top: "group1_b7_concat"
  concat_param {
    axis: 1
  }
}
layer {
  name: "group1_b8_bn"
  type: "BatchNorm"
  bottom: "group1_b7_concat"
  top: "group1_b8_bn_top"
  param {
    lr_mult: 0
    decay_mult: 0
  }
  param {
    lr_mult: 0
    decay_mult: 0
  }
  param {
    lr_mult: 0
    decay_mult: 0
  }
  batch_norm_param {
    moving_average_fraction: 0.999
  }
}
layer {
  name: "group1_b8_scale"
  type: "Scale"
  bottom: "group1_b8_bn_top"
  top: "group1_b8_bn_top"
  scale_param {
    filler {
      value: 1
    }
    bias_term: true
    bias_filler {
      value: 0
    }
  }
}
layer {
  name: "group1_b8_relu"
  type: "ReLU"
  bottom: "group1_b8_bn_top"
  top: "group1_b8_bn_top"
}
layer {
  name: "group1_b8_conv"
  type: "Convolution"
  bottom: "group1_b8_bn_top"
  top: "group1_b8_conv_top"
  convolution_param {
    num_output: 12
    bias_term: false
    pad: 1
    kernel_size: 3
    stride: 1
    weight_filler {
      type: "xavier"
    }
    bias_filler {
      type: "constant"
    }
  }
}
layer {
  name: "group1_b8_dropout"
  type: "Dropout"
  bottom: "group1_b8_conv_top"
  top: "group1_b8_dropout"
  dropout_param {
    dropout_ratio: 0.2
  }
}
layer {
  name: "group1_b8_concat"
  type: "Concat"
  bottom: "group1_b8_dropout"
  bottom: "group1_b7_concat"
  top: "group1_b8_concat"
  concat_param {
    axis: 1
  }
}
layer {
  name: "group1_b9_bn"
  type: "BatchNorm"
  bottom: "group1_b8_concat"
  top: "group1_b9_bn_top"
  param {
    lr_mult: 0
    decay_mult: 0
  }
  param {
    lr_mult: 0
    decay_mult: 0
  }
  param {
    lr_mult: 0
    decay_mult: 0
  }
  batch_norm_param {
    moving_average_fraction: 0.999
  }
}
layer {
  name: "group1_b9_scale"
  type: "Scale"
  bottom: "group1_b9_bn_top"
  top: "group1_b9_bn_top"
  scale_param {
    filler {
      value: 1
    }
    bias_term: true
    bias_filler {
      value: 0
    }
  }
}
layer {
  name: "group1_b9_relu"
  type: "ReLU"
  bottom: "group1_b9_bn_top"
  top: "group1_b9_bn_top"
}
layer {
  name: "group1_b9_conv"
  type: "Convolution"
  bottom: "group1_b9_bn_top"
  top: "group1_b9_conv_top"
  convolution_param {
    num_output: 12
    bias_term: false
    pad: 1
    kernel_size: 3
    stride: 1
    weight_filler {
      type: "xavier"
    }
    bias
I0316 09:18:47.335906 108905 layer_factory.hpp:77] Creating layer dataLayer
I0316 09:18:47.408921 108905 db_lmdb.cpp:35] Opened lmdb examples/cifar10/cifar10_train_lmdb
I0316 09:18:47.432066 108905 net.cpp:84] Creating Layer dataLayer
I0316 09:18:47.432092 108905 net.cpp:380] dataLayer -> data_top
I0316 09:18:47.432148 108905 net.cpp:380] dataLayer -> label
I0316 09:18:47.432188 108905 data_transformer.cpp:25] Loading mean file from: examples/cifar10/mean.binaryproto
I0316 09:18:47.471648 108905 data_layer.cpp:45] output data size: 131,3,32,32
I0316 09:18:47.477236 108905 net.cpp:122] Setting up dataLayer
I0316 09:18:47.477267 108905 net.cpp:129] Top shape: 131 3 32 32 (402432)
I0316 09:18:47.477291 108905 net.cpp:129] Top shape: 131 (131)
I0316 09:18:47.477305 108905 net.cpp:137] Memory required for data: 1610252
I0316 09:18:47.477332 108905 layer_factory.hpp:77] Creating layer label_dataLayer_1_split
I0316 09:18:47.477357 108905 net.cpp:84] Creating Layer label_dataLayer_1_split
I0316 09:18:47.477373 108905 net.cpp:406] label_dataLayer_1_split <- label
I0316 09:18:47.477422 108905 net.cpp:380] label_dataLayer_1_split -> label_dataLayer_1_split_0
I0316 09:18:47.477448 108905 net.cpp:380] label_dataLayer_1_split -> label_dataLayer_1_split_1
I0316 09:18:47.477514 108905 net.cpp:122] Setting up label_dataLayer_1_split
I0316 09:18:47.477525 108905 net.cpp:129] Top shape: 131 (131)
I0316 09:18:47.477542 108905 net.cpp:129] Top shape: 131 (131)
I0316 09:18:47.477556 108905 net.cpp:137] Memory required for data: 1611300
I0316 09:18:47.477566 108905 layer_factory.hpp:77] Creating layer pre_conv
I0316 09:18:47.477604 108905 net.cpp:84] Creating Layer pre_conv
I0316 09:18:47.477617 108905 net.cpp:406] pre_conv <- data_top
I0316 09:18:47.477633 108905 net.cpp:380] pre_conv -> pre_conv_top
I0316 09:18:55.377475 108905 net.cpp:122] Setting up pre_conv
I0316 09:18:55.377504 108905 net.cpp:129] Top shape: 131 16 32 32 (2146304)
I0316 09:18:55.377526 108905 net.cpp:137] Memory required for data: 10196516
I0316 09:18:55.377589 108905 layer_factory.hpp:77] Creating layer pre_conv_top_pre_conv_0_split
I0316 09:18:55.377612 108905 net.cpp:84] Creating Layer pre_conv_top_pre_conv_0_split
I0316 09:18:55.377625 108905 net.cpp:406] pre_conv_top_pre_conv_0_split <- pre_conv_top
I0316 09:18:55.377643 108905 net.cpp:380] pre_conv_top_pre_conv_0_split -> pre_conv_top_pre_conv_0_split_0
I0316 09:18:55.377667 108905 net.cpp:380] pre_conv_top_pre_conv_0_split -> pre_conv_top_pre_conv_0_split_1
I0316 09:18:55.377740 108905 net.cpp:122] Setting up pre_conv_top_pre_conv_0_split
I0316 09:18:55.377750 108905 net.cpp:129] Top shape: 131 16 32 32 (2146304)
I0316 09:18:55.377766 108905 net.cpp:129] Top shape: 131 16 32 32 (2146304)
I0316 09:18:55.377780 108905 net.cpp:137] Memory required for data: 27366948
I0316 09:18:55.377791 108905 layer_factory.hpp:77] Creating layer group0_b0_bn
I0316 09:18:55.377815 108905 net.cpp:84] Creating Layer group0_b0_bn
I0316 09:18:55.377826 108905 net.cpp:406] group0_b0_bn <- pre_conv_top_pre_conv_0_split_0
I0316 09:18:55.377842 108905 net.cpp:380] group0_b0_bn -> group0_b0_bn_top
I0316 09:18:55.378119 108905 net.cpp:122] Setting up group0_b0_bn
I0316 09:18:55.378130 108905 net.cpp:129] Top shape: 131 16 32 32 (2146304)
I0316 09:18:55.378145 108905 net.cpp:137] Memory required for data: 35952164
I0316 09:18:55.378175 108905 layer_factory.hpp:77] Creating layer group0_b0_scale
I0316 09:18:55.378196 108905 net.cpp:84] Creating Layer group0_b0_scale
I0316 09:18:55.378207 108905 net.cpp:406] group0_b0_scale <- group0_b0_bn_top
I0316 09:18:55.378222 108905 net.cpp:367] group0_b0_scale -> group0_b0_bn_top (in-place)
I0316 09:18:55.378295 108905 layer_factory.hpp:77] Creating layer group0_b0_scale
I0316 09:18:55.378455 108905 net.cpp:122] Setting up group0_b0_scale
I0316 09:18:55.378465 108905 net.cpp:129] Top shape: 131 16 32 32 (2146304)
I0316 09:18:55.378480 108905 net.cpp:137] Memory required for data: 44537380
I0316 09:18:55.378502 108905 layer_factory.hpp:77] Creating layer group0_b0_relu
I0316 09:18:55.378526 108905 net.cpp:84] Creating Layer group0_b0_relu
I0316 09:18:55.378537 108905 net.cpp:406] group0_b0_relu <- group0_b0_bn_top
I0316 09:18:55.378551 108905 net.cpp:367] group0_b0_relu -> group0_b0_bn_top (in-place)
I0316 09:18:55.379056 108905 net.cpp:122] Setting up group0_b0_relu
I0316 09:18:55.379066 108905 net.cpp:129] Top shape: 131 16 32 32 (2146304)
I0316 09:18:55.379082 108905 net.cpp:137] Memory required for data: 53122596
I0316 09:18:55.379093 108905 layer_factory.hpp:77] Creating layer group0_b0_conv
I0316 09:18:55.379117 108905 net.cpp:84] Creating Layer group0_b0_conv
I0316 09:18:55.379127 108905 net.cpp:406] group0_b0_conv <- group0_b0_bn_top
I0316 09:18:55.379143 108905 net.cpp:380] group0_b0_conv -> group0_b0_conv_top
I0316 09:18:55.381765 108905 net.cpp:122] Setting up group0_b0_conv
I0316 09:18:55.381778 108905 net.cpp:129] Top shape: 131 12 32 32 (1609728)
I0316 09:18:55.381793 108905 net.cpp:137] Memory required for data: 59561508
I0316 09:18:55.381808 108905 layer_factory.hpp:77] Creating layer group0_b0_dropout
I0316 09:18:55.381829 108905 net.cpp:84] Creating Layer group0_b0_dropout
I0316 09:18:55.381840 108905 net.cpp:406] group0_b0_dropout <- group0_b0_conv_top
I0316 09:18:55.381855 108905 net.cpp:380] group0_b0_dropout -> group0_b0_dropout
I0316 09:18:55.381917 108905 net.cpp:122] Setting up group0_b0_dropout
I0316 09:18:55.381927 108905 net.cpp:129] Top shape: 131 12 32 32 (1609728)
I0316 09:18:55.381945 108905 net.cpp:137] Memory required for data: 66000420
I0316 09:18:55.381955 108905 layer_factory.hpp:77] Creating layer group0_b0_concat
I0316 09:18:55.381973 108905 net.cpp:84] Creating Layer group0_b0_concat
I0316 09:18:55.381984 108905 net.cpp:406] group0_b0_concat <- group0_b0_dropout
I0316 09:18:55.381996 108905 net.cpp:406] group0_b0_concat <- pre_conv_top_pre_conv_0_split_1
I0316 09:18:55.382011 108905 net.cpp:380] group0_b0_concat -> group0_b0_concat
I0316 09:18:55.382061 108905 net.cpp:122] Setting up group0_b0_concat
I0316 09:18:55.382071 108905 net.cpp:129] Top shape: 131 28 32 32 (3756032)
I0316 09:18:55.382086 108905 net.cpp:137] Memory required for data: 81024548
I0316 09:18:55.382097 108905 layer_factory.hpp:77] Creating layer group0_b0_concat_group0_b0_concat_0_split
I0316 09:18:55.382112 108905 net.cpp:84] Creating Layer group0_b0_concat_group0_b0_concat_0_split
I0316 09:18:55.382122 108905 net.cpp:406] group0_b0_concat_group0_b0_concat_0_split <- group0_b0_concat
I0316 09:18:55.382136 108905 net.cpp:380] group0_b0_concat_group0_b0_concat_0_split -> group0_b0_concat_group0_b0_concat_0_split_0
I0316 09:18:55.382153 108905 net.cpp:380] group0_b0_concat_group0_b0_concat_0_split -> group0_b0_concat_group0_b0_concat_0_split_1
I0316 09:18:55.382211 108905 net.cpp:122] Setting up group0_b0_concat_group0_b0_concat_0_split
I0316 09:18:55.382221 108905 net.cpp:129] Top shape: 131 28 32 32 (3756032)
I0316 09:18:55.382236 108905 net.cpp:129] Top shape: 131 28 32 32 (3756032)
I0316 09:18:55.382249 108905 net.cpp:137] Memory required for data: 111072804
I0316 09:18:55.382261 108905 layer_factory.hpp:77] Creating layer group0_b1_bn
I0316 09:18:55.382274 108905 net.cpp:84] Creating Layer group0_b1_bn
I0316 09:18:55.382285 108905 net.cpp:406] group0_b1_bn <- group0_b0_concat_group0_b0_concat_0_split_0
I0316 09:18:55.382300 108905 net.cpp:380] group0_b1_bn -> group0_b1_bn_top
I0316 09:18:55.382568 108905 net.cpp:122] Setting up group0_b1_bn
I0316 09:18:55.382578 108905 net.cpp:129] Top shape: 131 28 32 32 (3756032)
I0316 09:18:55.382593 108905 net.cpp:137] Memory required for data: 126096932
I0316 09:18:55.382619 108905 layer_factory.hpp:77] Creating layer group0_b1_scale
I0316 09:18:55.382634 108905 net.cpp:84] Creating Layer group0_b1_scale
I0316 09:18:55.382645 108905 net.cpp:406] group0_b1_scale <- group0_b1_bn_top
I0316 09:18:55.382659 108905 net.cpp:367] group0_b1_scale -> group0_b1_bn_top (in-place)
I0316 09:18:55.382722 108905 layer_factory.hpp:77] Creating layer group0_b1_scale
I0316 09:18:55.382865 108905 net.cpp:122] Setting up group0_b1_scale
I0316 09:18:55.382875 108905 net.cpp:129] Top shape: 131 28 32 32 (3756032)
I0316 09:18:55.382890 108905 net.cpp:137] Memory required for data: 141121060
I0316 09:18:55.382910 108905 layer_factory.hpp:77] Creating layer group0_b1_relu
I0316 09:18:55.382922 108905 net.cpp:84] Creating Layer group0_b1_relu
I0316 09:18:55.382933 108905 net.cpp:406] group0_b1_relu <- group0_b1_bn_top
I0316 09:18:55.382947 108905 net.cpp:367] group0_b1_relu -> group0_b1_bn_top (in-place)
I0316 09:18:55.383442 108905 net.cpp:122] Setting up group0_b1_relu
I0316 09:18:55.383452 108905 net.cpp:129] Top shape: 131 28 32 32 (3756032)
I0316 09:18:55.383467 108905 net.cpp:137] Memory required for data: 156145188
I0316 09:18:55.383478 108905 layer_factory.hpp:77] Creating layer group0_b1_conv
I0316 09:18:55.383498 108905 net.cpp:84] Creating Layer group0_b1_conv
I0316 09:18:55.383509 108905 net.cpp:406] group0_b1_conv <- group0_b1_bn_top
I0316 09:18:55.383525 108905 net.cpp:380] group0_b1_conv -> group0_b1_conv_top
I0316 09:18:55.385686 108905 net.cpp:122] Setting up group0_b1_conv
I0316 09:18:55.385699 108905 net.cpp:129] Top shape: 131 12 32 32 (1609728)
I0316 09:18:55.385715 108905 net.cpp:137] Memory required for data: 162584100
I0316 09:18:55.385730 108905 layer_factory.hpp:77] Creating layer group0_b1_dropout
I0316 09:18:55.385745 108905 net.cpp:84] Creating Layer group0_b1_dropout
I0316 09:18:55.385756 108905 net.cpp:406] group0_b1_dropout <- group0_b1_conv_top
I0316 09:18:55.385773 108905 net.cpp:380] group0_b1_dropout -> group0_b1_dropout
I0316 09:18:55.385831 108905 net.cpp:122] Setting up group0_b1_dropout
I0316 09:18:55.385841 108905 net.cpp:129] Top shape: 131 12 32 32 (1609728)
I0316 09:18:55.385856 108905 net.cpp:137] Memory required for data: 169023012
I0316 09:18:55.385867 108905 layer_factory.hpp:77] Creating layer group0_b1_concat
I0316 09:18:55.385885 108905 net.cpp:84] Creating Layer group0_b1_concat
I0316 09:18:55.385896 108905 net.cpp:406] group0_b1_concat <- group0_b1_dropout
I0316 09:18:55.385908 108905 net.cpp:406] group0_b1_concat <- group0_b0_concat_group0_b0_concat_0_split_1
I0316 09:18:55.385923 108905 net.cpp:380] group0_b1_concat -> group0_b1_concat
I0316 09:18:55.385967 108905 net.cpp:122] Setting up group0_b1_concat
I0316 09:18:55.385978 108905 net.cpp:129] Top shape: 131 40 32 32 (5365760)
I0316 09:18:55.385993 108905 net.cpp:137] Memory required for data: 190486052
I0316 09:18:55.386004 108905 layer_factory.hpp:77] Creating layer group0_b1_concat_group0_b1_concat_0_split
I0316 09:18:55.386018 108905 net.cpp:84] Creating Layer group0_b1_concat_group0_b1_concat_0_split
I0316 09:18:55.386029 108905 net.cpp:406] group0_b1_concat_group0_b1_concat_0_split <- group0_b1_concat
I0316 09:18:55.386042 108905 net.cpp:380] group0_b1_concat_group0_b1_concat_0_split -> group0_b1_concat_group0_b1_concat_0_split_0
I0316 09:18:55.386059 108905 net.cpp:380] group0_b1_concat_group0_b1_concat_0_split -> group0_b1_concat_group0_b1_concat_0_split_1
I0316 09:18:55.386118 108905 net.cpp:122] Setting up group0_b1_concat_group0_b1_concat_0_split
I0316 09:18:55.386128 108905 net.cpp:129] Top shape: 131 40 32 32 (5365760)
I0316 09:18:55.386143 108905 net.cpp:129] Top shape: 131 40 32 32 (5365760)
I0316 09:18:55.386157 108905 net.cpp:137] Memory required for data: 233412132
I0316 09:18:55.386168 108905 layer_factory.hpp:77] Creating layer group0_b2_bn
I0316 09:18:55.386183 108905 net.cpp:84] Creating Layer group0_b2_bn
I0316 09:18:55.386193 108905 net.cpp:406] group0_b2_bn <- group0_b1_concat_group0_b1_concat_0_split_0
I0316 09:18:55.386207 108905 net.cpp:380] group0_b2_bn -> group0_b2_bn_top
I0316 09:18:55.386473 108905 net.cpp:122] Setting up group0_b2_bn
I0316 09:18:55.386483 108905 net.cpp:129] Top shape: 131 40 32 32 (5365760)
I0316 09:18:55.386498 108905 net.cpp:137] Memory required for data: 254875172
I0316 09:18:55.386520 108905 layer_factory.hpp:77] Creating layer group0_b2_scale
I0316 09:18:55.386534 108905 net.cpp:84] Creating Layer group0_b2_scale
I0316 09:18:55.386545 108905 net.cpp:406] group0_b2_scale <- group0_b2_bn_top
I0316 09:18:55.386561 108905 net.cpp:367] group0_b2_scale -> group0_b2_bn_top (in-place)
I0316 09:18:55.386628 108905 layer_factory.hpp:77] Creating layer group0_b2_scale
I0316 09:18:55.386772 108905 net.cpp:122] Setting up group0_b2_scale
I0316 09:18:55.386782 108905 net.cpp:129] Top shape: 131 40 32 32 (5365760)
I0316 09:18:55.386797 108905 net.cpp:137] Memory required for data: 276338212
I0316 09:18:55.386821 108905 layer_factory.hpp:77] Creating layer group0_b2_relu
I0316 09:18:55.386835 108905 net.cpp:84] Creating Layer group0_b2_relu
I0316 09:18:55.386847 108905 net.cpp:406] group0_b2_relu <- group0_b2_bn_top
I0316 09:18:55.386860 108905 net.cpp:367] group0_b2_relu -> group0_b2_bn_top (in-place)
I0316 09:18:55.387787 108905 net.cpp:122] Setting up group0_b2_relu
I0316 09:18:55.387799 108905 net.cpp:129] Top shape: 131 40 32 32 (5365760)
I0316 09:18:55.387814 108905 net.cpp:137] Memory required for data: 297801252
I0316 09:18:55.387825 108905 layer_factory.hpp:77] Creating layer group0_b2_conv
I0316 09:18:55.387845 108905 net.cpp:84] Creating Layer group0_b2_conv
I0316 09:18:55.387856 108905 net.cpp:406] group0_b2_conv <- group0_b2_bn_top
I0316 09:18:55.387872 108905 net.cpp:380] group0_b2_conv -> group0_b2_conv_top
I0316 09:18:55.390868 108905 net.cpp:122] Setting up group0_b2_conv
I0316 09:18:55.390885 108905 net.cpp:129] Top shape: 131 12 32 32 (1609728)
I0316 09:18:55.390916 108905 net.cpp:137] Memory required for data: 304240164
I0316 09:18:55.390935 108905 layer_factory.hpp:77] Creating layer group0_b2_dropout
I0316 09:18:55.390952 108905 net.cpp:84] Creating Layer group0_b2_dropout
I0316 09:18:55.390964 108905 net.cpp:406] group0_b2_dropout <- group0_b2_conv_top
I0316 09:18:55.390981 108905 net.cpp:380] group0_b2_dropout -> group0_b2_dropout
I0316 09:18:55.391041 108905 net.cpp:122] Setting up group0_b2_dropout
I0316 09:18:55.391050 108905 net.cpp:129] Top shape: 131 12 32 32 (1609728)
I0316 09:18:55.391067 108905 net.cpp:137] Memory required for data: 310679076
I0316 09:18:55.391077 108905 layer_factory.hpp:77] Creating layer group0_b2_concat
I0316 09:18:55.391091 108905 net.cpp:84] Creating Layer group0_b2_concat
I0316 09:18:55.391103 108905 net.cpp:406] group0_b2_concat <- group0_b2_dropout
I0316 09:18:55.391116 108905 net.cpp:406] group0_b2_concat <- group0_b1_concat_group0_b1_concat_0_split_1
I0316 09:18:55.391130 108905 net.cpp:380] group0_b2_concat -> group0_b2_concat
I0316 09:18:55.391175 108905 net.cpp:122] Setting up group0_b2_concat
I0316 09:18:55.391185 108905 net.cpp:129] Top shape: 131 52 32 32 (6975488)
I0316 09:18:55.391199 108905 net.cpp:137] Memory required for data: 338581028
I0316 09:18:55.391209 108905 layer_factory.hpp:77] Creating layer group0_b2_concat_group0_b2_concat_0_split
I0316 09:18:55.391223 108905 net.cpp:84] Creating Layer group0_b2_concat_group0_b2_concat_0_split
I0316 09:18:55.391235 108905 net.cpp:406] group0_b2_concat_group0_b2_concat_0_split <- group0_b2_concat
I0316 09:18:55.391249 108905 net.cpp:380] group0_b2_concat_group0_b2_concat_0_split -> group0_b2_concat_group0_b2_concat_0_split_0
I0316 09:18:55.391266 108905 net.cpp:380] group0_b2_concat_group0_b2_concat_0_split -> group0_b2_concat_group0_b2_concat_0_split_1
I0316 09:18:55.391324 108905 net.cpp:122] Setting up group0_b2_concat_group0_b2_concat_0_split
I0316 09:18:55.391335 108905 net.cpp:129] Top shape: 131 52 32 32 (6975488)
I0316 09:18:55.391350 108905 net.cpp:129] Top shape: 131 52 32 32 (6975488)
I0316 09:18:55.391363 108905 net.cpp:137] Memory required for data: 394384932
I0316 09:18:55.391374 108905 layer_factory.hpp:77] Creating layer group0_b3_bn
I0316 09:18:55.391389 108905 net.cpp:84] Creating Layer group0_b3_bn
I0316 09:18:55.391400 108905 net.cpp:406] group0_b3_bn <- group0_b2_concat_group0_b2_concat_0_split_0
I0316 09:18:55.391415 108905 net.cpp:380] group0_b3_bn -> group0_b3_bn_top
I0316 09:18:55.391687 108905 net.cpp:122] Setting up group0_b3_bn
I0316 09:18:55.391697 108905 net.cpp:129] Top shape: 131 52 32 32 (6975488)
I0316 09:18:55.391712 108905 net.cpp:137] Memory required for data: 422286884
I0316 09:18:55.391733 108905 layer_factory.hpp:77] Creating layer group0_b3_scale
I0316 09:18:55.391749 108905 net.cpp:84] Creating Layer group0_b3_scale
I0316 09:18:55.391760 108905 net.cpp:406] group0_b3_scale <- group0_b3_bn_top
I0316 09:18:55.391775 108905 net.cpp:367] group0_b3_scale -> group0_b3_bn_top (in-place)
I0316 09:18:55.391839 108905 layer_factory.hpp:77] Creating layer group0_b3_scale
I0316 09:18:55.391989 108905 net.cpp:122] Setting up group0_b3_scale
I0316 09:18:55.391999 108905 net.cpp:129] Top shape: 131 52 32 32 (6975488)
I0316 09:18:55.392014 108905 net.cpp:137] Memory required for data: 450188836
I0316 09:18:55.392032 108905 layer_factory.hpp:77] Creating layer group0_b3_relu
I0316 09:18:55.392047 108905 net.cpp:84] Creating Layer group0_b3_relu
I0316 09:18:55.392058 108905 net.cpp:406] group0_b3_relu <- group0_b3_bn_top
I0316 09:18:55.392072 108905 net.cpp:367] group0_b3_relu -> group0_b3_bn_top (in-place)
I0316 09:18:55.392555 108905 net.cpp:122] Setting up group0_b3_relu
I0316 09:18:55.392565 108905 net.cpp:129] Top shape: 131 52 32 32 (6975488)
I0316 09:18:55.392581 108905 net.cpp:137] Memory required for data: 478090788
I0316 09:18:55.392591 108905 layer_factory.hpp:77] Creating layer group0_b3_conv
I0316 09:18:55.392611 108905 net.cpp:84] Creating Layer group0_b3_conv
I0316 09:18:55.392623 108905 net.cpp:406] group0_b3_conv <- group0_b3_bn_top
I0316 09:18:55.392639 108905 net.cpp:380] group0_b3_conv -> group0_b3_conv_top
I0316 09:18:55.394846 108905 net.cpp:122] Setting up group0_b3_conv
I0316 09:18:55.394857 108905 net.cpp:129] Top shape: 131 12 32 32 (1609728)
I0316 09:18:55.394873 108905 net.cpp:137] Memory required for data: 484529700
I0316 09:18:55.394887 108905 layer_factory.hpp:77] Creating layer group0_b3_dropout
I0316 09:18:55.394902 108905 net.cpp:84] Creating Layer group0_b3_dropout
I0316 09:18:55.394913 108905 net.cpp:406] group0_b3_dropout <- group0_b3_conv_top
I0316 09:18:55.394928 108905 net.cpp:380] group0_b3_dropout -> group0_b3_dropout
I0316 09:18:55.394986 108905 net.cpp:122] Setting up group0_b3_dropout
I0316 09:18:55.394997 108905 net.cpp:129] Top shape: 131 12 32 32 (1609728)
I0316 09:18:55.395011 108905 net.cpp:137] Memory required for data: 490968612
I0316 09:18:55.395022 108905 layer_factory.hpp:77] Creating layer group0_b3_concat
I0316 09:18:55.395036 108905 net.cpp:84] Creating Layer group0_b3_concat
I0316 09:18:55.395047 108905 net.cpp:406] group0_b3_concat <- group0_b3_dropout
I0316 09:18:55.395061 108905 net.cpp:406] group0_b3_concat <- group0_b2_concat_group0_b2_concat_0_split_1
I0316 09:18:55.395076 108905 net.cpp:380] group0_b3_concat -> group0_b3_concat
I0316 09:18:55.395119 108905 net.cpp:122] Setting up group0_b3_concat
I0316 09:18:55.395128 108905 net.cpp:129] Top shape: 131 64 32 32 (8585216)
I0316 09:18:55.395143 108905 net.cpp:137] Memory required for data: 525309476
I0316 09:18:55.395154 108905 layer_factory.hpp:77] Creating layer group0_b3_concat_group0_b3_concat_0_split
I0316 09:18:55.395169 108905 net.cpp:84] Creating Layer group0_b3_concat_group0_b3_concat_0_split
I0316 09:18:55.395179 108905 net.cpp:406] group0_b3_concat_group0_b3_concat_0_split <- group0_b3_concat
I0316 09:18:55.395193 108905 net.cpp:380] group0_b3_concat_group0_b3_concat_0_split -> group0_b3_concat_group0_b3_concat_0_split_0
I0316 09:18:55.395210 108905 net.cpp:380] group0_b3_concat_group0_b3_concat_0_split -> group0_b3_concat_group0_b3_concat_0_split_1
I0316 09:18:55.395268 108905 net.cpp:122] Setting up group0_b3_concat_group0_b3_concat_0_split
I0316 09:18:55.395278 108905 net.cpp:129] Top shape: 131 64 32 32 (8585216)
I0316 09:18:55.395293 108905 net.cpp:129] Top shape: 131 64 32 32 (8585216)
I0316 09:18:55.395308 108905 net.cpp:137] Memory required for data: 593991204
I0316 09:18:55.395318 108905 layer_factory.hpp:77] Creating layer group0_b4_bn
I0316 09:18:55.395340 108905 net.cpp:84] Creating Layer group0_b4_bn
I0316 09:18:55.395351 108905 net.cpp:406] group0_b4_bn <- group0_b3_concat_group0_b3_concat_0_split_0
I0316 09:18:55.395367 108905 net.cpp:380] group0_b4_bn -> group0_b4_bn_top
I0316 09:18:55.395638 108905 net.cpp:122] Setting up group0_b4_bn
I0316 09:18:55.395648 108905 net.cpp:129] Top shape: 131 64 32 32 (8585216)
I0316 09:18:55.395663 108905 net.cpp:137] Memory required for data: 628332068
I0316 09:18:55.395686 108905 layer_factory.hpp:77] Creating layer group0_b4_scale
I0316 09:18:55.395700 108905 net.cpp:84] Creating Layer group0_b4_scale
I0316 09:18:55.395711 108905 net.cpp:406] group0_b4_scale <- group0_b4_bn_top
I0316 09:18:55.395726 108905 net.cpp:367] group0_b4_scale -> group0_b4_bn_top (in-place)
I0316 09:18:55.395790 108905 layer_factory.hpp:77] Creating layer group0_b4_scale
I0316 09:18:55.395933 108905 net.cpp:122] Setting up group0_b4_scale
I0316 09:18:55.395943 108905 net.cpp:129] Top shape: 131 64 32 32 (8585216)
I0316 09:18:55.395958 108905 net.cpp:137] Memory required for data: 662672932
I0316 09:18:55.395975 108905 layer_factory.hpp:77] Creating layer group0_b4_relu
I0316 09:18:55.395989 108905 net.cpp:84] Creating Layer group0_b4_relu
I0316 09:18:55.396000 108905 net.cpp:406] group0_b4_relu <- group0_b4_bn_top
I0316 09:18:55.396014 108905 net.cpp:367] group0_b4_relu -> group0_b4_bn_top (in-place)
I0316 09:18:55.396504 108905 net.cpp:122] Setting up group0_b4_relu
I0316 09:18:55.396514 108905 net.cpp:129] Top shape: 131 64 32 32 (8585216)
I0316 09:18:55.396529 108905 net.cpp:137] Memory required for data: 697013796
I0316 09:18:55.396540 108905 layer_factory.hpp:77] Creating layer group0_b4_conv
I0316 09:18:55.396560 108905 net.cpp:84] Creating Layer group0_b4_conv
I0316 09:18:55.396572 108905 net.cpp:406] group0_b4_conv <- group0_b4_bn_top
I0316 09:18:55.396587 108905 net.cpp:380] group0_b4_conv -> group0_b4_conv_top
I0316 09:18:55.398818 108905 net.cpp:122] Setting up group0_b4_conv
I0316 09:18:55.398831 108905 net.cpp:129] Top shape: 131 12 32 32 (1609728)
I0316 09:18:55.398847 108905 net.cpp:137] Memory required for data: 703452708
I0316 09:18:55.398862 108905 layer_factory.hpp:77] Creating layer group0_b4_dropout
I0316 09:18:55.398877 108905 net.cpp:84] Creating Layer group0_b4_dropout
I0316 09:18:55.398890 108905 net.cpp:406] group0_b4_dropout <- group0_b4_conv_top
I0316 09:18:55.398903 108905 net.cpp:380] group0_b4_dropout -> group0_b4_dropout
I0316 09:18:55.398962 108905 net.cpp:122] Setting up group0_b4_dropout
I0316 09:18:55.398972 108905 net.cpp:129] Top shape: 131 12 32 32 (1609728)
I0316 09:18:55.398988 108905 net.cpp:137] Memory required for data: 709891620
I0316 09:18:55.398998 108905 layer_factory.hpp:77] Creating layer group0_b4_concat
I0316 09:18:55.399013 108905 net.cpp:84] Creating Layer group0_b4_concat
I0316 09:18:55.399024 108905 net.cpp:406] group0_b4_concat <- group0_b4_dropout
I0316 09:18:55.399036 108905 net.cpp:406] group0_b4_concat <- group0_b3_concat_group0_b3_concat_0_split_1
I0316 09:18:55.399051 108905 net.cpp:380] group0_b4_concat -> group0_b4_concat
I0316 09:18:55.399094 108905 net.cpp:122] Setting up group0_b4_concat
I0316 09:18:55.399103 108905 net.cpp:129] Top shape: 131 76 32 32 (10194944)
I0316 09:18:55.399119 108905 net.cpp:137] Memory required for data: 750671396
I0316 09:18:55.399129 108905 layer_factory.hpp:77] Creating layer group0_b4_concat_group0_b4_concat_0_split
I0316 09:18:55.399143 108905 net.cpp:84] Creating Layer group0_b4_concat_group0_b4_concat_0_split
I0316 09:18:55.399154 108905 net.cpp:406] group0_b4_concat_group0_b4_concat_0_split <- group0_b4_concat
I0316 09:18:55.399168 108905 net.cpp:380] group0_b4_concat_group0_b4_concat_0_split -> group0_b4_concat_group0_b4_concat_0_split_0
I0316 09:18:55.399185 108905 net.cpp:380] group0_b4_concat_group0_b4_concat_0_split -> group0_b4_concat_group0_b4_concat_0_split_1
I0316 09:18:55.399245 108905 net.cpp:122] Setting up group0_b4_concat_group0_b4_concat_0_split
I0316 09:18:55.399255 108905 net.cpp:129] Top shape: 131 76 32 32 (10194944)
I0316 09:18:55.399269 108905 net.cpp:129] Top shape: 131 76 32 32 (10194944)
I0316 09:18:55.399283 108905 net.cpp:137] Memory required for data: 832230948
I0316 09:18:55.399293 108905 layer_factory.hpp:77] Creating layer group0_b5_bn
I0316 09:18:55.399307 108905 net.cpp:84] Creating Layer group0_b5_bn
I0316 09:18:55.399318 108905 net.cpp:406] group0_b5_bn <- group0_b4_concat_group0_b4_concat_0_split_0
I0316 09:18:55.399333 108905 net.cpp:380] group0_b5_bn -> group0_b5_bn_top
I0316 09:18:55.399605 108905 net.cpp:122] Setting up group0_b5_bn
I0316 09:18:55.399615 108905 net.cpp:129] Top shape: 131 76 32 32 (10194944)
I0316 09:18:55.399629 108905 net.cpp:137] Memory required for data: 873010724
I0316 09:18:55.399662 108905 layer_factory.hpp:77] Creating layer group0_b5_scale
I0316 09:18:55.399677 108905 net.cpp:84] Creating Layer group0_b5_scale
I0316 09:18:55.399688 108905 net.cpp:406] group0_b5_scale <- group0_b5_bn_top
I0316 09:18:55.399703 108905 net.cpp:367] group0_b5_scale -> group0_b5_bn_top (in-place)
I0316 09:18:55.399775 108905 layer_factory.hpp:77] Creating layer group0_b5_scale
I0316 09:18:55.399920 108905 net.cpp:122] Setting up group0_b5_scale
I0316 09:18:55.399930 108905 net.cpp:129] Top shape: 131 76 32 32 (10194944)
I0316 09:18:55.399945 108905 net.cpp:137] Memory required for data: 913790500
I0316 09:18:55.399963 108905 layer_factory.hpp:77] Creating layer group0_b5_relu
I0316 09:18:55.399976 108905 net.cpp:84] Creating Layer group0_b5_relu
I0316 09:18:55.399988 108905 net.cpp:406] group0_b5_relu <- group0_b5_bn_top
I0316 09:18:55.400002 108905 net.cpp:367] group0_b5_relu -> group0_b5_bn_top (in-place)
I0316 09:18:55.400935 108905 net.cpp:122] Setting up group0_b5_relu
I0316 09:18:55.400949 108905 net.cpp:129] Top shape: 131 76 32 32 (10194944)
I0316 09:18:55.400964 108905 net.cpp:137] Memory required for data: 954570276
I0316 09:18:55.400974 108905 layer_factory.hpp:77] Creating layer group0_b5_conv
I0316 09:18:55.400993 108905 net.cpp:84] Creating Layer group0_b5_conv
I0316 09:18:55.401005 108905 net.cpp:406] group0_b5_conv <- group0_b5_bn_top
I0316 09:18:55.401021 108905 net.cpp:380] group0_b5_conv -> group0_b5_conv_top
I0316 09:18:55.403699 108905 net.cpp:122] Setting up group0_b5_conv
I0316 09:18:55.403712 108905 net.cpp:129] Top shape: 131 12 32 32 (1609728)
I0316 09:18:55.403728 108905 net.cpp:137] Memory required for data: 961009188
I0316 09:18:55.403743 108905 layer_factory.hpp:77] Creating layer group0_b5_dropout
I0316 09:18:55.403761 108905 net.cpp:84] Creating Layer group0_b5_dropout
I0316 09:18:55.403774 108905 net.cpp:406] group0_b5_dropout <- group0_b5_conv_top
I0316 09:18:55.403789 108905 net.cpp:380] group0_b5_dropout -> group0_b5_dropout
I0316 09:18:55.403846 108905 net.cpp:122] Setting up group0_b5_dropout
I0316 09:18:55.403856 108905 net.cpp:129] Top shape: 131 12 32 32 (1609728)
I0316 09:18:55.403872 108905 net.cpp:137] Memory required for data: 967448100
I0316 09:18:55.403882 108905 layer_factory.hpp:77] Creating layer group0_b5_concat
I0316 09:18:55.403898 108905 net.cpp:84] Creating Layer group0_b5_concat
I0316 09:18:55.403908 108905 net.cpp:406] group0_b5_concat <- group0_b5_dropout
I0316 09:18:55.403920 108905 net.cpp:406] group0_b5_concat <- group0_b4_concat_group0_b4_concat_0_split_1
I0316 09:18:55.403935 108905 net.cpp:380] group0_b5_concat -> group0_b5_concat
I0316 09:18:55.403980 108905 net.cpp:122] Setting up group0_b5_concat
I0316 09:18:55.403990 108905 net.cpp:129] Top shape: 131 88 32 32 (11804672)
I0316 09:18:55.404004 108905 net.cpp:137] Memory required for data: 1014666788
I0316 09:18:55.404014 108905 layer_factory.hpp:77] Creating layer group0_b5_concat_group0_b5_concat_0_split
I0316 09:18:55.404028 108905 net.cpp:84] Creating Layer group0_b5_concat_group0_b5_concat_0_split
I0316 09:18:55.404038 108905 net.cpp:406] group0_b5_concat_group0_b5_concat_0_split <- group0_b5_concat
I0316 09:18:55.404052 108905 net.cpp:380] group0_b5_concat_group0_b5_concat_0_split -> group0_b5_concat_group0_b5_concat_0_split_0
I0316 09:18:55.404069 108905 net.cpp:380] group0_b5_concat_group0_b5_concat_0_split -> group0_b5_concat_group0_b5_concat_0_split_1
I0316 09:18:55.404129 108905 net.cpp:122] Setting up group0_b5_concat_group0_b5_concat_0_split
I0316 09:18:55.404139 108905 net.cpp:129] Top shape: 131 88 32 32 (11804672)
I0316 09:18:55.404155 108905 net.cpp:129] Top shape: 131 88 32 32 (11804672)
I0316 09:18:55.404168 108905 net.cpp:137] Memory required for data: 1109104164
I0316 09:18:55.404178 108905 layer_factory.hpp:77] Creating layer group0_b6_bn
I0316 09:18:55.404192 108905 net.cpp:84] Creating Layer group0_b6_bn
I0316 09:18:55.404203 108905 net.cpp:406] group0_b6_bn <- group0_b5_concat_group0_b5_concat_0_split_0
I0316 09:18:55.404219 108905 net.cpp:380] group0_b6_bn -> group0_b6_bn_top
I0316 09:18:55.404489 108905 net.cpp:122] Setting up group0_b6_bn
I0316 09:18:55.404500 108905 net.cpp:129] Top shape: 131 88 32 32 (11804672)
I0316 09:18:55.404515 108905 net.cpp:137] Memory required for data: 1156322852
I0316 09:18:55.404536 108905 layer_factory.hpp:77] Creating layer group0_b6_scale
I0316 09:18:55.404551 108905 net.cpp:84] Creating Layer group0_b6_scale
I0316 09:18:55.404561 108905 net.cpp:406] group0_b6_scale <- group0_b6_bn_top
I0316 09:18:55.404577 108905 net.cpp:367] group0_b6_scale -> group0_b6_bn_top (in-place)
I0316 09:18:55.404640 108905 layer_factory.hpp:77] Creating layer group0_b6_scale
I0316 09:18:55.404788 108905 net.cpp:122] Setting up group0_b6_scale
I0316 09:18:55.404798 108905 net.cpp:129] Top shape: 131 88 32 32 (11804672)
I0316 09:18:55.404812 108905 net.cpp:137] Memory required for data: 1203541540
I0316 09:18:55.404831 108905 layer_factory.hpp:77] Creating layer group0_b6_relu
I0316 09:18:55.404844 108905 net.cpp:84] Creating Layer group0_b6_relu
I0316 09:18:55.404858 108905 net.cpp:406] group0_b6_relu <- group0_b6_bn_top
I0316 09:18:55.404886 108905 net.cpp:367] group0_b6_relu -> group0_b6_bn_top (in-place)
I0316 09:18:55.405385 108905 net.cpp:122] Setting up group0_b6_relu
I0316 09:18:55.405396 108905 net.cpp:129] Top shape: 131 88 32 32 (11804672)
I0316 09:18:55.405411 108905 net.cpp:137] Memory required for data: 1250760228
I0316 09:18:55.405422 108905 layer_factory.hpp:77] Creating layer group0_b6_conv
I0316 09:18:55.405441 108905 net.cpp:84] Creating Layer group0_b6_conv
I0316 09:18:55.405452 108905 net.cpp:406] group0_b6_conv <- group0_b6_bn_top
I0316 09:18:55.405467 108905 net.cpp:380] group0_b6_conv -> group0_b6_conv_top
I0316 09:18:55.407727 108905 net.cpp:122] Setting up group0_b6_conv
I0316 09:18:55.407739 108905 net.cpp:129] Top shape: 131 12 32 32 (1609728)
I0316 09:18:55.407754 108905 net.cpp:137] Memory required for data: 1257199140
I0316 09:18:55.407768 108905 layer_factory.hpp:77] Creating layer group0_b6_dropout
I0316 09:18:55.407783 108905 net.cpp:84] Creating Layer group0_b6_dropout
I0316 09:18:55.407794 108905 net.cpp:406] group0_b6_dropout <- group0_b6_conv_top
I0316 09:18:55.407809 108905 net.cpp:380] group0_b6_dropout -> group0_b6_dropout
I0316 09:18:55.407871 108905 net.cpp:122] Setting up group0_b6_dropout
I0316 09:18:55.407881 108905 net.cpp:129] Top shape: 131 12 32 32 (1609728)
I0316 09:18:55.407896 108905 net.cpp:137] Memory required for data: 1263638052
I0316 09:18:55.407907 108905 layer_factory.hpp:77] Creating layer group0_b6_concat
I0316 09:18:55.407922 108905 net.cpp:84] Creating Layer group0_b6_concat
I0316 09:18:55.407932 108905 net.cpp:406] group0_b6_concat <- group0_b6_dropout
I0316 09:18:55.407945 108905 net.cpp:406] group0_b6_concat <- group0_b5_concat_group0_b5_concat_0_split_1
I0316 09:18:55.407960 108905 net.cpp:380] group0_b6_concat -> group0_b6_concat
I0316 09:18:55.408004 108905 net.cpp:122] Setting up group0_b6_concat
I0316 09:18:55.408013 108905 net.cpp:129] Top shape: 131 100 32 32 (13414400)
I0316 09:18:55.408028 108905 net.cpp:137] Memory required for data: 1317295652
I0316 09:18:55.408038 108905 layer_factory.hpp:77] Creating layer group0_b6_concat_group0_b6_concat_0_split
I0316 09:18:55.408052 108905 net.cpp:84] Creating Layer group0_b6_concat_group0_b6_concat_0_split
I0316 09:18:55.408063 108905 net.cpp:406] group0_b6_concat_group0_b6_concat_0_split <- group0_b6_concat
I0316 09:18:55.408077 108905 net.cpp:380] group0_b6_concat_group0_b6_concat_0_split -> group0_b6_concat_group0_b6_concat_0_split_0
I0316 09:18:55.408094 108905 net.cpp:380] group0_b6_concat_group0_b6_concat_0_split -> group0_b6_concat_group0_b6_concat_0_split_1
I0316 09:18:55.408154 108905 net.cpp:122] Setting up group0_b6_concat_group0_b6_concat_0_split
I0316 09:18:55.408164 108905 net.cpp:129] Top shape: 131 100 32 32 (13414400)
I0316 09:18:55.408179 108905 net.cpp:129] Top shape: 131 100 32 32 (13414400)
I0316 09:18:55.408192 108905 net.cpp:137] Memory required for data: 1424610852
I0316 09:18:55.408203 108905 layer_factory.hpp:77] Creating layer group0_b7_bn
I0316 09:18:55.408217 108905 net.cpp:84] Creating Layer group0_b7_bn
I0316 09:18:55.408228 108905 net.cpp:406] group0_b7_bn <- group0_b6_concat_group0_b6_concat_0_split_0
I0316 09:18:55.408244 108905 net.cpp:380] group0_b7_bn -> group0_b7_bn_top
I0316 09:18:55.408517 108905 net.cpp:122] Setting up group0_b7_bn
I0316 09:18:55.408527 108905 net.cpp:129] Top shape: 131 100 32 32 (13414400)
I0316 09:18:55.408542 108905 net.cpp:137] Memory required for data: 1478268452
I0316 09:18:55.408565 108905 layer_factory.hpp:77] Creating layer group0_b7_scale
I0316 09:18:55.408579 108905 net.cpp:84] Creating Layer group0_b7_scale
I0316 09:18:55.408589 108905 net.cpp:406] group0_b7_scale <- group0_b7_bn_top
I0316 09:18:55.408604 108905 net.cpp:367] group0_b7_scale -> group0_b7_bn_top (in-place)
I0316 09:18:55.408668 108905 layer_factory.hpp:77] Creating layer group0_b7_scale
I0316 09:18:55.408816 108905 net.cpp:122] Setting up group0_b7_scale
I0316 09:18:55.408826 108905 net.cpp:129] Top shape: 131 100 32 32 (13414400)
I0316 09:18:55.408866 108905 net.cpp:137] Memory required for data: 1531926052
I0316 09:18:55.408886 108905 layer_factory.hpp:77] Creating layer group0_b7_relu
I0316 09:18:55.408900 108905 net.cpp:84] Creating Layer group0_b7_relu
I0316 09:18:55.408910 108905 net.cpp:406] group0_b7_relu <- group0_b7_bn_top
I0316 09:18:55.408926 108905 net.cpp:367] group0_b7_relu -> group0_b7_bn_top (in-place)
I0316 09:18:55.409431 108905 net.cpp:122] Setting up group0_b7_relu
I0316 09:18:55.409441 108905 net.cpp:129] Top shape: 131 100 32 32 (13414400)
I0316 09:18:55.409456 108905 net.cpp:137] Memory required for data: 1585583652
I0316 09:18:55.409467 108905 layer_factory.hpp:77] Creating layer group0_b7_conv
I0316 09:18:55.409485 108905 net.cpp:84] Creating Layer group0_b7_conv
I0316 09:18:55.409497 108905 net.cpp:406] group0_b7_conv <- group0_b7_bn_top
I0316 09:18:55.409512 108905 net.cpp:380] group0_b7_conv -> group0_b7_conv_top
I0316 09:18:55.411756 108905 net.cpp:122] Setting up group0_b7_conv
I0316 09:18:55.411767 108905 net.cpp:129] Top shape: 131 12 32 32 (1609728)
I0316 09:18:55.411783 108905 net.cpp:137] Memory required for data: 1592022564
I0316 09:18:55.411798 108905 layer_factory.hpp:77] Creating layer group0_b7_dropout
I0316 09:18:55.411813 108905 net.cpp:84] Creating Layer group0_b7_dropout
I0316 09:18:55.411823 108905 net.cpp:406] group0_b7_dropout <- group0_b7_conv_top
I0316 09:18:55.411839 108905 net.cpp:380] group0_b7_dropout -> group0_b7_dropout
I0316 09:18:55.411900 108905 net.cpp:122] Setting up group0_b7_dropout
I0316 09:18:55.411909 108905 net.cpp:129] Top shape: 131 12 32 32 (1609728)
I0316 09:18:55.411924 108905 net.cpp:137] Memory required for data: 1598461476
I0316 09:18:55.411934 108905 layer_factory.hpp:77] Creating layer group0_b7_concat
I0316 09:18:55.411948 108905 net.cpp:84] Creating Layer group0_b7_concat
I0316 09:18:55.411959 108905 net.cpp:406] group0_b7_concat <- group0_b7_dropout
I0316 09:18:55.411972 108905 net.cpp:406] group0_b7_concat <- group0_b6_concat_group0_b6_concat_0_split_1
I0316 09:18:55.411988 108905 net.cpp:380] group0_b7_concat -> group0_b7_concat
I0316 09:18:55.412030 108905 net.cpp:122] Setting up group0_b7_concat
I0316 09:18:55.412040 108905 net.cpp:129] Top shape: 131 112 32 32 (15024128)
I0316 09:18:55.412055 108905 net.cpp:137] Memory required for data: 1658557988
I0316 09:18:55.412065 108905 layer_factory.hpp:77] Creating layer group0_b7_concat_group0_b7_concat_0_split
I0316 09:18:55.412078 108905 net.cpp:84] Creating Layer group0_b7_concat_group0_b7_concat_0_split
I0316 09:18:55.412089 108905 net.cpp:406] group0_b7_concat_group0_b7_concat_0_split <- group0_b7_concat
I0316 09:18:55.412103 108905 net.cpp:380] group0_b7_concat_group0_b7_concat_0_split -> group0_b7_concat_group0_b7_concat_0_split_0
I0316 09:18:55.412120 108905 net.cpp:380] group0_b7_concat_group0_b7_concat_0_split -> group0_b7_concat_group0_b7_concat_0_split_1
I0316 09:18:55.412180 108905 net.cpp:122] Setting up group0_b7_concat_group0_b7_concat_0_split
I0316 09:18:55.412189 108905 net.cpp:129] Top shape: 131 112 32 32 (15024128)
I0316 09:18:55.412205 108905 net.cpp:129] Top shape: 131 112 32 32 (15024128)
I0316 09:18:55.412219 108905 net.cpp:137] Memory required for data: 1778751012
I0316 09:18:55.412230 108905 layer_factory.hpp:77] Creating layer group0_b8_bn
I0316 09:18:55.412243 108905 net.cpp:84] Creating Layer group0_b8_bn
I0316 09:18:55.412255 108905 net.cpp:406] group0_b8_bn <- group0_b7_concat_group0_b7_concat_0_split_0
I0316 09:18:55.412269 108905 net.cpp:380] group0_b8_bn -> group0_b8_bn_top
I0316 09:18:55.412540 108905 net.cpp:122] Setting up group0_b8_bn
I0316 09:18:55.412551 108905 net.cpp:129] Top shape: 131 112 32 32 (15024128)
I0316 09:18:55.412566 108905 net.cpp:137] Memory required for data: 1838847524
I0316 09:18:55.412587 108905 layer_factory.hpp:77] Creating layer group0_b8_scale
I0316 09:18:55.412601 108905 net.cpp:84] Creating Layer group0_b8_scale
I0316 09:18:55.412612 108905 net.cpp:406] group0_b8_scale <- group0_b8_bn_top
I0316 09:18:55.412626 108905 net.cpp:367] group0_b8_scale -> group0_b8_bn_top (in-place)
I0316 09:18:55.412691 108905 layer_factory.hpp:77] Creating layer group0_b8_scale
I0316 09:18:55.412844 108905 net.cpp:122] Setting up group0_b8_scale
I0316 09:18:55.412854 108905 net.cpp:129] Top shape: 131 112 32 32 (15024128)
I0316 09:18:55.412869 108905 net.cpp:137] Memory required for data: 1898944036
I0316 09:18:55.412888 108905 layer_factory.hpp:77] Creating layer group0_b8_relu
I0316 09:18:55.412901 108905 net.cpp:84] Creating Layer group0_b8_relu
I0316 09:18:55.412912 108905 net.cpp:406] group0_b8_relu <- group0_b8_bn_top
I0316 09:18:55.412926 108905 net.cpp:367] group0_b8_relu -> group0_b8_bn_top (in-place)
I0316 09:18:55.413427 108905 net.cpp:122] Setting up group0_b8_relu
I0316 09:18:55.413439 108905 net.cpp:129] Top shape: 131 112 32 32 (15024128)
I0316 09:18:55.413453 108905 net.cpp:137] Memory required for data: 1959040548
I0316 09:18:55.413465 108905 layer_factory.hpp:77] Creating layer group0_b8_conv
I0316 09:18:55.413481 108905 net.cpp:84] Creating Layer group0_b8_conv
I0316 09:18:55.413493 108905 net.cpp:406] group0_b8_conv <- group0_b8_bn_top
I0316 09:18:55.413509 108905 net.cpp:380] group0_b8_conv -> group0_b8_conv_top
I0316 09:18:55.416239 108905 net.cpp:122] Setting up group0_b8_conv
I0316 09:18:55.416250 108905 net.cpp:129] Top shape: 131 12 32 32 (1609728)
I0316 09:18:55.416266 108905 net.cpp:137] Memory required for data: 1965479460
I0316 09:18:55.416281 108905 layer_factory.hpp:77] Creating layer group0_b8_dropout
I0316 09:18:55.416312 108905 net.cpp:84] Creating Layer group0_b8_dropout
I0316 09:18:55.416326 108905 net.cpp:406] group0_b8_dropout <- group0_b8_conv_top
I0316 09:18:55.416342 108905 net.cpp:380] group0_b8_dropout -> group0_b8_dropout
I0316 09:18:55.416404 108905 net.cpp:122] Setting up group0_b8_dropout
I0316 09:18:55.416414 108905 net.cpp:129] Top shape: 131 12 32 32 (1609728)
I0316 09:18:55.416429 108905 net.cpp:137] Memory required for data: 1971918372
I0316 09:18:55.416441 108905 layer_factory.hpp:77] Creating layer group0_b8_concat
I0316 09:18:55.416455 108905 net.cpp:84] Creating Layer group0_b8_concat
I0316 09:18:55.416466 108905 net.cpp:406] group0_b8_concat <- group0_b8_dropout
I0316 09:18:55.416479 108905 net.cpp:406] group0_b8_concat <- group0_b7_concat_group0_b7_concat_0_split_1
I0316 09:18:55.416494 108905 net.cpp:380] group0_b8_concat -> group0_b8_concat
I0316 09:18:55.416538 108905 net.cpp:122] Setting up group0_b8_concat
I0316 09:18:55.416548 108905 net.cpp:129] Top shape: 131 124 32 32 (16633856)
I0316 09:18:55.416563 108905 net.cpp:137] Memory required for data: 2038453796
I0316 09:18:55.416574 108905 layer_factory.hpp:77] Creating layer group0_b8_concat_group0_b8_concat_0_split
I0316 09:18:55.416586 108905 net.cpp:84] Creating Layer group0_b8_concat_group0_b8_concat_0_split
I0316 09:18:55.416597 108905 net.cpp:406] group0_b8_concat_group0_b8_concat_0_split <- group0_b8_concat
I0316 09:18:55.416616 108905 net.cpp:380] group0_b8_concat_group0_b8_concat_0_split -> group0_b8_concat_group0_b8_concat_0_split_0
I0316 09:18:55.416635 108905 net.cpp:380] group0_b8_concat_group0_b8_concat_0_split -> group0_b8_concat_group0_b8_concat_0_split_1
I0316 09:18:55.416693 108905 net.cpp:122] Setting up group0_b8_concat_group0_b8_concat_0_split
I0316 09:18:55.416703 108905 net.cpp:129] Top shape: 131 124 32 32 (16633856)
I0316 09:18:55.416718 108905 net.cpp:129] Top shape: 131 124 32 32 (16633856)
I0316 09:18:55.416731 108905 net.cpp:137] Memory required for data: 2171524644
I0316 09:18:55.416743 108905 layer_factory.hpp:77] Creating layer group0_b9_bn
I0316 09:18:55.416756 108905 net.cpp:84] Creating Layer group0_b9_bn
I0316 09:18:55.416767 108905 net.cpp:406] group0_b9_bn <- group0_b8_concat_group0_b8_concat_0_split_0
I0316 09:18:55.416782 108905 net.cpp:380] group0_b9_bn -> group0_b9_bn_top
I0316 09:18:55.417053 108905 net.cpp:122] Setting up group0_b9_bn
I0316 09:18:55.417063 108905 net.cpp:129] Top shape: 131 124 32 32 (16633856)
I0316 09:18:55.417078 108905 net.cpp:137] Memory required for data: 2238060068
I0316 09:18:55.417099 108905 layer_factory.hpp:77] Creating layer group0_b9_scale
I0316 09:18:55.417114 108905 net.cpp:84] Creating Layer group0_b9_scale
I0316 09:18:55.417124 108905 net.cpp:406] group0_b9_scale <- group0_b9_bn_top
I0316 09:18:55.417138 108905 net.cpp:367] group0_b9_scale -> group0_b9_bn_top (in-place)
I0316 09:18:55.417204 108905 layer_factory.hpp:77] Creating layer group0_b9_scale
I0316 09:18:55.417351 108905 net.cpp:122] Setting up group0_b9_scale
I0316 09:18:55.417361 108905 net.cpp:129] Top shape: 131 124 32 32 (16633856)
I0316 09:18:55.417376 108905 net.cpp:137] Memory required for data: 2304595492
I0316 09:18:55.417394 108905 layer_factory.hpp:77] Creating layer group0_b9_relu
I0316 09:18:55.417408 108905 net.cpp:84] Creating Layer group0_b9_relu
I0316 09:18:55.417419 108905 net.cpp:406] group0_b9_relu <- group0_b9_bn_top
I0316 09:18:55.417433 108905 net.cpp:367] group0_b9_relu -> group0_b9_bn_top (in-place)
I0316 09:18:55.418377 108905 net.cpp:122] Setting up group0_b9_relu
I0316 09:18:55.418390 108905 net.cpp:129] Top shape: 131 124 32 32 (16633856)
I0316 09:18:55.418406 108905 net.cpp:137] Memory required for data: 2371130916
I0316 09:18:55.418416 108905 layer_factory.hpp:77] Creating layer group0_b9_conv
I0316 09:18:55.418435 108905 net.cpp:84] Creating Layer group0_b9_conv
I0316 09:18:55.418447 108905 net.cpp:406] group0_b9_conv <- group0_b9_bn_top
I0316 09:18:55.418463 108905 net.cpp:380] group0_b9_conv -> group0_b9_conv_top
I0316 09:18:55.420718 108905 net.cpp:122] Setting up group0_b9_conv
I0316 09:18:55.420729 108905 net.cpp:129] Top shape: 131 12 32 32 (1609728)
I0316 09:18:55.420745 108905 net.cpp:137] Memory required for data: 2377569828
I0316 09:18:55.420760 108905 layer_factory.hpp:77] Creating layer group0_b9_dropout
I0316 09:18:55.420774 108905 net.cpp:84] Creating Layer group0_b9_dropout
I0316 09:18:55.420786 108905 net.cpp:406] group0_b9_dropout <- group0_b9_conv_top
I0316 09:18:55.420801 108905 net.cpp:380] group0_b9_dropout -> group0_b9_dropout
I0316 09:18:55.420861 108905 net.cpp:122] Setting up group0_b9_dropout
I0316 09:18:55.420871 108905 net.cpp:129] Top shape: 131 12 32 32 (1609728)
I0316 09:18:55.420886 108905 net.cpp:137] Memory required for data: 2384008740
I0316 09:18:55.420897 108905 layer_factory.hpp:77] Creating layer group0_b9_concat
I0316 09:18:55.420912 108905 net.cpp:84] Creating Layer group0_b9_concat
I0316 09:18:55.420922 108905 net.cpp:406] group0_b9_concat <- group0_b9_dropout
I0316 09:18:55.420934 108905 net.cpp:406] group0_b9_concat <- group0_b8_concat_group0_b8_concat_0_split_1
I0316 09:18:55.420949 108905 net.cpp:380] group0_b9_concat -> group0_b9_concat
I0316 09:18:55.421003 108905 net.cpp:122] Setting up group0_b9_concat
I0316 09:18:55.421015 108905 net.cpp:129] Top shape: 131 136 32 32 (18243584)
I0316 09:18:55.421030 108905 net.cpp:137] Memory required for data: 2456983076
I0316 09:18:55.421039 108905 layer_factory.hpp:77] Creating layer group0_b9_concat_group0_b9_concat_0_split
I0316 09:18:55.421053 108905 net.cpp:84] Creating Layer group0_b9_concat_group0_b9_concat_0_split
I0316 09:18:55.421063 108905 net.cpp:406] group0_b9_concat_group0_b9_concat_0_split <- group0_b9_concat
I0316 09:18:55.421078 108905 net.cpp:380] group0_b9_concat_group0_b9_concat_0_split -> group0_b9_concat_group0_b9_concat_0_split_0
I0316 09:18:55.421094 108905 net.cpp:380] group0_b9_concat_group0_b9_concat_0_split -> group0_b9_concat_group0_b9_concat_0_split_1
I0316 09:18:55.421155 108905 net.cpp:122] Setting up group0_b9_concat_group0_b9_concat_0_split
I0316 09:18:55.421165 108905 net.cpp:129] Top shape: 131 136 32 32 (18243584)
I0316 09:18:55.421180 108905 net.cpp:129] Top shape: 131 136 32 32 (18243584)
I0316 09:18:55.421195 108905 net.cpp:137] Memory required for data: 2602931748
I0316 09:18:55.421205 108905 layer_factory.hpp:77] Creating layer group0_b10_bn
I0316 09:18:55.421218 108905 net.cpp:84] Creating Layer group0_b10_bn
I0316 09:18:55.421229 108905 net.cpp:406] group0_b10_bn <- group0_b9_concat_group0_b9_concat_0_split_0
I0316 09:18:55.421244 108905 net.cpp:380] group0_b10_bn -> group0_b10_bn_top
I0316 09:18:55.421527 108905 net.cpp:122] Setting up group0_b10_bn
I0316 09:18:55.421537 108905 net.cpp:129] Top shape: 131 136 32 32 (18243584)
I0316 09:18:55.421553 108905 net.cpp:137] Memory required for data: 2675906084
I0316 09:18:55.421574 108905 layer_factory.hpp:77] Creating layer group0_b10_scale
I0316 09:18:55.421589 108905 net.cpp:84] Creating Layer group0_b10_scale
I0316 09:18:55.421600 108905 net.cpp:406] group0_b10_scale <- group0_b10_bn_top
I0316 09:18:55.421615 108905 net.cpp:367] group0_b10_scale -> group0_b10_bn_top (in-place)
I0316 09:18:55.421679 108905 layer_factory.hpp:77] Creating layer group0_b10_scale
I0316 09:18:55.421830 108905 net.cpp:122] Setting up group0_b10_scale
I0316 09:18:55.421840 108905 net.cpp:129] Top shape: 131 136 32 32 (18243584)
I0316 09:18:55.421855 108905 net.cpp:137] Memory required for data: 2748880420
I0316 09:18:55.421890 108905 layer_factory.hpp:77] Creating layer group0_b10_relu
I0316 09:18:55.421905 108905 net.cpp:84] Creating Layer group0_b10_relu
I0316 09:18:55.421916 108905 net.cpp:406] group0_b10_relu <- group0_b10_bn_top
I0316 09:18:55.421929 108905 net.cpp:367] group0_b10_relu -> group0_b10_bn_top (in-place)
I0316 09:18:55.422427 108905 net.cpp:122] Setting up group0_b10_relu
I0316 09:18:55.422437 108905 net.cpp:129] Top shape: 131 136 32 32 (18243584)
I0316 09:18:55.422452 108905 net.cpp:137] Memory required for data: 2821854756
I0316 09:18:55.422463 108905 layer_factory.hpp:77] Creating layer group0_b10_conv
I0316 09:18:55.422482 108905 net.cpp:84] Creating Layer group0_b10_conv
I0316 09:18:55.422492 108905 net.cpp:406] group0_b10_conv <- group0_b10_bn_top
I0316 09:18:55.422509 108905 net.cpp:380] group0_b10_conv -> group0_b10_conv_top
I0316 09:18:55.425252 108905 net.cpp:122] Setting up group0_b10_conv
I0316 09:18:55.425266 108905 net.cpp:129] Top shape: 131 12 32 32 (1609728)
I0316 09:18:55.425281 108905 net.cpp:137] Memory required for data: 2828293668
I0316 09:18:55.425295 108905 layer_factory.hpp:77] Creating layer group0_b10_dropout
I0316 09:18:55.425310 108905 net.cpp:84] Creating Layer group0_b10_dropout
I0316 09:18:55.425321 108905 net.cpp:406] group0_b10_dropout <- group0_b10_conv_top
I0316 09:18:55.425336 108905 net.cpp:380] group0_b10_dropout -> group0_b10_dropout
I0316 09:18:55.425398 108905 net.cpp:122] Setting up group0_b10_dropout
I0316 09:18:55.425408 108905 net.cpp:129] Top shape: 131 12 32 32 (1609728)
I0316 09:18:55.425423 108905 net.cpp:137] Memory required for data: 2834732580
I0316 09:18:55.425434 108905 layer_factory.hpp:77] Creating layer group0_b10_concat
I0316 09:18:55.425448 108905 net.cpp:84] Creating Layer group0_b10_concat
I0316 09:18:55.425460 108905 net.cpp:406] group0_b10_concat <- group0_b10_dropout
I0316 09:18:55.425473 108905 net.cpp:406] group0_b10_concat <- group0_b9_concat_group0_b9_concat_0_split_1
I0316 09:18:55.425488 108905 net.cpp:380] group0_b10_concat -> group0_b10_concat
I0316 09:18:55.425532 108905 net.cpp:122] Setting up group0_b10_concat
I0316 09:18:55.425542 108905 net.cpp:129] Top shape: 131 148 32 32 (19853312)
I0316 09:18:55.425557 108905 net.cpp:137] Memory required for data: 2914145828
I0316 09:18:55.425567 108905 layer_factory.hpp:77] Creating layer group0_b10_concat_group0_b10_concat_0_split
I0316 09:18:55.425581 108905 net.cpp:84] Creating Layer group0_b10_concat_group0_b10_concat_0_split
I0316 09:18:55.425592 108905 net.cpp:406] group0_b10_concat_group0_b10_concat_0_split <- group0_b10_concat
I0316 09:18:55.425606 108905 net.cpp:380] group0_b10_concat_group0_b10_concat_0_split -> group0_b10_concat_group0_b10_concat_0_split_0
I0316 09:18:55.425622 108905 net.cpp:380] group0_b10_concat_group0_b10_concat_0_split -> group0_b10_concat_group0_b10_concat_0_split_1
I0316 09:18:55.425684 108905 net.cpp:122] Setting up group0_b10_concat_group0_b10_concat_0_split
I0316 09:18:55.425694 108905 net.cpp:129] Top shape: 131 148 32 32 (19853312)
I0316 09:18:55.425709 108905 net.cpp:129] Top shape: 131 148 32 32 (19853312)
I0316 09:18:55.425722 108905 net.cpp:137] Memory required for data: 3072972324
I0316 09:18:55.425734 108905 layer_factory.hpp:77] Creating layer group0_b11_bn
I0316 09:18:55.425748 108905 net.cpp:84] Creating Layer group0_b11_bn
I0316 09:18:55.425760 108905 net.cpp:406] group0_b11_bn <- group0_b10_concat_group0_b10_concat_0_split_0
I0316 09:18:55.425774 108905 net.cpp:380] group0_b11_bn -> group0_b11_bn_top
I0316 09:18:55.426054 108905 net.cpp:122] Setting up group0_b11_bn
I0316 09:18:55.426064 108905 net.cpp:129] Top shape: 131 148 32 32 (19853312)
I0316 09:18:55.426079 108905 net.cpp:137] Memory required for data: 3152385572
I0316 09:18:55.426100 108905 layer_factory.hpp:77] Creating layer group0_b11_scale
I0316 09:18:55.426115 108905 net.cpp:84] Creating Layer group0_b11_scale
I0316 09:18:55.426126 108905 net.cpp:406] group0_b11_scale <- group0_b11_bn_top
I0316 09:18:55.426141 108905 net.cpp:367] group0_b11_scale -> group0_b11_bn_top (in-place)
I0316 09:18:55.426205 108905 layer_factory.hpp:77] Creating layer group0_b11_scale
I0316 09:18:55.426359 108905 net.cpp:122] Setting up group0_b11_scale
I0316 09:18:55.426370 108905 net.cpp:129] Top shape: 131 148 32 32 (19853312)
I0316 09:18:55.426384 108905 net.cpp:137] Memory required for data: 3231798820
I0316 09:18:55.426403 108905 layer_factory.hpp:77] Creating layer group0_b11_relu
I0316 09:18:55.426416 108905 net.cpp:84] Creating Layer group0_b11_relu
I0316 09:18:55.426427 108905 net.cpp:406] group0_b11_relu <- group0_b11_bn_top
I0316 09:18:55.426441 108905 net.cpp:367] group0_b11_relu -> group0_b11_bn_top (in-place)
I0316 09:18:55.426946 108905 net.cpp:122] Setting up group0_b11_relu
I0316 09:18:55.426957 108905 net.cpp:129] Top shape: 131 148 32 32 (19853312)
I0316 09:18:55.426971 108905 net.cpp:137] Memory required for data: 3311212068
I0316 09:18:55.426982 108905 layer_factory.hpp:77] Creating layer group0_b11_conv
I0316 09:18:55.427001 108905 net.cpp:84] Creating Layer group0_b11_conv
I0316 09:18:55.427012 108905 net.cpp:406] group0_b11_conv <- group0_b11_bn_top
I0316 09:18:55.427029 108905 net.cpp:380] group0_b11_conv -> group0_b11_conv_top
I0316 09:18:55.429323 108905 net.cpp:122] Setting up group0_b11_conv
I0316 09:18:55.429335 108905 net.cpp:129] Top shape: 131 12 32 32 (1609728)
I0316 09:18:55.429352 108905 net.cpp:137] Memory required for data: 3317650980
I0316 09:18:55.429366 108905 layer_factory.hpp:77] Creating layer group0_b11_dropout
I0316 09:18:55.429380 108905 net.cpp:84] Creating Layer group0_b11_dropout
I0316 09:18:55.429392 108905 net.cpp:406] group0_b11_dropout <- group0_b11_conv_top
I0316 09:18:55.429407 108905 net.cpp:380] group0_b11_dropout -> group0_b11_dropout
I0316 09:18:55.429467 108905 net.cpp:122] Setting up group0_b11_dropout
I0316 09:18:55.429477 108905 net.cpp:129] Top shape: 131 12 32 32 (1609728)
I0316 09:18:55.429492 108905 net.cpp:137] Memory required for data: 3324089892
I0316 09:18:55.429503 108905 layer_factory.hpp:77] Creating layer group0_b11_concat
I0316 09:18:55.429517 108905 net.cpp:84] Creating Layer group0_b11_concat
I0316 09:18:55.429528 108905 net.cpp:406] group0_b11_concat <- group0_b11_dropout
I0316 09:18:55.429540 108905 net.cpp:406] group0_b11_concat <- group0_b10_concat_group0_b10_concat_0_split_1
I0316 09:18:55.429555 108905 net.cpp:380] group0_b11_concat -> group0_b11_concat
I0316 09:18:55.429600 108905 net.cpp:122] Setting up group0_b11_concat
I0316 09:18:55.429610 108905 net.cpp:129] Top shape: 131 160 32 32 (21463040)
I0316 09:18:55.429625 108905 net.cpp:137] Memory required for data: 3409942052
I0316 09:18:55.429636 108905 layer_factory.hpp:77] Creating layer group0_b12_bn
I0316 09:18:55.429649 108905 net.cpp:84] Creating Layer group0_b12_bn
I0316 09:18:55.429661 108905 net.cpp:406] group0_b12_bn <- group0_b11_concat
I0316 09:18:55.429675 108905 net.cpp:380] group0_b12_bn -> group0_b12_bn_top
I0316 09:18:55.429956 108905 net.cpp:122] Setting up group0_b12_bn
I0316 09:18:55.429966 108905 net.cpp:129] Top shape: 131 160 32 32 (21463040)
I0316 09:18:55.429981 108905 net.cpp:137] Memory required for data: 3495794212
I0316 09:18:55.430002 108905 layer_factory.hpp:77] Creating layer group0_b12_scale
I0316 09:18:55.430017 108905 net.cpp:84] Creating Layer group0_b12_scale
I0316 09:18:55.430028 108905 net.cpp:406] group0_b12_scale <- group0_b12_bn_top
I0316 09:18:55.430042 108905 net.cpp:367] group0_b12_scale -> group0_b12_bn_top (in-place)
I0316 09:18:55.430104 108905 layer_factory.hpp:77] Creating layer group0_b12_scale
I0316 09:18:55.430251 108905 net.cpp:122] Setting up group0_b12_scale
I0316 09:18:55.430261 108905 net.cpp:129] Top shape: 131 160 32 32 (21463040)
I0316 09:18:55.430277 108905 net.cpp:137] Memory required for data: 3581646372
I0316 09:18:55.430294 108905 layer_factory.hpp:77] Creating layer group0_b12_relu
I0316 09:18:55.430307 108905 net.cpp:84] Creating Layer group0_b12_relu
I0316 09:18:55.430318 108905 net.cpp:406] group0_b12_relu <- group0_b12_bn_top
I0316 09:18:55.430332 108905 net.cpp:367] group0_b12_relu -> group0_b12_bn_top (in-place)
I0316 09:18:55.431290 108905 net.cpp:122] Setting up group0_b12_relu
I0316 09:18:55.431301 108905 net.cpp:129] Top shape: 131 160 32 32 (21463040)
I0316 09:18:55.431318 108905 net.cpp:137] Memory required for data: 3667498532
I0316 09:18:55.431329 108905 layer_factory.hpp:77] Creating layer group0_b12_conv
I0316 09:18:55.431347 108905 net.cpp:84] Creating Layer group0_b12_conv
I0316 09:18:55.431360 108905 net.cpp:406] group0_b12_conv <- group0_b12_bn_top
I0316 09:18:55.431375 108905 net.cpp:380] group0_b12_conv -> group0_b12_conv_top
I0316 09:18:55.434587 108905 net.cpp:122] Setting up group0_b12_conv
I0316 09:18:55.434604 108905 net.cpp:129] Top shape: 131 160 32 32 (21463040)
I0316 09:18:55.434620 108905 net.cpp:137] Memory required for data: 3753350692
I0316 09:18:55.434636 108905 layer_factory.hpp:77] Creating layer group0_b12_dropout
I0316 09:18:55.434651 108905 net.cpp:84] Creating Layer group0_b12_dropout
I0316 09:18:55.434664 108905 net.cpp:406] group0_b12_dropout <- group0_b12_conv_top
I0316 09:18:55.434679 108905 net.cpp:380] group0_b12_dropout -> group0_b12_dropout
I0316 09:18:55.434743 108905 net.cpp:122] Setting up group0_b12_dropout
I0316 09:18:55.434753 108905 net.cpp:129] Top shape: 131 160 32 32 (21463040)
I0316 09:18:55.434768 108905 net.cpp:137] Memory required for data: 3839202852
I0316 09:18:55.434778 108905 layer_factory.hpp:77] Creating layer group0_b12_pool
I0316 09:18:55.434794 108905 net.cpp:84] Creating Layer group0_b12_pool
I0316 09:18:55.434806 108905 net.cpp:406] group0_b12_pool <- group0_b12_dropout
I0316 09:18:55.434820 108905 net.cpp:380] group0_b12_pool -> group0_b12_pool
I0316 09:18:55.435408 108905 net.cpp:122] Setting up group0_b12_pool
I0316 09:18:55.435420 108905 net.cpp:129] Top shape: 131 160 16 16 (5365760)
I0316 09:18:55.435436 108905 net.cpp:137] Memory required for data: 3860665892
I0316 09:18:55.435446 108905 layer_factory.hpp:77] Creating layer group0_b12_pool_group0_b12_pool_0_split
I0316 09:18:55.435461 108905 net.cpp:84] Creating Layer group0_b12_pool_group0_b12_pool_0_split
I0316 09:18:55.435472 108905 net.cpp:406] group0_b12_pool_group0_b12_pool_0_split <- group0_b12_pool
I0316 09:18:55.435487 108905 net.cpp:380] group0_b12_pool_group0_b12_pool_0_split -> group0_b12_pool_group0_b12_pool_0_split_0
I0316 09:18:55.435504 108905 net.cpp:380] group0_b12_pool_group0_b12_pool_0_split -> group0_b12_pool_group0_b12_pool_0_split_1
I0316 09:18:55.435566 108905 net.cpp:122] Setting up group0_b12_pool_group0_b12_pool_0_split
I0316 09:18:55.435576 108905 net.cpp:129] Top shape: 131 160 16 16 (5365760)
I0316 09:18:55.435591 108905 net.cpp:129] Top shape: 131 160 16 16 (5365760)
I0316 09:18:55.435606 108905 net.cpp:137] Memory required for data: 3903591972
I0316 09:18:55.435616 108905 layer_factory.hpp:77] Creating layer group1_b0_bn
I0316 09:18:55.435631 108905 net.cpp:84] Creating Layer group1_b0_bn
I0316 09:18:55.435642 108905 net.cpp:406] group1_b0_bn <- group0_b12_pool_group0_b12_pool_0_split_0
I0316 09:18:55.435658 108905 net.cpp:380] group1_b0_bn -> group1_b0_bn_top
I0316 09:18:55.435940 108905 net.cpp:122] Setting up group1_b0_bn
I0316 09:18:55.435951 108905 net.cpp:129] Top shape: 131 160 16 16 (5365760)
I0316 09:18:55.435966 108905 net.cpp:137] Memory required for data: 3925055012
I0316 09:18:55.435988 108905 layer_factory.hpp:77] Creating layer group1_b0_scale
I0316 09:18:55.436003 108905 net.cpp:84] Creating Layer group1_b0_scale
I0316 09:18:55.436014 108905 net.cpp:406] group1_b0_scale <- group1_b0_bn_top
I0316 09:18:55.436029 108905 net.cpp:367] group1_b0_scale -> group1_b0_bn_top (in-place)
I0316 09:18:55.436096 108905 layer_factory.hpp:77] Creating layer group1_b0_scale
I0316 09:18:55.436256 108905 net.cpp:122] Setting up group1_b0_scale
I0316 09:18:55.436266 108905 net.cpp:129] Top shape: 131 160 16 16 (5365760)
I0316 09:18:55.436282 108905 net.cpp:137] Memory required for data: 3946518052
I0316 09:18:55.436300 108905 layer_factory.hpp:77] Creating layer group1_b0_relu
I0316 09:18:55.436313 108905 net.cpp:84] Creating Layer group1_b0_relu
I0316 09:18:55.436326 108905 net.cpp:406] group1_b0_relu <- group1_b0_bn_top
I0316 09:18:55.436338 108905 net.cpp:367] group1_b0_relu -> group1_b0_bn_top (in-place)
I0316 09:18:55.436826 108905 net.cpp:122] Setting up group1_b0_relu
I0316 09:18:55.436837 108905 net.cpp:129] Top shape: 131 160 16 16 (5365760)
I0316 09:18:55.436852 108905 net.cpp:137] Memory required for data: 3967981092
I0316 09:18:55.436862 108905 layer_factory.hpp:77] Creating layer group1_b0_conv
I0316 09:18:55.436882 108905 net.cpp:84] Creating Layer group1_b0_conv
I0316 09:18:55.436893 108905 net.cpp:406] group1_b0_conv <- group1_b0_bn_top
I0316 09:18:55.436910 108905 net.cpp:380] group1_b0_conv -> group1_b0_conv_top
I0316 09:18:55.440212 108905 net.cpp:122] Setting up group1_b0_conv
I0316 09:18:55.440227 108905 net.cpp:129] Top shape: 131 12 16 16 (402432)
I0316 09:18:55.440243 108905 net.cpp:137] Memory required for data: 3969590820
I0316 09:18:55.440258 108905 layer_factory.hpp:77] Creating layer group1_b0_dropout
I0316 09:18:55.440273 108905 net.cpp:84] Creating Layer group1_b0_dropout
I0316 09:18:55.440284 108905 net.cpp:406] group1_b0_dropout <- group1_b0_conv_top
I0316 09:18:55.440299 108905 net.cpp:380] group1_b0_dropout -> group1_b0_dropout
I0316 09:18:55.440362 108905 net.cpp:122] Setting up group1_b0_dropout
I0316 09:18:55.440372 108905 net.cpp:129] Top shape: 131 12 16 16 (402432)
I0316 09:18:55.440387 108905 net.cpp:137] Memory required for data: 3971200548
I0316 09:18:55.440398 108905 layer_factory.hpp:77] Creating layer group1_b0_concat
I0316 09:18:55.440412 108905 net.cpp:84] Creating Layer group1_b0_concat
I0316 09:18:55.440423 108905 net.cpp:406] group1_b0_concat <- group1_b0_dropout
I0316 09:18:55.440436 108905 net.cpp:406] group1_b0_concat <- group0_b12_pool_group0_b12_pool_0_split_1
I0316 09:18:55.440451 108905 net.cpp:380] group1_b0_concat -> group1_b0_concat
I0316 09:18:55.440498 108905 net.cpp:122] Setting up group1_b0_concat
I0316 09:18:55.440508 108905 net.cpp:129] Top shape: 131 172 16 16 (5768192)
I0316 09:18:55.440523 108905 net.cpp:137] Memory required for data: 3994273316
I0316 09:18:55.440533 108905 layer_factory.hpp:77] Creating layer group1_b0_concat_group1_b0_concat_0_split
I0316 09:18:55.440547 108905 net.cpp:84] Creating Layer group1_b0_concat_group1_b0_concat_0_split
I0316 09:18:55.440558 108905 net.cpp:406] group1_b0_concat_group1_b0_concat_0_split <- group1_b0_concat
I0316 09:18:55.440573 108905 net.cpp:380] group1_b0_concat_group1_b0_concat_0_split -> group1_b0_concat_group1_b0_concat_0_split_0
I0316 09:18:55.440590 108905 net.cpp:380] group1_b0_concat_group1_b0_concat_0_split -> group1_b0_concat_group1_b0_concat_0_split_1
I0316 09:18:55.440661 108905 net.cpp:122] Setting up group1_b0_concat_group1_b0_concat_0_split
I0316 09:18:55.440671 108905 net.cpp:129] Top shape: 131 172 16 16 (5768192)
I0316 09:18:55.440687 108905 net.cpp:129] Top shape: 131 172 16 16 (5768192)
I0316 09:18:55.440701 108905 net.cpp:137] Memory required for data: 4040418852
I0316 09:18:55.440711 108905 layer_factory.hpp:77] Creating layer group1_b1_bn
I0316 09:18:55.440726 108905 net.cpp:84] Creating Layer group1_b1_bn
I0316 09:18:55.440737 108905 net.cpp:406] group1_b1_bn <- group1_b0_concat_group1_b0_concat_0_split_0
I0316 09:18:55.440752 108905 net.cpp:380] group1_b1_bn -> group1_b1_bn_top
I0316 09:18:55.441040 108905 net.cpp:122] Setting up group1_b1_bn
I0316 09:18:55.441049 108905 net.cpp:129] Top shape: 131 172 16 16 (5768192)
I0316 09:18:55.441064 108905 net.cpp:137] Memory required for data: 4063491620
I0316 09:18:55.441085 108905 layer_factory.hpp:77] Creating layer group1_b1_scale
I0316 09:18:55.441100 108905 net.cpp:84] Creating Layer group1_b1_scale
I0316 09:18:55.441112 108905 net.cpp:406] group1_b1_scale <- group1_b1_bn_top
I0316 09:18:55.441126 108905 net.cpp:367] group1_b1_scale -> group1_b1_bn_top (in-place)
I0316 09:18:55.441192 108905 layer_factory.hpp:77] Creating layer group1_b1_scale
I0316 09:18:55.441347 108905 net.cpp:122] Setting up group1_b1_scale
I0316 09:18:55.441357 108905 net.cpp:129] Top shape: 131 172 16 16 (5768192)
I0316 09:18:55.441372 108905 net.cpp:137] Memory required for data: 4086564388
I0316 09:18:55.441390 108905 layer_factory.hpp:77] Creating layer group1_b1_relu
I0316 09:18:55.441404 108905 net.cpp:84] Creating Layer group1_b1_relu
I0316 09:18:55.441416 108905 net.cpp:406] group1_b1_relu <- group1_b1_bn_top
I0316 09:18:55.441429 108905 net.cpp:367] group1_b1_relu -> group1_b1_bn_top (in-place)
I0316 09:18:55.442363 108905 net.cpp:122] Setting up group1_b1_relu
I0316 09:18:55.442373 108905 net.cpp:129] Top shape: 131 172 16 16 (5768192)
I0316 09:18:55.442389 108905 net.cpp:137] Memory required for data: 4109637156
I0316 09:18:55.442400 108905 layer_factory.hpp:77] Creating layer group1_b1_conv
I0316 09:18:55.442420 108905 net.cpp:84] Creating Layer group1_b1_conv
I0316 09:18:55.442430 108905 net.cpp:406] group1_b1_conv <- group1_b1_bn_top
I0316 09:18:55.442446 108905 net.cpp:380] group1_b1_conv -> group1_b1_conv_top
I0316 09:18:55.444739 108905 net.cpp:122] Setting up group1_b1_conv
I0316 09:18:55.444751 108905 net.cpp:129] Top shape: 131 12 16 16 (402432)
I0316 09:18:55.444767 108905 net.cpp:137] Memory required for data: 4111246884
I0316 09:18:55.444782 108905 layer_factory.hpp:77] Creating layer group1_b1_dropout
I0316 09:18:55.444797 108905 net.cpp:84] Creating Layer group1_b1_dropout
I0316 09:18:55.444808 108905 net.cpp:406] group1_b1_dropout <- group1_b1_conv_top
I0316 09:18:55.444823 108905 net.cpp:380] group1_b1_dropout -> group1_b1_dropout
I0316 09:18:55.444885 108905 net.cpp:122] Setting up group1_b1_dropout
I0316 09:18:55.444895 108905 net.cpp:129] Top shape: 131 12 16 16 (402432)
I0316 09:18:55.444911 108905 net.cpp:137] Memory required for data: 4112856612
I0316 09:18:55.444921 108905 layer_factory.hpp:77] Creating layer group1_b1_concat
I0316 09:18:55.444934 108905 net.cpp:84] Creating Layer group1_b1_concat
I0316 09:18:55.444945 108905 net.cpp:406] group1_b1_concat <- group1_b1_dropout
I0316 09:18:55.444958 108905 net.cpp:406] group1_b1_concat <- group1_b0_concat_group1_b0_concat_0_split_1
I0316 09:18:55.444973 108905 net.cpp:380] group1_b1_concat -> group1_b1_concat
I0316 09:18:55.445019 108905 net.cpp:122] Setting up group1_b1_concat
I0316 09:18:55.445029 108905 net.cpp:129] Top shape: 131 184 16 16 (6170624)
I0316 09:18:55.445044 108905 net.cpp:137] Memory required for data: 4137539108
I0316 09:18:55.445053 108905 layer_factory.hpp:77] Creating layer group1_b1_concat_group1_b1_concat_0_split
I0316 09:18:55.445067 108905 net.cpp:84] Creating Layer group1_b1_concat_group1_b1_concat_0_split
I0316 09:18:55.445078 108905 net.cpp:406] group1_b1_concat_group1_b1_concat_0_split <- group1_b1_concat
I0316 09:18:55.445093 108905 net.cpp:380] group1_b1_concat_group1_b1_concat_0_split -> group1_b1_concat_group1_b1_concat_0_split_0
I0316 09:18:55.445111 108905 net.cpp:380] group1_b1_concat_group1_b1_concat_0_split -> group1_b1_concat_group1_b1_concat_0_split_1
I0316 09:18:55.445173 108905 net.cpp:122] Setting up group1_b1_concat_group1_b1_concat_0_split
I0316 09:18:55.445181 108905 net.cpp:129] Top shape: 131 184 16 16 (6170624)
I0316 09:18:55.445197 108905 net.cpp:129] Top shape: 131 184 16 16 (6170624)
I0316 09:18:55.445210 108905 net.cpp:137] Memory required for data: 4186904100
I0316 09:18:55.445221 108905 layer_factory.hpp:77] Creating layer group1_b2_bn
I0316 09:18:55.445235 108905 net.cpp:84] Creating Layer group1_b2_bn
I0316 09:18:55.445246 108905 net.cpp:406] group1_b2_bn <- group1_b1_concat_group1_b1_concat_0_split_0
I0316 09:18:55.445262 108905 net.cpp:380] group1_b2_bn -> group1_b2_bn_top
I0316 09:18:55.445559 108905 net.cpp:122] Setting up group1_b2_bn
I0316 09:18:55.445569 108905 net.cpp:129] Top shape: 131 184 16 16 (6170624)
I0316 09:18:55.445585 108905 net.cpp:137] Memory required for data: 4211586596
I0316 09:18:55.445606 108905 layer_factory.hpp:77] Creating layer group1_b2_scale
I0316 09:18:55.445622 108905 net.cpp:84] Creating Layer group1_b2_scale
I0316 09:18:55.445634 108905 net.cpp:406] group1_b2_scale <- group1_b2_bn_top
I0316 09:18:55.445648 108905 net.cpp:367] group1_b2_scale -> group1_b2_bn_top (in-place)
I0316 09:18:55.445709 108905 layer_factory.hpp:77] Creating layer group1_b2_scale
I0316 09:18:55.445864 108905 net.cpp:122] Setting up group1_b2_scale
I0316 09:18:55.445874 108905 net.cpp:129] Top shape: 131 184 16 16 (6170624)
I0316 09:18:55.445889 108905 net.cpp:137] Memory required for data: 4236269092
I0316 09:18:55.445907 108905 layer_factory.hpp:77] Creating layer group1_b2_relu
I0316 09:18:55.445921 108905 net.cpp:84] Creating Layer group1_b2_relu
I0316 09:18:55.445933 108905 net.cpp:406] group1_b2_relu <- group1_b2_bn_top
I0316 09:18:55.445947 108905 net.cpp:367] group1_b2_relu -> group1_b2_bn_top (in-place)
I0316 09:18:55.446435 108905 net.cpp:122] Setting up group1_b2_relu
I0316 09:18:55.446445 108905 net.cpp:129] Top shape: 131 184 16 16 (6170624)
I0316 09:18:55.446460 108905 net.cpp:137] Memory required for data: 4260951588
I0316 09:18:55.446471 108905 layer_factory.hpp:77] Creating layer group1_b2_conv
I0316 09:18:55.446490 108905 net.cpp:84] Creating Layer group1_b2_conv
I0316 09:18:55.446501 108905 net.cpp:406] group1_b2_conv <- group1_b2_bn_top
I0316 09:18:55.446516 108905 net.cpp:380] group1_b2_conv -> group1_b2_conv_top
I0316 09:18:55.449316 108905 net.cpp:122] Setting up group1_b2_conv
I0316 09:18:55.449328 108905 net.cpp:129] Top shape: 131 12 16 16 (402432)
I0316 09:18:55.449344 108905 net.cpp:137] Memory required for data: 4262561316
I0316 09:18:55.449359 108905 layer_factory.hpp:77] Creating layer group1_b2_dropout
I0316 09:18:55.449374 108905 net.cpp:84] Creating Layer group1_b2_dropout
I0316 09:18:55.449385 108905 net.cpp:406] group1_b2_dropout <- group1_b2_conv_top
I0316 09:18:55.449404 108905 net.cpp:380] group1_b2_dropout -> group1_b2_dropout
I0316 09:18:55.449467 108905 net.cpp:122] Setting up group1_b2_dropout
I0316 09:18:55.449477 108905 net.cpp:129] Top shape: 131 12 16 16 (402432)
I0316 09:18:55.449492 108905 net.cpp:137] Memory required for data: 4264171044
I0316 09:18:55.449503 108905 layer_factory.hpp:77] Creating layer group1_b2_concat
I0316 09:18:55.449517 108905 net.cpp:84] Creating Layer group1_b2_concat
I0316 09:18:55.449528 108905 net.cpp:406] group1_b2_concat <- group1_b2_dropout
I0316 09:18:55.449540 108905 net.cpp:406] group1_b2_concat <- group1_b1_concat_group1_b1_concat_0_split_1
I0316 09:18:55.449555 108905 net.cpp:380] group1_b2_concat -> group1_b2_concat
I0316 09:18:55.449600 108905 net.cpp:122] Setting up group1_b2_concat
I0316 09:18:55.449610 108905 net.cpp:129] Top shape: 131 196 16 16 (6573056)
I0316 09:18:55.449625 108905 net.cpp:137] Memory required for data: 4290463268
I0316 09:18:55.449635 108905 layer_factory.hpp:77] Creating layer group1_b2_concat_group1_b2_concat_0_split
I0316 09:18:55.449650 108905 net.cpp:84] Creating Layer group1_b2_concat_group1_b2_concat_0_split
I0316 09:18:55.449661 108905 net.cpp:406] group1_b2_concat_group1_b2_concat_0_split <- group1_b2_concat
I0316 09:18:55.449674 108905 net.cpp:380] group1_b2_concat_group1_b2_concat_0_split -> group1_b2_concat_group1_b2_concat_0_split_0
I0316 09:18:55.449692 108905 net.cpp:380] group1_b2_concat_group1_b2_concat_0_split -> group1_b2_concat_group1_b2_concat_0_split_1
I0316 09:18:55.449753 108905 net.cpp:122] Setting up group1_b2_concat_group1_b2_concat_0_split
I0316 09:18:55.449764 108905 net.cpp:129] Top shape: 131 196 16 16 (6573056)
I0316 09:18:55.449779 108905 net.cpp:129] Top shape: 131 196 16 16 (6573056)
I0316 09:18:55.449792 108905 net.cpp:137] Memory required for data: 4343047716
I0316 09:18:55.449803 108905 layer_factory.hpp:77] Creating layer group1_b3_bn
I0316 09:18:55.449817 108905 net.cpp:84] Creating Layer group1_b3_bn
I0316 09:18:55.449828 108905 net.cpp:406] group1_b3_bn <- group1_b2_concat_group1_b2_concat_0_split_0
I0316 09:18:55.449844 108905 net.cpp:380] group1_b3_bn -> group1_b3_bn_top
I0316 09:18:55.450134 108905 net.cpp:122] Setting up group1_b3_bn
I0316 09:18:55.450143 108905 net.cpp:129] Top shape: 131 196 16 16 (6573056)
I0316 09:18:55.450158 108905 net.cpp:137] Memory required for data: 4369339940
I0316 09:18:55.450179 108905 layer_factory.hpp:77] Creating layer group1_b3_scale
I0316 09:18:55.450194 108905 net.cpp:84] Creating Layer group1_b3_scale
I0316 09:18:55.450206 108905 net.cpp:406] group1_b3_scale <- group1_b3_bn_top
I0316 09:18:55.450220 108905 net.cpp:367] group1_b3_scale -> group1_b3_bn_top (in-place)
I0316 09:18:55.450282 108905 layer_factory.hpp:77] Creating layer group1_b3_scale
I0316 09:18:55.450438 108905 net.cpp:122] Setting up group1_b3_scale
I0316 09:18:55.450449 108905 net.cpp:129] Top shape: 131 196 16 16 (6573056)
I0316 09:18:55.450464 108905 net.cpp:137] Memory required for data: 4395632164
I0316 09:18:55.450482 108905 layer_factory.hpp:77] Creating layer group1_b3_relu
I0316 09:18:55.450495 108905 net.cpp:84] Creating Layer group1_b3_relu
I0316 09:18:55.450506 108905 net.cpp:406] group1_b3_relu <- group1_b3_bn_top
I0316 09:18:55.450534 108905 net.cpp:367] group1_b3_relu -> group1_b3_bn_top (in-place)
I0316 09:18:55.451033 108905 net.cpp:122] Setting up group1_b3_relu
I0316 09:18:55.451043 108905 net.cpp:129] Top shape: 131 196 16 16 (6573056)
I0316 09:18:55.451058 108905 net.cpp:137] Memory required for data: 4421924388
I0316 09:18:55.451069 108905 layer_factory.hpp:77] Creating layer group1_b3_conv
I0316 09:18:55.451088 108905 net.cpp:84] Creating Layer group1_b3_conv
I0316 09:18:55.451099 108905 net.cpp:406] group1_b3_conv <- group1_b3_bn_top
I0316 09:18:55.451115 108905 net.cpp:380] group1_b3_conv -> group1_b3_conv_top
I0316 09:18:55.453922 108905 net.cpp:122] Setting up group1_b3_conv
I0316 09:18:55.453933 108905 net.cpp:129] Top shape: 131 12 16 16 (402432)
I0316 09:18:55.453949 108905 net.cpp:137] Memory required for data: 4423534116
I0316 09:18:55.453963 108905 layer_factory.hpp:77] Creating layer group1_b3_dropout
I0316 09:18:55.453979 108905 net.cpp:84] Creating Layer group1_b3_dropout
I0316 09:18:55.453989 108905 net.cpp:406] group1_b3_dropout <- group1_b3_conv_top
I0316 09:18:55.454005 108905 net.cpp:380] group1_b3_dropout -> group1_b3_dropout
I0316 09:18:55.454067 108905 net.cpp:122] Setting up group1_b3_dropout
I0316 09:18:55.454077 108905 net.cpp:129] Top shape: 131 12 16 16 (402432)
I0316 09:18:55.454092 108905 net.cpp:137] Memory required for data: 4425143844
I0316 09:18:55.454103 108905 layer_factory.hpp:77] Creating layer group1_b3_concat
I0316 09:18:55.454118 108905 net.cpp:84] Creating Layer group1_b3_concat
I0316 09:18:55.454128 108905 net.cpp:406] group1_b3_concat <- group1_b3_dropout
I0316 09:18:55.454140 108905 net.cpp:406] group1_b3_concat <- group1_b2_concat_group1_b2_concat_0_split_1
I0316 09:18:55.454155 108905 net.cpp:380] group1_b3_concat -> group1_b3_concat
I0316 09:18:55.454200 108905 net.cpp:122] Setting up group1_b3_concat
I0316 09:18:55.454210 108905 net.cpp:129] Top shape: 131 208 16 16 (6975488)
I0316 09:18:55.454226 108905 net.cpp:137] Memory required for data: 4453045796
I0316 09:18:55.454236 108905 layer_factory.hpp:77] Creating layer group1_b3_concat_group1_b3_concat_0_split
I0316 09:18:55.454249 108905 net.cpp:84] Creating Layer group1_b3_concat_group1_b3_concat_0_split
I0316 09:18:55.454260 108905 net.cpp:406] group1_b3_concat_group1_b3_concat_0_split <- group1_b3_concat
I0316 09:18:55.454275 108905 net.cpp:380] group1_b3_concat_group1_b3_concat_0_split -> group1_b3_concat_group1_b3_concat_0_split_0
I0316 09:18:55.454291 108905 net.cpp:380] group1_b3_concat_group1_b3_concat_0_split -> group1_b3_concat_group1_b3_concat_0_split_1
I0316 09:18:55.454354 108905 net.cpp:122] Setting up group1_b3_concat_group1_b3_concat_0_split
I0316 09:18:55.454363 108905 net.cpp:129] Top shape: 131 208 16 16 (6975488)
I0316 09:18:55.454378 108905 net.cpp:129] Top shape: 131 208 16 16 (6975488)
I0316 09:18:55.454392 108905 net.cpp:137] Memory required for data: 4508849700
I0316 09:18:55.454402 108905 layer_factory.hpp:77] Creating layer group1_b4_bn
I0316 09:18:55.454416 108905 net.cpp:84] Creating Layer group1_b4_bn
I0316 09:18:55.454427 108905 net.cpp:406] group1_b4_bn <- group1_b3_concat_group1_b3_concat_0_split_0
I0316 09:18:55.454442 108905 net.cpp:380] group1_b4_bn -> group1_b4_bn_top
I0316 09:18:55.454735 108905 net.cpp:122] Setting up group1_b4_bn
I0316 09:18:55.454746 108905 net.cpp:129] Top shape: 131 208 16 16 (6975488)
I0316 09:18:55.454761 108905 net.cpp:137] Memory required for data: 4536751652
I0316 09:18:55.454782 108905 layer_factory.hpp:77] Creating layer group1_b4_scale
I0316 09:18:55.454797 108905 net.cpp:84] Creating Layer group1_b4_scale
I0316 09:18:55.454808 108905 net.cpp:406] group1_b4_scale <- group1_b4_bn_top
I0316 09:18:55.454823 108905 net.cpp:367] group1_b4_scale -> group1_b4_bn_top (in-place)
I0316 09:18:55.454885 108905 layer_factory.hpp:77] Creating layer group1_b4_scale
I0316 09:18:55.455044 108905 net.cpp:122] Setting up group1_b4_scale
I0316 09:18:55.455054 108905 net.cpp:129] Top shape: 131 208 16 16 (6975488)
I0316 09:18:55.455070 108905 net.cpp:137] Memory required for data: 4564653604
I0316 09:18:55.455086 108905 layer_factory.hpp:77] Creating layer group1_b4_relu
I0316 09:18:55.455101 108905 net.cpp:84] Creating Layer group1_b4_relu
I0316 09:18:55.455112 108905 net.cpp:406] group1_b4_relu <- group1_b4_bn_top
I0316 09:18:55.455126 108905 net.cpp:367] group1_b4_relu -> group1_b4_bn_top (in-place)
I0316 09:18:55.455636 108905 net.cpp:122] Setting up group1_b4_relu
I0316 09:18:55.455646 108905 net.cpp:129] Top shape: 131 208 16 16 (6975488)
I0316 09:18:55.455662 108905 net.cpp:137] Memory required for data: 4592555556
I0316 09:18:55.455672 108905 layer_factory.hpp:77] Creating layer group1_b4_conv
I0316 09:18:55.455690 108905 net.cpp:84] Creating Layer group1_b4_conv
I0316 09:18:55.455701 108905 net.cpp:406] group1_b4_conv <- group1_b4_bn_top
I0316 09:18:55.455718 108905 net.cpp:380] group1_b4_conv -> group1_b4_conv_top
I0316 09:18:55.458525 108905 net.cpp:122] Setting up group1_b4_conv
I0316 09:18:55.458537 108905 net.cpp:129] Top shape: 131 12 16 16 (402432)
I0316 09:18:55.458554 108905 net.cpp:137] Memory required for data: 4594165284
I0316 09:18:55.458569 108905 layer_factory.hpp:77] Creating layer group1_b4_dropout
I0316 09:18:55.458583 108905 net.cpp:84] Creating Layer group1_b4_dropout
I0316 09:18:55.458595 108905 net.cpp:406] group1_b4_dropout <- group1_b4_conv_top
I0316 09:18:55.458609 108905 net.cpp:380] group1_b4_dropout -> group1_b4_dropout
I0316 09:18:55.458673 108905 net.cpp:122] Setting up group1_b4_dropout
I0316 09:18:55.458683 108905 net.cpp:129] Top shape: 131 12 16 16 (402432)
I0316 09:18:55.458698 108905 net.cpp:137] Memory required for data: 4595775012
I0316 09:18:55.458709 108905 layer_factory.hpp:77] Creating layer group1_b4_concat
I0316 09:18:55.458722 108905 net.cpp:84] Creating Layer group1_b4_concat
I0316 09:18:55.458734 108905 net.cpp:406] group1_b4_concat <- group1_b4_dropout
I0316 09:18:55.458746 108905 net.cpp:406] group1_b4_concat <- group1_b3_concat_group1_b3_concat_0_split_1
I0316 09:18:55.458761 108905 net.cpp:380] group1_b4_concat -> group1_b4_concat
I0316 09:18:55.458806 108905 net.cpp:122] Setting up group1_b4_concat
I0316 09:18:55.458815 108905 net.cpp:129] Top shape: 131 220 16 16 (7377920)
I0316 09:18:55.458830 108905 net.cpp:137] Memory required for data: 4625286692
I0316 09:18:55.458840 108905 layer_factory.hpp:77] Creating layer group1_b4_concat_group1_b4_concat_0_split
I0316 09:18:55.458884 108905 net.cpp:84] Creating Layer group1_b4_concat_group1_b4_concat_0_split
I0316 09:18:55.458894 108905 net.cpp:406] group1_b4_concat_group1_b4_concat_0_split <- group1_b4_concat
I0316 09:18:55.458909 108905 net.cpp:380] group1_b4_concat_group1_b4_concat_0_split -> group1_b4_concat_group1_b4_concat_0_split_0
I0316 09:18:55.458925 108905 net.cpp:380] group1_b4_concat_group1_b4_concat_0_split -> group1_b4_concat_group1_b4_concat_0_split_1
I0316 09:18:55.458984 108905 net.cpp:122] Setting up group1_b4_concat_group1_b4_concat_0_split
I0316 09:18:55.458994 108905 net.cpp:129] Top shape: 131 220 16 16 (7377920)
I0316 09:18:55.459009 108905 net.cpp:129] Top shape: 131 220 16 16 (7377920)
I0316 09:18:55.459023 108905 net.cpp:137] Memory required for data: 4684310052
I0316 09:18:55.459035 108905 layer_factory.hpp:77] Creating layer group1_b5_bn
I0316 09:18:55.459050 108905 net.cpp:84] Creating Layer group1_b5_bn
I0316 09:18:55.459060 108905 net.cpp:406] group1_b5_bn <- group1_b4_concat_group1_b4_concat_0_split_0
I0316 09:18:55.459076 108905 net.cpp:380] group1_b5_bn -> group1_b5_bn_top
I0316 09:18:55.459369 108905 net.cpp:122] Setting up group1_b5_bn
I0316 09:18:55.459379 108905 net.cpp:129] Top shape: 131 220 16 16 (7377920)
I0316 09:18:55.459394 108905 net.cpp:137] Memory required for data: 4713821732
I0316 09:18:55.459416 108905 layer_factory.hpp:77] Creating layer group1_b5_scale
I0316 09:18:55.459431 108905 net.cpp:84] Creating Layer group1_b5_scale
I0316 09:18:55.459444 108905 net.cpp:406] group1_b5_scale <- group1_b5_bn_top
I0316 09:18:55.459458 108905 net.cpp:367] group1_b5_scale -> group1_b5_bn_top (in-place)
I0316 09:18:55.459525 108905 layer_factory.hpp:77] Creating layer group1_b5_scale
I0316 09:18:55.459722 108905 net.cpp:122] Setting up group1_b5_scale
I0316 09:18:55.459733 108905 net.cpp:129] Top shape: 131 220 16 16 (7377920)
I0316 09:18:55.459748 108905 net.cpp:137] Memory required for data: 4743333412
I0316 09:18:55.459766 108905 layer_factory.hpp:77] Creating layer group1_b5_relu
I0316 09:18:55.459779 108905 net.cpp:84] Creating Layer group1_b5_relu
I0316 09:18:55.459791 108905 net.cpp:406] group1_b5_relu <- group1_b5_bn_top
I0316 09:18:55.459805 108905 net.cpp:367] group1_b5_relu -> group1_b5_bn_top (in-place)
I0316 09:18:55.460743 108905 net.cpp:122] Setting up group1_b5_relu
I0316 09:18:55.460754 108905 net.cpp:129] Top shape: 131 220 16 16 (7377920)
I0316 09:18:55.460769 108905 net.cpp:137] Memory required for data: 4772845092
I0316 09:18:55.460780 108905 layer_factory.hpp:77] Creating layer group1_b5_conv
I0316 09:18:55.460799 108905 net.cpp:84] Creating Layer group1_b5_conv
I0316 09:18:55.460811 108905 net.cpp:406] group1_b5_conv <- group1_b5_bn_top
I0316 09:18:55.460827 108905 net.cpp:380] group1_b5_conv -> group1_b5_conv_top
I0316 09:18:55.463640 108905 net.cpp:122] Setting up group1_b5_conv
I0316 09:18:55.463652 108905 net.cpp:129] Top shape: 131 12 16 16 (402432)
I0316 09:18:55.463667 108905 net.cpp:137] Memory required for data: 4774454820
I0316 09:18:55.463682 108905 layer_factory.hpp:77] Creating layer group1_b5_dropout
I0316 09:18:55.463697 108905 net.cpp:84] Creating Layer group1_b5_dropout
I0316 09:18:55.463708 108905 net.cpp:406] group1_b5_dropout <- group1_b5_conv_top
I0316 09:18:55.463724 108905 net.cpp:380] group1_b5_dropout -> group1_b5_dropout
I0316 09:18:55.463793 108905 net.cpp:122] Setting up group1_b5_dropout
I0316 09:18:55.463804 108905 net.cpp:129] Top shape: 131 12 16 16 (402432)
I0316 09:18:55.463819 108905 net.cpp:137] Memory required for data: 4776064548
I0316 09:18:55.463829 108905 layer_factory.hpp:77] Creating layer group1_b5_concat
I0316 09:18:55.463843 108905 net.cpp:84] Creating Layer group1_b5_concat
I0316 09:18:55.463855 108905 net.cpp:406] group1_b5_concat <- group1_b5_dropout
I0316 09:18:55.463867 108905 net.cpp:406] group1_b5_concat <- group1_b4_concat_group1_b4_concat_0_split_1
I0316 09:18:55.463882 108905 net.cpp:380] group1_b5_concat -> group1_b5_concat
I0316 09:18:55.463928 108905 net.cpp:122] Setting up group1_b5_concat
I0316 09:18:55.463938 108905 net.cpp:129] Top shape: 131 232 16 16 (7780352)
I0316 09:18:55.463953 108905 net.cpp:137] Memory required for data: 4807185956
I0316 09:18:55.463963 108905 layer_factory.hpp:77] Creating layer group1_b5_concat_group1_b5_concat_0_split
I0316 09:18:55.463977 108905 net.cpp:84] Creating Layer group1_b5_concat_group1_b5_concat_0_split
I0316 09:18:55.463989 108905 net.cpp:406] group1_b5_concat_group1_b5_concat_0_split <- group1_b5_concat
I0316 09:18:55.464002 108905 net.cpp:380] group1_b5_concat_group1_b5_concat_0_split -> group1_b5_concat_group1_b5_concat_0_split_0
I0316 09:18:55.464020 108905 net.cpp:380] group1_b5_concat_group1_b5_concat_0_split -> group1_b5_concat_group1_b5_concat_0_split_1
I0316 09:18:55.464082 108905 net.cpp:122] Setting up group1_b5_concat_group1_b5_concat_0_split
I0316 09:18:55.464092 108905 net.cpp:129] Top shape: 131 232 16 16 (7780352)
I0316 09:18:55.464107 108905 net.cpp:129] Top shape: 131 232 16 16 (7780352)
I0316 09:18:55.464120 108905 net.cpp:137] Memory required for data: 4869428772
I0316 09:18:55.464131 108905 layer_factory.hpp:77] Creating layer group1_b6_bn
I0316 09:18:55.464146 108905 net.cpp:84] Creating Layer group1_b6_bn
I0316 09:18:55.464157 108905 net.cpp:406] group1_b6_bn <- group1_b5_concat_group1_b5_concat_0_split_0
I0316 09:18:55.464174 108905 net.cpp:380] group1_b6_bn -> group1_b6_bn_top
I0316 09:18:55.464460 108905 net.cpp:122] Setting up group1_b6_bn
I0316 09:18:55.464471 108905 net.cpp:129] Top shape: 131 232 16 16 (7780352)
I0316 09:18:55.464486 108905 net.cpp:137] Memory required for data: 4900550180
I0316 09:18:55.464507 108905 layer_factory.hpp:77] Creating layer group1_b6_scale
I0316 09:18:55.464522 108905 net.cpp:84] Creating Layer group1_b6_scale
I0316 09:18:55.464534 108905 net.cpp:406] group1_b6_scale <- group1_b6_bn_top
I0316 09:18:55.464548 108905 net.cpp:367] group1_b6_scale -> group1_b6_bn_top (in-place)
I0316 09:18:55.464615 108905 layer_factory.hpp:77] Creating layer group1_b6_scale
I0316 09:18:55.464774 108905 net.cpp:122] Setting up group1_b6_scale
I0316 09:18:55.464784 108905 net.cpp:129] Top shape: 131 232 16 16 (7780352)
I0316 09:18:55.464799 108905 net.cpp:137] Memory required for data: 4931671588
I0316 09:18:55.464818 108905 layer_factory.hpp:77] Creating layer group1_b6_relu
I0316 09:18:55.464831 108905 net.cpp:84] Creating Layer group1_b6_relu
I0316 09:18:55.464843 108905 net.cpp:406] group1_b6_relu <- group1_b6_bn_top
I0316 09:18:55.464856 108905 net.cpp:367] group1_b6_relu -> group1_b6_bn_top (in-place)
I0316 09:18:55.465365 108905 net.cpp:122] Setting up group1_b6_relu
I0316 09:18:55.465376 108905 net.cpp:129] Top shape: 131 232 16 16 (7780352)
I0316 09:18:55.465391 108905 net.cpp:137] Memory required for data: 4962792996
I0316 09:18:55.465402 108905 layer_factory.hpp:77] Creating layer group1_b6_conv
I0316 09:18:55.465420 108905 net.cpp:84] Creating Layer group1_b6_conv
I0316 09:18:55.465432 108905 net.cpp:406] group1_b6_conv <- group1_b6_bn_top
I0316 09:18:55.465448 108905 net.cpp:380] group1_b6_conv -> group1_b6_conv_top
I0316 09:18:55.468302 108905 net.cpp:122] Setting up group1_b6_conv
I0316 09:18:55.468314 108905 net.cpp:129] Top shape: 131 12 16 16 (402432)
I0316 09:18:55.468329 108905 net.cpp:137] Memory required for data: 4964402724
I0316 09:18:55.468344 108905 layer_factory.hpp:77] Creating layer group1_b6_dropout
I0316 09:18:55.468359 108905 net.cpp:84] Creating Layer group1_b6_dropout
I0316 09:18:55.468370 108905 net.cpp:406] group1_b6_dropout <- group1_b6_conv_top
I0316 09:18:55.468385 108905 net.cpp:380] group1_b6_dropout -> group1_b6_dropout
I0316 09:18:55.468449 108905 net.cpp:122] Setting up group1_b6_dropout
I0316 09:18:55.468459 108905 net.cpp:129] Top shape: 131 12 16 16 (402432)
I0316 09:18:55.468474 108905 net.cpp:137] Memory required for data: 4966012452
I0316 09:18:55.468485 108905 layer_factory.hpp:77] Creating layer group1_b6_concat
I0316 09:18:55.468499 108905 net.cpp:84] Creating Layer group1_b6_concat
I0316 09:18:55.468510 108905 net.cpp:406] group1_b6_concat <- group1_b6_dropout
I0316 09:18:55.468523 108905 net.cpp:406] group1_b6_concat <- group1_b5_concat_group1_b5_concat_0_split_1
I0316 09:18:55.468538 108905 net.cpp:380] group1_b6_concat -> group1_b6_concat
I0316 09:18:55.468583 108905 net.cpp:122] Setting up group1_b6_concat
I0316 09:18:55.468593 108905 net.cpp:129] Top shape: 131 244 16 16 (8182784)
I0316 09:18:55.468607 108905 net.cpp:137] Memory required for data: 4998743588
I0316 09:18:55.468618 108905 layer_factory.hpp:77] Creating layer group1_b6_concat_group1_b6_concat_0_split
I0316 09:18:55.468632 108905 net.cpp:84] Creating Layer group1_b6_concat_group1_b6_concat_0_split
I0316 09:18:55.468643 108905 net.cpp:406] group1_b6_concat_group1_b6_concat_0_split <- group1_b6_concat
I0316 09:18:55.468657 108905 net.cpp:380] group1_b6_concat_group1_b6_concat_0_split -> group1_b6_concat_group1_b6_concat_0_split_0
I0316 09:18:55.468674 108905 net.cpp:380] group1_b6_concat_group1_b6_concat_0_split -> group1_b6_concat_group1_b6_concat_0_split_1
I0316 09:18:55.468736 108905 net.cpp:122] Setting up group1_b6_concat_group1_b6_concat_0_split
I0316 09:18:55.468746 108905 net.cpp:129] Top shape: 131 244 16 16 (8182784)
I0316 09:18:55.468761 108905 net.cpp:129] Top shape: 131 244 16 16 (8182784)
I0316 09:18:55.468775 108905 net.cpp:137] Memory required for data: 5064205860
I0316 09:18:55.468786 108905 layer_factory.hpp:77] Creating layer group1_b7_bn
I0316 09:18:55.468799 108905 net.cpp:84] Creating Layer group1_b7_bn
I0316 09:18:55.468811 108905 net.cpp:406] group1_b7_bn <- group1_b6_concat_group1_b6_concat_0_split_0
I0316 09:18:55.468827 108905 net.cpp:380] group1_b7_bn -> group1_b7_bn_top
I0316 09:18:55.469135 108905 net.cpp:122] Setting up group1_b7_bn
I0316 09:18:55.469144 108905 net.cpp:129] Top shape: 131 244 16 16 (8182784)
I0316 09:18:55.469159 108905 net.cpp:137] Memory required for data: 5096936996
I0316 09:18:55.469182 108905 layer_factory.hpp:77] Creating layer group1_b7_scale
I0316 09:18:55.469197 108905 net.cpp:84] Creating Layer group1_b7_scale
I0316 09:18:55.469209 108905 net.cpp:406] group1_b7_scale <- group1_b7_bn_top
I0316 09:18:55.469223 108905 net.cpp:367] group1_b7_scale -> group1_b7_bn_top (in-place)
I0316 09:18:55.469286 108905 layer_factory.hpp:77] Creating layer group1_b7_scale
I0316 09:18:55.469446 108905 net.cpp:122] Setting up group1_b7_scale
I0316 09:18:55.469456 108905 net.cpp:129] Top shape: 131 244 16 16 (8182784)
I0316 09:18:55.469471 108905 net.cpp:137] Memory required for data: 5129668132
I0316 09:18:55.469488 108905 layer_factory.hpp:77] Creating layer group1_b7_relu
I0316 09:18:55.469502 108905 net.cpp:84] Creating Layer group1_b7_relu
I0316 09:18:55.469513 108905 net.cpp:406] group1_b7_relu <- group1_b7_bn_top
I0316 09:18:55.469527 108905 net.cpp:367] group1_b7_relu -> group1_b7_bn_top (in-place)
I0316 09:18:55.470032 108905 net.cpp:122] Setting up group1_b7_relu
I0316 09:18:55.470043 108905 net.cpp:129] Top shape: 131 244 16 16 (8182784)
I0316 09:18:55.470057 108905 net.cpp:137] Memory required for data: 5162399268
I0316 09:18:55.470068 108905 layer_factory.hpp:77] Creating layer group1_b7_conv
I0316 09:18:55.470088 108905 net.cpp:84] Creating Layer group1_b7_conv
I0316 09:18:55.470099 108905 net.cpp:406] group1_b7_conv <- group1_b7_bn_top
I0316 09:18:55.470115 108905 net.cpp:380] group1_b7_conv -> group1_b7_conv_top
I0316 09:18:55.472988 108905 net.cpp:122] Setting up group1_b7_conv
I0316 09:18:55.473001 108905 net.cpp:129] Top shape: 131 12 16 16 (402432)
I0316 09:18:55.473017 108905 net.cpp:137] Memory required for data: 5164008996
I0316 09:18:55.473032 108905 layer_factory.hpp:77] Creating layer group1_b7_dropout
I0316 09:18:55.473047 108905 net.cpp:84] Creating Layer group1_b7_dropout
I0316 09:18:55.473058 108905 net.cpp:406] group1_b7_dropout <- group1_b7_conv_top
I0316 09:18:55.473074 108905 net.cpp:380] group1_b7_dropout -> group1_b7_dropout
I0316 09:18:55.473140 108905 net.cpp:122] Setting up group1_b7_dropout
I0316 09:18:55.473150 108905 net.cpp:129] Top shape: 131 12 16 16 (402432)
I0316 09:18:55.473165 108905 net.cpp:137] Memory required for data: 5165618724
I0316 09:18:55.473176 108905 layer_factory.hpp:77] Creating layer group1_b7_concat
I0316 09:18:55.473191 108905 net.cpp:84] Creating Layer group1_b7_concat
I0316 09:18:55.473201 108905 net.cpp:406] group1_b7_concat <- group1_b7_dropout
I0316 09:18:55.473214 108905 net.cpp:406] group1_b7_concat <- group1_b6_concat_group1_b6_concat_0_split_1
I0316 09:18:55.473230 108905 net.cpp:380] group1_b7_concat -> group1_b7_concat
I0316 09:18:55.473297 108905 net.cpp:122] Setting up group1_b7_concat
I0316 09:18:55.473309 108905 net.cpp:129] Top shape: 131 256 16 16 (8585216)
I0316 09:18:55.473323 108905 net.cpp:137] Memory required for data: 5199959588
I0316 09:18:55.473333 108905 layer_factory.hpp:77] Creating layer group1_b7_concat_group1_b7_concat_0_split
I0316 09:18:55.473347 108905 net.cpp:84] Creating Layer group1_b7_concat_group1_b7_concat_0_split
I0316 09:18:55.473358 108905 net.cpp:406] group1_b7_concat_group1_b7_concat_0_split <- group1_b7_concat
I0316 09:18:55.473373 108905 net.cpp:380] group1_b7_concat_group1_b7_concat_0_split -> group1_b7_concat_group1_b7_concat_0_split_0
I0316 09:18:55.473392 108905 net.cpp:380] group1_b7_concat_group1_b7_concat_0_split -> group1_b7_concat_group1_b7_concat_0_split_1
I0316 09:18:55.473454 108905 net.cpp:122] Setting up group1_b7_concat_group1_b7_concat_0_split
I0316 09:18:55.473464 108905 net.cpp:129] Top shape: 131 256 16 16 (8585216)
I0316 09:18:55.473479 108905 net.cpp:129] Top shape: 131 256 16 16 (8585216)
I0316 09:18:55.473493 108905 net.cpp:137] Memory required for data: 5268641316
I0316 09:18:55.473505 108905 layer_factory.hpp:77] Creating layer group1_b8_bn
I0316 09:18:55.473518 108905 net.cpp:84] Creating Layer group1_b8_bn
I0316 09:18:55.473529 108905 net.cpp:406] group1_b8_bn <- group1_b7_concat_group1_b7_concat_0_split_0
I0316 09:18:55.473544 108905 net.cpp:380] group1_b8_bn -> group1_b8_bn_top
I0316 09:18:55.473825 108905 net.cpp:122] Setting up group1_b8_bn
I0316 09:18:55.473835 108905 net.cpp:129] Top shape: 131 256 16 16 (8585216)
I0316 09:18:55.473857 108905 net.cpp:137] Memory required for data: 5302982180
I0316 09:18:55.473912 108905 layer_factory.hpp:77] Creating layer group1_b8_scale
I0316 09:18:55.473925 108905 net.cpp:84] Creating Layer group1_b8_scale
I0316 09:18:55.473937 108905 net.cpp:406] group1_b8_scale <- group1_b8_bn_top
I0316 09:18:55.473951 108905 net.cpp:367] group1_b8_scale -> group1_b8_bn_top (in-place)
I0316 09:18:55.474016 108905 layer_factory.hpp:77] Creating layer group1_b8_scale
I0316 09:18:55.474169 108905 net.cpp:122] Setting up group1_b8_scale
I0316 09:18:55.474179 108905 net.cpp:129] Top shape: 131 256 16 16 (8585216)
I0316 09:18:55.474194 108905 net.cpp:137] Memory required for data: 5337323044
I0316 09:18:55.474211 108905 layer_factory.hpp:77] Creating layer group1_b8_relu
I0316 09:18:55.474225 108905 net.cpp:84] Creating Layer group1_b8_relu
I0316 09:18:55.474237 108905 net.cpp:406] group1_b8_relu <- group1_b8_bn_top
I0316 09:18:55.474251 108905 net.cpp:367] group1_b8_relu -> group1_b8_bn_top (in-place)
I0316 09:18:55.475188 108905 net.cpp:122] Setting up group1_b8_relu
I0316 09:18:55.475198 108905 net.cpp:129] Top shape: 131 256 16 16 (8585216)
I0316 09:18:55.475214 108905 net.cpp:137] Memory required for data: 5371663908
I0316 09:18:55.475225 108905 layer_factory.hpp:77] Creating layer group1_b8_conv
I0316 09:18:55.475244 108905 net.cpp:84] Creating Layer group1_b8_conv
I0316 09:18:55.475255 108905 net.cpp:406] group1_b8_conv <- group1_b8_bn_top
I0316 09:18:55.475272 108905 net.cpp:380] group1_b8_conv -> group1_b8_conv_top
I0316 09:18:55.478153 108905 net.cpp:122] Setting up group1_b8_conv
I0316 09:18:55.478168 108905 net.cpp:129] Top shape: 131 12 16 16 (402432)
I0316 09:18:55.478183 108905 net.cpp:137] Memory required for data: 5373273636
I0316 09:18:55.478197 108905 layer_factory.hpp:77] Creating layer group1_b8_dropout
I0316 09:18:55.478212 108905 net.cpp:84] Creating Layer group1_b8_dropout
I0316 09:18:55.478224 108905 net.cpp:406] group1_b8_dropout <- group1_b8_conv_top
I0316 09:18:55.478238 108905 net.cpp:380] group1_b8_dropout -> group1_b8_dropout
I0316 09:18:55.478304 108905 net.cpp:122] Setting up group1_b8_dropout
I0316 09:18:55.478314 108905 net.cpp:129] Top shape: 131 12 16 16 (402432)
I0316 09:18:55.478329 108905 net.cpp:137] Memory required for data: 5374883364
I0316 09:18:55.478340 108905 layer_factory.hpp:77] Creating layer group1_b8_concat
I0316 09:18:55.478354 108905 net.cpp:84] Creating Layer group1_b8_concat
I0316 09:18:55.478365 108905 net.cpp:406] group1_b8_concat <- group1_b8_dropout
I0316 09:18:55.478377 108905 net.cpp:406] group1_b8_concat <- group1_b7_concat_group1_b7_concat_0_split_1
I0316 09:18:55.478394 108905 net.cpp:380] group1_b8_concat -> group1_b8_concat
I0316 09:18:55.478438 108905 net.cpp:122] Setting up group1_b8_concat
I0316 09:18:55.478448 108905 net.cpp:129] Top shape: 131 268 16 16 (8987648)
I0316 09:18:55.478463 108905 net.cpp:137] Memory required for data: 5410833956
I0316 09:18:55.478474 108905 layer_factory.hpp:77] Creating layer group1_b8_concat_group1_b8_concat_0_split
I0316 09:18:55.478487 108905 net.cpp:84] Creating Layer group1_b8_concat_group1_b8_concat_0_split
I0316 09:18:55.478499 108905 net.cpp:406] group1_b8_concat_group1_b8_concat_0_split <- group1_b8_concat
I0316 09:18:55.478513 108905 net.cpp:380] group1_b8_concat_group1_b8_concat_0_split -> group1_b8_concat_group1_b8_concat_0_split_0
I0316 09:18:55.478530 108905 net.cpp:380] group1_b8_concat_group1_b8_concat_0_split -> group1_b8_concat_group1_b8_concat_0_split_1
I0316 09:18:55.478596 108905 net.cpp:122] Setting up group1_b8_concat_group1_b8_concat_0_split
I0316 09:18:55.478606 108905 net.cpp:129] Top shape: 131 268 16 16 (8987648)
I0316 09:18:55.478621 108905 net.cpp:129] Top shape: 131 268 16 16 (8987648)
I0316 09:18:55.478636 108905 net.cpp:137] Memory required for data: 5482735140
I0316 09:18:55.478646 108905 layer_factory.hpp:77] Creating layer group1_b9_bn
I0316 09:18:55.478660 108905 net.cpp:84] Creating Layer group1_b9_bn
I0316 09:18:55.478672 108905 net.cpp:406] group1_b9_bn <- group1_b8_concat_group1_b8_concat_0_split_0
I0316 09:18:55.478688 108905 net.cpp:380] group1_b9_bn -> group1_b9_bn_top
I0316 09:18:55.478981 108905 net.cpp:122] Setting up group1_b9_bn
I0316 09:18:55.478991 108905 net.cpp:129] Top shape: 131 268 16 16 (8987648)
I0316 09:18:55.479005 108905 net.cpp:137] Memory required for data: 5518685732
I0316 09:18:55.479027 108905 layer_factory.hpp:77] Creating layer group1_b9_scale
I0316 09:18:55.479041 108905 net.cpp:84] Creating Layer group1_b9_scale
I0316 09:18:55.479053 108905 net.cpp:406] group1_b9_scale <- group1_b9_bn_top
I0316 09:18:55.479068 108905 net.cpp:367] group1_b9_scale -> group1_b9_bn_top (in-place)
I0316 09:18:55.479135 108905 layer_factory.hpp:77] Creating layer group1_b9_scale
I0316 09:18:55.479302 108905 net.cpp:122] Setting up group1_b9_scale
I0316 09:18:55.479312 108905 net.cpp:129] Top shape: 131 268 16 16 (8987648)
I0316 09:18:55.479327 108905 net.cpp:137] Memory required for data: 5554636324
I0316 09:18:55.479346 108905 layer_factory.hpp:77] Creating layer group1_b9_relu
I0316 09:18:55.479359 108905 net.cpp:84] Creating Layer group1_b9_relu
I0316 09:18:55.479370 108905 net.cpp:406] group1_b9_relu <- group1_b9_bn_top
I0316 09:18:55.479384 108905 net.cpp:367] group1_b9_relu -> group1_b9_bn_top (in-place)
I0316 09:18:55.479890 108905 net.cpp:122] Setting up group1_b9_relu
I0316 09:18:55.479902 108905 net.cpp:129] Top shape: 131 268 16 16 (8987648)
I0316 09:18:55.479917 108905 net.cpp:137] Memory required for data: 5590586916
I0316 09:18:55.479928 108905 layer_factory.hpp:77] Creating layer group1_b9_conv
I0316 09:18:55.479945 108905 net.cpp:84] Creating Layer group1_b9_conv
I0316 09:18:55.479957 108905 net.cpp:406] group1_b9_conv <- group1_b9_bn_top
I0316 09:18:55.479974 108905 net.cpp:380] group1_b9_conv -> group1_b9_conv_top
I0316 09:18:55.482869 108905 net.cpp:122] Setting up group1_b9_conv
I0316 09:18:55.482882 108905 net.cpp:129] Top shape: 131 12 16 16 (402432)
I0316 09:18:55.482897 108905 net.cpp:137] Memory required for data: 5592196644
I0316 09:18:55.482913 108905 layer_factory.hpp:77] Creating layer group1_b9_dropout
I0316 09:18:55.482926 108905 net.cpp:84] Creating Layer group1_b9_dropout
I0316 09:18:55.482960 108905 net.cpp:406] group1_b9_dropout <- group1_b9_conv_top
I0316 09:18:55.482977 108905 net.cpp:380] group1_b9_dropout -> group1_b9_dropout
I0316 09:18:55.483043 108905 net.cpp:122] Setting up group1_b9_dropout
I0316 09:18:55.483053 108905 net.cpp:129] Top shape: 131 12 16 16 (402432)
I0316 09:18:55.483068 108905 net.cpp:137] Memory required for data: 5593806372
I0316 09:18:55.483078 108905 layer_factory.hpp:77] Creating layer group1_b9_concat
I0316 09:18:55.483093 108905 net.cpp:84] Creating Layer group1_b9_concat
I0316 09:18:55.483104 108905 net.cpp:406] group1_b9_concat <- group1_b9_dropout
I0316 09:18:55.483117 108905 net.cpp:406] group1_b9_concat <- group1_b8_concat_group1_b8_concat_0_split_1
I0316 09:18:55.483132 108905 net.cpp:380] group1_b9_concat -> group1_b9_concat
I0316 09:18:55.483178 108905 net.cpp:122] Setting up group1_b9_concat
I0316 09:18:55.483188 108905 net.cpp:129] Top shape: 131 280 16 16 (9390080)
I0316 09:18:55.483202 108905 net.cpp:137] Memory required for data: 5631366692
I0316 09:18:55.483213 108905 layer_factory.hpp:77] Creating layer group1_b9_concat_group1_b9_concat_0_split
I0316 09:18:55.483227 108905 net.cpp:84] Creating Layer group1_b9_concat_group1_b9_concat_0_split
I0316 09:18:55.483238 108905 net.cpp:406] group1_b9_concat_group1_b9_concat_0_split <- group1_b9_concat
I0316 09:18:55.483253 108905 net.cpp:380] group1_b9_concat_group1_b9_concat_0_split -> group1_b9_concat_group1_b9_concat_0_split_0
I0316 09:18:55.483269 108905 net.cpp:380] group1_b9_concat_group1_b9_concat_0_split -> group1_b9_concat_group1_b9_concat_0_split_1
I0316 09:18:55.483332 108905 net.cpp:122] Setting up group1_b9_concat_group1_b9_concat_0_split
I0316 09:18:55.483342 108905 net.cpp:129] Top shape: 131 280 16 16 (9390080)
I0316 09:18:55.483357 108905 net.cpp:129] Top shape: 131 280 16 16 (9390080)
I0316 09:18:55.483371 108905 net.cpp:137] Memory required for data: 5706487332
I0316 09:18:55.483382 108905 layer_factory.hpp:77] Creating layer group1_b10_bn
I0316 09:18:55.483397 108905 net.cpp:84] Creating Layer group1_b10_bn
I0316 09:18:55.483407 108905 net.cpp:406] group1_b10_bn <- group1_b9_concat_group1_b9_concat_0_split_0
I0316 09:18:55.483422 108905 net.cpp:380] group1_b10_bn -> group1_b10_bn_top
I0316 09:18:55.483726 108905 net.cpp:122] Setting up group1_b10_bn
I0316 09:18:55.483736 108905 net.cpp:129] Top shape: 131 280 16 16 (9390080)
I0316 09:18:55.483750 108905 net.cpp:137] Memory required for data: 5744047652
I0316 09:18:55.483772 108905 layer_factory.hpp:77] Creating layer group1_b10_scale
I0316 09:18:55.483786 108905 net.cpp:84] Creating Layer group1_b10_scale
I0316 09:18:55.483798 108905 net.cpp:406] group1_b10_scale <- group1_b10_bn_top
I0316 09:18:55.483813 108905 net.cpp:367] group1_b10_scale -> group1_b10_bn_top (in-place)
I0316 09:18:55.483881 108905 layer_factory.hpp:77] Creating layer group1_b10_scale
I0316 09:18:55.484045 108905 net.cpp:122] Setting up group1_b10_scale
I0316 09:18:55.484055 108905 net.cpp:129] Top shape: 131 280 16 16 (9390080)
I0316 09:18:55.484071 108905 net.cpp:137] Memory required for data: 5781607972
I0316 09:18:55.484089 108905 layer_factory.hpp:77] Creating layer group1_b10_relu
I0316 09:18:55.484103 108905 net.cpp:84] Creating Layer group1_b10_relu
I0316 09:18:55.484114 108905 net.cpp:406] group1_b10_relu <- group1_b10_bn_top
I0316 09:18:55.484128 108905 net.cpp:367] group1_b10_relu -> group1_b10_bn_top (in-place)
I0316 09:18:55.484639 108905 net.cpp:122] Setting up group1_b10_relu
I0316 09:18:55.484649 108905 net.cpp:129] Top shape: 131 280 16 16 (9390080)
I0316 09:18:55.484664 108905 net.cpp:137] Memory required for data: 5819168292
I0316 09:18:55.484675 108905 layer_factory.hpp:77] Creating layer group1_b10_conv
I0316 09:18:55.484694 108905 net.cpp:84] Creating Layer group1_b10_conv
I0316 09:18:55.484705 108905 net.cpp:406] group1_b10_conv <- group1_b10_bn_top
I0316 09:18:55.484721 108905 net.cpp:380] group1_b10_conv -> group1_b10_conv_top
I0316 09:18:55.487608 108905 net.cpp:122] Setting up group1_b10_conv
I0316 09:18:55.487620 108905 net.cpp:129] Top shape: 131 12 16 16 (402432)
I0316 09:18:55.487637 108905 net.cpp:137] Memory required for data: 5820778020
I0316 09:18:55.487651 108905 layer_factory.hpp:77] Creating layer group1_b10_dropout
I0316 09:18:55.487665 108905 net.cpp:84] Creating Layer group1_b10_dropout
I0316 09:18:55.487685 108905 net.cpp:406] group1_b10_dropout <- group1_b10_conv_top
I0316 09:18:55.487701 108905 net.cpp:380] group1_b10_dropout -> group1_b10_dropout
I0316 09:18:55.487766 108905 net.cpp:122] Setting up group1_b10_dropout
I0316 09:18:55.487776 108905 net.cpp:129] Top shape: 131 12 16 16 (402432)
I0316 09:18:55.487792 108905 net.cpp:137] Memory required for data: 5822387748
I0316 09:18:55.487802 108905 layer_factory.hpp:77] Creating layer group1_b10_concat
I0316 09:18:55.487817 108905 net.cpp:84] Creating Layer group1_b10_concat
I0316 09:18:55.487826 108905 net.cpp:406] group1_b10_concat <- group1_b10_dropout
I0316 09:18:55.487839 108905 net.cpp:406] group1_b10_concat <- group1_b9_concat_group1_b9_concat_0_split_1
I0316 09:18:55.487854 108905 net.cpp:380] group1_b10_concat -> group1_b10_concat
I0316 09:18:55.487901 108905 net.cpp:122] Setting up group1_b10_concat
I0316 09:18:55.487910 108905 net.cpp:129] Top shape: 131 292 16 16 (9792512)
I0316 09:18:55.487926 108905 net.cpp:137] Memory required for data: 5861557796
I0316 09:18:55.487936 108905 layer_factory.hpp:77] Creating layer group1_b10_concat_group1_b10_concat_0_split
I0316 09:18:55.487951 108905 net.cpp:84] Creating Layer group1_b10_concat_group1_b10_concat_0_split
I0316 09:18:55.487962 108905 net.cpp:406] group1_b10_concat_group1_b10_concat_0_split <- group1_b10_concat
I0316 09:18:55.487975 108905 net.cpp:380] group1_b10_concat_group1_b10_concat_0_split -> group1_b10_concat_group1_b10_concat_0_split_0
I0316 09:18:55.487993 108905 net.cpp:380] group1_b10_concat_group1_b10_concat_0_split -> group1_b10_concat_group1_b10_concat_0_split_1
I0316 09:18:55.488056 108905 net.cpp:122] Setting up group1_b10_concat_group1_b10_concat_0_split
I0316 09:18:55.488066 108905 net.cpp:129] Top shape: 131 292 16 16 (9792512)
I0316 09:18:55.488081 108905 net.cpp:129] Top shape: 131 292 16 16 (9792512)
I0316 09:18:55.488095 108905 net.cpp:137] Memory required for data: 5939897892
I0316 09:18:55.488106 108905 layer_factory.hpp:77] Creating layer group1_b11_bn
I0316 09:18:55.488121 108905 net.cpp:84] Creating Layer group1_b11_bn
I0316 09:18:55.488132 108905 net.cpp:406] group1_b11_bn <- group1_b10_concat_group1_b10_concat_0_split_0
I0316 09:18:55.488147 108905 net.cpp:380] group1_b11_bn -> group1_b11_bn_top
I0316 09:18:55.488445 108905 net.cpp:122] Setting up group1_b11_bn
I0316 09:18:55.488456 108905 net.cpp:129] Top shape: 131 292 16 16 (9792512)
I0316 09:18:55.488471 108905 net.cpp:137] Memory required for data: 5979067940
I0316 09:18:55.488492 108905 layer_factory.hpp:77] Creating layer group1_b11_scale
I0316 09:18:55.488507 108905 net.cpp:84] Creating Layer group1_b11_scale
I0316 09:18:55.488518 108905 net.cpp:406] group1_b11_scale <- group1_b11_bn_top
I0316 09:18:55.488533 108905 net.cpp:367] group1_b11_scale -> group1_b11_bn_top (in-place)
I0316 09:18:55.488606 108905 layer_factory.hpp:77] Creating layer group1_b11_scale
I0316 09:18:55.488770 108905 net.cpp:122] Setting up group1_b11_scale
I0316 09:18:55.488780 108905 net.cpp:129] Top shape: 131 292 16 16 (9792512)
I0316 09:18:55.488795 108905 net.cpp:137] Memory required for data: 6018237988
I0316 09:18:55.488812 108905 layer_factory.hpp:77] Creating layer group1_b11_relu
I0316 09:18:55.488826 108905 net.cpp:84] Creating Layer group1_b11_relu
I0316 09:18:55.488837 108905 net.cpp:406] group1_b11_relu <- group1_b11_bn_top
I0316 09:18:55.488850 108905 net.cpp:367] group1_b11_relu -> group1_b11_bn_top (in-place)
I0316 09:18:55.489792 108905 net.cpp:122] Setting up group1_b11_relu
I0316 09:18:55.489804 108905 net.cpp:129] Top shape: 131 292 16 16 (9792512)
I0316 09:18:55.489819 108905 net.cpp:137] Memory required for data: 6057408036
I0316 09:18:55.489830 108905 layer_factory.hpp:77] Creating layer group1_b11_conv
I0316 09:18:55.489848 108905 net.cpp:84] Creating Layer group1_b11_conv
I0316 09:18:55.489861 108905 net.cpp:406] group1_b11_conv <- group1_b11_bn_top
I0316 09:18:55.489877 108905 net.cpp:380] group1_b11_conv -> group1_b11_conv_top
I0316 09:18:55.492769 108905 net.cpp:122] Setting up group1_b11_conv
I0316 09:18:55.492781 108905 net.cpp:129] Top shape: 131 12 16 16 (402432)
I0316 09:18:55.492797 108905 net.cpp:137] Memory required for data: 6059017764
I0316 09:18:55.492811 108905 layer_factory.hpp:77] Creating layer group1_b11_dropout
I0316 09:18:55.492826 108905 net.cpp:84] Creating Layer group1_b11_dropout
I0316 09:18:55.492837 108905 net.cpp:406] group1_b11_dropout <- group1_b11_conv_top
I0316 09:18:55.492852 108905 net.cpp:380] group1_b11_dropout -> group1_b11_dropout
I0316 09:18:55.492918 108905 net.cpp:122] Setting up group1_b11_dropout
I0316 09:18:55.492928 108905 net.cpp:129] Top shape: 131 12 16 16 (402432)
I0316 09:18:55.492944 108905 net.cpp:137] Memory required for data: 6060627492
I0316 09:18:55.492954 108905 layer_factory.hpp:77] Creating layer group1_b11_concat
I0316 09:18:55.492969 108905 net.cpp:84] Creating Layer group1_b11_concat
I0316 09:18:55.492980 108905 net.cpp:406] group1_b11_concat <- group1_b11_dropout
I0316 09:18:55.492991 108905 net.cpp:406] group1_b11_concat <- group1_b10_concat_group1_b10_concat_0_split_1
I0316 09:18:55.493007 108905 net.cpp:380] group1_b11_concat -> group1_b11_concat
I0316 09:18:55.493057 108905 net.cpp:122] Setting up group1_b11_concat
I0316 09:18:55.493067 108905 net.cpp:129] Top shape: 131 304 16 16 (10194944)
I0316 09:18:55.493082 108905 net.cpp:137] Memory required for data: 6101407268
I0316 09:18:55.493093 108905 layer_factory.hpp:77] Creating layer group1_b12_bn
I0316 09:18:55.493108 108905 net.cpp:84] Creating Layer group1_b12_bn
I0316 09:18:55.493119 108905 net.cpp:406] group1_b12_bn <- group1_b11_concat
I0316 09:18:55.493134 108905 net.cpp:380] group1_b12_bn -> group1_b12_bn_top
I0316 09:18:55.493432 108905 net.cpp:122] Setting up group1_b12_bn
I0316 09:18:55.493441 108905 net.cpp:129] Top shape: 131 304 16 16 (10194944)
I0316 09:18:55.493458 108905 net.cpp:137] Memory required for data: 6142187044
I0316 09:18:55.493479 108905 layer_factory.hpp:77] Creating layer group1_b12_scale
I0316 09:18:55.493492 108905 net.cpp:84] Creating Layer group1_b12_scale
I0316 09:18:55.493504 108905 net.cpp:406] group1_b12_scale <- group1_b12_bn_top
I0316 09:18:55.493518 108905 net.cpp:367] group1_b12_scale -> group1_b12_bn_top (in-place)
I0316 09:18:55.493587 108905 layer_factory.hpp:77] Creating layer group1_b12_scale
I0316 09:18:55.493752 108905 net.cpp:122] Setting up group1_b12_scale
I0316 09:18:55.493762 108905 net.cpp:129] Top shape: 131 304 16 16 (10194944)
I0316 09:18:55.493777 108905 net.cpp:137] Memory required for data: 6182966820
I0316 09:18:55.493794 108905 layer_factory.hpp:77] Creating layer group1_b12_relu
I0316 09:18:55.493808 108905 net.cpp:84] Creating Layer group1_b12_relu
I0316 09:18:55.493819 108905 net.cpp:406] group1_b12_relu <- group1_b12_bn_top
I0316 09:18:55.493834 108905 net.cpp:367] group1_b12_relu -> group1_b12_bn_top (in-place)
I0316 09:18:55.494364 108905 net.cpp:122] Setting up group1_b12_relu
I0316 09:18:55.494374 108905 net.cpp:129] Top shape: 131 304 16 16 (10194944)
I0316 09:18:55.494390 108905 net.cpp:137] Memory required for data: 6223746596
I0316 09:18:55.494400 108905 layer_factory.hpp:77] Creating layer group1_b12_conv
I0316 09:18:55.494418 108905 net.cpp:84] Creating Layer group1_b12_conv
I0316 09:18:55.494431 108905 net.cpp:406] group1_b12_conv <- group1_b12_bn_top
I0316 09:18:55.494446 108905 net.cpp:380] group1_b12_conv -> group1_b12_conv_top
I0316 09:18:55.497248 108905 net.cpp:122] Setting up group1_b12_conv
I0316 09:18:55.497261 108905 net.cpp:129] Top shape: 131 304 16 16 (10194944)
I0316 09:18:55.497275 108905 net.cpp:137] Memory required for data: 6264526372
I0316 09:18:55.497290 108905 layer_factory.hpp:77] Creating layer group1_b12_dropout
I0316 09:18:55.497305 108905 net.cpp:84] Creating Layer group1_b12_dropout
I0316 09:18:55.497316 108905 net.cpp:406] group1_b12_dropout <- group1_b12_conv_top
I0316 09:18:55.497331 108905 net.cpp:380] group1_b12_dropout -> group1_b12_dropout
I0316 09:18:55.497396 108905 net.cpp:122] Setting up group1_b12_dropout
I0316 09:18:55.497406 108905 net.cpp:129] Top shape: 131 304 16 16 (10194944)
I0316 09:18:55.497421 108905 net.cpp:137] Memory required for data: 6305306148
I0316 09:18:55.497432 108905 layer_factory.hpp:77] Creating layer group1_b12_pool
I0316 09:18:55.497447 108905 net.cpp:84] Creating Layer group1_b12_pool
I0316 09:18:55.497459 108905 net.cpp:406] group1_b12_pool <- group1_b12_dropout
I0316 09:18:55.497480 108905 net.cpp:380] group1_b12_pool -> group1_b12_pool
I0316 09:18:55.498026 108905 net.cpp:122] Setting up group1_b12_pool
I0316 09:18:55.498037 108905 net.cpp:129] Top shape: 131 304 8 8 (2548736)
I0316 09:18:55.498052 108905 net.cpp:137] Memory required for data: 6315501092
I0316 09:18:55.498064 108905 layer_factory.hpp:77] Creating layer group1_b12_pool_group1_b12_pool_0_split
I0316 09:18:55.498077 108905 net.cpp:84] Creating Layer group1_b12_pool_group1_b12_pool_0_split
I0316 09:18:55.498088 108905 net.cpp:406] group1_b12_pool_group1_b12_pool_0_split <- group1_b12_pool
I0316 09:18:55.498102 108905 net.cpp:380] group1_b12_pool_group1_b12_pool_0_split -> group1_b12_pool_group1_b12_pool_0_split_0
I0316 09:18:55.498119 108905 net.cpp:380] group1_b12_pool_group1_b12_pool_0_split -> group1_b12_pool_group1_b12_pool_0_split_1
I0316 09:18:55.498185 108905 net.cpp:122] Setting up group1_b12_pool_group1_b12_pool_0_split
I0316 09:18:55.498195 108905 net.cpp:129] Top shape: 131 304 8 8 (2548736)
I0316 09:18:55.498210 108905 net.cpp:129] Top shape: 131 304 8 8 (2548736)
I0316 09:18:55.498224 108905 net.cpp:137] Memory required for data: 6335890980
I0316 09:18:55.498234 108905 layer_factory.hpp:77] Creating layer group2_b0_bn
I0316 09:18:55.498250 108905 net.cpp:84] Creating Layer group2_b0_bn
I0316 09:18:55.498261 108905 net.cpp:406] group2_b0_bn <- group1_b12_pool_group1_b12_pool_0_split_0
I0316 09:18:55.498276 108905 net.cpp:380] group2_b0_bn -> group2_b0_bn_top
I0316 09:18:55.498600 108905 net.cpp:122] Setting up group2_b0_bn
I0316 09:18:55.498610 108905 net.cpp:129] Top shape: 131 304 8 8 (2548736)
I0316 09:18:55.498625 108905 net.cpp:137] Memory required for data: 6346085924
I0316 09:18:55.498647 108905 layer_factory.hpp:77] Creating layer group2_b0_scale
I0316 09:18:55.498662 108905 net.cpp:84] Creating Layer group2_b0_scale
I0316 09:18:55.498673 108905 net.cpp:406] group2_b0_scale <- group2_b0_bn_top
I0316 09:18:55.498688 108905 net.cpp:367] group2_b0_scale -> group2_b0_bn_top (in-place)
I0316 09:18:55.498759 108905 layer_factory.hpp:77] Creating layer group2_b0_scale
I0316 09:18:55.498925 108905 net.cpp:122] Setting up group2_b0_scale
I0316 09:18:55.498936 108905 net.cpp:129] Top shape: 131 304 8 8 (2548736)
I0316 09:18:55.498950 108905 net.cpp:137] Memory required for data: 6356280868
I0316 09:18:55.498970 108905 layer_factory.hpp:77] Creating layer group2_b0_relu
I0316 09:18:55.498982 108905 net.cpp:84] Creating Layer group2_b0_relu
I0316 09:18:55.498994 108905 net.cpp:406] group2_b0_relu <- group2_b0_bn_top
I0316 09:18:55.499007 108905 net.cpp:367] group2_b0_relu -> group2_b0_bn_top (in-place)
I0316 09:18:55.499507 108905 net.cpp:122] Setting up group2_b0_relu
I0316 09:18:55.499517 108905 net.cpp:129] Top shape: 131 304 8 8 (2548736)
I0316 09:18:55.499532 108905 net.cpp:137] Memory required for data: 6366475812
I0316 09:18:55.499543 108905 layer_factory.hpp:77] Creating layer group2_b0_conv
I0316 09:18:55.499562 108905 net.cpp:84] Creating Layer group2_b0_conv
I0316 09:18:55.499573 108905 net.cpp:406] group2_b0_conv <- group2_b0_bn_top
I0316 09:18:55.499589 108905 net.cpp:380] group2_b0_conv -> group2_b0_conv_top
I0316 09:18:55.502044 108905 net.cpp:122] Setting up group2_b0_conv
I0316 09:18:55.502056 108905 net.cpp:129] Top shape: 131 12 8 8 (100608)
I0316 09:18:55.502079 108905 net.cpp:137] Memory required for data: 6366878244
I0316 09:18:55.502094 108905 layer_factory.hpp:77] Creating layer group2_b0_dropout
I0316 09:18:55.502108 108905 net.cpp:84] Creating Layer group2_b0_dropout
I0316 09:18:55.502120 108905 net.cpp:406] group2_b0_dropout <- group2_b0_conv_top
I0316 09:18:55.502135 108905 net.cpp:380] group2_b0_dropout -> group2_b0_dropout
I0316 09:18:55.502199 108905 net.cpp:122] Setting up group2_b0_dropout
I0316 09:18:55.502209 108905 net.cpp:129] Top shape: 131 12 8 8 (100608)
I0316 09:18:55.502224 108905 net.cpp:137] Memory required for data: 6367280676
I0316 09:18:55.502235 108905 layer_factory.hpp:77] Creating layer group2_b0_concat
I0316 09:18:55.502249 108905 net.cpp:84] Creating Layer group2_b0_concat
I0316 09:18:55.502260 108905 net.cpp:406] group2_b0_concat <- group2_b0_dropout
I0316 09:18:55.502272 108905 net.cpp:406] group2_b0_concat <- group1_b12_pool_group1_b12_pool_0_split_1
I0316 09:18:55.502287 108905 net.cpp:380] group2_b0_concat -> group2_b0_concat
I0316 09:18:55.502334 108905 net.cpp:122] Setting up group2_b0_concat
I0316 09:18:55.502344 108905 net.cpp:129] Top shape: 131 316 8 8 (2649344)
I0316 09:18:55.502359 108905 net.cpp:137] Memory required for data: 6377878052
I0316 09:18:55.502369 108905 layer_factory.hpp:77] Creating layer group2_b0_concat_group2_b0_concat_0_split
I0316 09:18:55.502383 108905 net.cpp:84] Creating Layer group2_b0_concat_group2_b0_concat_0_split
I0316 09:18:55.502394 108905 net.cpp:406] group2_b0_concat_group2_b0_concat_0_split <- group2_b0_concat
I0316 09:18:55.502408 108905 net.cpp:380] group2_b0_concat_group2_b0_concat_0_split -> group2_b0_concat_group2_b0_concat_0_split_0
I0316 09:18:55.502425 108905 net.cpp:380] group2_b0_concat_group2_b0_concat_0_split -> group2_b0_concat_group2_b0_concat_0_split_1
I0316 09:18:55.502490 108905 net.cpp:122] Setting up group2_b0_concat_group2_b0_concat_0_split
I0316 09:18:55.502499 108905 net.cpp:129] Top shape: 131 316 8 8 (2649344)
I0316 09:18:55.502514 108905 net.cpp:129] Top shape: 131 316 8 8 (2649344)
I0316 09:18:55.502528 108905 net.cpp:137] Memory required for data: 6399072804
I0316 09:18:55.502539 108905 layer_factory.hpp:77] Creating layer group2_b1_bn
I0316 09:18:55.502553 108905 net.cpp:84] Creating Layer group2_b1_bn
I0316 09:18:55.502564 108905 net.cpp:406] group2_b1_bn <- group2_b0_concat_group2_b0_concat_0_split_0
I0316 09:18:55.502579 108905 net.cpp:380] group2_b1_bn -> group2_b1_bn_top
I0316 09:18:55.502888 108905 net.cpp:122] Setting up group2_b1_bn
I0316 09:18:55.502898 108905 net.cpp:129] Top shape: 131 316 8 8 (2649344)
I0316 09:18:55.502913 108905 net.cpp:137] Memory required for data: 6409670180
I0316 09:18:55.502935 108905 layer_factory.hpp:77] Creating layer group2_b1_scale
I0316 09:18:55.502949 108905 net.cpp:84] Creating Layer group2_b1_scale
I0316 09:18:55.502960 108905 net.cpp:406] group2_b1_scale <- group2_b1_bn_top
I0316 09:18:55.502975 108905 net.cpp:367] group2_b1_scale -> group2_b1_bn_top (in-place)
I0316 09:18:55.503047 108905 layer_factory.hpp:77] Creating layer group2_b1_scale
I0316 09:18:55.503232 108905 net.cpp:122] Setting up group2_b1_scale
I0316 09:18:55.503242 108905 net.cpp:129] Top shape: 131 316 8 8 (2649344)
I0316 09:18:55.503257 108905 net.cpp:137] Memory required for data: 6420267556
I0316 09:18:55.503274 108905 layer_factory.hpp:77] Creating layer group2_b1_relu
I0316 09:18:55.503288 108905 net.cpp:84] Creating Layer group2_b1_relu
I0316 09:18:55.503299 108905 net.cpp:406] group2_b1_relu <- group2_b1_bn_top
I0316 09:18:55.503314 108905 net.cpp:367] group2_b1_relu -> group2_b1_bn_top (in-place)
I0316 09:18:55.504268 108905 net.cpp:122] Setting up group2_b1_relu
I0316 09:18:55.504279 108905 net.cpp:129] Top shape: 131 316 8 8 (2649344)
I0316 09:18:55.504294 108905 net.cpp:137] Memory required for data: 6430864932
…
I0316 09:18:55.757115 108905 net.cpp:129] Top shape: 37 316 8 8 (748288)
I0316 09:18:55.757130 108905 net.cpp:137] Memory required for data: 1810364860
I0316 09:18:55.757151 108905 layer_factory.hpp:77] Creating layer group2_b1_scale
I0316 09:18:55.757167 108905 net.cpp:84] Creating Layer group2_b1_scale
I0316 09:18:55.757179 108905 net.cpp:406] group2_b1_scale <- group2_b1_bn_top
I0316 09:18:55.757194 108905 net.cpp:367] group2_b1_scale -> group2_b1_bn_top (in-place)
I0316 09:18:55.757267 108905 layer_factory.hpp:77] Creating layer group2_b1_scale
I0316 09:18:55.757463 108905 net.cpp:122] Setting up group2_b1_scale
I0316 09:18:55.757473 108905 net.cpp:129] Top shape: 37 316 8 8 (748288)
I0316 09:18:55.757488 108905 net.cpp:137] Memory required for data: 1813358012
I0316 09:18:55.757506 108905 layer_factory.hpp:77] Creating layer group2_b1_relu
I0316 09:18:55.757520 108905 net.cpp:84] Creating Layer group2_b1_relu
I0316 09:18:55.757531 108905 net.cpp:406] group2_b1_relu <- group2_b1_bn_top
I0316 09:18:55.757545 108905 net.cpp:367] group2_b1_relu -> group2_b1_bn_top (in-place)
I0316 09:18:55.758535 108905 net.cpp:122] Setting up group2_b1_relu
I0316 09:18:55.758546 108905 net.cpp:129] Top shape: 37 316 8 8 (748288)
I0316 09:18:55.758563 108905 net.cpp:137] Memory required for data: 1816351164
I0316 09:18:55.758574 108905 layer_factory.hpp:77] Creating layer group2_b1_conv
I0316 09:18:55.758592 108905 net.cpp:84] Creating Layer group2_b1_conv
I0316 09:18:55.758604 108905 net.cpp:406] group2_b1_conv <- group2_b1_bn_top
I0316 09:18:55.758620 108905 net.cpp:380] group2_b1_conv -> group2_b1_conv_top
I0316 09:18:55.761184 108905 net.cpp:122] Setting up group2_b1_conv
I0316 09:18:55.761198 108905 net.cpp:129] Top shape: 37 12 8 8 (28416)
I0316 09:18:55.761214 108905 net.cpp:137] Memory required for data: 1816464828
I0316 09:18:55.761229 108905 layer_factory.hpp:77] Creating layer group2_b1_dropout
I0316 09:18:55.761245 108905 net.cpp:84] Creating Layer group2_b1_dropout
I0316 09:18:55.761255 108905 net.cpp:406] group2_b1_dropout <- group2_b1_conv_top
I0316 09:18:55.761270 108905 net.cpp:380] group2_b1_dropout -> group2_b1_dropout
I0316 09:18:55.761343 108905 net.cpp:122] Setting up group2_b1_dropout
I0316 09:18:55.761353 108905 net.cpp:129] Top shape: 37 12 8 8 (28416)
I0316 09:18:55.761368 108905 net.cpp:137] Memory required for data: 1816578492
I0316 09:18:55.761379 108905 layer_factory.hpp:77] Creating layer group2_b1_concat
I0316 09:18:55.761392 108905 net.cpp:84] Creating Layer group2_b1_concat
I0316 09:18:55.761402 108905 net.cpp:406] group2_b1_concat <- group2_b1_dropout
I0316 09:18:55.761415 108905 net.cpp:406] group2_b1_concat <- group2_b0_concat_group2_b0_concat_0_split_1
I0316 09:18:55.761430 108905 net.cpp:380] group2_b1_concat -> group2_b1_concat
I0316 09:18:55.761482 108905 net.cpp:122] Setting up group2_b1_concat
I0316 09:18:55.761492 108905 net.cpp:129] Top shape: 37 328 8 8 (776704)
I0316 09:18:55.761507 108905 net.cpp:137] Memory required for data: 1819685308
I0316 09:18:55.761517 108905 layer_factory.hpp:77] Creating layer group2_b1_concat_group2_b1_concat_0_split
I0316 09:18:55.761530 108905 net.cpp:84] Creating Layer group2_b1_concat_group2_b1_concat_0_split
I0316 09:18:55.761540 108905 net.cpp:406] group2_b1_concat_group2_b1_concat_0_split <- group2_b1_concat
I0316 09:18:55.761555 108905 net.cpp:380] group2_b1_concat_group2_b1_concat_0_split -> group2_b1_concat_group2_b1_concat_0_split_0
I0316 09:18:55.761572 108905 net.cpp:380] group2_b1_concat_group2_b1_concat_0_split -> group2_b1_concat_group2_b1_concat_0_split_1
I0316 09:18:55.761643 108905 net.cpp:122] Setting up group2_b1_concat_group2_b1_concat_0_split
I0316 09:18:55.761654 108905 net.cpp:129] Top shape: 37 328 8 8 (776704)
I0316 09:18:55.761669 108905 net.cpp:129] Top shape: 37 328 8 8 (776704)
I0316 09:18:55.761683 108905 net.cpp:137] Memory required for data: 1825898940
I0316 09:18:55.761693 108905 layer_factory.hpp:77] Creating layer group2_b2_bn
I0316 09:18:55.761708 108905 net.cpp:84] Creating Layer group2_b2_bn
I0316 09:18:55.761718 108905 net.cpp:406] group2_b2_bn <- group2_b1_concat_group2_b1_concat_0_split_0
I0316 09:18:55.761734 108905 net.cpp:380] group2_b2_bn -> group2_b2_bn_top
I0316 09:18:55.762102 108905 net.cpp:122] Setting up group2_b2_bn
I0316 09:18:55.762114 108905 net.cpp:129] Top shape: 37 328 8 8 (776704)
I0316 09:18:55.762128 108905 net.cpp:137] Memory required for data: 1829005756
I0316 09:18:55.762150 108905 layer_factory.hpp:77] Creating layer group2_b2_scale
I0316 09:18:55.762164 108905 net.cpp:84] Creating Layer group2_b2_scale
I0316 09:18:55.762176 108905 net.cpp:406] group2_b2_scale <- group2_b2_bn_top
I0316 09:18:55.762190 108905 net.cpp:367] group2_b2_scale -> group2_b2_bn_top (in-place)
I0316 09:18:55.762264 108905 layer_factory.hpp:77] Creating layer group2_b2_scale
I0316 09:18:55.762464 108905 net.cpp:122] Setting up group2_b2_scale
I0316 09:18:55.762473 108905 net.cpp:129] Top shape: 37 328 8 8 (776704)
I0316 09:18:55.762488 108905 net.cpp:137] Memory required for data: 1832112572
I0316 09:18:55.762506 108905 layer_factory.hpp:77] Creating layer group2_b2_relu
I0316 09:18:55.762519 108905 net.cpp:84] Creating Layer group2_b2_relu
I0316 09:18:55.762531 108905 net.cpp:406] group2_b2_relu <- group2_b2_bn_top
I0316 09:18:55.762544 108905 net.cpp:367] group2_b2_relu -> group2_b2_bn_top (in-place)
I0316 09:18:55.763062 108905 net.cpp:122] Setting up group2_b2_relu
I0316 09:18:55.763072 108905 net.cpp:129] Top shape: 37 328 8 8 (776704)
I0316 09:18:55.763088 108905 net.cpp:137] Memory required for data: 1835219388
I0316 09:18:55.763098 108905 layer_factory.hpp:77] Creating layer group2_b2_conv
I0316 09:18:55.763118 108905 net.cpp:84] Creating Layer group2_b2_conv
I0316 09:18:55.763128 108905 net.cpp:406] group2_b2_conv <- group2_b2_bn_top
I0316 09:18:55.763144 108905 net.cpp:380] group2_b2_conv -> group2_b2_conv_top
I0316 09:18:55.766202 108905 net.cpp:122] Setting up group2_b2_conv
I0316 09:18:55.766214 108905 net.cpp:129] Top shape: 37 12 8 8 (28416)
I0316 09:18:55.766230 108905 net.cpp:137] Memory required for data: 1835333052
I0316 09:18:55.766247 108905 layer_factory.hpp:77] Creating layer group2_b2_dropout
I0316 09:18:55.766260 108905 net.cpp:84] Creating Layer group2_b2_dropout
I0316 09:18:55.766273 108905 net.cpp:406] group2_b2_dropout <- group2_b2_conv_top
I0316 09:18:55.766288 108905 net.cpp:380] group2_b2_dropout -> group2_b2_dropout
I0316 09:18:55.766361 108905 net.cpp:122] Setting up group2_b2_dropout
I0316 09:18:55.766371 108905 net.cpp:129] Top shape: 37 12 8 8 (28416)
I0316 09:18:55.766386 108905 net.cpp:137] Memory required for data: 1835446716
I0316 09:18:55.766396 108905 layer_factory.hpp:77] Creating layer group2_b2_concat
I0316 09:18:55.766410 108905 net.cpp:84] Creating Layer group2_b2_concat
I0316 09:18:55.766422 108905 net.cpp:406] group2_b2_concat <- group2_b2_dropout
I0316 09:18:55.766434 108905 net.cpp:406] group2_b2_concat <- group2_b1_concat_group2_b1_concat_0_split_1
I0316 09:18:55.766449 108905 net.cpp:380] group2_b2_concat -> group2_b2_concat
I0316 09:18:55.766499 108905 net.cpp:122] Setting up group2_b2_concat
I0316 09:18:55.766510 108905 net.cpp:129] Top shape: 37 340 8 8 (805120)
I0316 09:18:55.766525 108905 net.cpp:137] Memory required for data: 1838667196
I0316 09:18:55.766535 108905 layer_factory.hpp:77] Creating layer group2_b2_concat_group2_b2_concat_0_split
I0316 09:18:55.766548 108905 net.cpp:84] Creating Layer group2_b2_concat_group2_b2_concat_0_split
I0316 09:18:55.766559 108905 net.cpp:406] group2_b2_concat_group2_b2_concat_0_split <- group2_b2_concat
I0316 09:18:55.766574 108905 net.cpp:380] group2_b2_concat_group2_b2_concat_0_split -> group2_b2_concat_group2_b2_concat_0_split_0
I0316 09:18:55.766592 108905 net.cpp:380] group2_b2_concat_group2_b2_concat_0_split -> group2_b2_concat_group2_b2_concat_0_split_1
I0316 09:18:55.766662 108905 net.cpp:122] Setting up group2_b2_concat_group2_b2_concat_0_split
I0316 09:18:55.766672 108905 net.cpp:129] Top shape: 37 340 8 8 (805120)
I0316 09:18:55.766687 108905 net.cpp:129] Top shape: 37 340 8 8 (805120)
I0316 09:18:55.766701 108905 net.cpp:137] Memory required for data: 1845108156
I0316 09:18:55.766712 108905 layer_factory.hpp:77] Creating layer group2_b3_bn
I0316 09:18:55.766726 108905 net.cpp:84] Creating Layer group2_b3_bn
I0316 09:18:55.766737 108905 net.cpp:406] group2_b3_bn <- group2_b2_concat_group2_b2_concat_0_split_0
I0316 09:18:55.766752 108905 net.cpp:380] group2_b3_bn -> group2_b3_bn_top
I0316 09:18:55.767139 108905 net.cpp:122] Setting up group2_b3_bn
I0316 09:18:55.767149 108905 net.cpp:129] Top shape: 37 340 8 8 (805120)
I0316 09:18:55.767165 108905 net.cpp:137] Memory required for data: 1848328636
I0316 09:18:55.767186 108905 layer_factory.hpp:77] Creating layer group2_b3_scale
I0316 09:18:55.767201 108905 net.cpp:84] Creating Layer group2_b3_scale
I0316 09:18:55.767212 108905 net.cpp:406] group2_b3_scale <- group2_b3_bn_top
I0316 09:18:55.767227 108905 net.cpp:367] group2_b3_scale -> group2_b3_bn_top (in-place)
I0316 09:18:55.767304 108905 layer_factory.hpp:77] Creating layer group2_b3_scale
I0316 09:18:55.767500 108905 net.cpp:122] Setting up group2_b3_scale
I0316 09:18:55.767510 108905 net.cpp:129] Top shape: 37 340 8 8 (805120)
I0316 09:18:55.767525 108905 net.cpp:137] Memory required for data: 1851549116
I0316 09:18:55.767544 108905 layer_factory.hpp:77] Creating layer group2_b3_relu
I0316 09:18:55.767556 108905 net.cpp:84] Creating Layer group2_b3_relu
I0316 09:18:55.767567 108905 net.cpp:406] group2_b3_relu <- group2_b3_bn_top
I0316 09:18:55.767581 108905 net.cpp:367] group2_b3_relu -> group2_b3_bn_top (in-place)
I0316 09:18:55.768121 108905 net.cpp:122] Setting up group2_b3_relu
I0316 09:18:55.768132 108905 net.cpp:129] Top shape: 37 340 8 8 (805120)
I0316 09:18:55.768148 108905 net.cpp:137] Memory required for data: 1854769596
I0316 09:18:55.768158 108905 layer_factory.hpp:77] Creating layer group2_b3_conv
I0316 09:18:55.768177 108905 net.cpp:84] Creating Layer group2_b3_conv
I0316 09:18:55.768188 108905 net.cpp:406] group2_b3_conv <- group2_b3_bn_top
I0316 09:18:55.768204 108905 net.cpp:380] group2_b3_conv -> group2_b3_conv_top
I0316 09:18:55.771265 108905 net.cpp:122] Setting up group2_b3_conv
I0316 09:18:55.771278 108905 net.cpp:129] Top shape: 37 12 8 8 (28416)
I0316 09:18:55.771293 108905 net.cpp:137] Memory required for data: 1854883260
I0316 09:18:55.771308 108905 layer_factory.hpp:77] Creating layer group2_b3_dropout
I0316 09:18:55.771322 108905 net.cpp:84] Creating Layer group2_b3_dropout
I0316 09:18:55.771334 108905 net.cpp:406] group2_b3_dropout <- group2_b3_conv_top
I0316 09:18:55.771350 108905 net.cpp:380] group2_b3_dropout -> group2_b3_dropout
I0316 09:18:55.771423 108905 net.cpp:122] Setting up group2_b3_dropout
I0316 09:18:55.771435 108905 net.cpp:129] Top shape: 37 12 8 8 (28416)
I0316 09:18:55.771448 108905 net.cpp:137] Memory required for data: 1854996924
I0316 09:18:55.771459 108905 layer_factory.hpp:77] Creating layer group2_b3_concat
I0316 09:18:55.771473 108905 net.cpp:84] Creating Layer group2_b3_concat
I0316 09:18:55.771483 108905 net.cpp:406] group2_b3_concat <- group2_b3_dropout
I0316 09:18:55.771497 108905 net.cpp:406] group2_b3_concat <- group2_b2_concat_group2_b2_concat_0_split_1
I0316 09:18:55.771512 108905 net.cpp:380] group2_b3_concat -> group2_b3_concat
I0316 09:18:55.771564 108905 net.cpp:122] Setting up group2_b3_concat
I0316 09:18:55.771610 108905 net.cpp:129] Top shape: 37 352 8 8 (833536)
I0316 09:18:55.771625 108905 net.cpp:137] Memory required for data: 1858331068
I0316 09:18:55.771636 108905 layer_factory.hpp:77] Creating layer group2_b3_concat_group2_b3_concat_0_split
I0316 09:18:55.771649 108905 net.cpp:84] Creating Layer group2_b3_concat_group2_b3_concat_0_split
I0316 09:18:55.771661 108905 net.cpp:406] group2_b3_concat_group2_b3_concat_0_split <- group2_b3_concat
I0316 09:18:55.771674 108905 net.cpp:380] group2_b3_concat_group2_b3_concat_0_split -> group2_b3_concat_group2_b3_concat_0_split_0
I0316 09:18:55.771692 108905 net.cpp:380] group2_b3_concat_group2_b3_concat_0_split -> group2_b3_concat_group2_b3_concat_0_split_1
I0316 09:18:55.771762 108905 net.cpp:122] Setting up group2_b3_concat_group2_b3_concat_0_split
I0316 09:18:55.771772 108905 net.cpp:129] Top shape: 37 352 8 8 (833536)
I0316 09:18:55.771786 108905 net.cpp:129] Top shape: 37 352 8 8 (833536)
I0316 09:18:55.771800 108905 net.cpp:137] Memory required for data: 1864999356
I0316 09:18:55.771811 108905 layer_factory.hpp:77] Creating layer group2_b4_bn
I0316 09:18:55.771824 108905 net.cpp:84] Creating Layer group2_b4_bn
I0316 09:18:55.771836 108905 net.cpp:406] group2_b4_bn <- group2_b3_concat_group2_b3_concat_0_split_0
I0316 09:18:55.771852 108905 net.cpp:380] group2_b4_bn -> group2_b4_bn_top
I0316 09:18:55.772214 108905 net.cpp:122] Setting up group2_b4_bn
I0316 09:18:55.772225 108905 net.cpp:129] Top shape: 37 352 8 8 (833536)
I0316 09:18:55.772240 108905 net.cpp:137] Memory required for data: 1868333500
I0316 09:18:55.772261 108905 layer_factory.hpp:77] Creating layer group2_b4_scale
I0316 09:18:55.772277 108905 net.cpp:84] Creating Layer group2_b4_scale
I0316 09:18:55.772289 108905 net.cpp:406] group2_b4_scale <- group2_b4_bn_top
I0316 09:18:55.772303 108905 net.cpp:367] group2_b4_scale -> group2_b4_bn_top (in-place)
I0316 09:18:55.772382 108905 layer_factory.hpp:77] Creating layer group2_b4_scale
I0316 09:18:55.772579 108905 net.cpp:122] Setting up group2_b4_scale
I0316 09:18:55.772590 108905 net.cpp:129] Top shape: 37 352 8 8 (833536)
I0316 09:18:55.772604 108905 net.cpp:137] Memory required for data: 1871667644
I0316 09:18:55.772622 108905 layer_factory.hpp:77] Creating layer group2_b4_relu
I0316 09:18:55.772636 108905 net.cpp:84] Creating Layer group2_b4_relu
I0316 09:18:55.772647 108905 net.cpp:406] group2_b4_relu <- group2_b4_bn_top
I0316 09:18:55.772661 108905 net.cpp:367] group2_b4_relu -> group2_b4_bn_top (in-place)
I0316 09:18:55.773643 108905 net.cpp:122] Setting up group2_b4_relu
I0316 09:18:55.773654 108905 net.cpp:129] Top shape: 37 352 8 8 (833536)
I0316 09:18:55.773669 108905 net.cpp:137] Memory required for data: 1875001788
I0316 09:18:55.773681 108905 layer_factory.hpp:77] Creating layer group2_b4_conv
I0316 09:18:55.773700 108905 net.cpp:84] Creating Layer group2_b4_conv
I0316 09:18:55.773711 108905 net.cpp:406] group2_b4_conv <- group2_b4_bn_top
I0316 09:18:55.773727 108905 net.cpp:380] group2_b4_conv -> group2_b4_conv_top
I0316 09:18:55.776793 108905 net.cpp:122] Setting up group2_b4_conv
I0316 09:18:55.776805 108905 net.cpp:129] Top shape: 37 12 8 8 (28416)
I0316 09:18:55.776820 108905 net.cpp:137] Memory required for data: 1875115452
I0316 09:18:55.776836 108905 layer_factory.hpp:77] Creating layer group2_b4_dropout
I0316 09:18:55.776850 108905 net.cpp:84] Creating Layer group2_b4_dropout
I0316 09:18:55.776862 108905 net.cpp:406] group2_b4_dropout <- group2_b4_conv_top
I0316 09:18:55.776877 108905 net.cpp:380] group2_b4_dropout -> group2_b4_dropout
I0316 09:18:55.776954 108905 net.cpp:122] Setting up group2_b4_dropout
I0316 09:18:55.776964 108905 net.cpp:129] Top shape: 37 12 8 8 (28416)
I0316 09:18:55.776979 108905 net.cpp:137] Memory required for data: 1875229116
I0316 09:18:55.776990 108905 layer_factory.hpp:77] Creating layer group2_b4_concat
I0316 09:18:55.777004 108905 net.cpp:84] Creating Layer group2_b4_concat
I0316 09:18:55.777015 108905 net.cpp:406] group2_b4_concat <- group2_b4_dropout
I0316 09:18:55.777029 108905 net.cpp:406] group2_b4_concat <- group2_b3_concat_group2_b3_concat_0_split_1
I0316 09:18:55.777043 108905 net.cpp:380] group2_b4_concat -> group2_b4_concat
I0316 09:18:55.777094 108905 net.cpp:122] Setting up group2_b4_concat
I0316 09:18:55.777103 108905 net.cpp:129] Top shape: 37 364 8 8 (861952)
I0316 09:18:55.777118 108905 net.cpp:137] Memory required for data: 1878676924
I0316 09:18:55.777129 108905 layer_factory.hpp:77] Creating layer group2_b4_concat_group2_b4_concat_0_split
I0316 09:18:55.777143 108905 net.cpp:84] Creating Layer group2_b4_concat_group2_b4_concat_0_split
I0316 09:18:55.777154 108905 net.cpp:406] group2_b4_concat_group2_b4_concat_0_split <- group2_b4_concat
I0316 09:18:55.777168 108905 net.cpp:380] group2_b4_concat_group2_b4_concat_0_split -> group2_b4_concat_group2_b4_concat_0_split_0
I0316 09:18:55.777185 108905 net.cpp:380] group2_b4_concat_group2_b4_concat_0_split -> group2_b4_concat_group2_b4_concat_0_split_1
I0316 09:18:55.777256 108905 net.cpp:122] Setting up group2_b4_concat_group2_b4_concat_0_split
I0316 09:18:55.777266 108905 net.cpp:129] Top shape: 37 364 8 8 (861952)
I0316 09:18:55.777281 108905 net.cpp:129] Top shape: 37 364 8 8 (861952)
I0316 09:18:55.777295 108905 net.cpp:137] Memory required for data: 1885572540
I0316 09:18:55.777307 108905 layer_factory.hpp:77] Creating layer group2_b5_bn
I0316 09:18:55.777320 108905 net.cpp:84] Creating Layer group2_b5_bn
I0316 09:18:55.777331 108905 net.cpp:406] group2_b5_bn <- group2_b4_concat_group2_b4_concat_0_split_0
I0316 09:18:55.777346 108905 net.cpp:380] group2_b5_bn -> group2_b5_bn_top
I0316 09:18:55.777736 108905 net.cpp:122] Setting up group2_b5_bn
I0316 09:18:55.777747 108905 net.cpp:129] Top shape: 37 364 8 8 (861952)
I0316 09:18:55.777762 108905 net.cpp:137] Memory required for data: 1889020348
I0316 09:18:55.777783 108905 layer_factory.hpp:77] Creating layer group2_b5_scale
I0316 09:18:55.777799 108905 net.cpp:84] Creating Layer group2_b5_scale
I0316 09:18:55.777812 108905 net.cpp:406] group2_b5_scale <- group2_b5_bn_top
I0316 09:18:55.777827 108905 net.cpp:367] group2_b5_scale -> group2_b5_bn_top (in-place)
I0316 09:18:55.777899 108905 layer_factory.hpp:77] Creating layer group2_b5_scale
I0316 09:18:55.778097 108905 net.cpp:122] Setting up group2_b5_scale
I0316 09:18:55.778108 108905 net.cpp:129] Top shape: 37 364 8 8 (861952)
I0316 09:18:55.778123 108905 net.cpp:137] Memory required for data: 1892468156
I0316 09:18:55.778141 108905 layer_factory.hpp:77] Creating layer group2_b5_relu
I0316 09:18:55.778154 108905 net.cpp:84] Creating Layer group2_b5_relu
I0316 09:18:55.778165 108905 net.cpp:406] group2_b5_relu <- group2_b5_bn_top
I0316 09:18:55.778179 108905 net.cpp:367] group2_b5_relu -> group2_b5_bn_top (in-place)
I0316 09:18:55.778712 108905 net.cpp:122] Setting up group2_b5_relu
I0316 09:18:55.778722 108905 net.cpp:129] Top shape: 37 364 8 8 (861952)
I0316 09:18:55.778736 108905 net.cpp:137] Memory required for data: 1895915964
I0316 09:18:55.778748 108905 layer_factory.hpp:77] Creating layer group2_b5_conv
I0316 09:18:55.778766 108905 net.cpp:84] Creating Layer group2_b5_conv
I0316 09:18:55.778779 108905 net.cpp:406] group2_b5_conv <- group2_b5_bn_top
I0316 09:18:55.778795 108905 net.cpp:380] group2_b5_conv -> group2_b5_conv_top
I0316 09:18:55.781913 108905 net.cpp:122] Setting up group2_b5_conv
I0316 09:18:55.781925 108905 net.cpp:129] Top shape: 37 12 8 8 (28416)
I0316 09:18:55.781940 108905 net.cpp:137] Memory required for data: 1896029628
I0316 09:18:55.781956 108905 layer_factory.hpp:77] Creating layer group2_b5_dropout
I0316 09:18:55.781970 108905 net.cpp:84] Creating Layer group2_b5_dropout
I0316 09:18:55.781982 108905 net.cpp:406] group2_b5_dropout <- group2_b5_conv_top
I0316 09:18:55.781998 108905 net.cpp:380] group2_b5_dropout -> group2_b5_dropout
I0316 09:18:55.782073 108905 net.cpp:122] Setting up group2_b5_dropout
I0316 09:18:55.782083 108905 net.cpp:129] Top shape: 37 12 8 8 (28416)
I0316 09:18:55.782097 108905 net.cpp:137] Memory required for data: 1896143292
I0316 09:18:55.782109 108905 layer_factory.hpp:77] Creating layer group2_b5_concat
I0316 09:18:55.782122 108905 net.cpp:84] Creating Layer group2_b5_concat
I0316 09:18:55.782133 108905 net.cpp:406] group2_b5_concat <- group2_b5_dropout
I0316 09:18:55.782145 108905 net.cpp:406] group2_b5_concat <- group2_b4_concat_group2_b4_concat_0_split_1
I0316 09:18:55.782160 108905 net.cpp:380] group2_b5_concat -> group2_b5_concat
I0316 09:18:55.782210 108905 net.cpp:122] Setting up group2_b5_concat
I0316 09:18:55.782220 108905 net.cpp:129] Top shape: 37 376 8 8 (890368)
I0316 09:18:55.782235 108905 net.cpp:137] Memory required for data: 1899704764
I0316 09:18:55.782245 108905 layer_factory.hpp:77] Creating layer group2_b5_concat_group2_b5_concat_0_split
I0316 09:18:55.782259 108905 net.cpp:84] Creating Layer group2_b5_concat_group2_b5_concat_0_split
I0316 09:18:55.782270 108905 net.cpp:406] group2_b5_concat_group2_b5_concat_0_split <- group2_b5_concat
I0316 09:18:55.782285 108905 net.cpp:380] group2_b5_concat_group2_b5_concat_0_split -> group2_b5_concat_group2_b5_concat_0_split_0
I0316 09:18:55.782302 108905 net.cpp:380] group2_b5_concat_group2_b5_concat_0_split -> group2_b5_concat_group2_b5_concat_0_split_1
I0316 09:18:55.782373 108905 net.cpp:122] Setting up group2_b5_concat_group2_b5_concat_0_split
I0316 09:18:55.782383 108905 net.cpp:129] Top shape: 37 376 8 8 (890368)
I0316 09:18:55.782398 108905 net.cpp:129] Top shape: 37 376 8 8 (890368)
I0316 09:18:55.782413 108905 net.cpp:137] Memory required for data: 1906827708
I0316 09:18:55.782423 108905 layer_factory.hpp:77] Creating layer group2_b6_bn
I0316 09:18:55.782438 108905 net.cpp:84] Creating Layer group2_b6_bn
I0316 09:18:55.782449 108905 net.cpp:406] group2_b6_bn <- group2_b5_concat_group2_b5_concat_0_split_0
I0316 09:18:55.782464 108905 net.cpp:380] group2_b6_bn -> group2_b6_bn_top
I0316 09:18:55.782833 108905 net.cpp:122] Setting up group2_b6_bn
I0316 09:18:55.782843 108905 net.cpp:129] Top shape: 37 376 8 8 (890368)
I0316 09:18:55.782858 108905 net.cpp:137] Memory required for data: 1910389180
I0316 09:18:55.782879 108905 layer_factory.hpp:77] Creating layer group2_b6_scale
I0316 09:18:55.782896 108905 net.cpp:84] Creating Layer group2_b6_scale
I0316 09:18:55.782907 108905 net.cpp:406] group2_b6_scale <- group2_b6_bn_top
I0316 09:18:55.782922 108905 net.cpp:367] group2_b6_scale -> group2_b6_bn_top (in-place)
I0316 09:18:55.782995 108905 layer_factory.hpp:77] Creating layer group2_b6_scale
I0316 09:18:55.783191 108905 net.cpp:122] Setting up group2_b6_scale
I0316 09:18:55.783202 108905 net.cpp:129] Top shape: 37 376 8 8 (890368)
I0316 09:18:55.783217 108905 net.cpp:137] Memory required for data: 1913950652
I0316 09:18:55.783236 108905 layer_factory.hpp:77] Creating layer group2_b6_relu
I0316 09:18:55.783248 108905 net.cpp:84] Creating Layer group2_b6_relu
I0316 09:18:55.783259 108905 net.cpp:406] group2_b6_relu <- group2_b6_bn_top
I0316 09:18:55.783273 108905 net.cpp:367] group2_b6_relu -> group2_b6_bn_top (in-place)
I0316 09:18:55.783802 108905 net.cpp:122] Setting up group2_b6_relu
I0316 09:18:55.783812 108905 net.cpp:129] Top shape: 37 376 8 8 (890368)
I0316 09:18:55.783828 108905 net.cpp:137] Memory required for data: 1917512124
I0316 09:18:55.783838 108905 layer_factory.hpp:77] Creating layer group2_b6_conv
I0316 09:18:55.783856 108905 net.cpp:84] Creating Layer group2_b6_conv
I0316 09:18:55.783869 108905 net.cpp:406] group2_b6_conv <- group2_b6_bn_top
I0316 09:18:55.783885 108905 net.cpp:380] group2_b6_conv -> group2_b6_conv_top
I0316 09:18:55.787114 108905 net.cpp:122] Setting up group2_b6_conv
I0316 09:18:55.787130 108905 net.cpp:129] Top shape: 37 12 8 8 (28416)
I0316 09:18:55.787145 108905 net.cpp:137] Memory required for data: 1917625788
I0316 09:18:55.787161 108905 layer_factory.hpp:77] Creating layer group2_b6_dropout
I0316 09:18:55.787176 108905 net.cpp:84] Creating Layer group2_b6_dropout
I0316 09:18:55.787189 108905 net.cpp:406] group2_b6_dropout <- group2_b6_conv_top
I0316 09:18:55.787204 108905 net.cpp:380] group2_b6_dropout -> group2_b6_dropout
I0316 09:18:55.787276 108905 net.cpp:122] Setting up group2_b6_dropout
I0316 09:18:55.787286 108905 net.cpp:129] Top shape: 37 12 8 8 (28416)
I0316 09:18:55.787300 108905 net.cpp:137] Memory required for data: 1917739452
I0316 09:18:55.787312 108905 layer_factory.hpp:77] Creating layer group2_b6_concat
I0316 09:18:55.787326 108905 net.cpp:84] Creating Layer group2_b6_concat
I0316 09:18:55.787338 108905 net.cpp:406] group2_b6_concat <- group2_b6_dropout
I0316 09:18:55.787349 108905 net.cpp:406] group2_b6_concat <- group2_b5_concat_group2_b5_concat_0_split_1
I0316 09:18:55.787365 108905 net.cpp:380] group2_b6_concat -> group2_b6_concat
I0316 09:18:55.787416 108905 net.cpp:122] Setting up group2_b6_concat
I0316 09:18:55.787425 108905 net.cpp:129] Top shape: 37 388 8 8 (918784)
I0316 09:18:55.787441 108905 net.cpp:137] Memory required for data: 1921414588
I0316 09:18:55.787451 108905 layer_factory.hpp:77] Creating layer group2_b6_concat_group2_b6_concat_0_split
I0316 09:18:55.787466 108905 net.cpp:84] Creating Layer group2_b6_concat_group2_b6_concat_0_split
I0316 09:18:55.787477 108905 net.cpp:406] group2_b6_concat_group2_b6_concat_0_split <- group2_b6_concat
I0316 09:18:55.787490 108905 net.cpp:380] group2_b6_concat_group2_b6_concat_0_split -> group2_b6_concat_group2_b6_concat_0_split_0
I0316 09:18:55.787508 108905 net.cpp:380] group2_b6_concat_group2_b6_concat_0_split -> group2_b6_concat_group2_b6_concat_0_split_1
I0316 09:18:55.787580 108905 net.cpp:122] Setting up group2_b6_concat_group2_b6_concat_0_split
I0316 09:18:55.787590 108905 net.cpp:129] Top shape: 37 388 8 8 (918784)
I0316 09:18:55.787605 108905 net.cpp:129] Top shape: 37 388 8 8 (918784)
I0316 09:18:55.787617 108905 net.cpp:137] Memory required for data: 1928764860
I0316 09:18:55.787628 108905 layer_factory.hpp:77] Creating layer group2_b7_bn
I0316 09:18:55.787643 108905 net.cpp:84] Creating Layer group2_b7_bn
I0316 09:18:55.787654 108905 net.cpp:406] group2_b7_bn <- group2_b6_concat_group2_b6_concat_0_split_0
I0316 09:18:55.787683 108905 net.cpp:380] group2_b7_bn -> group2_b7_bn_top
I0316 09:18:55.788053 108905 net.cpp:122] Setting up group2_b7_bn
I0316 09:18:55.788064 108905 net.cpp:129] Top shape: 37 388 8 8 (918784)
I0316 09:18:55.788079 108905 net.cpp:137] Memory required for data: 1932439996
I0316 09:18:55.788100 108905 layer_factory.hpp:77] Creating layer group2_b7_scale
I0316 09:18:55.788116 108905 net.cpp:84] Creating Layer group2_b7_scale
I0316 09:18:55.788127 108905 net.cpp:406] group2_b7_scale <- group2_b7_bn_top
I0316 09:18:55.788142 108905 net.cpp:367] group2_b7_scale -> group2_b7_bn_top (in-place)
I0316 09:18:55.788216 108905 layer_factory.hpp:77] Creating layer group2_b7_scale
I0316 09:18:55.788414 108905 net.cpp:122] Setting up group2_b7_scale
I0316 09:18:55.788424 108905 net.cpp:129] Top shape: 37 388 8 8 (918784)
I0316 09:18:55.788439 108905 net.cpp:137] Memory required for data: 1936115132
I0316 09:18:55.788457 108905 layer_factory.hpp:77] Creating layer group2_b7_relu
I0316 09:18:55.788471 108905 net.cpp:84] Creating Layer group2_b7_relu
I0316 09:18:55.788482 108905 net.cpp:406] group2_b7_relu <- group2_b7_bn_top
I0316 09:18:55.788496 108905 net.cpp:367] group2_b7_relu -> group2_b7_bn_top (in-place)
I0316 09:18:55.789026 108905 net.cpp:122] Setting up group2_b7_relu
I0316 09:18:55.789037 108905 net.cpp:129] Top shape: 37 388 8 8 (918784)
I0316 09:18:55.789052 108905 net.cpp:137] Memory required for data: 1939790268
I0316 09:18:55.789063 108905 layer_factory.hpp:77] Creating layer group2_b7_conv
I0316 09:18:55.789083 108905 net.cpp:84] Creating Layer group2_b7_conv
I0316 09:18:55.789093 108905 net.cpp:406] group2_b7_conv <- group2_b7_bn_top
I0316 09:18:55.789109 108905 net.cpp:380] group2_b7_conv -> group2_b7_conv_top
I0316 09:18:55.792197 108905 net.cpp:122] Setting up group2_b7_conv
I0316 09:18:55.792210 108905 net.cpp:129] Top shape: 37 12 8 8 (28416)
I0316 09:18:55.792227 108905 net.cpp:137] Memory required for data: 1939903932
I0316 09:18:55.792240 108905 layer_factory.hpp:77] Creating layer group2_b7_dropout
I0316 09:18:55.792254 108905 net.cpp:84] Creating Layer group2_b7_dropout
I0316 09:18:55.792266 108905 net.cpp:406] group2_b7_dropout <- group2_b7_conv_top
I0316 09:18:55.792282 108905 net.cpp:380] group2_b7_dropout -> group2_b7_dropout
I0316 09:18:55.792356 108905 net.cpp:122] Setting up group2_b7_dropout
I0316 09:18:55.792366 108905 net.cpp:129] Top shape: 37 12 8 8 (28416)
I0316 09:18:55.792382 108905 net.cpp:137] Memory required for data: 1940017596
I0316 09:18:55.792392 108905 layer_factory.hpp:77] Creating layer group2_b7_concat
I0316 09:18:55.792407 108905 net.cpp:84] Creating Layer group2_b7_concat
I0316 09:18:55.792418 108905 net.cpp:406] group2_b7_concat <- group2_b7_dropout
I0316 09:18:55.792430 108905 net.cpp:406] group2_b7_concat <- group2_b6_concat_group2_b6_concat_0_split_1
I0316 09:18:55.792445 108905 net.cpp:380] group2_b7_concat -> group2_b7_concat
I0316 09:18:55.792496 108905 net.cpp:122] Setting up group2_b7_concat
I0316 09:18:55.792505 108905 net.cpp:129] Top shape: 37 400 8 8 (947200)
I0316 09:18:55.792520 108905 net.cpp:137] Memory required for data: 1943806396
I0316 09:18:55.792531 108905 layer_factory.hpp:77] Creating layer group2_b7_concat_group2_b7_concat_0_split
I0316 09:18:55.792546 108905 net.cpp:84] Creating Layer group2_b7_concat_group2_b7_concat_0_split
I0316 09:18:55.792557 108905 net.cpp:406] group2_b7_concat_group2_b7_concat_0_split <- group2_b7_concat
I0316 09:18:55.792570 108905 net.cpp:380] group2_b7_concat_group2_b7_concat_0_split -> group2_b7_concat_group2_b7_concat_0_split_0
I0316 09:18:55.792587 108905 net.cpp:380] group2_b7_concat_group2_b7_concat_0_split -> group2_b7_concat_group2_b7_concat_0_split_1
I0316 09:18:55.792659 108905 net.cpp:122] Setting up group2_b7_concat_group2_b7_concat_0_split
I0316 09:18:55.792670 108905 net.cpp:129] Top shape: 37 400 8 8 (947200)
I0316 09:18:55.792685 108905 net.cpp:129] Top shape: 37 400 8 8 (947200)
I0316 09:18:55.792697 108905 net.cpp:137] Memory required for data: 1951383996
I0316 09:18:55.792708 108905 layer_factory.hpp:77] Creating layer group2_b8_bn
I0316 09:18:55.792723 108905 net.cpp:84] Creating Layer group2_b8_bn
I0316 09:18:55.792733 108905 net.cpp:406] group2_b8_bn <- group2_b7_concat_group2_b7_concat_0_split_0
I0316 09:18:55.792749 108905 net.cpp:380] group2_b8_bn -> group2_b8_bn_top
I0316 09:18:55.793113 108905 net.cpp:122] Setting up group2_b8_bn
I0316 09:18:55.793124 108905 net.cpp:129] Top shape: 37 400 8 8 (947200)
I0316 09:18:55.793138 108905 net.cpp:137] Memory required for data: 1955172796
I0316 09:18:55.793159 108905 layer_factory.hpp:77] Creating layer group2_b8_scale
I0316 09:18:55.793174 108905 net.cpp:84] Creating Layer group2_b8_scale
I0316 09:18:55.793185 108905 net.cpp:406] group2_b8_scale <- group2_b8_bn_top
I0316 09:18:55.793200 108905 net.cpp:367] group2_b8_scale -> group2_b8_bn_top (in-place)
I0316 09:18:55.793272 108905 layer_factory.hpp:77] Creating layer group2_b8_scale
I0316 09:18:55.793475 108905 net.cpp:122] Setting up group2_b8_scale
I0316 09:18:55.793485 108905 net.cpp:129] Top shape: 37 400 8 8 (947200)
I0316 09:18:55.793500 108905 net.cpp:137] Memory required for data: 1958961596
I0316 09:18:55.793519 108905 layer_factory.hpp:77] Creating layer group2_b8_relu
I0316 09:18:55.793531 108905 net.cpp:84] Creating Layer group2_b8_relu
I0316 09:18:55.793542 108905 net.cpp:406] group2_b8_relu <- group2_b8_bn_top
I0316 09:18:55.793556 108905 net.cpp:367] group2_b8_relu -> group2_b8_bn_top (in-place)
I0316 09:18:55.794522 108905 net.cpp:122] Setting up group2_b8_relu
I0316 09:18:55.794533 108905 net.cpp:129] Top shape: 37 400 8 8 (947200)
I0316 09:18:55.794548 108905 net.cpp:137] Memory required for data: 1962750396
I0316 09:18:55.794559 108905 layer_factory.hpp:77] Creating layer group2_b8_conv
I0316 09:18:55.794579 108905 net.cpp:84] Creating Layer group2_b8_conv
I0316 09:18:55.794589 108905 net.cpp:406] group2_b8_conv <- group2_b8_bn_top
I0316 09:18:55.794606 108905 net.cpp:380] group2_b8_conv -> group2_b8_conv_top
I0316 09:18:55.797720 108905 net.cpp:122] Setting up group2_b8_conv
I0316 09:18:55.797732 108905 net.cpp:129] Top shape: 37 12 8 8 (28416)
I0316 09:18:55.797747 108905 net.cpp:137] Memory required for data: 1962864060
I0316 09:18:55.797762 108905 layer_factory.hpp:77] Creating layer group2_b8_dropout
I0316 09:18:55.797777 108905 net.cpp:84] Creating Layer group2_b8_dropout
I0316 09:18:55.797789 108905 net.cpp:406] group2_b8_dropout <- group2_b8_conv_top
I0316 09:18:55.797804 108905 net.cpp:380] group2_b8_dropout -> group2_b8_dropout
I0316 09:18:55.797878 108905 net.cpp:122] Setting up group2_b8_dropout
I0316 09:18:55.797888 108905 net.cpp:129] Top shape: 37 12 8 8 (28416)
I0316 09:18:55.797904 108905 net.cpp:137] Memory required for data: 1962977724
I0316 09:18:55.797914 108905 layer_factory.hpp:77] Creating layer group2_b8_concat
I0316 09:18:55.797927 108905 net.cpp:84] Creating Layer group2_b8_concat
I0316 09:18:55.797938 108905 net.cpp:406] group2_b8_concat <- group2_b8_dropout
I0316 09:18:55.797951 108905 net.cpp:406] group2_b8_concat <- group2_b7_concat_group2_b7_concat_0_split_1
I0316 09:18:55.797966 108905 net.cpp:380] group2_b8_concat -> group2_b8_concat
I0316 09:18:55.798020 108905 net.cpp:122] Setting up group2_b8_concat
I0316 09:18:55.798030 108905 net.cpp:129] Top shape: 37 412 8 8 (975616)
I0316 09:18:55.798045 108905 net.cpp:137] Memory required for data: 1966880188
I0316 09:18:55.798055 108905 layer_factory.hpp:77] Creating layer group2_b8_concat_group2_b8_concat_0_split
I0316 09:18:55.798070 108905 net.cpp:84] Creating Layer group2_b8_concat_group2_b8_concat_0_split
I0316 09:18:55.798081 108905 net.cpp:406] group2_b8_concat_group2_b8_concat_0_split <- group2_b8_concat
I0316 09:18:55.798095 108905 net.cpp:380] group2_b8_concat_group2_b8_concat_0_split -> group2_b8_concat_group2_b8_concat_0_split_0
I0316 09:18:55.798112 108905 net.cpp:380] group2_b8_concat_group2_b8_concat_0_split -> group2_b8_concat_group2_b8_concat_0_split_1
I0316 09:18:55.798184 108905 net.cpp:122] Setting up group2_b8_concat_group2_b8_concat_0_split
I0316 09:18:55.798194 108905 net.cpp:129] Top shape: 37 412 8 8 (975616)
I0316 09:18:55.798209 108905 net.cpp:129] Top shape: 37 412 8 8 (975616)
I0316 09:18:55.798223 108905 net.cpp:137] Memory required for data: 1974685116
I0316 09:18:55.798234 108905 layer_factory.hpp:77] Creating layer group2_b9_bn
I0316 09:18:55.798249 108905 net.cpp:84] Creating Layer group2_b9_bn
I0316 09:18:55.798259 108905 net.cpp:406] group2_b9_bn <- group2_b8_concat_group2_b8_concat_0_split_0
I0316 09:18:55.798274 108905 net.cpp:380] group2_b9_bn -> group2_b9_bn_top
I0316 09:18:55.798643 108905 net.cpp:122] Setting up group2_b9_bn
I0316 09:18:55.798655 108905 net.cpp:129] Top shape: 37 412 8 8 (975616)
I0316 09:18:55.798669 108905 net.cpp:137] Memory required for data: 1978587580
I0316 09:18:55.798691 108905 layer_factory.hpp:77] Creating layer group2_b9_scale
I0316 09:18:55.798707 108905 net.cpp:84] Creating Layer group2_b9_scale
I0316 09:18:55.798717 108905 net.cpp:406] group2_b9_scale <- group2_b9_bn_top
I0316 09:18:55.798732 108905 net.cpp:367] group2_b9_scale -> group2_b9_bn_top (in-place)
I0316 09:18:55.798804 108905 layer_factory.hpp:77] Creating layer group2_b9_scale
I0316 09:18:55.799003 108905 net.cpp:122] Setting up group2_b9_scale
I0316 09:18:55.799013 108905 net.cpp:129] Top shape: 37 412 8 8 (975616)
I0316 09:18:55.799028 108905 net.cpp:137] Memory required for data: 1982490044
I0316 09:18:55.799046 108905 layer_factory.hpp:77] Creating layer group2_b9_relu
I0316 09:18:55.799059 108905 net.cpp:84] Creating Layer group2_b9_relu
I0316 09:18:55.799072 108905 net.cpp:406] group2_b9_relu <- group2_b9_bn_top
I0316 09:18:55.799085 108905 net.cpp:367] group2_b9_relu -> group2_b9_bn_top (in-place)
I0316 09:18:55.799618 108905 net.cpp:122] Setting up group2_b9_relu
I0316 09:18:55.799628 108905 net.cpp:129] Top shape: 37 412 8 8 (975616)
I0316 09:18:55.799643 108905 net.cpp:137] Memory required for data: 1986392508
I0316 09:18:55.799654 108905 layer_factory.hpp:77] Creating layer group2_b9_conv
I0316 09:18:55.799674 108905 net.cpp:84] Creating Layer group2_b9_conv
I0316 09:18:55.799685 108905 net.cpp:406] group2_b9_conv <- group2_b9_bn_top
I0316 09:18:55.799701 108905 net.cpp:380] group2_b9_conv -> group2_b9_conv_top
I0316 09:18:55.802835 108905 net.cpp:122] Setting up group2_b9_conv
I0316 09:18:55.802850 108905 net.cpp:129] Top shape: 37 12 8 8 (28416)
I0316 09:18:55.802865 108905 net.cpp:137] Memory required for data: 1986506172
I0316 09:18:55.802880 108905 layer_factory.hpp:77] Creating layer group2_b9_dropout
I0316 09:18:55.802894 108905 net.cpp:84] Creating Layer group2_b9_dropout
I0316 09:18:55.802906 108905 net.cpp:406] group2_b9_dropout <- group2_b9_conv_top
I0316 09:18:55.802922 108905 net.cpp:380] group2_b9_dropout -> group2_b9_dropout
I0316 09:18:55.802995 108905 net.cpp:122] Setting up group2_b9_dropout
I0316 09:18:55.803005 108905 net.cpp:129] Top shape: 37 12 8 8 (28416)
I0316 09:18:55.803020 108905 net.cpp:137] Memory required for data: 1986619836
I0316 09:18:55.803031 108905 layer_factory.hpp:77] Creating layer group2_b9_concat
I0316 09:18:55.803045 108905 net.cpp:84] Creating Layer group2_b9_concat
I0316 09:18:55.803056 108905 net.cpp:406] group2_b9_concat <- group2_b9_dropout
I0316 09:18:55.803068 108905 net.cpp:406] group2_b9_concat <- group2_b8_concat_group2_b8_concat_0_split_1
I0316 09:18:55.803083 108905 net.cpp:380] group2_b9_concat -> group2_b9_concat
I0316 09:18:55.803134 108905 net.cpp:122] Setting up group2_b9_concat
I0316 09:18:55.803144 108905 net.cpp:129] Top shape: 37 424 8 8 (1004032)
I0316 09:18:55.803159 108905 net.cpp:137] Memory required for data: 1990635964
I0316 09:18:55.803169 108905 layer_factory.hpp:77] Creating layer group2_b9_concat_group2_b9_concat_0_split
I0316 09:18:55.803184 108905 net.cpp:84] Creating Layer group2_b9_concat_group2_b9_concat_0_split
I0316 09:18:55.803194 108905 net.cpp:406] group2_b9_concat_group2_b9_concat_0_split <- group2_b9_concat
I0316 09:18:55.803208 108905 net.cpp:380] group2_b9_concat_group2_b9_concat_0_split -> group2_b9_concat_group2_b9_concat_0_split_0
I0316 09:18:55.803226 108905 net.cpp:380] group2_b9_concat_group2_b9_concat_0_split -> group2_b9_concat_group2_b9_concat_0_split_1
I0316 09:18:55.803298 108905 net.cpp:122] Setting up group2_b9_concat_group2_b9_concat_0_split
I0316 09:18:55.803308 108905 net.cpp:129] Top shape: 37 424 8 8 (1004032)
I0316 09:18:55.803323 108905 net.cpp:129] Top shape: 37 424 8 8 (1004032)
I0316 09:18:55.803336 108905 net.cpp:137] Memory required for data: 1998668220
I0316 09:18:55.803347 108905 layer_factory.hpp:77] Creating layer group2_b10_bn
I0316 09:18:55.803362 108905 net.cpp:84] Creating Layer group2_b10_bn
I0316 09:18:55.803372 108905 net.cpp:406] group2_b10_bn <- group2_b9_concat_group2_b9_concat_0_split_0
I0316 09:18:55.803390 108905 net.cpp:380] group2_b10_bn -> group2_b10_bn_top
I0316 09:18:55.803758 108905 net.cpp:122] Setting up group2_b10_bn
I0316 09:18:55.803769 108905 net.cpp:129] Top shape: 37 424 8 8 (1004032)
I0316 09:18:55.803784 108905 net.cpp:137] Memory required for data: 2002684348
I0316 09:18:55.803805 108905 layer_factory.hpp:77] Creating layer group2_b10_scale
I0316 09:18:55.803822 108905 net.cpp:84] Creating Layer group2_b10_scale
I0316 09:18:55.803833 108905 net.cpp:406] group2_b10_scale <- group2_b10_bn_top
I0316 09:18:55.803848 108905 net.cpp:367] group2_b10_scale -> group2_b10_bn_top (in-place)
I0316 09:18:55.803921 108905 layer_factory.hpp:77] Creating layer group2_b10_scale
I0316 09:18:55.804121 108905 net.cpp:122] Setting up group2_b10_scale
I0316 09:18:55.804131 108905 net.cpp:129] Top shape: 37 424 8 8 (1004032)
I0316 09:18:55.804147 108905 net.cpp:137] Memory required for data: 2006700476
I0316 09:18:55.804164 108905 layer_factory.hpp:77] Creating layer group2_b10_relu
I0316 09:18:55.804227 108905 net.cpp:84] Creating Layer group2_b10_relu
I0316 09:18:55.804237 108905 net.cpp:406] group2_b10_relu <- group2_b10_bn_top
I0316 09:18:55.804252 108905 net.cpp:367] group2_b10_relu -> group2_b10_bn_top (in-place)
I0316 09:18:55.804817 108905 net.cpp:122] Setting up group2_b10_relu
I0316 09:18:55.804828 108905 net.cpp:129] Top shape: 37 424 8 8 (1004032)
I0316 09:18:55.804843 108905 net.cpp:137] Memory required for data: 2010716604
I0316 09:18:55.804855 108905 layer_factory.hpp:77] Creating layer group2_b10_conv
I0316 09:18:55.804874 108905 net.cpp:84] Creating Layer group2_b10_conv
I0316 09:18:55.804885 108905 net.cpp:406] group2_b10_conv <- group2_b10_bn_top
I0316 09:18:55.804903 108905 net.cpp:380] group2_b10_conv -> group2_b10_conv_top
I0316 09:18:55.808534 108905 net.cpp:122] Setting up group2_b10_conv
I0316 09:18:55.808548 108905 net.cpp:129] Top shape: 37 12 8 8 (28416)
I0316 09:18:55.808564 108905 net.cpp:137] Memory required for data: 2010830268
I0316 09:18:55.808579 108905 layer_factory.hpp:77] Creating layer group2_b10_dropout
I0316 09:18:55.808593 108905 net.cpp:84] Creating Layer group2_b10_dropout
I0316 09:18:55.808605 108905 net.cpp:406] group2_b10_dropout <- group2_b10_conv_top
I0316 09:18:55.808620 108905 net.cpp:380] group2_b10_dropout -> group2_b10_dropout
I0316 09:18:55.808696 108905 net.cpp:122] Setting up group2_b10_dropout
I0316 09:18:55.808706 108905 net.cpp:129] Top shape: 37 12 8 8 (28416)
I0316 09:18:55.808720 108905 net.cpp:137] Memory required for data: 2010943932
I0316 09:18:55.808732 108905 layer_factory.hpp:77] Creating layer group2_b10_concat
I0316 09:18:55.808745 108905 net.cpp:84] Creating Layer group2_b10_concat
I0316 09:18:55.808758 108905 net.cpp:406] group2_b10_concat <- group2_b10_dropout
I0316 09:18:55.808770 108905 net.cpp:406] group2_b10_concat <- group2_b9_concat_group2_b9_concat_0_split_1
I0316 09:18:55.808785 108905 net.cpp:380] group2_b10_concat -> group2_b10_concat
I0316 09:18:55.808836 108905 net.cpp:122] Setting up group2_b10_concat
I0316 09:18:55.808846 108905 net.cpp:129] Top shape: 37 436 8 8 (1032448)
I0316 09:18:55.808861 108905 net.cpp:137] Memory required for data: 2015073724
I0316 09:18:55.808871 108905 layer_factory.hpp:77] Creating layer group2_b10_concat_group2_b10_concat_0_split
I0316 09:18:55.808885 108905 net.cpp:84] Creating Layer group2_b10_concat_group2_b10_concat_0_split
I0316 09:18:55.808897 108905 net.cpp:406] group2_b10_concat_group2_b10_concat_0_split <- group2_b10_concat
I0316 09:18:55.808912 108905 net.cpp:380] group2_b10_concat_group2_b10_concat_0_split -> group2_b10_concat_group2_b10_concat_0_split_0
I0316 09:18:55.808928 108905 net.cpp:380] group2_b10_concat_group2_b10_concat_0_split -> group2_b10_concat_group2_b10_concat_0_split_1
I0316 09:18:55.809001 108905 net.cpp:122] Setting up group2_b10_concat_group2_b10_concat_0_split
I0316 09:18:55.809011 108905 net.cpp:129] Top shape: 37 436 8 8 (1032448)
I0316 09:18:55.809027 108905 net.cpp:129] Top shape: 37 436 8 8 (1032448)
I0316 09:18:55.809041 108905 net.cpp:137] Memory required for data: 2023333308
I0316 09:18:55.809051 108905 layer_factory.hpp:77] Creating layer group2_b11_bn
I0316 09:18:55.809067 108905 net.cpp:84] Creating Layer group2_b11_bn
I0316 09:18:55.809077 108905 net.cpp:406] group2_b11_bn <- group2_b10_concat_group2_b10_concat_0_split_0
I0316 09:18:55.809092 108905 net.cpp:380] group2_b11_bn -> group2_b11_bn_top
I0316 09:18:55.809465 108905 net.cpp:122] Setting up group2_b11_bn
I0316 09:18:55.809475 108905 net.cpp:129] Top shape: 37 436 8 8 (1032448)
I0316 09:18:55.809490 108905 net.cpp:137] Memory required for data: 2027463100
I0316 09:18:55.809512 108905 layer_factory.hpp:77] Creating layer group2_b11_scale
I0316 09:18:55.809527 108905 net.cpp:84] Creating Layer group2_b11_scale
I0316 09:18:55.809540 108905 net.cpp:406] group2_b11_scale <- group2_b11_bn_top
I0316 09:18:55.809554 108905 net.cpp:367] group2_b11_scale -> group2_b11_bn_top (in-place)
I0316 09:18:55.809628 108905 layer_factory.hpp:77] Creating layer group2_b11_scale
I0316 09:18:55.809828 108905 net.cpp:122] Setting up group2_b11_scale
I0316 09:18:55.809839 108905 net.cpp:129] Top shape: 37 436 8 8 (1032448)
I0316 09:18:55.809852 108905 net.cpp:137] Memory required for data: 2031592892
I0316 09:18:55.809870 108905 layer_factory.hpp:77] Creating layer group2_b11_relu
I0316 09:18:55.809883 108905 net.cpp:84] Creating Layer group2_b11_relu
I0316 09:18:55.809895 108905 net.cpp:406] group2_b11_relu <- group2_b11_bn_top
I0316 09:18:55.809909 108905 net.cpp:367] group2_b11_relu -> group2_b11_bn_top (in-place)
I0316 09:18:55.810880 108905 net.cpp:122] Setting up group2_b11_relu
I0316 09:18:55.810892 108905 net.cpp:129] Top shape: 37 436 8 8 (1032448)
I0316 09:18:55.810907 108905 net.cpp:137] Memory required for data: 2035722684
I0316 09:18:55.810919 108905 layer_factory.hpp:77] Creating layer group2_b11_conv
I0316 09:18:55.810938 108905 net.cpp:84] Creating Layer group2_b11_conv
I0316 09:18:55.810950 108905 net.cpp:406] group2_b11_conv <- group2_b11_bn_top
I0316 09:18:55.810966 108905 net.cpp:380] group2_b11_conv -> group2_b11_conv_top
I0316 09:18:55.814982 108905 net.cpp:122] Setting up group2_b11_conv
I0316 09:18:55.815001 108905 net.cpp:129] Top shape: 37 12 8 8 (28416)
I0316 09:18:55.815017 108905 net.cpp:137] Memory required for data: 2035836348
I0316 09:18:55.815034 108905 layer_factory.hpp:77] Creating layer group2_b11_dropout
I0316 09:18:55.815062 108905 net.cpp:84] Creating Layer group2_b11_dropout
I0316 09:18:55.815076 108905 net.cpp:406] group2_b11_dropout <- group2_b11_conv_top
I0316 09:18:55.815091 108905 net.cpp:380] group2_b11_dropout -> group2_b11_dropout
I0316 09:18:55.815166 108905 net.cpp:122] Setting up group2_b11_dropout
I0316 09:18:55.815176 108905 net.cpp:129] Top shape: 37 12 8 8 (28416)
I0316 09:18:55.815191 108905 net.cpp:137] Memory required for data: 2035950012
I0316 09:18:55.815202 108905 layer_factory.hpp:77] Creating layer group2_b11_concat
I0316 09:18:55.815217 108905 net.cpp:84] Creating Layer group2_b11_concat
I0316 09:18:55.815228 108905 net.cpp:406] group2_b11_concat <- group2_b11_dropout
I0316 09:18:55.815243 108905 net.cpp:406] group2_b11_concat <- group2_b10_concat_group2_b10_concat_0_split_1
I0316 09:18:55.815258 108905 net.cpp:380] group2_b11_concat -> group2_b11_concat
I0316 09:18:55.815310 108905 net.cpp:122] Setting up group2_b11_concat
I0316 09:18:55.815320 108905 net.cpp:129] Top shape: 37 448 8 8 (1060864)
I0316 09:18:55.815335 108905 net.cpp:137] Memory required for data: 2040193468
I0316 09:18:55.815345 108905 layer_factory.hpp:77] Creating layer group2_b12_bn
I0316 09:18:55.815361 108905 net.cpp:84] Creating Layer group2_b12_bn
I0316 09:18:55.815371 108905 net.cpp:406] group2_b12_bn <- group2_b11_concat
I0316 09:18:55.815387 108905 net.cpp:380] group2_b12_bn -> group2_b12_bn_top
I0316 09:18:55.815760 108905 net.cpp:122] Setting up group2_b12_bn
I0316 09:18:55.815771 108905 net.cpp:129] Top shape: 37 448 8 8 (1060864)
I0316 09:18:55.815786 108905 net.cpp:137] Memory required for data: 2044436924
I0316 09:18:55.815807 108905 layer_factory.hpp:77] Creating layer group2_b12_scale
I0316 09:18:55.815824 108905 net.cpp:84] Creating Layer group2_b12_scale
I0316 09:18:55.815836 108905 net.cpp:406] group2_b12_scale <- group2_b12_bn_top
I0316 09:18:55.815850 108905 net.cpp:367] group2_b12_scale -> group2_b12_bn_top (in-place)
I0316 09:18:55.815927 108905 layer_factory.hpp:77] Creating layer group2_b12_scale
I0316 09:18:55.816128 108905 net.cpp:122] Setting up group2_b12_scale
I0316 09:18:55.816139 108905 net.cpp:129] Top shape: 37 448 8 8 (1060864)
I0316 09:18:55.816154 108905 net.cpp:137] Memory required for data: 2048680380
I0316 09:18:55.816171 108905 layer_factory.hpp:77] Creating layer group2_b12_relu
I0316 09:18:55.816186 108905 net.cpp:84] Creating Layer group2_b12_relu
I0316 09:18:55.816197 108905 net.cpp:406] group2_b12_relu <- group2_b12_bn_top
I0316 09:18:55.816210 108905 net.cpp:367] group2_b12_relu -> group2_b12_bn_top (in-place)
I0316 09:18:55.816747 108905 net.cpp:122] Setting up group2_b12_relu
I0316 09:18:55.816757 108905 net.cpp:129] Top shape: 37 448 8 8 (1060864)
I0316 09:18:55.816772 108905 net.cpp:137] Memory required for data: 2052923836
I0316 09:18:55.816783 108905 layer_factory.hpp:77] Creating layer group2_b12_pool
I0316 09:18:55.816799 108905 net.cpp:84] Creating Layer group2_b12_pool
I0316 09:18:55.816810 108905 net.cpp:406] group2_b12_pool <- group2_b12_bn_top
I0316 09:18:55.816824 108905 net.cpp:380] group2_b12_pool -> group2_b12_pool
I0316 09:18:55.817384 108905 net.cpp:122] Setting up group2_b12_pool
I0316 09:18:55.817395 108905 net.cpp:129] Top shape: 37 448 1 1 (16576)
I0316 09:18:55.817410 108905 net.cpp:137] Memory required for data: 2052990140
I0316 09:18:55.817421 108905 layer_factory.hpp:77] Creating layer post_FC
I0316 09:18:55.817438 108905 net.cpp:84] Creating Layer post_FC
I0316 09:18:55.817451 108905 net.cpp:406] post_FC <- group2_b12_pool
I0316 09:18:55.817467 108905 net.cpp:380] post_FC -> post_FC_top
I0316 09:18:55.817703 108905 net.cpp:122] Setting up post_FC
I0316 09:18:55.817718 108905 net.cpp:129] Top shape: 37 10 (370)
I0316 09:18:55.817734 108905 net.cpp:137] Memory required for data: 2052991620
I0316 09:18:55.817751 108905 layer_factory.hpp:77] Creating layer post_FC_top_post_FC_0_split
I0316 09:18:55.817764 108905 net.cpp:84] Creating Layer post_FC_top_post_FC_0_split
I0316 09:18:55.817776 108905 net.cpp:406] post_FC_top_post_FC_0_split <- post_FC_top
I0316 09:18:55.817790 108905 net.cpp:380] post_FC_top_post_FC_0_split -> post_FC_top_post_FC_0_split_0
I0316 09:18:55.817808 108905 net.cpp:380] post_FC_top_post_FC_0_split -> post_FC_top_post_FC_0_split_1
I0316 09:18:55.817878 108905 net.cpp:122] Setting up post_FC_top_post_FC_0_split
I0316 09:18:55.817889 108905 net.cpp:129] Top shape: 37 10 (370)
I0316 09:18:55.817904 108905 net.cpp:129] Top shape: 37 10 (370)
I0316 09:18:55.817917 108905 net.cpp:137] Memory required for data: 2052994580
I0316 09:18:55.817927 108905 layer_factory.hpp:77] Creating layer accuracy
I0316 09:18:55.817941 108905 net.cpp:84] Creating Layer accuracy
I0316 09:18:55.817952 108905 net.cpp:406] accuracy <- post_FC_top_post_FC_0_split_0
I0316 09:18:55.817965 108905 net.cpp:406] accuracy <- label_dataLayer_1_split_0
I0316 09:18:55.817981 108905 net.cpp:380] accuracy -> accuracy
…
