…
I0320 13:58:08.686390 137617 net.cpp:294] The NetState phase (0) differed from the phase (1) specified by a rule in layer dataLayer
I0320 13:58:08.686630 137617 net.cpp:51] Initializing net from parameters: 
name: "Cifar-Densenet"
state {
  phase: TRAIN
  level: 0
  stage: ""
}
layer {
  name: "dataLayer"
  type: "Data"
  top: "data_top"
  top: "label"
  include {
    phase: TRAIN
  }
  transform_param {
    mirror: true
    crop_size: 32
    mean_file: "examples/cifar10/mean.binaryproto"
  }
  data_param {
    source: "examples/cifar10/cifar10_train_lmdb"
    batch_size: 131
    backend: LMDB
  }
  image_data_param {
    shuffle: true
  }
}
layer {
  name: "pre_conv"
  type: "Convolution"
  bottom: "data_top"
  top: "pre_conv_top"
  convolution_param {
    num_output: 16
    bias_term: false
    pad: 1
    kernel_size: 3
    stride: 1
    weight_filler {
      type: "xavier"
    }
    bias_filler {
      type: "constant"
    }
  }
}
layer {
  name: "group0_b0_bn"
  type: "BatchNorm"
  bottom: "pre_conv_top"
  top: "group0_b0_bn_top"
  param {
    lr_mult: 0
    decay_mult: 0
  }
  param {
    lr_mult: 0
    decay_mult: 0
  }
  param {
    lr_mult: 0
    decay_mult: 0
  }
  batch_norm_param {
    moving_average_fraction: 0.999
  }
}
layer {
  name: "group0_b0_scale"
  type: "Scale"
  bottom: "group0_b0_bn_top"
  top: "group0_b0_bn_top"
  scale_param {
    filler {
      value: 1
    }
    bias_term: true
    bias_filler {
      value: 0
    }
  }
}
layer {
  name: "group0_b0_relu"
  type: "ReLU"
  bottom: "group0_b0_bn_top"
  top: "group0_b0_bn_top"
}
layer {
  name: "group0_b0_conv"
  type: "Convolution"
  bottom: "group0_b0_bn_top"
  top: "group0_b0_conv_top"
  convolution_param {
    num_output: 12
    bias_term: false
    pad: 1
    kernel_size: 3
    stride: 1
    weight_filler {
      type: "xavier"
    }
    bias_filler {
      type: "constant"
    }
  }
}
layer {
  name: "group0_b0_dropout"
  type: "Dropout"
  bottom: "group0_b0_conv_top"
  top: "group0_b0_dropout"
  dropout_param {
    dropout_ratio: 0.2
  }
}
layer {
  name: "group0_b0_concat"
  type: "Concat"
  bottom: "group0_b0_dropout"
  bottom: "pre_conv_top"
  top: "group0_b0_concat"
  concat_param {
    axis: 1
  }
}
layer {
  name: "group0_b1_bn"
  type: "BatchNorm"
  bottom: "group0_b0_concat"
  top: "group0_b1_bn_top"
  param {
    lr_mult: 0
    decay_mult: 0
  }
  param {
    lr_mult: 0
    decay_mult: 0
  }
  param {
    lr_mult: 0
    decay_mult: 0
  }
  batch_norm_param {
    moving_average_fraction: 0.999
  }
}
layer {
  name: "group0_b1_scale"
  type: "Scale"
  bottom: "group0_b1_bn_top"
  top: "group0_b1_bn_top"
  scale_param {
    filler {
      value: 1
    }
    bias_term: true
    bias_filler {
      value: 0
    }
  }
}
layer {
  name: "group0_b1_relu"
  type: "ReLU"
  bottom: "group0_b1_bn_top"
  top: "group0_b1_bn_top"
}
layer {
  name: "group0_b1_conv"
  type: "Convolution"
  bottom: "group0_b1_bn_top"
  top: "group0_b1_conv_top"
  convolution_param {
    num_output: 12
    bias_term: false
    pad: 1
    kernel_size: 3
    stride: 1
    weight_filler {
      type: "xavier"
    }
    bias_filler {
      type: "constant"
    }
  }
}
layer {
  name: "group0_b1_dropout"
  type: "Dropout"
  bottom: "group0_b1_conv_top"
  top: "group0_b1_dropout"
  dropout_param {
    dropout_ratio: 0.2
  }
}
layer {
  name: "group0_b1_concat"
  type: "Concat"
  bottom: "group0_b1_dropout"
  bottom: "group0_b0_concat"
  top: "group0_b1_concat"
  concat_param {
    axis: 1
  }
}
layer {
  name: "group0_b2_bn"
  type: "BatchNorm"
  bottom: "group0_b1_concat"
  top: "group0_b2_bn_top"
  param {
    lr_mult: 0
    decay_mult: 0
  }
  param {
    lr_mult: 0
    decay_mult: 0
  }
  param {
    lr_mult: 0
    decay_mult: 0
  }
  batch_norm_param {
    moving_average_fraction: 0.999
  }
}
layer {
  name: "group0_b2_scale"
  type: "Scale"
  bottom: "group0_b2_bn_top"
  top: "group0_b2_bn_top"
  scale_param {
    filler {
      value: 1
    }
    bias_term: true
    bias_filler {
      value: 0
    }
  }
}
layer {
  name: "group0_b2_relu"
  type: "ReLU"
  bottom: "group0_b2_bn_top"
  top: "group0_b2_bn_top"
}
layer {
  name: "group0_b2_conv"
  type: "Convolution"
  bottom: "group0_b2_bn_top"
  top: "group0_b2_conv_top"
  convolution_param {
    num_output: 12
    bias_term: false
    pad: 1
    kernel_size: 3
    stride: 1
    weight_filler {
      type: "xavier"
    }
    bias_filler {
      type: "constant"
    }
  }
}
layer {
  name: "group0_b2_dropout"
  type: "Dropout"
  bottom: "group0_b2_conv_top"
  top: "group0_b2_dropout"
  dropout_param {
    dropout_ratio: 0.2
  }
}
layer {
  name: "group0_b2_concat"
  type: "Concat"
  bottom: "group0_b2_dropout"
  bottom: "group0_b1_concat"
  top: "group0_b2_concat"
  concat_param {
    axis: 1
  }
}
layer {
  name: "group0_b3_bn"
  type: "BatchNorm"
  bottom: "group0_b2_concat"
  top: "group0_b3_bn_top"
  param {
    lr_mult: 0
    decay_mult: 0
  }
  param {
    lr_mult: 0
    decay_mult: 0
  }
  param {
    lr_mult: 0
    decay_mult: 0
  }
  batch_norm_param {
    moving_average_fraction: 0.999
  }
}
layer {
  name: "group0_b3_scale"
  type: "Scale"
  bottom: "group0_b3_bn_top"
  top: "group0_b3_bn_top"
  scale_param {
    filler {
      value: 1
    }
    bias_term: true
    bias_filler {
      value: 0
    }
  }
}
layer {
  name: "group0_b3_relu"
  type: "ReLU"
  bottom: "group0_b3_bn_top"
  top: "group0_b3_bn_top"
}
layer {
  name: "group0_b3_conv"
  type: "Convolution"
  bottom: "group0_b3_bn_top"
  top: "group0_b3_conv_top"
  convolution_param {
    num_output: 12
    bias_term: false
    pad: 1
    kernel_size: 3
    stride: 1
    weight_filler {
      type: "xavier"
    }
    bias_filler {
      type: "constant"
    }
  }
}
layer {
  name: "group0_b3_dropout"
  type: "Dropout"
  bottom: "group0_b3_conv_top"
  top: "group0_b3_dropout"
  dropout_param {
    dropout_ratio: 0.2
  }
}
layer {
  name: "group0_b3_concat"
  type: "Concat"
  bottom: "group0_b3_dropout"
  bottom: "group0_b2_concat"
  top: "group0_b3_concat"
  concat_param {
    axis: 1
  }
}
layer {
  name: "group0_b4_bn"
  type: "BatchNorm"
  bottom: "group0_b3_concat"
  top: "group0_b4_bn_top"
  param {
    lr_mult: 0
    decay_mult: 0
  }
  param {
    lr_mult: 0
    decay_mult: 0
  }
  param {
    lr_mult: 0
    decay_mult: 0
  }
  batch_norm_param {
    moving_average_fraction: 0.999
  }
}
layer {
  name: "group0_b4_scale"
  type: "Scale"
  bottom: "group0_b4_bn_top"
  top: "group0_b4_bn_top"
  scale_param {
    filler {
      value: 1
    }
    bias_term: true
    bias_filler {
      value: 0
    }
  }
}
layer {
  name: "group0_b4_relu"
  type: "ReLU"
  bottom: "group0_b4_bn_top"
  top: "group0_b4_bn_top"
}
layer {
  name: "group0_b4_conv"
  type: "Convolution"
  bottom: "group0_b4_bn_top"
  top: "group0_b4_conv_top"
  convolution_param {
    num_output: 12
    bias_term: false
    pad: 1
    kernel_size: 3
    stride: 1
    weight_filler {
      type: "xavier"
    }
    bias_filler {
      type: "constant"
    }
  }
}
layer {
  name: "group0_b4_dropout"
  type: "Dropout"
  bottom: "group0_b4_conv_top"
  top: "group0_b4_dropout"
  dropout_param {
    dropout_ratio: 0.2
  }
}
layer {
  name: "group0_b4_concat"
  type: "Concat"
  bottom: "group0_b4_dropout"
  bottom: "group0_b3_concat"
  top: "group0_b4_concat"
  concat_param {
    axis: 1
  }
}
layer {
  name: "group0_b5_bn"
  type: "BatchNorm"
  bottom: "group0_b4_concat"
  top: "group0_b5_bn_top"
  param {
    lr_mult: 0
    decay_mult: 0
  }
  param {
    lr_mult: 0
    decay_mult: 0
  }
  param {
    lr_mult: 0
    decay_mult: 0
  }
  batch_norm_param {
    moving_average_fraction: 0.999
  }
}
layer {
  name: "group0_b5_scale"
  type: "Scale"
  bottom: "group0_b5_bn_top"
  top: "group0_b5_bn_top"
  scale_param {
    filler {
      value: 1
    }
    bias_term: true
    bias_filler {
      value: 0
    }
  }
}
layer {
  name: "group0_b5_relu"
  type: "ReLU"
  bottom: "group0_b5_bn_top"
  top: "group0_b5_bn_top"
}
layer {
  name: "group0_b5_conv"
  type: "Convolution"
  bottom: "group0_b5_bn_top"
  top: "group0_b5_conv_top"
  convolution_param {
    num_output: 12
    bias_term: false
    pad: 1
    kernel_size: 3
    stride: 1
    weight_filler {
      type: "xavier"
    }
    bias_filler {
      type: "constant"
    }
  }
}
layer {
  name: "group0_b5_dropout"
  type: "Dropout"
  bottom: "group0_b5_conv_top"
  top: "group0_b5_dropout"
  dropout_param {
    dropout_ratio: 0.2
  }
}
layer {
  name: "group0_b5_concat"
  type: "Concat"
  bottom: "group0_b5_dropout"
  bottom: "group0_b4_concat"
  top: "group0_b5_concat"
  concat_param {
    axis: 1
  }
}
layer {
  name: "group0_b6_bn"
  type: "BatchNorm"
  bottom: "group0_b5_concat"
  top: "group0_b6_bn_top"
  param {
    lr_mult: 0
    decay_mult: 0
  }
  param {
    lr_mult: 0
    decay_mult: 0
  }
  param {
    lr_mult: 0
    decay_mult: 0
  }
  batch_norm_param {
    moving_average_fraction: 0.999
  }
}
layer {
  name: "group0_b6_scale"
  type: "Scale"
  bottom: "group0_b6_bn_top"
  top: "group0_b6_bn_top"
  scale_param {
    filler {
      value: 1
    }
    bias_term: true
    bias_filler {
      value: 0
    }
  }
}
layer {
  name: "group0_b6_relu"
  type: "ReLU"
  bottom: "group0_b6_bn_top"
  top: "group0_b6_bn_top"
}
layer {
  name: "group0_b6_conv"
  type: "Convolution"
  bottom: "group0_b6_bn_top"
  top: "group0_b6_conv_top"
  convolution_param {
    num_output: 12
    bias_term: false
    pad: 1
    kernel_size: 3
    stride: 1
    weight_filler {
      type: "xavier"
    }
    bias_filler {
      type: "constant"
    }
  }
}
layer {
  name: "group0_b6_dropout"
  type: "Dropout"
  bottom: "group0_b6_conv_top"
  top: "group0_b6_dropout"
  dropout_param {
    dropout_ratio: 0.2
  }
}
layer {
  name: "group0_b6_concat"
  type: "Concat"
  bottom: "group0_b6_dropout"
  bottom: "group0_b5_concat"
  top: "group0_b6_concat"
  concat_param {
    axis: 1
  }
}
layer {
  name: "group0_b7_bn"
  type: "BatchNorm"
  bottom: "group0_b6_concat"
  top: "group0_b7_bn_top"
  param {
    lr_mult: 0
    decay_mult: 0
  }
  param {
    lr_mult: 0
    decay_mult: 0
  }
  param {
    lr_mult: 0
    decay_mult: 0
  }
  batch_norm_param {
    moving_average_fraction: 0.999
  }
}
layer {
  name: "group0_b7_scale"
  type: "Scale"
  bottom: "group0_b7_bn_top"
  top: "group0_b7_bn_top"
  scale_param {
    filler {
      value: 1
    }
    bias_term: true
    bias_filler {
      value: 0
    }
  }
}
layer {
  name: "group0_b7_relu"
  type: "ReLU"
  bottom: "group0_b7_bn_top"
  top: "group0_b7_bn_top"
}
layer {
  name: "group0_b7_conv"
  type: "Convolution"
  bottom: "group0_b7_bn_top"
  top: "group0_b7_conv_top"
  convolution_param {
    num_output: 12
    bias_term: false
    pad: 1
    kernel_size: 3
    stride: 1
    weight_filler {
      type: "xavier"
    }
    bias_filler {
      type: "constant"
    }
  }
}
layer {
  name: "group0_b7_dropout"
  type: "Dropout"
  bottom: "group0_b7_conv_top"
  top: "group0_b7_dropout"
  dropout_param {
    dropout_ratio: 0.2
  }
}
layer {
  name: "group0_b7_concat"
  type: "Concat"
  bottom: "group0_b7_dropout"
  bottom: "group0_b6_concat"
  top: "group0_b7_concat"
  concat_param {
    axis: 1
  }
}
layer {
  name: "group0_b8_bn"
  type: "BatchNorm"
  bottom: "group0_b7_concat"
  top: "group0_b8_bn_top"
  param {
    lr_mult: 0
    decay_mult: 0
  }
  param {
    lr_mult: 0
    decay_mult: 0
  }
  param {
    lr_mult: 0
    decay_mult: 0
  }
  batch_norm_param {
    moving_average_fraction: 0.999
  }
}
layer {
  name: "group0_b8_scale"
  type: "Scale"
  bottom: "group0_b8_bn_top"
  top: "group0_b8_bn_top"
  scale_param {
    filler {
      value: 1
    }
    bias_term: true
    bias_filler {
      value: 0
    }
  }
}
layer {
  name: "group0_b8_relu"
  type: "ReLU"
  bottom: "group0_b8_bn_top"
  top: "group0_b8_bn_top"
}
layer {
  name: "group0_b8_conv"
  type: "Convolution"
  bottom: "group0_b8_bn_top"
  top: "group0_b8_conv_top"
  convolution_param {
    num_output: 12
    bias_term: false
    pad: 1
    kernel_size: 3
    stride: 1
    weight_filler {
      type: "xavier"
    }
    bias_filler {
      type: "constant"
    }
  }
}
layer {
  name: "group0_b8_dropout"
  type: "Dropout"
  bottom: "group0_b8_conv_top"
  top: "group0_b8_dropout"
  dropout_param {
    dropout_ratio: 0.2
  }
}
layer {
  name: "group0_b8_concat"
  type: "Concat"
  bottom: "group0_b8_dropout"
  bottom: "group0_b7_concat"
  top: "group0_b8_concat"
  concat_param {
    axis: 1
  }
}
layer {
  name: "group0_b9_bn"
  type: "BatchNorm"
  bottom: "group0_b8_concat"
  top: "group0_b9_bn_top"
  param {
    lr_mult: 0
    decay_mult: 0
  }
  param {
    lr_mult: 0
    decay_mult: 0
  }
  param {
    lr_mult: 0
    decay_mult: 0
  }
  batch_norm_param {
    moving_average_fraction: 0.999
  }
}
layer {
  name: "group0_b9_scale"
  type: "Scale"
  bottom: "group0_b9_bn_top"
  top: "group0_b9_bn_top"
  scale_param {
    filler {
      value: 1
    }
    bias_term: true
    bias_filler {
      value: 0
    }
  }
}
layer {
  name: "group0_b9_relu"
  type: "ReLU"
  bottom: "group0_b9_bn_top"
  top: "group0_b9_bn_top"
}
layer {
  name: "group0_b9_conv"
  type: "Convolution"
  bottom: "group0_b9_bn_top"
  top: "group0_b9_conv_top"
  convolution_param {
    num_output: 12
    bias_term: false
    pad: 1
    kernel_size: 3
    stride: 1
    weight_filler {
      type: "xavier"
    }
    bias_filler {
      type: "constant"
    }
  }
}
layer {
  name: "group0_b9_dropout"
  type: "Dropout"
  bottom: "group0_b9_conv_top"
  top: "group0_b9_dropout"
  dropout_param {
    dropout_ratio: 0.2
  }
}
layer {
  name: "group0_b9_concat"
  type: "Concat"
  bottom: "group0_b9_dropout"
  bottom: "group0_b8_concat"
  top: "group0_b9_concat"
  concat_param {
    axis: 1
  }
}
layer {
  name: "group0_b10_bn"
  type: "BatchNorm"
  bottom: "group0_b9_concat"
  top: "group0_b10_bn_top"
  param {
    lr_mult: 0
    decay_mult: 0
  }
  param {
    lr_mult: 0
    decay_mult: 0
  }
  param {
    lr_mult: 0
    decay_mult: 0
  }
  batch_norm_param {
    moving_average_fraction: 0.999
  }
}
layer {
  name: "group0_b10_scale"
  type: "Scale"
  bottom: "group0_b10_bn_top"
  top: "group0_b10_bn_top"
  scale_param {
    filler {
      value: 1
    }
    bias_term: true
    bias_filler {
      value: 0
    }
  }
}
layer {
  name: "group0_b10_relu"
  type: "ReLU"
  bottom: "group0_b10_bn_top"
  top: "group0_b10_bn_top"
}
layer {
  name: "group0_b10_conv"
  type: "Convolution"
  bottom: "group0_b10_bn_top"
  top: "group0_b10_conv_top"
  convolution_param {
    num_output: 12
    bias_term: false
    pad: 1
    kernel_size: 3
    stride: 1
    weight_filler {
      type: "xavier"
    }
    bias_filler {
      type: "constant"
    }
  }
}
layer {
  name: "group0_b10_dropout"
  type: "Dropout"
  bottom: "group0_b10_conv_top"
  top: "group0_b10_dropout"
  dropout_param {
    dropout_ratio: 0.2
  }
}
layer {
  name: "group0_b10_concat"
  type: "Concat"
  bottom: "group0_b10_dropout"
  bottom: "group0_b9_concat"
  top: "group0_b10_concat"
  concat_param {
    axis: 1
  }
}
layer {
  name: "group0_b11_bn"
  type: "BatchNorm"
  bottom: "group0_b10_concat"
  top: "group0_b11_bn_top"
  param {
    lr_mult: 0
    decay_mult: 0
  }
  param {
    lr_mult: 0
    decay_mult: 0
  }
  param {
    lr_mult: 0
    decay_mult: 0
  }
  batch_norm_param {
    moving_average_fraction: 0.999
  }
}
layer {
  name: "group0_b11_scale"
  type: "Scale"
  bottom: "group0_b11_bn_top"
  top: "group0_b11_bn_top"
  scale_param {
    filler {
      value: 1
    }
    bias_term: true
    bias_filler {
      value: 0
    }
  }
}
layer {
  name: "group0_b11_relu"
  type: "ReLU"
  bottom: "group0_b11_bn_top"
  top: "group0_b11_bn_top"
}
layer {
  name: "group0_b11_conv"
  type: "Convolution"
  bottom: "group0_b11_bn_top"
  top: "group0_b11_conv_top"
  convolution_param {
    num_output: 12
    bias_term: false
    pad: 1
    kernel_size: 3
    stride: 1
    weight_filler {
      type: "xavier"
    }
    bias_filler {
      type: "constant"
    }
  }
}
layer {
  name: "group0_b11_dropout"
  type: "Dropout"
  bottom: "group0_b11_conv_top"
  top: "group0_b11_dropout"
  dropout_param {
    dropout_ratio: 0.2
  }
}
layer {
  name: "group0_b11_concat"
  type: "Concat"
  bottom: "group0_b11_dropout"
  bottom: "group0_b10_concat"
  top: "group0_b11_concat"
  concat_param {
    axis: 1
  }
}
layer {
  name: "group0_b12_bn"
  type: "BatchNorm"
  bottom: "group0_b11_concat"
  top: "group0_b12_bn_top"
  param {
    lr_mult: 0
    decay_mult: 0
  }
  param {
    lr_mult: 0
    decay_mult: 0
  }
  param {
    lr_mult: 0
    decay_mult: 0
  }
  batch_norm_param {
    moving_average_fraction: 0.999
  }
}
layer {
  name: "group0_b12_scale"
  type: "Scale"
  bottom: "group0_b12_bn_top"
  top: "group0_b12_bn_top"
  scale_param {
    filler {
      value: 1
    }
    bias_term: true
    bias_filler {
      value: 0
    }
  }
}
layer {
  name: "group0_b12_relu"
  type: "ReLU"
  bottom: "group0_b12_bn_top"
  top: "group0_b12_bn_top"
}
layer {
  name: "group0_b12_conv"
  type: "Convolution"
  bottom: "group0_b12_bn_top"
  top: "group0_b12_conv_top"
  convolution_param {
    num_output: 160
    bias_term: false
    pad: 0
    kernel_size: 1
    stride: 1
    weight_filler {
      type: "xavier"
    }
    bias_filler {
      type: "constant"
    }
  }
}
layer {
  name: "group0_b12_dropout"
  type: "Dropout"
  bottom: "group0_b12_conv_top"
  top: "group0_b12_dropout"
  dropout_param {
    dropout_ratio: 0.2
  }
}
layer {
  name: "group0_b12_pool"
  type: "Pooling"
  bottom: "group0_b12_dropout"
  top: "group0_b12_pool"
  pooling_param {
    pool: AVE
    kernel_size: 2
    stride: 2
  }
}
layer {
  name: "group1_b0_bn"
  type: "BatchNorm"
  bottom: "group0_b12_pool"
  top: "group1_b0_bn_top"
  param {
    lr_mult: 0
    decay_mult: 0
  }
  param {
    lr_mult: 0
    decay_mult: 0
  }
  param {
    lr_mult: 0
    decay_mult: 0
  }
  batch_norm_param {
    moving_average_fraction: 0.999
  }
}
layer {
  name: "group1_b0_scale"
  type: "Scale"
  bottom: "group1_b0_bn_top"
  top: "group1_b0_bn_top"
  scale_param {
    filler {
      value: 1
    }
    bias_term: true
    bias_filler {
      value: 0
    }
  }
}
layer {
  name: "group1_b0_relu"
  type: "ReLU"
  bottom: "group1_b0_bn_top"
  top: "group1_b0_bn_top"
}
layer {
  name: "group1_b0_conv"
  type: "Convolution"
  bottom: "group1_b0_bn_top"
  top: "group1_b0_conv_top"
  convolution_param {
    num_output: 12
    bias_term: false
    pad: 1
    kernel_size: 3
    stride: 1
    weight_filler {
      type: "xavier"
    }
    bias_filler {
      type: "constant"
    }
  }
}
layer {
  name: "group1_b0_dropout"
  type: "Dropout"
  bottom: "group1_b0_conv_top"
  top: "group1_b0_dropout"
  dropout_param {
    dropout_ratio: 0.2
  }
}
layer {
  name: "group1_b0_concat"
  type: "Concat"
  bottom: "group1_b0_dropout"
  bottom: "group0_b12_pool"
  top: "group1_b0_concat"
  concat_param {
    axis: 1
  }
}
layer {
  name: "group1_b1_bn"
  type: "BatchNorm"
  bottom: "group1_b0_concat"
  top: "group1_b1_bn_top"
  param {
    lr_mult: 0
    decay_mult: 0
  }
  param {
    lr_mult: 0
    decay_mult: 0
  }
  param {
    lr_mult: 0
    decay_mult: 0
  }
  batch_norm_param {
    moving_average_fraction: 0.999
  }
}
layer {
  name: "group1_b1_scale"
  type: "Scale"
  bottom: "group1_b1_bn_top"
  top: "group1_b1_bn_top"
  scale_param {
    filler {
      value: 1
    }
    bias_term: true
    bias_filler {
      value: 0
    }
  }
}
layer {
  name: "group1_b1_relu"
  type: "ReLU"
  bottom: "group1_b1_bn_top"
  top: "group1_b1_bn_top"
}
layer {
  name: "group1_b1_conv"
  type: "Convolution"
  bottom: "group1_b1_bn_top"
  top: "group1_b1_conv_top"
  convolution_param {
    num_output: 12
    bias_term: false
    pad: 1
    kernel_size: 3
    stride: 1
    weight_filler {
      type: "xavier"
    }
    bias_filler {
      type: "constant"
    }
  }
}
layer {
  name: "group1_b1_dropout"
  type: "Dropout"
  bottom: "group1_b1_conv_top"
  top: "group1_b1_dropout"
  dropout_param {
    dropout_ratio: 0.2
  }
}
layer {
  name: "group1_b1_concat"
  type: "Concat"
  bottom: "group1_b1_dropout"
  bottom: "group1_b0_concat"
  top: "group1_b1_concat"
  concat_param {
    axis: 1
  }
}
layer {
  name: "group1_b2_bn"
  type: "BatchNorm"
  bottom: "group1_b1_concat"
  top: "group1_b2_bn_top"
  param {
    lr_mult: 0
    decay_mult: 0
  }
  param {
    lr_mult: 0
    decay_mult: 0
  }
  param {
    lr_mult: 0
    decay_mult: 0
  }
  batch_norm_param {
    moving_average_fraction: 0.999
  }
}
layer {
  name: "group1_b2_scale"
  type: "Scale"
  bottom: "group1_b2_bn_top"
  top: "group1_b2_bn_top"
  scale_param {
    filler {
      value: 1
    }
    bias_term: true
    bias_filler {
      value: 0
    }
  }
}
layer {
  name: "group1_b2_relu"
  type: "ReLU"
  bottom: "group1_b2_bn_top"
  top: "group1_b2_bn_top"
}
layer {
  name: "group1_b2_conv"
  type: "Convolution"
  bottom: "group1_b2_bn_top"
  top: "group1_b2_conv_top"
  convolution_param {
    num_output: 12
    bias_term: false
    pad: 1
    kernel_size: 3
    stride: 1
    weight_filler {
      type: "xavier"
    }
    bias_filler {
      type: "constant"
    }
  }
}
layer {
  name: "group1_b2_dropout"
  type: "Dropout"
  bottom: "group1_b2_conv_top"
  top: "group1_b2_dropout"
  dropout_param {
    dropout_ratio: 0.2
  }
}
layer {
  name: "group1_b2_concat"
  type: "Concat"
  bottom: "group1_b2_dropout"
  bottom: "group1_b1_concat"
  top: "group1_b2_concat"
  concat_param {
    axis: 1
  }
}
layer {
  name: "group1_b3_bn"
  type: "BatchNorm"
  bottom: "group1_b2_concat"
  top: "group1_b3_bn_top"
  param {
    lr_mult: 0
    decay_mult: 0
  }
  param {
    lr_mult: 0
    decay_mult: 0
  }
  param {
    lr_mult: 0
    decay_mult: 0
  }
  batch_norm_param {
    moving_average_fraction: 0.999
  }
}
layer {
  name: "group1_b3_scale"
  type: "Scale"
  bottom: "group1_b3_bn_top"
  top: "group1_b3_bn_top"
  scale_param {
    filler {
      value: 1
    }
    bias_term: true
    bias_filler {
      value: 0
    }
  }
}
layer {
  name: "group1_b3_relu"
  type: "ReLU"
  bottom: "group1_b3_bn_top"
  top: "group1_b3_bn_top"
}
layer {
  name: "group1_b3_conv"
  type: "Convolution"
  bottom: "group1_b3_bn_top"
  top: "group1_b3_conv_top"
  convolution_param {
    num_output: 12
    bias_term: false
    pad: 1
    kernel_size: 3
    stride: 1
    weight_filler {
      type: "xavier"
    }
    bias_filler {
      type: "constant"
    }
  }
}
layer {
  name: "group1_b3_dropout"
  type: "Dropout"
  bottom: "group1_b3_conv_top"
  top: "group1_b3_dropout"
  dropout_param {
    dropout_ratio: 0.2
  }
}
layer {
  name: "group1_b3_concat"
  type: "Concat"
  bottom: "group1_b3_dropout"
  bottom: "group1_b2_concat"
  top: "group1_b3_concat"
  concat_param {
    axis: 1
  }
}
layer {
  name: "group1_b4_bn"
  type: "BatchNorm"
  bottom: "group1_b3_concat"
  top: "group1_b4_bn_top"
  param {
    lr_mult: 0
    decay_mult: 0
  }
  param {
    lr_mult: 0
    decay_mult: 0
  }
  param {
    lr_mult: 0
    decay_mult: 0
  }
  batch_norm_param {
    moving_average_fraction: 0.999
  }
}
layer {
  name: "group1_b4_scale"
  type: "Scale"
  bottom: "group1_b4_bn_top"
  top: "group1_b4_bn_top"
  scale_param {
    filler {
      value: 1
    }
    bias_term: true
    bias_filler {
      value: 0
    }
  }
}
layer {
  name: "group1_b4_relu"
  type: "ReLU"
  bottom: "group1_b4_bn_top"
  top: "group1_b4_bn_top"
}
layer {
  name: "group1_b4_conv"
  type: "Convolution"
  bottom: "group1_b4_bn_top"
  top: "group1_b4_conv_top"
  convolution_param {
    num_output: 12
    bias_term: false
    pad: 1
    kernel_size: 3
    stride: 1
    weight_filler {
      type: "xavier"
    }
    bias_filler {
      type: "constant"
    }
  }
}
layer {
  name: "group1_b4_dropout"
  type: "Dropout"
  bottom: "group1_b4_conv_top"
  top: "group1_b4_dropout"
  dropout_param {
    dropout_ratio: 0.2
  }
}
layer {
  name: "group1_b4_concat"
  type: "Concat"
  bottom: "group1_b4_dropout"
  bottom: "group1_b3_concat"
  top: "group1_b4_concat"
  concat_param {
    axis: 1
  }
}
layer {
  name: "group1_b5_bn"
  type: "BatchNorm"
  bottom: "group1_b4_concat"
  top: "group1_b5_bn_top"
  param {
    lr_mult: 0
    decay_mult: 0
  }
  param {
    lr_mult: 0
    decay_mult: 0
  }
  param {
    lr_mult: 0
    decay_mult: 0
  }
  batch_norm_param {
    moving_average_fraction: 0.999
  }
}
layer {
  name: "group1_b5_scale"
  type: "Scale"
  bottom: "group1_b5_bn_top"
  top: "group1_b5_bn_top"
  scale_param {
    filler {
      value: 1
    }
    bias_term: true
    bias_filler {
      value: 0
    }
  }
}
layer {
  name: "group1_b5_relu"
  type: "ReLU"
  bottom: "group1_b5_bn_top"
  top: "group1_b5_bn_top"
}
layer {
  name: "group1_b5_conv"
  type: "Convolution"
  bottom: "group1_b5_bn_top"
  top: "group1_b5_conv_top"
  convolution_param {
    num_output: 12
    bias_term: false
    pad: 1
    kernel_size: 3
    stride: 1
    weight_filler {
      type: "xavier"
    }
    bias_filler {
      type: "constant"
    }
  }
}
layer {
  name: "group1_b5_dropout"
  type: "Dropout"
  bottom: "group1_b5_conv_top"
  top: "group1_b5_dropout"
  dropout_param {
    dropout_ratio: 0.2
  }
}
layer {
  name: "group1_b5_concat"
  type: "Concat"
  bottom: "group1_b5_dropout"
  bottom: "group1_b4_concat"
  top: "group1_b5_concat"
  concat_param {
    axis: 1
  }
}
layer {
  name: "group1_b6_bn"
  type: "BatchNorm"
  bottom: "group1_b5_concat"
  top: "group1_b6_bn_top"
  param {
    lr_mult: 0
    decay_mult: 0
  }
  param {
    lr_mult: 0
    decay_mult: 0
  }
  param {
    lr_mult: 0
    decay_mult: 0
  }
  batch_norm_param {
    moving_average_fraction: 0.999
  }
}
layer {
  name: "group1_b6_scale"
  type: "Scale"
  bottom: "group1_b6_bn_top"
  top: "group1_b6_bn_top"
  scale_param {
    filler {
      value: 1
    }
    bias_term: true
    bias_filler {
      value: 0
    }
  }
}
layer {
  name: "group1_b6_relu"
  type: "ReLU"
  bottom: "group1_b6_bn_top"
  top: "group1_b6_bn_top"
}
layer {
  name: "group1_b6_conv"
  type: "Convolution"
  bottom: "group1_b6_bn_top"
  top: "group1_b6_conv_top"
  convolution_param {
    num_output: 12
    bias_term: false
    pad: 1
    kernel_size: 3
    stride: 1
    weight_filler {
      type: "xavier"
    }
    bias_filler {
      type: "constant"
    }
  }
}
layer {
  name: "group1_b6_dropout"
  type: "Dropout"
  bottom: "group1_b6_conv_top"
  top: "group1_b6_dropout"
  dropout_param {
    dropout_ratio: 0.2
  }
}
layer {
  name: "group1_b6_concat"
  type: "Concat"
  bottom: "group1_b6_dropout"
  bottom: "group1_b5_concat"
  top: "group1_b6_concat"
  concat_param {
    axis: 1
  }
}
layer {
  name: "group1_b7_bn"
  type: "BatchNorm"
  bottom: "group1_b6_concat"
  top: "group1_b7_bn_top"
  param {
    lr_mult: 0
    decay_mult: 0
  }
  param {
    lr_mult: 0
    decay_mult: 0
  }
  param {
    lr_mult: 0
    decay_mult: 0
  }
  batch_norm_param {
    moving_average_fraction: 0.999
  }
}
layer {
  name: "group1_b7_scale"
  type: "Scale"
  bottom: "group1_b7_bn_top"
  top: "group1_b7_bn_top"
  scale_param {
    filler {
      value: 1
    }
    bias_term: true
    bias_filler {
      value: 0
    }
  }
}
layer {
  name: "group1_b7_relu"
  type: "ReLU"
  bottom: "group1_b7_bn_top"
  top: "group1_b7_bn_top"
}
layer {
  name: "group1_b7_conv"
  type: "Convolution"
  bottom: "group1_b7_bn_top"
  top: "group1_b7_conv_top"
  convolution_param {
    num_output: 12
    bias_term: false
    pad: 1
    kernel_size: 3
    stride: 1
    weight_filler {
      type: "xavier"
    }
    bias_filler {
      type: "constant"
    }
  }
}
layer {
  name: "group1_b7_dropout"
  type: "Dropout"
  bottom: "group1_b7_conv_top"
  top: "group1_b7_dropout"
  dropout_param {
    dropout_ratio: 0.2
  }
}
layer {
  name: "group1_b7_concat"
  type: "Concat"
  bottom: "group1_b7_dropout"
  bottom: "group1_b6_concat"
  top: "group1_b7_concat"
  concat_param {
    axis: 1
  }
}
layer {
  name: "group1_b8_bn"
  type: "BatchNorm"
  bottom: "group1_b7_concat"
  top: "group1_b8_bn_top"
  param {
    lr_mult: 0
    decay_mult: 0
  }
  param {
    lr_mult: 0
    decay_mult: 0
  }
  param {
    lr_mult: 0
    decay_mult: 0
  }
  batch_norm_param {
    moving_average_fraction: 0.999
  }
}
layer {
  name: "group1_b8_scale"
  type: "Scale"
  bottom: "group1_b8_bn_top"
  top: "group1_b8_bn_top"
  scale_param {
    filler {
      value: 1
    }
    bias_term: true
    bias_filler {
      value: 0
    }
  }
}
layer {
  name: "group1_b8_relu"
  type: "ReLU"
  bottom: "group1_b8_bn_top"
  top: "group1_b8_bn_top"
}
layer {
  name: "group1_b8_conv"
  type: "Convolution"
  bottom: "group1_b8_bn_top"
  top: "group1_b8_conv_top"
  convolution_param {
    num_output: 12
    bias_term: false
    pad: 1
    kernel_size: 3
    stride: 1
    weight_filler {
      type: "xavier"
    }
    bias_filler {
      type: "constant"
    }
  }
}
layer {
  name: "group1_b8_dropout"
  type: "Dropout"
  bottom: "group1_b8_conv_top"
  top: "group1_b8_dropout"
  dropout_param {
    dropout_ratio: 0.2
  }
}
layer {
  name: "group1_b8_concat"
  type: "Concat"
  bottom: "group1_b8_dropout"
  bottom: "group1_b7_concat"
  top: "group1_b8_concat"
  concat_param {
    axis: 1
  }
}
layer {
  name: "group1_b9_bn"
  type: "BatchNorm"
  bottom: "group1_b8_concat"
  top: "group1_b9_bn_top"
  param {
    lr_mult: 0
    decay_mult: 0
  }
  param {
    lr_mult: 0
    decay_mult: 0
  }
  param {
    lr_mult: 0
    decay_mult: 0
  }
  batch_norm_param {
    moving_average_fraction: 0.999
  }
}
layer {
  name: "group1_b9_scale"
  type: "Scale"
  bottom: "group1_b9_bn_top"
  top: "group1_b9_bn_top"
  scale_param {
    filler {
      value: 1
    }
    bias_term: true
    bias_filler {
      value: 0
    }
  }
}
layer {
  name: "group1_b9_relu"
  type: "ReLU"
  bottom: "group1_b9_bn_top"
  top: "group1_b9_bn_top"
}
layer {
  name: "group1_b9_conv"
  type: "Convolution"
  bottom: "group1_b9_bn_top"
  top: "group1_b9_conv_top"
  convolution_param {
    num_output: 12
    bias_term: false
    pad: 1
    kernel_size: 3
    stride: 1
    weight_filler {
      type: "xavier"
    }
    bias
I0320 13:58:08.689893 137617 layer_factory.hpp:77] Creating layer dataLayer
I0320 13:58:08.691990 137617 db_lmdb.cpp:35] Opened lmdb examples/cifar10/cifar10_train_lmdb
I0320 13:58:08.692872 137617 net.cpp:84] Creating Layer dataLayer
I0320 13:58:08.692894 137617 net.cpp:380] dataLayer -> data_top
I0320 13:58:08.692948 137617 net.cpp:380] dataLayer -> label
I0320 13:58:08.692988 137617 data_transformer.cpp:25] Loading mean file from: examples/cifar10/mean.binaryproto
I0320 13:58:08.705893 137617 data_layer.cpp:45] output data size: 131,3,32,32
I0320 13:58:08.711444 137617 net.cpp:122] Setting up dataLayer
I0320 13:58:08.711473 137617 net.cpp:129] Top shape: 131 3 32 32 (402432)
I0320 13:58:08.711498 137617 net.cpp:129] Top shape: 131 (131)
I0320 13:58:08.711513 137617 net.cpp:137] Memory required for data: 1610252
I0320 13:58:08.711539 137617 layer_factory.hpp:77] Creating layer label_dataLayer_1_split
I0320 13:58:08.711565 137617 net.cpp:84] Creating Layer label_dataLayer_1_split
I0320 13:58:08.711581 137617 net.cpp:406] label_dataLayer_1_split <- label
I0320 13:58:08.711624 137617 net.cpp:380] label_dataLayer_1_split -> label_dataLayer_1_split_0
I0320 13:58:08.711648 137617 net.cpp:380] label_dataLayer_1_split -> label_dataLayer_1_split_1
I0320 13:58:08.711715 137617 net.cpp:122] Setting up label_dataLayer_1_split
I0320 13:58:08.711729 137617 net.cpp:129] Top shape: 131 (131)
I0320 13:58:08.711742 137617 net.cpp:129] Top shape: 131 (131)
I0320 13:58:08.711756 137617 net.cpp:137] Memory required for data: 1611300
I0320 13:58:08.711768 137617 layer_factory.hpp:77] Creating layer pre_conv
I0320 13:58:08.711803 137617 net.cpp:84] Creating Layer pre_conv
I0320 13:58:08.711817 137617 net.cpp:406] pre_conv <- data_top
I0320 13:58:08.711833 137617 net.cpp:380] pre_conv -> pre_conv_top
I0320 13:58:09.226380 137617 net.cpp:122] Setting up pre_conv
I0320 13:58:09.226410 137617 net.cpp:129] Top shape: 131 16 32 32 (2146304)
I0320 13:58:09.226430 137617 net.cpp:137] Memory required for data: 10196516
I0320 13:58:09.226487 137617 layer_factory.hpp:77] Creating layer pre_conv_top_pre_conv_0_split
I0320 13:58:09.226511 137617 net.cpp:84] Creating Layer pre_conv_top_pre_conv_0_split
I0320 13:58:09.226522 137617 net.cpp:406] pre_conv_top_pre_conv_0_split <- pre_conv_top
I0320 13:58:09.226539 137617 net.cpp:380] pre_conv_top_pre_conv_0_split -> pre_conv_top_pre_conv_0_split_0
I0320 13:58:09.226562 137617 net.cpp:380] pre_conv_top_pre_conv_0_split -> pre_conv_top_pre_conv_0_split_1
I0320 13:58:09.226624 137617 net.cpp:122] Setting up pre_conv_top_pre_conv_0_split
I0320 13:58:09.226634 137617 net.cpp:129] Top shape: 131 16 32 32 (2146304)
I0320 13:58:09.226650 137617 net.cpp:129] Top shape: 131 16 32 32 (2146304)
I0320 13:58:09.226665 137617 net.cpp:137] Memory required for data: 27366948
I0320 13:58:09.226676 137617 layer_factory.hpp:77] Creating layer group0_b0_bn
I0320 13:58:09.226699 137617 net.cpp:84] Creating Layer group0_b0_bn
I0320 13:58:09.226711 137617 net.cpp:406] group0_b0_bn <- pre_conv_top_pre_conv_0_split_0
I0320 13:58:09.226727 137617 net.cpp:380] group0_b0_bn -> group0_b0_bn_top
I0320 13:58:09.227007 137617 net.cpp:122] Setting up group0_b0_bn
I0320 13:58:09.227017 137617 net.cpp:129] Top shape: 131 16 32 32 (2146304)
I0320 13:58:09.227032 137617 net.cpp:137] Memory required for data: 35952164
I0320 13:58:09.227061 137617 layer_factory.hpp:77] Creating layer group0_b0_scale
I0320 13:58:09.227082 137617 net.cpp:84] Creating Layer group0_b0_scale
I0320 13:58:09.227094 137617 net.cpp:406] group0_b0_scale <- group0_b0_bn_top
I0320 13:58:09.227109 137617 net.cpp:367] group0_b0_scale -> group0_b0_bn_top (in-place)
I0320 13:58:09.227187 137617 layer_factory.hpp:77] Creating layer group0_b0_scale
I0320 13:58:09.227349 137617 net.cpp:122] Setting up group0_b0_scale
I0320 13:58:09.227358 137617 net.cpp:129] Top shape: 131 16 32 32 (2146304)
I0320 13:58:09.227375 137617 net.cpp:137] Memory required for data: 44537380
I0320 13:58:09.227396 137617 layer_factory.hpp:77] Creating layer group0_b0_relu
I0320 13:58:09.227416 137617 net.cpp:84] Creating Layer group0_b0_relu
I0320 13:58:09.227427 137617 net.cpp:406] group0_b0_relu <- group0_b0_bn_top
I0320 13:58:09.227440 137617 net.cpp:367] group0_b0_relu -> group0_b0_bn_top (in-place)
I0320 13:58:09.227946 137617 net.cpp:122] Setting up group0_b0_relu
I0320 13:58:09.227957 137617 net.cpp:129] Top shape: 131 16 32 32 (2146304)
I0320 13:58:09.227973 137617 net.cpp:137] Memory required for data: 53122596
I0320 13:58:09.227984 137617 layer_factory.hpp:77] Creating layer group0_b0_conv
I0320 13:58:09.228008 137617 net.cpp:84] Creating Layer group0_b0_conv
I0320 13:58:09.228019 137617 net.cpp:406] group0_b0_conv <- group0_b0_bn_top
I0320 13:58:09.228035 137617 net.cpp:380] group0_b0_conv -> group0_b0_conv_top
I0320 13:58:09.230604 137617 net.cpp:122] Setting up group0_b0_conv
I0320 13:58:09.230618 137617 net.cpp:129] Top shape: 131 12 32 32 (1609728)
I0320 13:58:09.230634 137617 net.cpp:137] Memory required for data: 59561508
I0320 13:58:09.230649 137617 layer_factory.hpp:77] Creating layer group0_b0_dropout
I0320 13:58:09.230670 137617 net.cpp:84] Creating Layer group0_b0_dropout
I0320 13:58:09.230681 137617 net.cpp:406] group0_b0_dropout <- group0_b0_conv_top
I0320 13:58:09.230696 137617 net.cpp:380] group0_b0_dropout -> group0_b0_dropout
I0320 13:58:09.230759 137617 net.cpp:122] Setting up group0_b0_dropout
I0320 13:58:09.230772 137617 net.cpp:129] Top shape: 131 12 32 32 (1609728)
I0320 13:58:09.230787 137617 net.cpp:137] Memory required for data: 66000420
I0320 13:58:09.230798 137617 layer_factory.hpp:77] Creating layer group0_b0_concat
I0320 13:58:09.230815 137617 net.cpp:84] Creating Layer group0_b0_concat
I0320 13:58:09.230826 137617 net.cpp:406] group0_b0_concat <- group0_b0_dropout
I0320 13:58:09.230839 137617 net.cpp:406] group0_b0_concat <- pre_conv_top_pre_conv_0_split_1
I0320 13:58:09.230855 137617 net.cpp:380] group0_b0_concat -> group0_b0_concat
I0320 13:58:09.230906 137617 net.cpp:122] Setting up group0_b0_concat
I0320 13:58:09.230916 137617 net.cpp:129] Top shape: 131 28 32 32 (3756032)
I0320 13:58:09.230931 137617 net.cpp:137] Memory required for data: 81024548
I0320 13:58:09.230942 137617 layer_factory.hpp:77] Creating layer group0_b0_concat_group0_b0_concat_0_split
I0320 13:58:09.230957 137617 net.cpp:84] Creating Layer group0_b0_concat_group0_b0_concat_0_split
I0320 13:58:09.230967 137617 net.cpp:406] group0_b0_concat_group0_b0_concat_0_split <- group0_b0_concat
I0320 13:58:09.230980 137617 net.cpp:380] group0_b0_concat_group0_b0_concat_0_split -> group0_b0_concat_group0_b0_concat_0_split_0
I0320 13:58:09.230998 137617 net.cpp:380] group0_b0_concat_group0_b0_concat_0_split -> group0_b0_concat_group0_b0_concat_0_split_1
I0320 13:58:09.231058 137617 net.cpp:122] Setting up group0_b0_concat_group0_b0_concat_0_split
I0320 13:58:09.231067 137617 net.cpp:129] Top shape: 131 28 32 32 (3756032)
I0320 13:58:09.231082 137617 net.cpp:129] Top shape: 131 28 32 32 (3756032)
I0320 13:58:09.231096 137617 net.cpp:137] Memory required for data: 111072804
I0320 13:58:09.231107 137617 layer_factory.hpp:77] Creating layer group0_b1_bn
I0320 13:58:09.231122 137617 net.cpp:84] Creating Layer group0_b1_bn
I0320 13:58:09.231133 137617 net.cpp:406] group0_b1_bn <- group0_b0_concat_group0_b0_concat_0_split_0
I0320 13:58:09.231149 137617 net.cpp:380] group0_b1_bn -> group0_b1_bn_top
I0320 13:58:09.231412 137617 net.cpp:122] Setting up group0_b1_bn
I0320 13:58:09.231422 137617 net.cpp:129] Top shape: 131 28 32 32 (3756032)
I0320 13:58:09.231437 137617 net.cpp:137] Memory required for data: 126096932
I0320 13:58:09.231464 137617 layer_factory.hpp:77] Creating layer group0_b1_scale
I0320 13:58:09.231479 137617 net.cpp:84] Creating Layer group0_b1_scale
I0320 13:58:09.231492 137617 net.cpp:406] group0_b1_scale <- group0_b1_bn_top
I0320 13:58:09.231505 137617 net.cpp:367] group0_b1_scale -> group0_b1_bn_top (in-place)
I0320 13:58:09.231564 137617 layer_factory.hpp:77] Creating layer group0_b1_scale
I0320 13:58:09.231708 137617 net.cpp:122] Setting up group0_b1_scale
I0320 13:58:09.231717 137617 net.cpp:129] Top shape: 131 28 32 32 (3756032)
I0320 13:58:09.231732 137617 net.cpp:137] Memory required for data: 141121060
I0320 13:58:09.231751 137617 layer_factory.hpp:77] Creating layer group0_b1_relu
I0320 13:58:09.231765 137617 net.cpp:84] Creating Layer group0_b1_relu
I0320 13:58:09.231775 137617 net.cpp:406] group0_b1_relu <- group0_b1_bn_top
I0320 13:58:09.231789 137617 net.cpp:367] group0_b1_relu -> group0_b1_bn_top (in-place)
I0320 13:58:09.232273 137617 net.cpp:122] Setting up group0_b1_relu
I0320 13:58:09.232285 137617 net.cpp:129] Top shape: 131 28 32 32 (3756032)
I0320 13:58:09.232300 137617 net.cpp:137] Memory required for data: 156145188
I0320 13:58:09.232311 137617 layer_factory.hpp:77] Creating layer group0_b1_conv
I0320 13:58:09.232329 137617 net.cpp:84] Creating Layer group0_b1_conv
I0320 13:58:09.232342 137617 net.cpp:406] group0_b1_conv <- group0_b1_bn_top
I0320 13:58:09.232357 137617 net.cpp:380] group0_b1_conv -> group0_b1_conv_top
I0320 13:58:09.234467 137617 net.cpp:122] Setting up group0_b1_conv
I0320 13:58:09.234479 137617 net.cpp:129] Top shape: 131 12 32 32 (1609728)
I0320 13:58:09.234495 137617 net.cpp:137] Memory required for data: 162584100
I0320 13:58:09.234511 137617 layer_factory.hpp:77] Creating layer group0_b1_dropout
I0320 13:58:09.234525 137617 net.cpp:84] Creating Layer group0_b1_dropout
I0320 13:58:09.234539 137617 net.cpp:406] group0_b1_dropout <- group0_b1_conv_top
I0320 13:58:09.234552 137617 net.cpp:380] group0_b1_dropout -> group0_b1_dropout
I0320 13:58:09.234614 137617 net.cpp:122] Setting up group0_b1_dropout
I0320 13:58:09.234624 137617 net.cpp:129] Top shape: 131 12 32 32 (1609728)
I0320 13:58:09.234640 137617 net.cpp:137] Memory required for data: 169023012
I0320 13:58:09.234652 137617 layer_factory.hpp:77] Creating layer group0_b1_concat
I0320 13:58:09.234669 137617 net.cpp:84] Creating Layer group0_b1_concat
I0320 13:58:09.234680 137617 net.cpp:406] group0_b1_concat <- group0_b1_dropout
I0320 13:58:09.234694 137617 net.cpp:406] group0_b1_concat <- group0_b0_concat_group0_b0_concat_0_split_1
I0320 13:58:09.234709 137617 net.cpp:380] group0_b1_concat -> group0_b1_concat
I0320 13:58:09.234755 137617 net.cpp:122] Setting up group0_b1_concat
I0320 13:58:09.234764 137617 net.cpp:129] Top shape: 131 40 32 32 (5365760)
I0320 13:58:09.234779 137617 net.cpp:137] Memory required for data: 190486052
I0320 13:58:09.234791 137617 layer_factory.hpp:77] Creating layer group0_b1_concat_group0_b1_concat_0_split
I0320 13:58:09.234803 137617 net.cpp:84] Creating Layer group0_b1_concat_group0_b1_concat_0_split
I0320 13:58:09.234814 137617 net.cpp:406] group0_b1_concat_group0_b1_concat_0_split <- group0_b1_concat
I0320 13:58:09.234828 137617 net.cpp:380] group0_b1_concat_group0_b1_concat_0_split -> group0_b1_concat_group0_b1_concat_0_split_0
I0320 13:58:09.234845 137617 net.cpp:380] group0_b1_concat_group0_b1_concat_0_split -> group0_b1_concat_group0_b1_concat_0_split_1
I0320 13:58:09.234905 137617 net.cpp:122] Setting up group0_b1_concat_group0_b1_concat_0_split
I0320 13:58:09.234915 137617 net.cpp:129] Top shape: 131 40 32 32 (5365760)
I0320 13:58:09.234931 137617 net.cpp:129] Top shape: 131 40 32 32 (5365760)
I0320 13:58:09.234946 137617 net.cpp:137] Memory required for data: 233412132
I0320 13:58:09.234956 137617 layer_factory.hpp:77] Creating layer group0_b2_bn
I0320 13:58:09.234971 137617 net.cpp:84] Creating Layer group0_b2_bn
I0320 13:58:09.234982 137617 net.cpp:406] group0_b2_bn <- group0_b1_concat_group0_b1_concat_0_split_0
I0320 13:58:09.234997 137617 net.cpp:380] group0_b2_bn -> group0_b2_bn_top
I0320 13:58:09.235262 137617 net.cpp:122] Setting up group0_b2_bn
I0320 13:58:09.235272 137617 net.cpp:129] Top shape: 131 40 32 32 (5365760)
I0320 13:58:09.235287 137617 net.cpp:137] Memory required for data: 254875172
I0320 13:58:09.235309 137617 layer_factory.hpp:77] Creating layer group0_b2_scale
I0320 13:58:09.235325 137617 net.cpp:84] Creating Layer group0_b2_scale
I0320 13:58:09.235337 137617 net.cpp:406] group0_b2_scale <- group0_b2_bn_top
I0320 13:58:09.235352 137617 net.cpp:367] group0_b2_scale -> group0_b2_bn_top (in-place)
I0320 13:58:09.235411 137617 layer_factory.hpp:77] Creating layer group0_b2_scale
I0320 13:58:09.235554 137617 net.cpp:122] Setting up group0_b2_scale
I0320 13:58:09.235564 137617 net.cpp:129] Top shape: 131 40 32 32 (5365760)
I0320 13:58:09.235580 137617 net.cpp:137] Memory required for data: 276338212
I0320 13:58:09.235605 137617 layer_factory.hpp:77] Creating layer group0_b2_relu
I0320 13:58:09.235618 137617 net.cpp:84] Creating Layer group0_b2_relu
I0320 13:58:09.235628 137617 net.cpp:406] group0_b2_relu <- group0_b2_bn_top
I0320 13:58:09.235642 137617 net.cpp:367] group0_b2_relu -> group0_b2_bn_top (in-place)
I0320 13:58:09.236544 137617 net.cpp:122] Setting up group0_b2_relu
I0320 13:58:09.236555 137617 net.cpp:129] Top shape: 131 40 32 32 (5365760)
I0320 13:58:09.236570 137617 net.cpp:137] Memory required for data: 297801252
I0320 13:58:09.236582 137617 layer_factory.hpp:77] Creating layer group0_b2_conv
I0320 13:58:09.236600 137617 net.cpp:84] Creating Layer group0_b2_conv
I0320 13:58:09.236613 137617 net.cpp:406] group0_b2_conv <- group0_b2_bn_top
I0320 13:58:09.236629 137617 net.cpp:380] group0_b2_conv -> group0_b2_conv_top
I0320 13:58:09.239603 137617 net.cpp:122] Setting up group0_b2_conv
I0320 13:58:09.239616 137617 net.cpp:129] Top shape: 131 12 32 32 (1609728)
I0320 13:58:09.239635 137617 net.cpp:137] Memory required for data: 304240164
I0320 13:58:09.239651 137617 layer_factory.hpp:77] Creating layer group0_b2_dropout
I0320 13:58:09.239667 137617 net.cpp:84] Creating Layer group0_b2_dropout
I0320 13:58:09.239678 137617 net.cpp:406] group0_b2_dropout <- group0_b2_conv_top
I0320 13:58:09.239694 137617 net.cpp:380] group0_b2_dropout -> group0_b2_dropout
I0320 13:58:09.239754 137617 net.cpp:122] Setting up group0_b2_dropout
I0320 13:58:09.239763 137617 net.cpp:129] Top shape: 131 12 32 32 (1609728)
I0320 13:58:09.239779 137617 net.cpp:137] Memory required for data: 310679076
I0320 13:58:09.239789 137617 layer_factory.hpp:77] Creating layer group0_b2_concat
I0320 13:58:09.239804 137617 net.cpp:84] Creating Layer group0_b2_concat
I0320 13:58:09.239815 137617 net.cpp:406] group0_b2_concat <- group0_b2_dropout
I0320 13:58:09.239827 137617 net.cpp:406] group0_b2_concat <- group0_b1_concat_group0_b1_concat_0_split_1
I0320 13:58:09.239842 137617 net.cpp:380] group0_b2_concat -> group0_b2_concat
I0320 13:58:09.239892 137617 net.cpp:122] Setting up group0_b2_concat
I0320 13:58:09.239902 137617 net.cpp:129] Top shape: 131 52 32 32 (6975488)
I0320 13:58:09.239917 137617 net.cpp:137] Memory required for data: 338581028
I0320 13:58:09.239928 137617 layer_factory.hpp:77] Creating layer group0_b2_concat_group0_b2_concat_0_split
I0320 13:58:09.239943 137617 net.cpp:84] Creating Layer group0_b2_concat_group0_b2_concat_0_split
I0320 13:58:09.239953 137617 net.cpp:406] group0_b2_concat_group0_b2_concat_0_split <- group0_b2_concat
I0320 13:58:09.239967 137617 net.cpp:380] group0_b2_concat_group0_b2_concat_0_split -> group0_b2_concat_group0_b2_concat_0_split_0
I0320 13:58:09.239984 137617 net.cpp:380] group0_b2_concat_group0_b2_concat_0_split -> group0_b2_concat_group0_b2_concat_0_split_1
I0320 13:58:09.240044 137617 net.cpp:122] Setting up group0_b2_concat_group0_b2_concat_0_split
I0320 13:58:09.240054 137617 net.cpp:129] Top shape: 131 52 32 32 (6975488)
I0320 13:58:09.240069 137617 net.cpp:129] Top shape: 131 52 32 32 (6975488)
I0320 13:58:09.240082 137617 net.cpp:137] Memory required for data: 394384932
I0320 13:58:09.240093 137617 layer_factory.hpp:77] Creating layer group0_b3_bn
I0320 13:58:09.240108 137617 net.cpp:84] Creating Layer group0_b3_bn
I0320 13:58:09.240119 137617 net.cpp:406] group0_b3_bn <- group0_b2_concat_group0_b2_concat_0_split_0
I0320 13:58:09.240134 137617 net.cpp:380] group0_b3_bn -> group0_b3_bn_top
I0320 13:58:09.240399 137617 net.cpp:122] Setting up group0_b3_bn
I0320 13:58:09.240409 137617 net.cpp:129] Top shape: 131 52 32 32 (6975488)
I0320 13:58:09.240424 137617 net.cpp:137] Memory required for data: 422286884
I0320 13:58:09.240447 137617 layer_factory.hpp:77] Creating layer group0_b3_scale
I0320 13:58:09.240463 137617 net.cpp:84] Creating Layer group0_b3_scale
I0320 13:58:09.240473 137617 net.cpp:406] group0_b3_scale <- group0_b3_bn_top
I0320 13:58:09.240489 137617 net.cpp:367] group0_b3_scale -> group0_b3_bn_top (in-place)
I0320 13:58:09.240548 137617 layer_factory.hpp:77] Creating layer group0_b3_scale
I0320 13:58:09.240691 137617 net.cpp:122] Setting up group0_b3_scale
I0320 13:58:09.240701 137617 net.cpp:129] Top shape: 131 52 32 32 (6975488)
I0320 13:58:09.240716 137617 net.cpp:137] Memory required for data: 450188836
I0320 13:58:09.240736 137617 layer_factory.hpp:77] Creating layer group0_b3_relu
I0320 13:58:09.240749 137617 net.cpp:84] Creating Layer group0_b3_relu
I0320 13:58:09.240761 137617 net.cpp:406] group0_b3_relu <- group0_b3_bn_top
I0320 13:58:09.240775 137617 net.cpp:367] group0_b3_relu -> group0_b3_bn_top (in-place)
I0320 13:58:09.241266 137617 net.cpp:122] Setting up group0_b3_relu
I0320 13:58:09.241277 137617 net.cpp:129] Top shape: 131 52 32 32 (6975488)
I0320 13:58:09.241292 137617 net.cpp:137] Memory required for data: 478090788
I0320 13:58:09.241303 137617 layer_factory.hpp:77] Creating layer group0_b3_conv
I0320 13:58:09.241322 137617 net.cpp:84] Creating Layer group0_b3_conv
I0320 13:58:09.241333 137617 net.cpp:406] group0_b3_conv <- group0_b3_bn_top
I0320 13:58:09.241353 137617 net.cpp:380] group0_b3_conv -> group0_b3_conv_top
I0320 13:58:09.243533 137617 net.cpp:122] Setting up group0_b3_conv
I0320 13:58:09.243546 137617 net.cpp:129] Top shape: 131 12 32 32 (1609728)
I0320 13:58:09.243561 137617 net.cpp:137] Memory required for data: 484529700
I0320 13:58:09.243577 137617 layer_factory.hpp:77] Creating layer group0_b3_dropout
I0320 13:58:09.243590 137617 net.cpp:84] Creating Layer group0_b3_dropout
I0320 13:58:09.243602 137617 net.cpp:406] group0_b3_dropout <- group0_b3_conv_top
I0320 13:58:09.243618 137617 net.cpp:380] group0_b3_dropout -> group0_b3_dropout
I0320 13:58:09.243677 137617 net.cpp:122] Setting up group0_b3_dropout
I0320 13:58:09.243687 137617 net.cpp:129] Top shape: 131 12 32 32 (1609728)
I0320 13:58:09.243702 137617 net.cpp:137] Memory required for data: 490968612
I0320 13:58:09.243713 137617 layer_factory.hpp:77] Creating layer group0_b3_concat
I0320 13:58:09.243727 137617 net.cpp:84] Creating Layer group0_b3_concat
I0320 13:58:09.243738 137617 net.cpp:406] group0_b3_concat <- group0_b3_dropout
I0320 13:58:09.243752 137617 net.cpp:406] group0_b3_concat <- group0_b2_concat_group0_b2_concat_0_split_1
I0320 13:58:09.243767 137617 net.cpp:380] group0_b3_concat -> group0_b3_concat
I0320 13:58:09.243810 137617 net.cpp:122] Setting up group0_b3_concat
I0320 13:58:09.243821 137617 net.cpp:129] Top shape: 131 64 32 32 (8585216)
I0320 13:58:09.243836 137617 net.cpp:137] Memory required for data: 525309476
I0320 13:58:09.243846 137617 layer_factory.hpp:77] Creating layer group0_b3_concat_group0_b3_concat_0_split
I0320 13:58:09.243860 137617 net.cpp:84] Creating Layer group0_b3_concat_group0_b3_concat_0_split
I0320 13:58:09.243871 137617 net.cpp:406] group0_b3_concat_group0_b3_concat_0_split <- group0_b3_concat
I0320 13:58:09.243885 137617 net.cpp:380] group0_b3_concat_group0_b3_concat_0_split -> group0_b3_concat_group0_b3_concat_0_split_0
I0320 13:58:09.243902 137617 net.cpp:380] group0_b3_concat_group0_b3_concat_0_split -> group0_b3_concat_group0_b3_concat_0_split_1
I0320 13:58:09.243963 137617 net.cpp:122] Setting up group0_b3_concat_group0_b3_concat_0_split
I0320 13:58:09.243973 137617 net.cpp:129] Top shape: 131 64 32 32 (8585216)
I0320 13:58:09.243988 137617 net.cpp:129] Top shape: 131 64 32 32 (8585216)
I0320 13:58:09.244001 137617 net.cpp:137] Memory required for data: 593991204
I0320 13:58:09.244012 137617 layer_factory.hpp:77] Creating layer group0_b4_bn
I0320 13:58:09.244033 137617 net.cpp:84] Creating Layer group0_b4_bn
I0320 13:58:09.244045 137617 net.cpp:406] group0_b4_bn <- group0_b3_concat_group0_b3_concat_0_split_0
I0320 13:58:09.244060 137617 net.cpp:380] group0_b4_bn -> group0_b4_bn_top
I0320 13:58:09.244333 137617 net.cpp:122] Setting up group0_b4_bn
I0320 13:58:09.244343 137617 net.cpp:129] Top shape: 131 64 32 32 (8585216)
I0320 13:58:09.244359 137617 net.cpp:137] Memory required for data: 628332068
I0320 13:58:09.244379 137617 layer_factory.hpp:77] Creating layer group0_b4_scale
I0320 13:58:09.244395 137617 net.cpp:84] Creating Layer group0_b4_scale
I0320 13:58:09.244407 137617 net.cpp:406] group0_b4_scale <- group0_b4_bn_top
I0320 13:58:09.244421 137617 net.cpp:367] group0_b4_scale -> group0_b4_bn_top (in-place)
I0320 13:58:09.244482 137617 layer_factory.hpp:77] Creating layer group0_b4_scale
I0320 13:58:09.244627 137617 net.cpp:122] Setting up group0_b4_scale
I0320 13:58:09.244637 137617 net.cpp:129] Top shape: 131 64 32 32 (8585216)
I0320 13:58:09.244652 137617 net.cpp:137] Memory required for data: 662672932
I0320 13:58:09.244671 137617 layer_factory.hpp:77] Creating layer group0_b4_relu
I0320 13:58:09.244685 137617 net.cpp:84] Creating Layer group0_b4_relu
I0320 13:58:09.244698 137617 net.cpp:406] group0_b4_relu <- group0_b4_bn_top
I0320 13:58:09.244710 137617 net.cpp:367] group0_b4_relu -> group0_b4_bn_top (in-place)
I0320 13:58:09.245198 137617 net.cpp:122] Setting up group0_b4_relu
I0320 13:58:09.245209 137617 net.cpp:129] Top shape: 131 64 32 32 (8585216)
I0320 13:58:09.245230 137617 net.cpp:137] Memory required for data: 697013796
I0320 13:58:09.245244 137617 layer_factory.hpp:77] Creating layer group0_b4_conv
I0320 13:58:09.245261 137617 net.cpp:84] Creating Layer group0_b4_conv
I0320 13:58:09.245273 137617 net.cpp:406] group0_b4_conv <- group0_b4_bn_top
I0320 13:58:09.245290 137617 net.cpp:380] group0_b4_conv -> group0_b4_conv_top
I0320 13:58:09.247493 137617 net.cpp:122] Setting up group0_b4_conv
I0320 13:58:09.247504 137617 net.cpp:129] Top shape: 131 12 32 32 (1609728)
I0320 13:58:09.247520 137617 net.cpp:137] Memory required for data: 703452708
I0320 13:58:09.247535 137617 layer_factory.hpp:77] Creating layer group0_b4_dropout
I0320 13:58:09.247550 137617 net.cpp:84] Creating Layer group0_b4_dropout
I0320 13:58:09.247561 137617 net.cpp:406] group0_b4_dropout <- group0_b4_conv_top
I0320 13:58:09.247575 137617 net.cpp:380] group0_b4_dropout -> group0_b4_dropout
I0320 13:58:09.247637 137617 net.cpp:122] Setting up group0_b4_dropout
I0320 13:58:09.247648 137617 net.cpp:129] Top shape: 131 12 32 32 (1609728)
I0320 13:58:09.247663 137617 net.cpp:137] Memory required for data: 709891620
I0320 13:58:09.247679 137617 layer_factory.hpp:77] Creating layer group0_b4_concat
I0320 13:58:09.247692 137617 net.cpp:84] Creating Layer group0_b4_concat
I0320 13:58:09.247704 137617 net.cpp:406] group0_b4_concat <- group0_b4_dropout
I0320 13:58:09.247716 137617 net.cpp:406] group0_b4_concat <- group0_b3_concat_group0_b3_concat_0_split_1
I0320 13:58:09.247731 137617 net.cpp:380] group0_b4_concat -> group0_b4_concat
I0320 13:58:09.247776 137617 net.cpp:122] Setting up group0_b4_concat
I0320 13:58:09.247784 137617 net.cpp:129] Top shape: 131 76 32 32 (10194944)
I0320 13:58:09.247800 137617 net.cpp:137] Memory required for data: 750671396
I0320 13:58:09.247810 137617 layer_factory.hpp:77] Creating layer group0_b4_concat_group0_b4_concat_0_split
I0320 13:58:09.247824 137617 net.cpp:84] Creating Layer group0_b4_concat_group0_b4_concat_0_split
I0320 13:58:09.247835 137617 net.cpp:406] group0_b4_concat_group0_b4_concat_0_split <- group0_b4_concat
I0320 13:58:09.247849 137617 net.cpp:380] group0_b4_concat_group0_b4_concat_0_split -> group0_b4_concat_group0_b4_concat_0_split_0
I0320 13:58:09.247866 137617 net.cpp:380] group0_b4_concat_group0_b4_concat_0_split -> group0_b4_concat_group0_b4_concat_0_split_1
I0320 13:58:09.247928 137617 net.cpp:122] Setting up group0_b4_concat_group0_b4_concat_0_split
I0320 13:58:09.247938 137617 net.cpp:129] Top shape: 131 76 32 32 (10194944)
I0320 13:58:09.247953 137617 net.cpp:129] Top shape: 131 76 32 32 (10194944)
I0320 13:58:09.247967 137617 net.cpp:137] Memory required for data: 832230948
I0320 13:58:09.247977 137617 layer_factory.hpp:77] Creating layer group0_b5_bn
I0320 13:58:09.247992 137617 net.cpp:84] Creating Layer group0_b5_bn
I0320 13:58:09.248003 137617 net.cpp:406] group0_b5_bn <- group0_b4_concat_group0_b4_concat_0_split_0
I0320 13:58:09.248018 137617 net.cpp:380] group0_b5_bn -> group0_b5_bn_top
I0320 13:58:09.248298 137617 net.cpp:122] Setting up group0_b5_bn
I0320 13:58:09.248308 137617 net.cpp:129] Top shape: 131 76 32 32 (10194944)
I0320 13:58:09.248323 137617 net.cpp:137] Memory required for data: 873010724
I0320 13:58:09.248353 137617 layer_factory.hpp:77] Creating layer group0_b5_scale
I0320 13:58:09.248368 137617 net.cpp:84] Creating Layer group0_b5_scale
I0320 13:58:09.248379 137617 net.cpp:406] group0_b5_scale <- group0_b5_bn_top
I0320 13:58:09.248394 137617 net.cpp:367] group0_b5_scale -> group0_b5_bn_top (in-place)
I0320 13:58:09.248456 137617 layer_factory.hpp:77] Creating layer group0_b5_scale
I0320 13:58:09.248610 137617 net.cpp:122] Setting up group0_b5_scale
I0320 13:58:09.248620 137617 net.cpp:129] Top shape: 131 76 32 32 (10194944)
I0320 13:58:09.248636 137617 net.cpp:137] Memory required for data: 913790500
I0320 13:58:09.248654 137617 layer_factory.hpp:77] Creating layer group0_b5_relu
I0320 13:58:09.248667 137617 net.cpp:84] Creating Layer group0_b5_relu
I0320 13:58:09.248678 137617 net.cpp:406] group0_b5_relu <- group0_b5_bn_top
I0320 13:58:09.248692 137617 net.cpp:367] group0_b5_relu -> group0_b5_bn_top (in-place)
I0320 13:58:09.249598 137617 net.cpp:122] Setting up group0_b5_relu
I0320 13:58:09.249609 137617 net.cpp:129] Top shape: 131 76 32 32 (10194944)
I0320 13:58:09.249624 137617 net.cpp:137] Memory required for data: 954570276
I0320 13:58:09.249636 137617 layer_factory.hpp:77] Creating layer group0_b5_conv
I0320 13:58:09.249655 137617 net.cpp:84] Creating Layer group0_b5_conv
I0320 13:58:09.249666 137617 net.cpp:406] group0_b5_conv <- group0_b5_bn_top
I0320 13:58:09.249683 137617 net.cpp:380] group0_b5_conv -> group0_b5_conv_top
I0320 13:58:09.252347 137617 net.cpp:122] Setting up group0_b5_conv
I0320 13:58:09.252359 137617 net.cpp:129] Top shape: 131 12 32 32 (1609728)
I0320 13:58:09.252375 137617 net.cpp:137] Memory required for data: 961009188
I0320 13:58:09.252391 137617 layer_factory.hpp:77] Creating layer group0_b5_dropout
I0320 13:58:09.252405 137617 net.cpp:84] Creating Layer group0_b5_dropout
I0320 13:58:09.252418 137617 net.cpp:406] group0_b5_dropout <- group0_b5_conv_top
I0320 13:58:09.252434 137617 net.cpp:380] group0_b5_dropout -> group0_b5_dropout
I0320 13:58:09.252494 137617 net.cpp:122] Setting up group0_b5_dropout
I0320 13:58:09.252504 137617 net.cpp:129] Top shape: 131 12 32 32 (1609728)
I0320 13:58:09.252519 137617 net.cpp:137] Memory required for data: 967448100
I0320 13:58:09.252530 137617 layer_factory.hpp:77] Creating layer group0_b5_concat
I0320 13:58:09.252545 137617 net.cpp:84] Creating Layer group0_b5_concat
I0320 13:58:09.252557 137617 net.cpp:406] group0_b5_concat <- group0_b5_dropout
I0320 13:58:09.252568 137617 net.cpp:406] group0_b5_concat <- group0_b4_concat_group0_b4_concat_0_split_1
I0320 13:58:09.252583 137617 net.cpp:380] group0_b5_concat -> group0_b5_concat
I0320 13:58:09.252629 137617 net.cpp:122] Setting up group0_b5_concat
I0320 13:58:09.252640 137617 net.cpp:129] Top shape: 131 88 32 32 (11804672)
I0320 13:58:09.252660 137617 net.cpp:137] Memory required for data: 1014666788
I0320 13:58:09.252671 137617 layer_factory.hpp:77] Creating layer group0_b5_concat_group0_b5_concat_0_split
I0320 13:58:09.252683 137617 net.cpp:84] Creating Layer group0_b5_concat_group0_b5_concat_0_split
I0320 13:58:09.252694 137617 net.cpp:406] group0_b5_concat_group0_b5_concat_0_split <- group0_b5_concat
I0320 13:58:09.252709 137617 net.cpp:380] group0_b5_concat_group0_b5_concat_0_split -> group0_b5_concat_group0_b5_concat_0_split_0
I0320 13:58:09.252725 137617 net.cpp:380] group0_b5_concat_group0_b5_concat_0_split -> group0_b5_concat_group0_b5_concat_0_split_1
I0320 13:58:09.252787 137617 net.cpp:122] Setting up group0_b5_concat_group0_b5_concat_0_split
I0320 13:58:09.252797 137617 net.cpp:129] Top shape: 131 88 32 32 (11804672)
I0320 13:58:09.252812 137617 net.cpp:129] Top shape: 131 88 32 32 (11804672)
I0320 13:58:09.252826 137617 net.cpp:137] Memory required for data: 1109104164
I0320 13:58:09.252836 137617 layer_factory.hpp:77] Creating layer group0_b6_bn
I0320 13:58:09.252851 137617 net.cpp:84] Creating Layer group0_b6_bn
I0320 13:58:09.252861 137617 net.cpp:406] group0_b6_bn <- group0_b5_concat_group0_b5_concat_0_split_0
I0320 13:58:09.252877 137617 net.cpp:380] group0_b6_bn -> group0_b6_bn_top
I0320 13:58:09.253156 137617 net.cpp:122] Setting up group0_b6_bn
I0320 13:58:09.253167 137617 net.cpp:129] Top shape: 131 88 32 32 (11804672)
I0320 13:58:09.253182 137617 net.cpp:137] Memory required for data: 1156322852
I0320 13:58:09.253204 137617 layer_factory.hpp:77] Creating layer group0_b6_scale
I0320 13:58:09.253219 137617 net.cpp:84] Creating Layer group0_b6_scale
I0320 13:58:09.253232 137617 net.cpp:406] group0_b6_scale <- group0_b6_bn_top
I0320 13:58:09.253247 137617 net.cpp:367] group0_b6_scale -> group0_b6_bn_top (in-place)
I0320 13:58:09.253306 137617 layer_factory.hpp:77] Creating layer group0_b6_scale
I0320 13:58:09.253455 137617 net.cpp:122] Setting up group0_b6_scale
I0320 13:58:09.253465 137617 net.cpp:129] Top shape: 131 88 32 32 (11804672)
I0320 13:58:09.253480 137617 net.cpp:137] Memory required for data: 1203541540
I0320 13:58:09.253499 137617 layer_factory.hpp:77] Creating layer group0_b6_relu
I0320 13:58:09.253515 137617 net.cpp:84] Creating Layer group0_b6_relu
I0320 13:58:09.253525 137617 net.cpp:406] group0_b6_relu <- group0_b6_bn_top
I0320 13:58:09.253540 137617 net.cpp:367] group0_b6_relu -> group0_b6_bn_top (in-place)
I0320 13:58:09.254046 137617 net.cpp:122] Setting up group0_b6_relu
I0320 13:58:09.254056 137617 net.cpp:129] Top shape: 131 88 32 32 (11804672)
I0320 13:58:09.254071 137617 net.cpp:137] Memory required for data: 1250760228
I0320 13:58:09.254082 137617 layer_factory.hpp:77] Creating layer group0_b6_conv
I0320 13:58:09.254101 137617 net.cpp:84] Creating Layer group0_b6_conv
I0320 13:58:09.254113 137617 net.cpp:406] group0_b6_conv <- group0_b6_bn_top
I0320 13:58:09.254129 137617 net.cpp:380] group0_b6_conv -> group0_b6_conv_top
I0320 13:58:09.256355 137617 net.cpp:122] Setting up group0_b6_conv
I0320 13:58:09.256366 137617 net.cpp:129] Top shape: 131 12 32 32 (1609728)
I0320 13:58:09.256381 137617 net.cpp:137] Memory required for data: 1257199140
I0320 13:58:09.256397 137617 layer_factory.hpp:77] Creating layer group0_b6_dropout
I0320 13:58:09.256412 137617 net.cpp:84] Creating Layer group0_b6_dropout
I0320 13:58:09.256422 137617 net.cpp:406] group0_b6_dropout <- group0_b6_conv_top
I0320 13:58:09.256438 137617 net.cpp:380] group0_b6_dropout -> group0_b6_dropout
I0320 13:58:09.256500 137617 net.cpp:122] Setting up group0_b6_dropout
I0320 13:58:09.256510 137617 net.cpp:129] Top shape: 131 12 32 32 (1609728)
I0320 13:58:09.256525 137617 net.cpp:137] Memory required for data: 1263638052
I0320 13:58:09.256536 137617 layer_factory.hpp:77] Creating layer group0_b6_concat
I0320 13:58:09.256549 137617 net.cpp:84] Creating Layer group0_b6_concat
I0320 13:58:09.256561 137617 net.cpp:406] group0_b6_concat <- group0_b6_dropout
I0320 13:58:09.256572 137617 net.cpp:406] group0_b6_concat <- group0_b5_concat_group0_b5_concat_0_split_1
I0320 13:58:09.256587 137617 net.cpp:380] group0_b6_concat -> group0_b6_concat
I0320 13:58:09.256633 137617 net.cpp:122] Setting up group0_b6_concat
I0320 13:58:09.256644 137617 net.cpp:129] Top shape: 131 100 32 32 (13414400)
I0320 13:58:09.256659 137617 net.cpp:137] Memory required for data: 1317295652
I0320 13:58:09.256669 137617 layer_factory.hpp:77] Creating layer group0_b6_concat_group0_b6_concat_0_split
I0320 13:58:09.256683 137617 net.cpp:84] Creating Layer group0_b6_concat_group0_b6_concat_0_split
I0320 13:58:09.256695 137617 net.cpp:406] group0_b6_concat_group0_b6_concat_0_split <- group0_b6_concat
I0320 13:58:09.256708 137617 net.cpp:380] group0_b6_concat_group0_b6_concat_0_split -> group0_b6_concat_group0_b6_concat_0_split_0
I0320 13:58:09.256726 137617 net.cpp:380] group0_b6_concat_group0_b6_concat_0_split -> group0_b6_concat_group0_b6_concat_0_split_1
I0320 13:58:09.256786 137617 net.cpp:122] Setting up group0_b6_concat_group0_b6_concat_0_split
I0320 13:58:09.256798 137617 net.cpp:129] Top shape: 131 100 32 32 (13414400)
I0320 13:58:09.256811 137617 net.cpp:129] Top shape: 131 100 32 32 (13414400)
I0320 13:58:09.256825 137617 net.cpp:137] Memory required for data: 1424610852
I0320 13:58:09.256836 137617 layer_factory.hpp:77] Creating layer group0_b7_bn
I0320 13:58:09.256850 137617 net.cpp:84] Creating Layer group0_b7_bn
I0320 13:58:09.256861 137617 net.cpp:406] group0_b7_bn <- group0_b6_concat_group0_b6_concat_0_split_0
I0320 13:58:09.256876 137617 net.cpp:380] group0_b7_bn -> group0_b7_bn_top
I0320 13:58:09.257159 137617 net.cpp:122] Setting up group0_b7_bn
I0320 13:58:09.257169 137617 net.cpp:129] Top shape: 131 100 32 32 (13414400)
I0320 13:58:09.257184 137617 net.cpp:137] Memory required for data: 1478268452
I0320 13:58:09.257206 137617 layer_factory.hpp:77] Creating layer group0_b7_scale
I0320 13:58:09.257223 137617 net.cpp:84] Creating Layer group0_b7_scale
I0320 13:58:09.257235 137617 net.cpp:406] group0_b7_scale <- group0_b7_bn_top
I0320 13:58:09.257249 137617 net.cpp:367] group0_b7_scale -> group0_b7_bn_top (in-place)
I0320 13:58:09.257310 137617 layer_factory.hpp:77] Creating layer group0_b7_scale
I0320 13:58:09.257462 137617 net.cpp:122] Setting up group0_b7_scale
I0320 13:58:09.257490 137617 net.cpp:129] Top shape: 131 100 32 32 (13414400)
I0320 13:58:09.257506 137617 net.cpp:137] Memory required for data: 1531926052
I0320 13:58:09.257524 137617 layer_factory.hpp:77] Creating layer group0_b7_relu
I0320 13:58:09.257539 137617 net.cpp:84] Creating Layer group0_b7_relu
I0320 13:58:09.257550 137617 net.cpp:406] group0_b7_relu <- group0_b7_bn_top
I0320 13:58:09.257563 137617 net.cpp:367] group0_b7_relu -> group0_b7_bn_top (in-place)
I0320 13:58:09.258056 137617 net.cpp:122] Setting up group0_b7_relu
I0320 13:58:09.258067 137617 net.cpp:129] Top shape: 131 100 32 32 (13414400)
I0320 13:58:09.258082 137617 net.cpp:137] Memory required for data: 1585583652
I0320 13:58:09.258093 137617 layer_factory.hpp:77] Creating layer group0_b7_conv
I0320 13:58:09.258112 137617 net.cpp:84] Creating Layer group0_b7_conv
I0320 13:58:09.258123 137617 net.cpp:406] group0_b7_conv <- group0_b7_bn_top
I0320 13:58:09.258147 137617 net.cpp:380] group0_b7_conv -> group0_b7_conv_top
I0320 13:58:09.260380 137617 net.cpp:122] Setting up group0_b7_conv
I0320 13:58:09.260392 137617 net.cpp:129] Top shape: 131 12 32 32 (1609728)
I0320 13:58:09.260408 137617 net.cpp:137] Memory required for data: 1592022564
I0320 13:58:09.260422 137617 layer_factory.hpp:77] Creating layer group0_b7_dropout
I0320 13:58:09.260437 137617 net.cpp:84] Creating Layer group0_b7_dropout
I0320 13:58:09.260449 137617 net.cpp:406] group0_b7_dropout <- group0_b7_conv_top
I0320 13:58:09.260463 137617 net.cpp:380] group0_b7_dropout -> group0_b7_dropout
I0320 13:58:09.260525 137617 net.cpp:122] Setting up group0_b7_dropout
I0320 13:58:09.260535 137617 net.cpp:129] Top shape: 131 12 32 32 (1609728)
I0320 13:58:09.260550 137617 net.cpp:137] Memory required for data: 1598461476
I0320 13:58:09.260561 137617 layer_factory.hpp:77] Creating layer group0_b7_concat
I0320 13:58:09.260576 137617 net.cpp:84] Creating Layer group0_b7_concat
I0320 13:58:09.260586 137617 net.cpp:406] group0_b7_concat <- group0_b7_dropout
I0320 13:58:09.260599 137617 net.cpp:406] group0_b7_concat <- group0_b6_concat_group0_b6_concat_0_split_1
I0320 13:58:09.260613 137617 net.cpp:380] group0_b7_concat -> group0_b7_concat
I0320 13:58:09.260658 137617 net.cpp:122] Setting up group0_b7_concat
I0320 13:58:09.260669 137617 net.cpp:129] Top shape: 131 112 32 32 (15024128)
I0320 13:58:09.260684 137617 net.cpp:137] Memory required for data: 1658557988
I0320 13:58:09.260695 137617 layer_factory.hpp:77] Creating layer group0_b7_concat_group0_b7_concat_0_split
I0320 13:58:09.260710 137617 net.cpp:84] Creating Layer group0_b7_concat_group0_b7_concat_0_split
I0320 13:58:09.260720 137617 net.cpp:406] group0_b7_concat_group0_b7_concat_0_split <- group0_b7_concat
I0320 13:58:09.260735 137617 net.cpp:380] group0_b7_concat_group0_b7_concat_0_split -> group0_b7_concat_group0_b7_concat_0_split_0
I0320 13:58:09.260751 137617 net.cpp:380] group0_b7_concat_group0_b7_concat_0_split -> group0_b7_concat_group0_b7_concat_0_split_1
I0320 13:58:09.260812 137617 net.cpp:122] Setting up group0_b7_concat_group0_b7_concat_0_split
I0320 13:58:09.260823 137617 net.cpp:129] Top shape: 131 112 32 32 (15024128)
I0320 13:58:09.260838 137617 net.cpp:129] Top shape: 131 112 32 32 (15024128)
I0320 13:58:09.260850 137617 net.cpp:137] Memory required for data: 1778751012
I0320 13:58:09.260862 137617 layer_factory.hpp:77] Creating layer group0_b8_bn
I0320 13:58:09.260875 137617 net.cpp:84] Creating Layer group0_b8_bn
I0320 13:58:09.260886 137617 net.cpp:406] group0_b8_bn <- group0_b7_concat_group0_b7_concat_0_split_0
I0320 13:58:09.260902 137617 net.cpp:380] group0_b8_bn -> group0_b8_bn_top
I0320 13:58:09.261181 137617 net.cpp:122] Setting up group0_b8_bn
I0320 13:58:09.261191 137617 net.cpp:129] Top shape: 131 112 32 32 (15024128)
I0320 13:58:09.261206 137617 net.cpp:137] Memory required for data: 1838847524
I0320 13:58:09.261229 137617 layer_factory.hpp:77] Creating layer group0_b8_scale
I0320 13:58:09.261243 137617 net.cpp:84] Creating Layer group0_b8_scale
I0320 13:58:09.261255 137617 net.cpp:406] group0_b8_scale <- group0_b8_bn_top
I0320 13:58:09.261270 137617 net.cpp:367] group0_b8_scale -> group0_b8_bn_top (in-place)
I0320 13:58:09.261329 137617 layer_factory.hpp:77] Creating layer group0_b8_scale
I0320 13:58:09.261487 137617 net.cpp:122] Setting up group0_b8_scale
I0320 13:58:09.261497 137617 net.cpp:129] Top shape: 131 112 32 32 (15024128)
I0320 13:58:09.261513 137617 net.cpp:137] Memory required for data: 1898944036
I0320 13:58:09.261531 137617 layer_factory.hpp:77] Creating layer group0_b8_relu
I0320 13:58:09.261544 137617 net.cpp:84] Creating Layer group0_b8_relu
I0320 13:58:09.261555 137617 net.cpp:406] group0_b8_relu <- group0_b8_bn_top
I0320 13:58:09.261569 137617 net.cpp:367] group0_b8_relu -> group0_b8_bn_top (in-place)
I0320 13:58:09.262058 137617 net.cpp:122] Setting up group0_b8_relu
I0320 13:58:09.262069 137617 net.cpp:129] Top shape: 131 112 32 32 (15024128)
I0320 13:58:09.262084 137617 net.cpp:137] Memory required for data: 1959040548
I0320 13:58:09.262095 137617 layer_factory.hpp:77] Creating layer group0_b8_conv
I0320 13:58:09.262114 137617 net.cpp:84] Creating Layer group0_b8_conv
I0320 13:58:09.262125 137617 net.cpp:406] group0_b8_conv <- group0_b8_bn_top
I0320 13:58:09.262140 137617 net.cpp:380] group0_b8_conv -> group0_b8_conv_top
I0320 13:58:09.264853 137617 net.cpp:122] Setting up group0_b8_conv
I0320 13:58:09.264864 137617 net.cpp:129] Top shape: 131 12 32 32 (1609728)
I0320 13:58:09.264880 137617 net.cpp:137] Memory required for data: 1965479460
I0320 13:58:09.264895 137617 layer_factory.hpp:77] Creating layer group0_b8_dropout
I0320 13:58:09.264925 137617 net.cpp:84] Creating Layer group0_b8_dropout
I0320 13:58:09.264936 137617 net.cpp:406] group0_b8_dropout <- group0_b8_conv_top
I0320 13:58:09.264952 137617 net.cpp:380] group0_b8_dropout -> group0_b8_dropout
I0320 13:58:09.265017 137617 net.cpp:122] Setting up group0_b8_dropout
I0320 13:58:09.265027 137617 net.cpp:129] Top shape: 131 12 32 32 (1609728)
I0320 13:58:09.265043 137617 net.cpp:137] Memory required for data: 1971918372
I0320 13:58:09.265053 137617 layer_factory.hpp:77] Creating layer group0_b8_concat
I0320 13:58:09.265067 137617 net.cpp:84] Creating Layer group0_b8_concat
I0320 13:58:09.265079 137617 net.cpp:406] group0_b8_concat <- group0_b8_dropout
I0320 13:58:09.265092 137617 net.cpp:406] group0_b8_concat <- group0_b7_concat_group0_b7_concat_0_split_1
I0320 13:58:09.265107 137617 net.cpp:380] group0_b8_concat -> group0_b8_concat
I0320 13:58:09.265151 137617 net.cpp:122] Setting up group0_b8_concat
I0320 13:58:09.265162 137617 net.cpp:129] Top shape: 131 124 32 32 (16633856)
I0320 13:58:09.265177 137617 net.cpp:137] Memory required for data: 2038453796
I0320 13:58:09.265188 137617 layer_factory.hpp:77] Creating layer group0_b8_concat_group0_b8_concat_0_split
I0320 13:58:09.265202 137617 net.cpp:84] Creating Layer group0_b8_concat_group0_b8_concat_0_split
I0320 13:58:09.265213 137617 net.cpp:406] group0_b8_concat_group0_b8_concat_0_split <- group0_b8_concat
I0320 13:58:09.265226 137617 net.cpp:380] group0_b8_concat_group0_b8_concat_0_split -> group0_b8_concat_group0_b8_concat_0_split_0
I0320 13:58:09.265244 137617 net.cpp:380] group0_b8_concat_group0_b8_concat_0_split -> group0_b8_concat_group0_b8_concat_0_split_1
I0320 13:58:09.265306 137617 net.cpp:122] Setting up group0_b8_concat_group0_b8_concat_0_split
I0320 13:58:09.265316 137617 net.cpp:129] Top shape: 131 124 32 32 (16633856)
I0320 13:58:09.265331 137617 net.cpp:129] Top shape: 131 124 32 32 (16633856)
I0320 13:58:09.265344 137617 net.cpp:137] Memory required for data: 2171524644
I0320 13:58:09.265355 137617 layer_factory.hpp:77] Creating layer group0_b9_bn
I0320 13:58:09.265369 137617 net.cpp:84] Creating Layer group0_b9_bn
I0320 13:58:09.265380 137617 net.cpp:406] group0_b9_bn <- group0_b8_concat_group0_b8_concat_0_split_0
I0320 13:58:09.265395 137617 net.cpp:380] group0_b9_bn -> group0_b9_bn_top
I0320 13:58:09.265678 137617 net.cpp:122] Setting up group0_b9_bn
I0320 13:58:09.265688 137617 net.cpp:129] Top shape: 131 124 32 32 (16633856)
I0320 13:58:09.265704 137617 net.cpp:137] Memory required for data: 2238060068
I0320 13:58:09.265725 137617 layer_factory.hpp:77] Creating layer group0_b9_scale
I0320 13:58:09.265741 137617 net.cpp:84] Creating Layer group0_b9_scale
I0320 13:58:09.265753 137617 net.cpp:406] group0_b9_scale <- group0_b9_bn_top
I0320 13:58:09.265767 137617 net.cpp:367] group0_b9_scale -> group0_b9_bn_top (in-place)
I0320 13:58:09.265830 137617 layer_factory.hpp:77] Creating layer group0_b9_scale
I0320 13:58:09.265980 137617 net.cpp:122] Setting up group0_b9_scale
I0320 13:58:09.265990 137617 net.cpp:129] Top shape: 131 124 32 32 (16633856)
I0320 13:58:09.266005 137617 net.cpp:137] Memory required for data: 2304595492
I0320 13:58:09.266024 137617 layer_factory.hpp:77] Creating layer group0_b9_relu
I0320 13:58:09.266038 137617 net.cpp:84] Creating Layer group0_b9_relu
I0320 13:58:09.266049 137617 net.cpp:406] group0_b9_relu <- group0_b9_bn_top
I0320 13:58:09.266063 137617 net.cpp:367] group0_b9_relu -> group0_b9_bn_top (in-place)
I0320 13:58:09.266974 137617 net.cpp:122] Setting up group0_b9_relu
I0320 13:58:09.266986 137617 net.cpp:129] Top shape: 131 124 32 32 (16633856)
I0320 13:58:09.267001 137617 net.cpp:137] Memory required for data: 2371130916
I0320 13:58:09.267012 137617 layer_factory.hpp:77] Creating layer group0_b9_conv
I0320 13:58:09.267032 137617 net.cpp:84] Creating Layer group0_b9_conv
I0320 13:58:09.267045 137617 net.cpp:406] group0_b9_conv <- group0_b9_bn_top
I0320 13:58:09.267060 137617 net.cpp:380] group0_b9_conv -> group0_b9_conv_top
I0320 13:58:09.269323 137617 net.cpp:122] Setting up group0_b9_conv
I0320 13:58:09.269336 137617 net.cpp:129] Top shape: 131 12 32 32 (1609728)
I0320 13:58:09.269352 137617 net.cpp:137] Memory required for data: 2377569828
I0320 13:58:09.269367 137617 layer_factory.hpp:77] Creating layer group0_b9_dropout
I0320 13:58:09.269381 137617 net.cpp:84] Creating Layer group0_b9_dropout
I0320 13:58:09.269393 137617 net.cpp:406] group0_b9_dropout <- group0_b9_conv_top
I0320 13:58:09.269408 137617 net.cpp:380] group0_b9_dropout -> group0_b9_dropout
I0320 13:58:09.269470 137617 net.cpp:122] Setting up group0_b9_dropout
I0320 13:58:09.269480 137617 net.cpp:129] Top shape: 131 12 32 32 (1609728)
I0320 13:58:09.269495 137617 net.cpp:137] Memory required for data: 2384008740
I0320 13:58:09.269506 137617 layer_factory.hpp:77] Creating layer group0_b9_concat
I0320 13:58:09.269521 137617 net.cpp:84] Creating Layer group0_b9_concat
I0320 13:58:09.269532 137617 net.cpp:406] group0_b9_concat <- group0_b9_dropout
I0320 13:58:09.269544 137617 net.cpp:406] group0_b9_concat <- group0_b8_concat_group0_b8_concat_0_split_1
I0320 13:58:09.269559 137617 net.cpp:380] group0_b9_concat -> group0_b9_concat
I0320 13:58:09.269614 137617 net.cpp:122] Setting up group0_b9_concat
I0320 13:58:09.269624 137617 net.cpp:129] Top shape: 131 136 32 32 (18243584)
I0320 13:58:09.269640 137617 net.cpp:137] Memory required for data: 2456983076
I0320 13:58:09.269650 137617 layer_factory.hpp:77] Creating layer group0_b9_concat_group0_b9_concat_0_split
I0320 13:58:09.269665 137617 net.cpp:84] Creating Layer group0_b9_concat_group0_b9_concat_0_split
I0320 13:58:09.269675 137617 net.cpp:406] group0_b9_concat_group0_b9_concat_0_split <- group0_b9_concat
I0320 13:58:09.269690 137617 net.cpp:380] group0_b9_concat_group0_b9_concat_0_split -> group0_b9_concat_group0_b9_concat_0_split_0
I0320 13:58:09.269707 137617 net.cpp:380] group0_b9_concat_group0_b9_concat_0_split -> group0_b9_concat_group0_b9_concat_0_split_1
I0320 13:58:09.269769 137617 net.cpp:122] Setting up group0_b9_concat_group0_b9_concat_0_split
I0320 13:58:09.269778 137617 net.cpp:129] Top shape: 131 136 32 32 (18243584)
I0320 13:58:09.269793 137617 net.cpp:129] Top shape: 131 136 32 32 (18243584)
I0320 13:58:09.269807 137617 net.cpp:137] Memory required for data: 2602931748
I0320 13:58:09.269819 137617 layer_factory.hpp:77] Creating layer group0_b10_bn
I0320 13:58:09.269832 137617 net.cpp:84] Creating Layer group0_b10_bn
I0320 13:58:09.269843 137617 net.cpp:406] group0_b10_bn <- group0_b9_concat_group0_b9_concat_0_split_0
I0320 13:58:09.269858 137617 net.cpp:380] group0_b10_bn -> group0_b10_bn_top
I0320 13:58:09.270145 137617 net.cpp:122] Setting up group0_b10_bn
I0320 13:58:09.270155 137617 net.cpp:129] Top shape: 131 136 32 32 (18243584)
I0320 13:58:09.270170 137617 net.cpp:137] Memory required for data: 2675906084
I0320 13:58:09.270192 137617 layer_factory.hpp:77] Creating layer group0_b10_scale
I0320 13:58:09.270207 137617 net.cpp:84] Creating Layer group0_b10_scale
I0320 13:58:09.270220 137617 net.cpp:406] group0_b10_scale <- group0_b10_bn_top
I0320 13:58:09.270234 137617 net.cpp:367] group0_b10_scale -> group0_b10_bn_top (in-place)
I0320 13:58:09.270295 137617 layer_factory.hpp:77] Creating layer group0_b10_scale
I0320 13:58:09.270447 137617 net.cpp:122] Setting up group0_b10_scale
I0320 13:58:09.270457 137617 net.cpp:129] Top shape: 131 136 32 32 (18243584)
I0320 13:58:09.270472 137617 net.cpp:137] Memory required for data: 2748880420
I0320 13:58:09.270507 137617 layer_factory.hpp:77] Creating layer group0_b10_relu
I0320 13:58:09.270520 137617 net.cpp:84] Creating Layer group0_b10_relu
I0320 13:58:09.270531 137617 net.cpp:406] group0_b10_relu <- group0_b10_bn_top
I0320 13:58:09.270545 137617 net.cpp:367] group0_b10_relu -> group0_b10_bn_top (in-place)
I0320 13:58:09.271039 137617 net.cpp:122] Setting up group0_b10_relu
I0320 13:58:09.271049 137617 net.cpp:129] Top shape: 131 136 32 32 (18243584)
I0320 13:58:09.271064 137617 net.cpp:137] Memory required for data: 2821854756
I0320 13:58:09.271075 137617 layer_factory.hpp:77] Creating layer group0_b10_conv
I0320 13:58:09.271093 137617 net.cpp:84] Creating Layer group0_b10_conv
I0320 13:58:09.271104 137617 net.cpp:406] group0_b10_conv <- group0_b10_bn_top
I0320 13:58:09.271121 137617 net.cpp:380] group0_b10_conv -> group0_b10_conv_top
I0320 13:58:09.273840 137617 net.cpp:122] Setting up group0_b10_conv
I0320 13:58:09.273854 137617 net.cpp:129] Top shape: 131 12 32 32 (1609728)
I0320 13:58:09.273869 137617 net.cpp:137] Memory required for data: 2828293668
I0320 13:58:09.273885 137617 layer_factory.hpp:77] Creating layer group0_b10_dropout
I0320 13:58:09.273900 137617 net.cpp:84] Creating Layer group0_b10_dropout
I0320 13:58:09.273911 137617 net.cpp:406] group0_b10_dropout <- group0_b10_conv_top
I0320 13:58:09.273926 137617 net.cpp:380] group0_b10_dropout -> group0_b10_dropout
I0320 13:58:09.273989 137617 net.cpp:122] Setting up group0_b10_dropout
I0320 13:58:09.273999 137617 net.cpp:129] Top shape: 131 12 32 32 (1609728)
I0320 13:58:09.274014 137617 net.cpp:137] Memory required for data: 2834732580
I0320 13:58:09.274025 137617 layer_factory.hpp:77] Creating layer group0_b10_concat
I0320 13:58:09.274039 137617 net.cpp:84] Creating Layer group0_b10_concat
I0320 13:58:09.274050 137617 net.cpp:406] group0_b10_concat <- group0_b10_dropout
I0320 13:58:09.274063 137617 net.cpp:406] group0_b10_concat <- group0_b9_concat_group0_b9_concat_0_split_1
I0320 13:58:09.274078 137617 net.cpp:380] group0_b10_concat -> group0_b10_concat
I0320 13:58:09.274123 137617 net.cpp:122] Setting up group0_b10_concat
I0320 13:58:09.274134 137617 net.cpp:129] Top shape: 131 148 32 32 (19853312)
I0320 13:58:09.274149 137617 net.cpp:137] Memory required for data: 2914145828
I0320 13:58:09.274159 137617 layer_factory.hpp:77] Creating layer group0_b10_concat_group0_b10_concat_0_split
I0320 13:58:09.274173 137617 net.cpp:84] Creating Layer group0_b10_concat_group0_b10_concat_0_split
I0320 13:58:09.274184 137617 net.cpp:406] group0_b10_concat_group0_b10_concat_0_split <- group0_b10_concat
I0320 13:58:09.274199 137617 net.cpp:380] group0_b10_concat_group0_b10_concat_0_split -> group0_b10_concat_group0_b10_concat_0_split_0
I0320 13:58:09.274215 137617 net.cpp:380] group0_b10_concat_group0_b10_concat_0_split -> group0_b10_concat_group0_b10_concat_0_split_1
I0320 13:58:09.274278 137617 net.cpp:122] Setting up group0_b10_concat_group0_b10_concat_0_split
I0320 13:58:09.274288 137617 net.cpp:129] Top shape: 131 148 32 32 (19853312)
I0320 13:58:09.274303 137617 net.cpp:129] Top shape: 131 148 32 32 (19853312)
I0320 13:58:09.274317 137617 net.cpp:137] Memory required for data: 3072972324
I0320 13:58:09.274327 137617 layer_factory.hpp:77] Creating layer group0_b11_bn
I0320 13:58:09.274343 137617 net.cpp:84] Creating Layer group0_b11_bn
I0320 13:58:09.274353 137617 net.cpp:406] group0_b11_bn <- group0_b10_concat_group0_b10_concat_0_split_0
I0320 13:58:09.274369 137617 net.cpp:380] group0_b11_bn -> group0_b11_bn_top
I0320 13:58:09.274649 137617 net.cpp:122] Setting up group0_b11_bn
I0320 13:58:09.274659 137617 net.cpp:129] Top shape: 131 148 32 32 (19853312)
I0320 13:58:09.274675 137617 net.cpp:137] Memory required for data: 3152385572
I0320 13:58:09.274696 137617 layer_factory.hpp:77] Creating layer group0_b11_scale
I0320 13:58:09.274713 137617 net.cpp:84] Creating Layer group0_b11_scale
I0320 13:58:09.274724 137617 net.cpp:406] group0_b11_scale <- group0_b11_bn_top
I0320 13:58:09.274739 137617 net.cpp:367] group0_b11_scale -> group0_b11_bn_top (in-place)
I0320 13:58:09.274801 137617 layer_factory.hpp:77] Creating layer group0_b11_scale
I0320 13:58:09.274958 137617 net.cpp:122] Setting up group0_b11_scale
I0320 13:58:09.274968 137617 net.cpp:129] Top shape: 131 148 32 32 (19853312)
I0320 13:58:09.274983 137617 net.cpp:137] Memory required for data: 3231798820
I0320 13:58:09.275002 137617 layer_factory.hpp:77] Creating layer group0_b11_relu
I0320 13:58:09.275017 137617 net.cpp:84] Creating Layer group0_b11_relu
I0320 13:58:09.275028 137617 net.cpp:406] group0_b11_relu <- group0_b11_bn_top
I0320 13:58:09.275041 137617 net.cpp:367] group0_b11_relu -> group0_b11_bn_top (in-place)
I0320 13:58:09.275544 137617 net.cpp:122] Setting up group0_b11_relu
I0320 13:58:09.275554 137617 net.cpp:129] Top shape: 131 148 32 32 (19853312)
I0320 13:58:09.275569 137617 net.cpp:137] Memory required for data: 3311212068
I0320 13:58:09.275580 137617 layer_factory.hpp:77] Creating layer group0_b11_conv
I0320 13:58:09.275600 137617 net.cpp:84] Creating Layer group0_b11_conv
I0320 13:58:09.275611 137617 net.cpp:406] group0_b11_conv <- group0_b11_bn_top
I0320 13:58:09.275627 137617 net.cpp:380] group0_b11_conv -> group0_b11_conv_top
I0320 13:58:09.277907 137617 net.cpp:122] Setting up group0_b11_conv
I0320 13:58:09.277920 137617 net.cpp:129] Top shape: 131 12 32 32 (1609728)
I0320 13:58:09.277937 137617 net.cpp:137] Memory required for data: 3317650980
I0320 13:58:09.277952 137617 layer_factory.hpp:77] Creating layer group0_b11_dropout
I0320 13:58:09.277966 137617 net.cpp:84] Creating Layer group0_b11_dropout
I0320 13:58:09.277978 137617 net.cpp:406] group0_b11_dropout <- group0_b11_conv_top
I0320 13:58:09.277993 137617 net.cpp:380] group0_b11_dropout -> group0_b11_dropout
I0320 13:58:09.278055 137617 net.cpp:122] Setting up group0_b11_dropout
I0320 13:58:09.278065 137617 net.cpp:129] Top shape: 131 12 32 32 (1609728)
I0320 13:58:09.278081 137617 net.cpp:137] Memory required for data: 3324089892
I0320 13:58:09.278091 137617 layer_factory.hpp:77] Creating layer group0_b11_concat
I0320 13:58:09.278105 137617 net.cpp:84] Creating Layer group0_b11_concat
I0320 13:58:09.278117 137617 net.cpp:406] group0_b11_concat <- group0_b11_dropout
I0320 13:58:09.278129 137617 net.cpp:406] group0_b11_concat <- group0_b10_concat_group0_b10_concat_0_split_1
I0320 13:58:09.278144 137617 net.cpp:380] group0_b11_concat -> group0_b11_concat
I0320 13:58:09.278189 137617 net.cpp:122] Setting up group0_b11_concat
I0320 13:58:09.278200 137617 net.cpp:129] Top shape: 131 160 32 32 (21463040)
I0320 13:58:09.278215 137617 net.cpp:137] Memory required for data: 3409942052
I0320 13:58:09.278225 137617 layer_factory.hpp:77] Creating layer group0_b12_bn
I0320 13:58:09.278240 137617 net.cpp:84] Creating Layer group0_b12_bn
I0320 13:58:09.278251 137617 net.cpp:406] group0_b12_bn <- group0_b11_concat
I0320 13:58:09.278266 137617 net.cpp:380] group0_b12_bn -> group0_b12_bn_top
I0320 13:58:09.278553 137617 net.cpp:122] Setting up group0_b12_bn
I0320 13:58:09.278563 137617 net.cpp:129] Top shape: 131 160 32 32 (21463040)
I0320 13:58:09.278578 137617 net.cpp:137] Memory required for data: 3495794212
I0320 13:58:09.278600 137617 layer_factory.hpp:77] Creating layer group0_b12_scale
I0320 13:58:09.278615 137617 net.cpp:84] Creating Layer group0_b12_scale
I0320 13:58:09.278627 137617 net.cpp:406] group0_b12_scale <- group0_b12_bn_top
I0320 13:58:09.278642 137617 net.cpp:367] group0_b12_scale -> group0_b12_bn_top (in-place)
I0320 13:58:09.278703 137617 layer_factory.hpp:77] Creating layer group0_b12_scale
I0320 13:58:09.278856 137617 net.cpp:122] Setting up group0_b12_scale
I0320 13:58:09.278867 137617 net.cpp:129] Top shape: 131 160 32 32 (21463040)
I0320 13:58:09.278882 137617 net.cpp:137] Memory required for data: 3581646372
I0320 13:58:09.278899 137617 layer_factory.hpp:77] Creating layer group0_b12_relu
I0320 13:58:09.278913 137617 net.cpp:84] Creating Layer group0_b12_relu
I0320 13:58:09.278924 137617 net.cpp:406] group0_b12_relu <- group0_b12_bn_top
I0320 13:58:09.278939 137617 net.cpp:367] group0_b12_relu -> group0_b12_bn_top (in-place)
I0320 13:58:09.279870 137617 net.cpp:122] Setting up group0_b12_relu
I0320 13:58:09.279882 137617 net.cpp:129] Top shape: 131 160 32 32 (21463040)
I0320 13:58:09.279897 137617 net.cpp:137] Memory required for data: 3667498532
I0320 13:58:09.279909 137617 layer_factory.hpp:77] Creating layer group0_b12_conv
I0320 13:58:09.279928 137617 net.cpp:84] Creating Layer group0_b12_conv
I0320 13:58:09.279940 137617 net.cpp:406] group0_b12_conv <- group0_b12_bn_top
I0320 13:58:09.279956 137617 net.cpp:380] group0_b12_conv -> group0_b12_conv_top
I0320 13:58:09.283136 137617 net.cpp:122] Setting up group0_b12_conv
I0320 13:58:09.283154 137617 net.cpp:129] Top shape: 131 160 32 32 (21463040)
I0320 13:58:09.283170 137617 net.cpp:137] Memory required for data: 3753350692
I0320 13:58:09.283187 137617 layer_factory.hpp:77] Creating layer group0_b12_dropout
I0320 13:58:09.283203 137617 net.cpp:84] Creating Layer group0_b12_dropout
I0320 13:58:09.283216 137617 net.cpp:406] group0_b12_dropout <- group0_b12_conv_top
I0320 13:58:09.283232 137617 net.cpp:380] group0_b12_dropout -> group0_b12_dropout
I0320 13:58:09.283299 137617 net.cpp:122] Setting up group0_b12_dropout
I0320 13:58:09.283309 137617 net.cpp:129] Top shape: 131 160 32 32 (21463040)
I0320 13:58:09.283324 137617 net.cpp:137] Memory required for data: 3839202852
I0320 13:58:09.283335 137617 layer_factory.hpp:77] Creating layer group0_b12_pool
I0320 13:58:09.283352 137617 net.cpp:84] Creating Layer group0_b12_pool
I0320 13:58:09.283365 137617 net.cpp:406] group0_b12_pool <- group0_b12_dropout
I0320 13:58:09.283378 137617 net.cpp:380] group0_b12_pool -> group0_b12_pool
I0320 13:58:09.283949 137617 net.cpp:122] Setting up group0_b12_pool
I0320 13:58:09.283962 137617 net.cpp:129] Top shape: 131 160 16 16 (5365760)
I0320 13:58:09.283977 137617 net.cpp:137] Memory required for data: 3860665892
I0320 13:58:09.283987 137617 layer_factory.hpp:77] Creating layer group0_b12_pool_group0_b12_pool_0_split
I0320 13:58:09.284001 137617 net.cpp:84] Creating Layer group0_b12_pool_group0_b12_pool_0_split
I0320 13:58:09.284013 137617 net.cpp:406] group0_b12_pool_group0_b12_pool_0_split <- group0_b12_pool
I0320 13:58:09.284027 137617 net.cpp:380] group0_b12_pool_group0_b12_pool_0_split -> group0_b12_pool_group0_b12_pool_0_split_0
I0320 13:58:09.284044 137617 net.cpp:380] group0_b12_pool_group0_b12_pool_0_split -> group0_b12_pool_group0_b12_pool_0_split_1
I0320 13:58:09.284109 137617 net.cpp:122] Setting up group0_b12_pool_group0_b12_pool_0_split
I0320 13:58:09.284119 137617 net.cpp:129] Top shape: 131 160 16 16 (5365760)
I0320 13:58:09.284134 137617 net.cpp:129] Top shape: 131 160 16 16 (5365760)
I0320 13:58:09.284148 137617 net.cpp:137] Memory required for data: 3903591972
I0320 13:58:09.284159 137617 layer_factory.hpp:77] Creating layer group1_b0_bn
I0320 13:58:09.284174 137617 net.cpp:84] Creating Layer group1_b0_bn
I0320 13:58:09.284185 137617 net.cpp:406] group1_b0_bn <- group0_b12_pool_group0_b12_pool_0_split_0
I0320 13:58:09.284201 137617 net.cpp:380] group1_b0_bn -> group1_b0_bn_top
I0320 13:58:09.284489 137617 net.cpp:122] Setting up group1_b0_bn
I0320 13:58:09.284499 137617 net.cpp:129] Top shape: 131 160 16 16 (5365760)
I0320 13:58:09.284514 137617 net.cpp:137] Memory required for data: 3925055012
I0320 13:58:09.284536 137617 layer_factory.hpp:77] Creating layer group1_b0_scale
I0320 13:58:09.284554 137617 net.cpp:84] Creating Layer group1_b0_scale
I0320 13:58:09.284565 137617 net.cpp:406] group1_b0_scale <- group1_b0_bn_top
I0320 13:58:09.284580 137617 net.cpp:367] group1_b0_scale -> group1_b0_bn_top (in-place)
I0320 13:58:09.284644 137617 layer_factory.hpp:77] Creating layer group1_b0_scale
I0320 13:58:09.284801 137617 net.cpp:122] Setting up group1_b0_scale
I0320 13:58:09.284811 137617 net.cpp:129] Top shape: 131 160 16 16 (5365760)
I0320 13:58:09.284826 137617 net.cpp:137] Memory required for data: 3946518052
I0320 13:58:09.284844 137617 layer_factory.hpp:77] Creating layer group1_b0_relu
I0320 13:58:09.284858 137617 net.cpp:84] Creating Layer group1_b0_relu
I0320 13:58:09.284870 137617 net.cpp:406] group1_b0_relu <- group1_b0_bn_top
I0320 13:58:09.284884 137617 net.cpp:367] group1_b0_relu -> group1_b0_bn_top (in-place)
I0320 13:58:09.285379 137617 net.cpp:122] Setting up group1_b0_relu
I0320 13:58:09.285389 137617 net.cpp:129] Top shape: 131 160 16 16 (5365760)
I0320 13:58:09.285405 137617 net.cpp:137] Memory required for data: 3967981092
I0320 13:58:09.285416 137617 layer_factory.hpp:77] Creating layer group1_b0_conv
I0320 13:58:09.285435 137617 net.cpp:84] Creating Layer group1_b0_conv
I0320 13:58:09.285446 137617 net.cpp:406] group1_b0_conv <- group1_b0_bn_top
I0320 13:58:09.285462 137617 net.cpp:380] group1_b0_conv -> group1_b0_conv_top
I0320 13:58:09.288743 137617 net.cpp:122] Setting up group1_b0_conv
I0320 13:58:09.288756 137617 net.cpp:129] Top shape: 131 12 16 16 (402432)
I0320 13:58:09.288772 137617 net.cpp:137] Memory required for data: 3969590820
I0320 13:58:09.288787 137617 layer_factory.hpp:77] Creating layer group1_b0_dropout
I0320 13:58:09.288803 137617 net.cpp:84] Creating Layer group1_b0_dropout
I0320 13:58:09.288815 137617 net.cpp:406] group1_b0_dropout <- group1_b0_conv_top
I0320 13:58:09.288830 137617 net.cpp:380] group1_b0_dropout -> group1_b0_dropout
I0320 13:58:09.288893 137617 net.cpp:122] Setting up group1_b0_dropout
I0320 13:58:09.288904 137617 net.cpp:129] Top shape: 131 12 16 16 (402432)
I0320 13:58:09.288919 137617 net.cpp:137] Memory required for data: 3971200548
I0320 13:58:09.288930 137617 layer_factory.hpp:77] Creating layer group1_b0_concat
I0320 13:58:09.288945 137617 net.cpp:84] Creating Layer group1_b0_concat
I0320 13:58:09.288956 137617 net.cpp:406] group1_b0_concat <- group1_b0_dropout
I0320 13:58:09.288969 137617 net.cpp:406] group1_b0_concat <- group0_b12_pool_group0_b12_pool_0_split_1
I0320 13:58:09.288985 137617 net.cpp:380] group1_b0_concat -> group1_b0_concat
I0320 13:58:09.289029 137617 net.cpp:122] Setting up group1_b0_concat
I0320 13:58:09.289041 137617 net.cpp:129] Top shape: 131 172 16 16 (5768192)
I0320 13:58:09.289055 137617 net.cpp:137] Memory required for data: 3994273316
I0320 13:58:09.289067 137617 layer_factory.hpp:77] Creating layer group1_b0_concat_group1_b0_concat_0_split
I0320 13:58:09.289080 137617 net.cpp:84] Creating Layer group1_b0_concat_group1_b0_concat_0_split
I0320 13:58:09.289091 137617 net.cpp:406] group1_b0_concat_group1_b0_concat_0_split <- group1_b0_concat
I0320 13:58:09.289105 137617 net.cpp:380] group1_b0_concat_group1_b0_concat_0_split -> group1_b0_concat_group1_b0_concat_0_split_0
I0320 13:58:09.289122 137617 net.cpp:380] group1_b0_concat_group1_b0_concat_0_split -> group1_b0_concat_group1_b0_concat_0_split_1
I0320 13:58:09.289186 137617 net.cpp:122] Setting up group1_b0_concat_group1_b0_concat_0_split
I0320 13:58:09.289196 137617 net.cpp:129] Top shape: 131 172 16 16 (5768192)
I0320 13:58:09.289211 137617 net.cpp:129] Top shape: 131 172 16 16 (5768192)
I0320 13:58:09.289224 137617 net.cpp:137] Memory required for data: 4040418852
I0320 13:58:09.289235 137617 layer_factory.hpp:77] Creating layer group1_b1_bn
I0320 13:58:09.289249 137617 net.cpp:84] Creating Layer group1_b1_bn
I0320 13:58:09.289260 137617 net.cpp:406] group1_b1_bn <- group1_b0_concat_group1_b0_concat_0_split_0
I0320 13:58:09.289276 137617 net.cpp:380] group1_b1_bn -> group1_b1_bn_top
I0320 13:58:09.289566 137617 net.cpp:122] Setting up group1_b1_bn
I0320 13:58:09.289577 137617 net.cpp:129] Top shape: 131 172 16 16 (5768192)
I0320 13:58:09.289592 137617 net.cpp:137] Memory required for data: 4063491620
I0320 13:58:09.289613 137617 layer_factory.hpp:77] Creating layer group1_b1_scale
I0320 13:58:09.289629 137617 net.cpp:84] Creating Layer group1_b1_scale
I0320 13:58:09.289640 137617 net.cpp:406] group1_b1_scale <- group1_b1_bn_top
I0320 13:58:09.289655 137617 net.cpp:367] group1_b1_scale -> group1_b1_bn_top (in-place)
I0320 13:58:09.289717 137617 layer_factory.hpp:77] Creating layer group1_b1_scale
I0320 13:58:09.289875 137617 net.cpp:122] Setting up group1_b1_scale
I0320 13:58:09.289885 137617 net.cpp:129] Top shape: 131 172 16 16 (5768192)
I0320 13:58:09.289899 137617 net.cpp:137] Memory required for data: 4086564388
I0320 13:58:09.289918 137617 layer_factory.hpp:77] Creating layer group1_b1_relu
I0320 13:58:09.289932 137617 net.cpp:84] Creating Layer group1_b1_relu
I0320 13:58:09.289943 137617 net.cpp:406] group1_b1_relu <- group1_b1_bn_top
I0320 13:58:09.289958 137617 net.cpp:367] group1_b1_relu -> group1_b1_bn_top (in-place)
I0320 13:58:09.290894 137617 net.cpp:122] Setting up group1_b1_relu
I0320 13:58:09.290904 137617 net.cpp:129] Top shape: 131 172 16 16 (5768192)
I0320 13:58:09.290920 137617 net.cpp:137] Memory required for data: 4109637156
I0320 13:58:09.290931 137617 layer_factory.hpp:77] Creating layer group1_b1_conv
I0320 13:58:09.290951 137617 net.cpp:84] Creating Layer group1_b1_conv
I0320 13:58:09.290962 137617 net.cpp:406] group1_b1_conv <- group1_b1_bn_top
I0320 13:58:09.290979 137617 net.cpp:380] group1_b1_conv -> group1_b1_conv_top
I0320 13:58:09.293278 137617 net.cpp:122] Setting up group1_b1_conv
I0320 13:58:09.293292 137617 net.cpp:129] Top shape: 131 12 16 16 (402432)
I0320 13:58:09.293306 137617 net.cpp:137] Memory required for data: 4111246884
I0320 13:58:09.293321 137617 layer_factory.hpp:77] Creating layer group1_b1_dropout
I0320 13:58:09.293336 137617 net.cpp:84] Creating Layer group1_b1_dropout
I0320 13:58:09.293349 137617 net.cpp:406] group1_b1_dropout <- group1_b1_conv_top
I0320 13:58:09.293364 137617 net.cpp:380] group1_b1_dropout -> group1_b1_dropout
I0320 13:58:09.293426 137617 net.cpp:122] Setting up group1_b1_dropout
I0320 13:58:09.293437 137617 net.cpp:129] Top shape: 131 12 16 16 (402432)
I0320 13:58:09.293452 137617 net.cpp:137] Memory required for data: 4112856612
I0320 13:58:09.293463 137617 layer_factory.hpp:77] Creating layer group1_b1_concat
I0320 13:58:09.293476 137617 net.cpp:84] Creating Layer group1_b1_concat
I0320 13:58:09.293488 137617 net.cpp:406] group1_b1_concat <- group1_b1_dropout
I0320 13:58:09.293500 137617 net.cpp:406] group1_b1_concat <- group1_b0_concat_group1_b0_concat_0_split_1
I0320 13:58:09.293515 137617 net.cpp:380] group1_b1_concat -> group1_b1_concat
I0320 13:58:09.293561 137617 net.cpp:122] Setting up group1_b1_concat
I0320 13:58:09.293571 137617 net.cpp:129] Top shape: 131 184 16 16 (6170624)
I0320 13:58:09.293586 137617 net.cpp:137] Memory required for data: 4137539108
I0320 13:58:09.293597 137617 layer_factory.hpp:77] Creating layer group1_b1_concat_group1_b1_concat_0_split
I0320 13:58:09.293612 137617 net.cpp:84] Creating Layer group1_b1_concat_group1_b1_concat_0_split
I0320 13:58:09.293622 137617 net.cpp:406] group1_b1_concat_group1_b1_concat_0_split <- group1_b1_concat
I0320 13:58:09.293637 137617 net.cpp:380] group1_b1_concat_group1_b1_concat_0_split -> group1_b1_concat_group1_b1_concat_0_split_0
I0320 13:58:09.293653 137617 net.cpp:380] group1_b1_concat_group1_b1_concat_0_split -> group1_b1_concat_group1_b1_concat_0_split_1
I0320 13:58:09.293716 137617 net.cpp:122] Setting up group1_b1_concat_group1_b1_concat_0_split
I0320 13:58:09.293726 137617 net.cpp:129] Top shape: 131 184 16 16 (6170624)
I0320 13:58:09.293741 137617 net.cpp:129] Top shape: 131 184 16 16 (6170624)
I0320 13:58:09.293756 137617 net.cpp:137] Memory required for data: 4186904100
I0320 13:58:09.293766 137617 layer_factory.hpp:77] Creating layer group1_b2_bn
I0320 13:58:09.293779 137617 net.cpp:84] Creating Layer group1_b2_bn
I0320 13:58:09.293790 137617 net.cpp:406] group1_b2_bn <- group1_b1_concat_group1_b1_concat_0_split_0
I0320 13:58:09.293805 137617 net.cpp:380] group1_b2_bn -> group1_b2_bn_top
I0320 13:58:09.294087 137617 net.cpp:122] Setting up group1_b2_bn
I0320 13:58:09.294097 137617 net.cpp:129] Top shape: 131 184 16 16 (6170624)
I0320 13:58:09.294112 137617 net.cpp:137] Memory required for data: 4211586596
I0320 13:58:09.294133 137617 layer_factory.hpp:77] Creating layer group1_b2_scale
I0320 13:58:09.294149 137617 net.cpp:84] Creating Layer group1_b2_scale
I0320 13:58:09.294160 137617 net.cpp:406] group1_b2_scale <- group1_b2_bn_top
I0320 13:58:09.294175 137617 net.cpp:367] group1_b2_scale -> group1_b2_bn_top (in-place)
I0320 13:58:09.294242 137617 layer_factory.hpp:77] Creating layer group1_b2_scale
I0320 13:58:09.294399 137617 net.cpp:122] Setting up group1_b2_scale
I0320 13:58:09.294409 137617 net.cpp:129] Top shape: 131 184 16 16 (6170624)
I0320 13:58:09.294423 137617 net.cpp:137] Memory required for data: 4236269092
I0320 13:58:09.294441 137617 layer_factory.hpp:77] Creating layer group1_b2_relu
I0320 13:58:09.294456 137617 net.cpp:84] Creating Layer group1_b2_relu
I0320 13:58:09.294466 137617 net.cpp:406] group1_b2_relu <- group1_b2_bn_top
I0320 13:58:09.294481 137617 net.cpp:367] group1_b2_relu -> group1_b2_bn_top (in-place)
I0320 13:58:09.294970 137617 net.cpp:122] Setting up group1_b2_relu
I0320 13:58:09.294980 137617 net.cpp:129] Top shape: 131 184 16 16 (6170624)
I0320 13:58:09.294994 137617 net.cpp:137] Memory required for data: 4260951588
I0320 13:58:09.295006 137617 layer_factory.hpp:77] Creating layer group1_b2_conv
I0320 13:58:09.295024 137617 net.cpp:84] Creating Layer group1_b2_conv
I0320 13:58:09.295037 137617 net.cpp:406] group1_b2_conv <- group1_b2_bn_top
I0320 13:58:09.295053 137617 net.cpp:380] group1_b2_conv -> group1_b2_conv_top
I0320 13:58:09.297832 137617 net.cpp:122] Setting up group1_b2_conv
I0320 13:58:09.297843 137617 net.cpp:129] Top shape: 131 12 16 16 (402432)
I0320 13:58:09.297859 137617 net.cpp:137] Memory required for data: 4262561316
I0320 13:58:09.297874 137617 layer_factory.hpp:77] Creating layer group1_b2_dropout
I0320 13:58:09.297889 137617 net.cpp:84] Creating Layer group1_b2_dropout
I0320 13:58:09.297900 137617 net.cpp:406] group1_b2_dropout <- group1_b2_conv_top
I0320 13:58:09.297915 137617 net.cpp:380] group1_b2_dropout -> group1_b2_dropout
I0320 13:58:09.297979 137617 net.cpp:122] Setting up group1_b2_dropout
I0320 13:58:09.297989 137617 net.cpp:129] Top shape: 131 12 16 16 (402432)
I0320 13:58:09.298004 137617 net.cpp:137] Memory required for data: 4264171044
I0320 13:58:09.298014 137617 layer_factory.hpp:77] Creating layer group1_b2_concat
I0320 13:58:09.298029 137617 net.cpp:84] Creating Layer group1_b2_concat
I0320 13:58:09.298040 137617 net.cpp:406] group1_b2_concat <- group1_b2_dropout
I0320 13:58:09.298053 137617 net.cpp:406] group1_b2_concat <- group1_b1_concat_group1_b1_concat_0_split_1
I0320 13:58:09.298069 137617 net.cpp:380] group1_b2_concat -> group1_b2_concat
I0320 13:58:09.298115 137617 net.cpp:122] Setting up group1_b2_concat
I0320 13:58:09.298125 137617 net.cpp:129] Top shape: 131 196 16 16 (6573056)
I0320 13:58:09.298141 137617 net.cpp:137] Memory required for data: 4290463268
I0320 13:58:09.298151 137617 layer_factory.hpp:77] Creating layer group1_b2_concat_group1_b2_concat_0_split
I0320 13:58:09.298166 137617 net.cpp:84] Creating Layer group1_b2_concat_group1_b2_concat_0_split
I0320 13:58:09.298177 137617 net.cpp:406] group1_b2_concat_group1_b2_concat_0_split <- group1_b2_concat
I0320 13:58:09.298194 137617 net.cpp:380] group1_b2_concat_group1_b2_concat_0_split -> group1_b2_concat_group1_b2_concat_0_split_0
I0320 13:58:09.298213 137617 net.cpp:380] group1_b2_concat_group1_b2_concat_0_split -> group1_b2_concat_group1_b2_concat_0_split_1
I0320 13:58:09.298274 137617 net.cpp:122] Setting up group1_b2_concat_group1_b2_concat_0_split
I0320 13:58:09.298285 137617 net.cpp:129] Top shape: 131 196 16 16 (6573056)
I0320 13:58:09.298300 137617 net.cpp:129] Top shape: 131 196 16 16 (6573056)
I0320 13:58:09.298312 137617 net.cpp:137] Memory required for data: 4343047716
I0320 13:58:09.298323 137617 layer_factory.hpp:77] Creating layer group1_b3_bn
I0320 13:58:09.298337 137617 net.cpp:84] Creating Layer group1_b3_bn
I0320 13:58:09.298348 137617 net.cpp:406] group1_b3_bn <- group1_b2_concat_group1_b2_concat_0_split_0
I0320 13:58:09.298363 137617 net.cpp:380] group1_b3_bn -> group1_b3_bn_top
I0320 13:58:09.298648 137617 net.cpp:122] Setting up group1_b3_bn
I0320 13:58:09.298660 137617 net.cpp:129] Top shape: 131 196 16 16 (6573056)
I0320 13:58:09.298674 137617 net.cpp:137] Memory required for data: 4369339940
I0320 13:58:09.298696 137617 layer_factory.hpp:77] Creating layer group1_b3_scale
I0320 13:58:09.298712 137617 net.cpp:84] Creating Layer group1_b3_scale
I0320 13:58:09.298723 137617 net.cpp:406] group1_b3_scale <- group1_b3_bn_top
I0320 13:58:09.298738 137617 net.cpp:367] group1_b3_scale -> group1_b3_bn_top (in-place)
I0320 13:58:09.298799 137617 layer_factory.hpp:77] Creating layer group1_b3_scale
I0320 13:58:09.298954 137617 net.cpp:122] Setting up group1_b3_scale
I0320 13:58:09.298964 137617 net.cpp:129] Top shape: 131 196 16 16 (6573056)
I0320 13:58:09.298980 137617 net.cpp:137] Memory required for data: 4395632164
I0320 13:58:09.298998 137617 layer_factory.hpp:77] Creating layer group1_b3_relu
I0320 13:58:09.299012 137617 net.cpp:84] Creating Layer group1_b3_relu
I0320 13:58:09.299023 137617 net.cpp:406] group1_b3_relu <- group1_b3_bn_top
I0320 13:58:09.299038 137617 net.cpp:367] group1_b3_relu -> group1_b3_bn_top (in-place)
I0320 13:58:09.299537 137617 net.cpp:122] Setting up group1_b3_relu
I0320 13:58:09.299548 137617 net.cpp:129] Top shape: 131 196 16 16 (6573056)
I0320 13:58:09.299563 137617 net.cpp:137] Memory required for data: 4421924388
I0320 13:58:09.299574 137617 layer_factory.hpp:77] Creating layer group1_b3_conv
I0320 13:58:09.299592 137617 net.cpp:84] Creating Layer group1_b3_conv
I0320 13:58:09.299604 137617 net.cpp:406] group1_b3_conv <- group1_b3_bn_top
I0320 13:58:09.299620 137617 net.cpp:380] group1_b3_conv -> group1_b3_conv_top
I0320 13:58:09.302423 137617 net.cpp:122] Setting up group1_b3_conv
I0320 13:58:09.302435 137617 net.cpp:129] Top shape: 131 12 16 16 (402432)
I0320 13:58:09.302451 137617 net.cpp:137] Memory required for data: 4423534116
I0320 13:58:09.302466 137617 layer_factory.hpp:77] Creating layer group1_b3_dropout
I0320 13:58:09.302481 137617 net.cpp:84] Creating Layer group1_b3_dropout
I0320 13:58:09.302492 137617 net.cpp:406] group1_b3_dropout <- group1_b3_conv_top
I0320 13:58:09.302507 137617 net.cpp:380] group1_b3_dropout -> group1_b3_dropout
I0320 13:58:09.302570 137617 net.cpp:122] Setting up group1_b3_dropout
I0320 13:58:09.302580 137617 net.cpp:129] Top shape: 131 12 16 16 (402432)
I0320 13:58:09.302595 137617 net.cpp:137] Memory required for data: 4425143844
I0320 13:58:09.302606 137617 layer_factory.hpp:77] Creating layer group1_b3_concat
I0320 13:58:09.302620 137617 net.cpp:84] Creating Layer group1_b3_concat
I0320 13:58:09.302631 137617 net.cpp:406] group1_b3_concat <- group1_b3_dropout
I0320 13:58:09.302644 137617 net.cpp:406] group1_b3_concat <- group1_b2_concat_group1_b2_concat_0_split_1
I0320 13:58:09.302659 137617 net.cpp:380] group1_b3_concat -> group1_b3_concat
I0320 13:58:09.302705 137617 net.cpp:122] Setting up group1_b3_concat
I0320 13:58:09.302716 137617 net.cpp:129] Top shape: 131 208 16 16 (6975488)
I0320 13:58:09.302731 137617 net.cpp:137] Memory required for data: 4453045796
I0320 13:58:09.302742 137617 layer_factory.hpp:77] Creating layer group1_b3_concat_group1_b3_concat_0_split
I0320 13:58:09.302754 137617 net.cpp:84] Creating Layer group1_b3_concat_group1_b3_concat_0_split
I0320 13:58:09.302765 137617 net.cpp:406] group1_b3_concat_group1_b3_concat_0_split <- group1_b3_concat
I0320 13:58:09.302779 137617 net.cpp:380] group1_b3_concat_group1_b3_concat_0_split -> group1_b3_concat_group1_b3_concat_0_split_0
I0320 13:58:09.302796 137617 net.cpp:380] group1_b3_concat_group1_b3_concat_0_split -> group1_b3_concat_group1_b3_concat_0_split_1
I0320 13:58:09.302860 137617 net.cpp:122] Setting up group1_b3_concat_group1_b3_concat_0_split
I0320 13:58:09.302870 137617 net.cpp:129] Top shape: 131 208 16 16 (6975488)
I0320 13:58:09.302886 137617 net.cpp:129] Top shape: 131 208 16 16 (6975488)
I0320 13:58:09.302899 137617 net.cpp:137] Memory required for data: 4508849700
I0320 13:58:09.302911 137617 layer_factory.hpp:77] Creating layer group1_b4_bn
I0320 13:58:09.302924 137617 net.cpp:84] Creating Layer group1_b4_bn
I0320 13:58:09.302934 137617 net.cpp:406] group1_b4_bn <- group1_b3_concat_group1_b3_concat_0_split_0
I0320 13:58:09.302950 137617 net.cpp:380] group1_b4_bn -> group1_b4_bn_top
I0320 13:58:09.303244 137617 net.cpp:122] Setting up group1_b4_bn
I0320 13:58:09.303256 137617 net.cpp:129] Top shape: 131 208 16 16 (6975488)
I0320 13:58:09.303269 137617 net.cpp:137] Memory required for data: 4536751652
I0320 13:58:09.303292 137617 layer_factory.hpp:77] Creating layer group1_b4_scale
I0320 13:58:09.303308 137617 net.cpp:84] Creating Layer group1_b4_scale
I0320 13:58:09.303319 137617 net.cpp:406] group1_b4_scale <- group1_b4_bn_top
I0320 13:58:09.303333 137617 net.cpp:367] group1_b4_scale -> group1_b4_bn_top (in-place)
I0320 13:58:09.303396 137617 layer_factory.hpp:77] Creating layer group1_b4_scale
I0320 13:58:09.303555 137617 net.cpp:122] Setting up group1_b4_scale
I0320 13:58:09.303565 137617 net.cpp:129] Top shape: 131 208 16 16 (6975488)
I0320 13:58:09.303580 137617 net.cpp:137] Memory required for data: 4564653604
I0320 13:58:09.303597 137617 layer_factory.hpp:77] Creating layer group1_b4_relu
I0320 13:58:09.303611 137617 net.cpp:84] Creating Layer group1_b4_relu
I0320 13:58:09.303622 137617 net.cpp:406] group1_b4_relu <- group1_b4_bn_top
I0320 13:58:09.303635 137617 net.cpp:367] group1_b4_relu -> group1_b4_bn_top (in-place)
I0320 13:58:09.304131 137617 net.cpp:122] Setting up group1_b4_relu
I0320 13:58:09.304142 137617 net.cpp:129] Top shape: 131 208 16 16 (6975488)
I0320 13:58:09.304157 137617 net.cpp:137] Memory required for data: 4592555556
I0320 13:58:09.304168 137617 layer_factory.hpp:77] Creating layer group1_b4_conv
I0320 13:58:09.304194 137617 net.cpp:84] Creating Layer group1_b4_conv
I0320 13:58:09.304205 137617 net.cpp:406] group1_b4_conv <- group1_b4_bn_top
I0320 13:58:09.304222 137617 net.cpp:380] group1_b4_conv -> group1_b4_conv_top
I0320 13:58:09.307016 137617 net.cpp:122] Setting up group1_b4_conv
I0320 13:58:09.307029 137617 net.cpp:129] Top shape: 131 12 16 16 (402432)
I0320 13:58:09.307044 137617 net.cpp:137] Memory required for data: 4594165284
I0320 13:58:09.307060 137617 layer_factory.hpp:77] Creating layer group1_b4_dropout
I0320 13:58:09.307075 137617 net.cpp:84] Creating Layer group1_b4_dropout
I0320 13:58:09.307086 137617 net.cpp:406] group1_b4_dropout <- group1_b4_conv_top
I0320 13:58:09.307101 137617 net.cpp:380] group1_b4_dropout -> group1_b4_dropout
I0320 13:58:09.307165 137617 net.cpp:122] Setting up group1_b4_dropout
I0320 13:58:09.307175 137617 net.cpp:129] Top shape: 131 12 16 16 (402432)
I0320 13:58:09.307190 137617 net.cpp:137] Memory required for data: 4595775012
I0320 13:58:09.307201 137617 layer_factory.hpp:77] Creating layer group1_b4_concat
I0320 13:58:09.307216 137617 net.cpp:84] Creating Layer group1_b4_concat
I0320 13:58:09.307227 137617 net.cpp:406] group1_b4_concat <- group1_b4_dropout
I0320 13:58:09.307240 137617 net.cpp:406] group1_b4_concat <- group1_b3_concat_group1_b3_concat_0_split_1
I0320 13:58:09.307255 137617 net.cpp:380] group1_b4_concat -> group1_b4_concat
I0320 13:58:09.307301 137617 net.cpp:122] Setting up group1_b4_concat
I0320 13:58:09.307312 137617 net.cpp:129] Top shape: 131 220 16 16 (7377920)
I0320 13:58:09.307327 137617 net.cpp:137] Memory required for data: 4625286692
I0320 13:58:09.307337 137617 layer_factory.hpp:77] Creating layer group1_b4_concat_group1_b4_concat_0_split
I0320 13:58:09.307380 137617 net.cpp:84] Creating Layer group1_b4_concat_group1_b4_concat_0_split
I0320 13:58:09.307390 137617 net.cpp:406] group1_b4_concat_group1_b4_concat_0_split <- group1_b4_concat
I0320 13:58:09.307406 137617 net.cpp:380] group1_b4_concat_group1_b4_concat_0_split -> group1_b4_concat_group1_b4_concat_0_split_0
I0320 13:58:09.307423 137617 net.cpp:380] group1_b4_concat_group1_b4_concat_0_split -> group1_b4_concat_group1_b4_concat_0_split_1
I0320 13:58:09.307482 137617 net.cpp:122] Setting up group1_b4_concat_group1_b4_concat_0_split
I0320 13:58:09.307492 137617 net.cpp:129] Top shape: 131 220 16 16 (7377920)
I0320 13:58:09.307507 137617 net.cpp:129] Top shape: 131 220 16 16 (7377920)
I0320 13:58:09.307521 137617 net.cpp:137] Memory required for data: 4684310052
I0320 13:58:09.307533 137617 layer_factory.hpp:77] Creating layer group1_b5_bn
I0320 13:58:09.307548 137617 net.cpp:84] Creating Layer group1_b5_bn
I0320 13:58:09.307559 137617 net.cpp:406] group1_b5_bn <- group1_b4_concat_group1_b4_concat_0_split_0
I0320 13:58:09.307574 137617 net.cpp:380] group1_b5_bn -> group1_b5_bn_top
I0320 13:58:09.307873 137617 net.cpp:122] Setting up group1_b5_bn
I0320 13:58:09.307883 137617 net.cpp:129] Top shape: 131 220 16 16 (7377920)
I0320 13:58:09.307898 137617 net.cpp:137] Memory required for data: 4713821732
I0320 13:58:09.307919 137617 layer_factory.hpp:77] Creating layer group1_b5_scale
I0320 13:58:09.307935 137617 net.cpp:84] Creating Layer group1_b5_scale
I0320 13:58:09.307947 137617 net.cpp:406] group1_b5_scale <- group1_b5_bn_top
I0320 13:58:09.307961 137617 net.cpp:367] group1_b5_scale -> group1_b5_bn_top (in-place)
I0320 13:58:09.308024 137617 layer_factory.hpp:77] Creating layer group1_b5_scale
I0320 13:58:09.308187 137617 net.cpp:122] Setting up group1_b5_scale
I0320 13:58:09.308197 137617 net.cpp:129] Top shape: 131 220 16 16 (7377920)
I0320 13:58:09.308212 137617 net.cpp:137] Memory required for data: 4743333412
I0320 13:58:09.308229 137617 layer_factory.hpp:77] Creating layer group1_b5_relu
I0320 13:58:09.308243 137617 net.cpp:84] Creating Layer group1_b5_relu
I0320 13:58:09.308255 137617 net.cpp:406] group1_b5_relu <- group1_b5_bn_top
I0320 13:58:09.308269 137617 net.cpp:367] group1_b5_relu -> group1_b5_bn_top (in-place)
I0320 13:58:09.309190 137617 net.cpp:122] Setting up group1_b5_relu
I0320 13:58:09.309201 137617 net.cpp:129] Top shape: 131 220 16 16 (7377920)
I0320 13:58:09.309216 137617 net.cpp:137] Memory required for data: 4772845092
I0320 13:58:09.309227 137617 layer_factory.hpp:77] Creating layer group1_b5_conv
I0320 13:58:09.309247 137617 net.cpp:84] Creating Layer group1_b5_conv
I0320 13:58:09.309258 137617 net.cpp:406] group1_b5_conv <- group1_b5_bn_top
I0320 13:58:09.309274 137617 net.cpp:380] group1_b5_conv -> group1_b5_conv_top
I0320 13:58:09.312105 137617 net.cpp:122] Setting up group1_b5_conv
I0320 13:58:09.312117 137617 net.cpp:129] Top shape: 131 12 16 16 (402432)
I0320 13:58:09.312132 137617 net.cpp:137] Memory required for data: 4774454820
I0320 13:58:09.312149 137617 layer_factory.hpp:77] Creating layer group1_b5_dropout
I0320 13:58:09.312163 137617 net.cpp:84] Creating Layer group1_b5_dropout
I0320 13:58:09.312175 137617 net.cpp:406] group1_b5_dropout <- group1_b5_conv_top
I0320 13:58:09.312191 137617 net.cpp:380] group1_b5_dropout -> group1_b5_dropout
I0320 13:58:09.312255 137617 net.cpp:122] Setting up group1_b5_dropout
I0320 13:58:09.312265 137617 net.cpp:129] Top shape: 131 12 16 16 (402432)
I0320 13:58:09.312280 137617 net.cpp:137] Memory required for data: 4776064548
I0320 13:58:09.312291 137617 layer_factory.hpp:77] Creating layer group1_b5_concat
I0320 13:58:09.312306 137617 net.cpp:84] Creating Layer group1_b5_concat
I0320 13:58:09.312317 137617 net.cpp:406] group1_b5_concat <- group1_b5_dropout
I0320 13:58:09.312330 137617 net.cpp:406] group1_b5_concat <- group1_b4_concat_group1_b4_concat_0_split_1
I0320 13:58:09.312345 137617 net.cpp:380] group1_b5_concat -> group1_b5_concat
I0320 13:58:09.312391 137617 net.cpp:122] Setting up group1_b5_concat
I0320 13:58:09.312402 137617 net.cpp:129] Top shape: 131 232 16 16 (7780352)
I0320 13:58:09.312417 137617 net.cpp:137] Memory required for data: 4807185956
I0320 13:58:09.312428 137617 layer_factory.hpp:77] Creating layer group1_b5_concat_group1_b5_concat_0_split
I0320 13:58:09.312441 137617 net.cpp:84] Creating Layer group1_b5_concat_group1_b5_concat_0_split
I0320 13:58:09.312453 137617 net.cpp:406] group1_b5_concat_group1_b5_concat_0_split <- group1_b5_concat
I0320 13:58:09.312467 137617 net.cpp:380] group1_b5_concat_group1_b5_concat_0_split -> group1_b5_concat_group1_b5_concat_0_split_0
I0320 13:58:09.312484 137617 net.cpp:380] group1_b5_concat_group1_b5_concat_0_split -> group1_b5_concat_group1_b5_concat_0_split_1
I0320 13:58:09.312551 137617 net.cpp:122] Setting up group1_b5_concat_group1_b5_concat_0_split
I0320 13:58:09.312561 137617 net.cpp:129] Top shape: 131 232 16 16 (7780352)
I0320 13:58:09.312577 137617 net.cpp:129] Top shape: 131 232 16 16 (7780352)
I0320 13:58:09.312590 137617 net.cpp:137] Memory required for data: 4869428772
I0320 13:58:09.312602 137617 layer_factory.hpp:77] Creating layer group1_b6_bn
I0320 13:58:09.312616 137617 net.cpp:84] Creating Layer group1_b6_bn
I0320 13:58:09.312628 137617 net.cpp:406] group1_b6_bn <- group1_b5_concat_group1_b5_concat_0_split_0
I0320 13:58:09.312644 137617 net.cpp:380] group1_b6_bn -> group1_b6_bn_top
I0320 13:58:09.312933 137617 net.cpp:122] Setting up group1_b6_bn
I0320 13:58:09.312943 137617 net.cpp:129] Top shape: 131 232 16 16 (7780352)
I0320 13:58:09.312958 137617 net.cpp:137] Memory required for data: 4900550180
I0320 13:58:09.312980 137617 layer_factory.hpp:77] Creating layer group1_b6_scale
I0320 13:58:09.312996 137617 net.cpp:84] Creating Layer group1_b6_scale
I0320 13:58:09.313007 137617 net.cpp:406] group1_b6_scale <- group1_b6_bn_top
I0320 13:58:09.313022 137617 net.cpp:367] group1_b6_scale -> group1_b6_bn_top (in-place)
I0320 13:58:09.313084 137617 layer_factory.hpp:77] Creating layer group1_b6_scale
I0320 13:58:09.313242 137617 net.cpp:122] Setting up group1_b6_scale
I0320 13:58:09.313252 137617 net.cpp:129] Top shape: 131 232 16 16 (7780352)
I0320 13:58:09.313267 137617 net.cpp:137] Memory required for data: 4931671588
I0320 13:58:09.313287 137617 layer_factory.hpp:77] Creating layer group1_b6_relu
I0320 13:58:09.313300 137617 net.cpp:84] Creating Layer group1_b6_relu
I0320 13:58:09.313311 137617 net.cpp:406] group1_b6_relu <- group1_b6_bn_top
I0320 13:58:09.313324 137617 net.cpp:367] group1_b6_relu -> group1_b6_bn_top (in-place)
I0320 13:58:09.313827 137617 net.cpp:122] Setting up group1_b6_relu
I0320 13:58:09.313836 137617 net.cpp:129] Top shape: 131 232 16 16 (7780352)
I0320 13:58:09.313851 137617 net.cpp:137] Memory required for data: 4962792996
I0320 13:58:09.313863 137617 layer_factory.hpp:77] Creating layer group1_b6_conv
I0320 13:58:09.313881 137617 net.cpp:84] Creating Layer group1_b6_conv
I0320 13:58:09.313892 137617 net.cpp:406] group1_b6_conv <- group1_b6_bn_top
I0320 13:58:09.313908 137617 net.cpp:380] group1_b6_conv -> group1_b6_conv_top
I0320 13:58:09.316753 137617 net.cpp:122] Setting up group1_b6_conv
I0320 13:58:09.316766 137617 net.cpp:129] Top shape: 131 12 16 16 (402432)
I0320 13:58:09.316781 137617 net.cpp:137] Memory required for data: 4964402724
I0320 13:58:09.316797 137617 layer_factory.hpp:77] Creating layer group1_b6_dropout
I0320 13:58:09.316812 137617 net.cpp:84] Creating Layer group1_b6_dropout
I0320 13:58:09.316823 137617 net.cpp:406] group1_b6_dropout <- group1_b6_conv_top
I0320 13:58:09.316838 137617 net.cpp:380] group1_b6_dropout -> group1_b6_dropout
I0320 13:58:09.316903 137617 net.cpp:122] Setting up group1_b6_dropout
I0320 13:58:09.316913 137617 net.cpp:129] Top shape: 131 12 16 16 (402432)
I0320 13:58:09.316928 137617 net.cpp:137] Memory required for data: 4966012452
I0320 13:58:09.316939 137617 layer_factory.hpp:77] Creating layer group1_b6_concat
I0320 13:58:09.316953 137617 net.cpp:84] Creating Layer group1_b6_concat
I0320 13:58:09.316964 137617 net.cpp:406] group1_b6_concat <- group1_b6_dropout
I0320 13:58:09.316977 137617 net.cpp:406] group1_b6_concat <- group1_b5_concat_group1_b5_concat_0_split_1
I0320 13:58:09.316992 137617 net.cpp:380] group1_b6_concat -> group1_b6_concat
I0320 13:58:09.317039 137617 net.cpp:122] Setting up group1_b6_concat
I0320 13:58:09.317049 137617 net.cpp:129] Top shape: 131 244 16 16 (8182784)
I0320 13:58:09.317065 137617 net.cpp:137] Memory required for data: 4998743588
I0320 13:58:09.317075 137617 layer_factory.hpp:77] Creating layer group1_b6_concat_group1_b6_concat_0_split
I0320 13:58:09.317090 137617 net.cpp:84] Creating Layer group1_b6_concat_group1_b6_concat_0_split
I0320 13:58:09.317101 137617 net.cpp:406] group1_b6_concat_group1_b6_concat_0_split <- group1_b6_concat
I0320 13:58:09.317114 137617 net.cpp:380] group1_b6_concat_group1_b6_concat_0_split -> group1_b6_concat_group1_b6_concat_0_split_0
I0320 13:58:09.317131 137617 net.cpp:380] group1_b6_concat_group1_b6_concat_0_split -> group1_b6_concat_group1_b6_concat_0_split_1
I0320 13:58:09.317195 137617 net.cpp:122] Setting up group1_b6_concat_group1_b6_concat_0_split
I0320 13:58:09.317205 137617 net.cpp:129] Top shape: 131 244 16 16 (8182784)
I0320 13:58:09.317220 137617 net.cpp:129] Top shape: 131 244 16 16 (8182784)
I0320 13:58:09.317234 137617 net.cpp:137] Memory required for data: 5064205860
I0320 13:58:09.317245 137617 layer_factory.hpp:77] Creating layer group1_b7_bn
I0320 13:58:09.317260 137617 net.cpp:84] Creating Layer group1_b7_bn
I0320 13:58:09.317270 137617 net.cpp:406] group1_b7_bn <- group1_b6_concat_group1_b6_concat_0_split_0
I0320 13:58:09.317286 137617 net.cpp:380] group1_b7_bn -> group1_b7_bn_top
I0320 13:58:09.317584 137617 net.cpp:122] Setting up group1_b7_bn
I0320 13:58:09.317595 137617 net.cpp:129] Top shape: 131 244 16 16 (8182784)
I0320 13:58:09.317610 137617 net.cpp:137] Memory required for data: 5096936996
I0320 13:58:09.317631 137617 layer_factory.hpp:77] Creating layer group1_b7_scale
I0320 13:58:09.317646 137617 net.cpp:84] Creating Layer group1_b7_scale
I0320 13:58:09.317658 137617 net.cpp:406] group1_b7_scale <- group1_b7_bn_top
I0320 13:58:09.317680 137617 net.cpp:367] group1_b7_scale -> group1_b7_bn_top (in-place)
I0320 13:58:09.317744 137617 layer_factory.hpp:77] Creating layer group1_b7_scale
I0320 13:58:09.317903 137617 net.cpp:122] Setting up group1_b7_scale
I0320 13:58:09.317912 137617 net.cpp:129] Top shape: 131 244 16 16 (8182784)
I0320 13:58:09.317927 137617 net.cpp:137] Memory required for data: 5129668132
I0320 13:58:09.317945 137617 layer_factory.hpp:77] Creating layer group1_b7_relu
I0320 13:58:09.317958 137617 net.cpp:84] Creating Layer group1_b7_relu
I0320 13:58:09.317970 137617 net.cpp:406] group1_b7_relu <- group1_b7_bn_top
I0320 13:58:09.317984 137617 net.cpp:367] group1_b7_relu -> group1_b7_bn_top (in-place)
I0320 13:58:09.318548 137617 net.cpp:122] Setting up group1_b7_relu
I0320 13:58:09.318558 137617 net.cpp:129] Top shape: 131 244 16 16 (8182784)
I0320 13:58:09.318573 137617 net.cpp:137] Memory required for data: 5162399268
I0320 13:58:09.318584 137617 layer_factory.hpp:77] Creating layer group1_b7_conv
I0320 13:58:09.318603 137617 net.cpp:84] Creating Layer group1_b7_conv
I0320 13:58:09.318615 137617 net.cpp:406] group1_b7_conv <- group1_b7_bn_top
I0320 13:58:09.318630 137617 net.cpp:380] group1_b7_conv -> group1_b7_conv_top
I0320 13:58:09.321523 137617 net.cpp:122] Setting up group1_b7_conv
I0320 13:58:09.321537 137617 net.cpp:129] Top shape: 131 12 16 16 (402432)
I0320 13:58:09.321552 137617 net.cpp:137] Memory required for data: 5164008996
I0320 13:58:09.321568 137617 layer_factory.hpp:77] Creating layer group1_b7_dropout
I0320 13:58:09.321583 137617 net.cpp:84] Creating Layer group1_b7_dropout
I0320 13:58:09.321593 137617 net.cpp:406] group1_b7_dropout <- group1_b7_conv_top
I0320 13:58:09.321609 137617 net.cpp:380] group1_b7_dropout -> group1_b7_dropout
I0320 13:58:09.321674 137617 net.cpp:122] Setting up group1_b7_dropout
I0320 13:58:09.321684 137617 net.cpp:129] Top shape: 131 12 16 16 (402432)
I0320 13:58:09.321699 137617 net.cpp:137] Memory required for data: 5165618724
I0320 13:58:09.321710 137617 layer_factory.hpp:77] Creating layer group1_b7_concat
I0320 13:58:09.321724 137617 net.cpp:84] Creating Layer group1_b7_concat
I0320 13:58:09.321735 137617 net.cpp:406] group1_b7_concat <- group1_b7_dropout
I0320 13:58:09.321748 137617 net.cpp:406] group1_b7_concat <- group1_b6_concat_group1_b6_concat_0_split_1
I0320 13:58:09.321764 137617 net.cpp:380] group1_b7_concat -> group1_b7_concat
I0320 13:58:09.321832 137617 net.cpp:122] Setting up group1_b7_concat
I0320 13:58:09.321843 137617 net.cpp:129] Top shape: 131 256 16 16 (8585216)
I0320 13:58:09.321858 137617 net.cpp:137] Memory required for data: 5199959588
I0320 13:58:09.321869 137617 layer_factory.hpp:77] Creating layer group1_b7_concat_group1_b7_concat_0_split
I0320 13:58:09.321883 137617 net.cpp:84] Creating Layer group1_b7_concat_group1_b7_concat_0_split
I0320 13:58:09.321893 137617 net.cpp:406] group1_b7_concat_group1_b7_concat_0_split <- group1_b7_concat
I0320 13:58:09.321908 137617 net.cpp:380] group1_b7_concat_group1_b7_concat_0_split -> group1_b7_concat_group1_b7_concat_0_split_0
I0320 13:58:09.321926 137617 net.cpp:380] group1_b7_concat_group1_b7_concat_0_split -> group1_b7_concat_group1_b7_concat_0_split_1
I0320 13:58:09.321990 137617 net.cpp:122] Setting up group1_b7_concat_group1_b7_concat_0_split
I0320 13:58:09.322000 137617 net.cpp:129] Top shape: 131 256 16 16 (8585216)
I0320 13:58:09.322016 137617 net.cpp:129] Top shape: 131 256 16 16 (8585216)
I0320 13:58:09.322028 137617 net.cpp:137] Memory required for data: 5268641316
I0320 13:58:09.322039 137617 layer_factory.hpp:77] Creating layer group1_b8_bn
I0320 13:58:09.322054 137617 net.cpp:84] Creating Layer group1_b8_bn
I0320 13:58:09.322065 137617 net.cpp:406] group1_b8_bn <- group1_b7_concat_group1_b7_concat_0_split_0
I0320 13:58:09.322080 137617 net.cpp:380] group1_b8_bn -> group1_b8_bn_top
I0320 13:58:09.322363 137617 net.cpp:122] Setting up group1_b8_bn
I0320 13:58:09.322373 137617 net.cpp:129] Top shape: 131 256 16 16 (8585216)
I0320 13:58:09.322389 137617 net.cpp:137] Memory required for data: 5302982180
I0320 13:58:09.322448 137617 layer_factory.hpp:77] Creating layer group1_b8_scale
I0320 13:58:09.322463 137617 net.cpp:84] Creating Layer group1_b8_scale
I0320 13:58:09.322474 137617 net.cpp:406] group1_b8_scale <- group1_b8_bn_top
I0320 13:58:09.322489 137617 net.cpp:367] group1_b8_scale -> group1_b8_bn_top (in-place)
I0320 13:58:09.322554 137617 layer_factory.hpp:77] Creating layer group1_b8_scale
I0320 13:58:09.322705 137617 net.cpp:122] Setting up group1_b8_scale
I0320 13:58:09.322715 137617 net.cpp:129] Top shape: 131 256 16 16 (8585216)
I0320 13:58:09.322731 137617 net.cpp:137] Memory required for data: 5337323044
I0320 13:58:09.322748 137617 layer_factory.hpp:77] Creating layer group1_b8_relu
I0320 13:58:09.322762 137617 net.cpp:84] Creating Layer group1_b8_relu
I0320 13:58:09.322774 137617 net.cpp:406] group1_b8_relu <- group1_b8_bn_top
I0320 13:58:09.322788 137617 net.cpp:367] group1_b8_relu -> group1_b8_bn_top (in-place)
I0320 13:58:09.323715 137617 net.cpp:122] Setting up group1_b8_relu
I0320 13:58:09.323726 137617 net.cpp:129] Top shape: 131 256 16 16 (8585216)
I0320 13:58:09.323742 137617 net.cpp:137] Memory required for data: 5371663908
I0320 13:58:09.323753 137617 layer_factory.hpp:77] Creating layer group1_b8_conv
I0320 13:58:09.323773 137617 net.cpp:84] Creating Layer group1_b8_conv
I0320 13:58:09.323784 137617 net.cpp:406] group1_b8_conv <- group1_b8_bn_top
I0320 13:58:09.323801 137617 net.cpp:380] group1_b8_conv -> group1_b8_conv_top
I0320 13:58:09.326648 137617 net.cpp:122] Setting up group1_b8_conv
I0320 13:58:09.326660 137617 net.cpp:129] Top shape: 131 12 16 16 (402432)
I0320 13:58:09.326676 137617 net.cpp:137] Memory required for data: 5373273636
I0320 13:58:09.326691 137617 layer_factory.hpp:77] Creating layer group1_b8_dropout
I0320 13:58:09.326706 137617 net.cpp:84] Creating Layer group1_b8_dropout
I0320 13:58:09.326719 137617 net.cpp:406] group1_b8_dropout <- group1_b8_conv_top
I0320 13:58:09.326733 137617 net.cpp:380] group1_b8_dropout -> group1_b8_dropout
I0320 13:58:09.326802 137617 net.cpp:122] Setting up group1_b8_dropout
I0320 13:58:09.326812 137617 net.cpp:129] Top shape: 131 12 16 16 (402432)
I0320 13:58:09.326827 137617 net.cpp:137] Memory required for data: 5374883364
I0320 13:58:09.326838 137617 layer_factory.hpp:77] Creating layer group1_b8_concat
I0320 13:58:09.326853 137617 net.cpp:84] Creating Layer group1_b8_concat
I0320 13:58:09.326864 137617 net.cpp:406] group1_b8_concat <- group1_b8_dropout
I0320 13:58:09.326876 137617 net.cpp:406] group1_b8_concat <- group1_b7_concat_group1_b7_concat_0_split_1
I0320 13:58:09.326891 137617 net.cpp:380] group1_b8_concat -> group1_b8_concat
I0320 13:58:09.326938 137617 net.cpp:122] Setting up group1_b8_concat
I0320 13:58:09.326948 137617 net.cpp:129] Top shape: 131 268 16 16 (8987648)
I0320 13:58:09.326963 137617 net.cpp:137] Memory required for data: 5410833956
I0320 13:58:09.326974 137617 layer_factory.hpp:77] Creating layer group1_b8_concat_group1_b8_concat_0_split
I0320 13:58:09.326988 137617 net.cpp:84] Creating Layer group1_b8_concat_group1_b8_concat_0_split
I0320 13:58:09.326999 137617 net.cpp:406] group1_b8_concat_group1_b8_concat_0_split <- group1_b8_concat
I0320 13:58:09.327013 137617 net.cpp:380] group1_b8_concat_group1_b8_concat_0_split -> group1_b8_concat_group1_b8_concat_0_split_0
I0320 13:58:09.327030 137617 net.cpp:380] group1_b8_concat_group1_b8_concat_0_split -> group1_b8_concat_group1_b8_concat_0_split_1
I0320 13:58:09.327096 137617 net.cpp:122] Setting up group1_b8_concat_group1_b8_concat_0_split
I0320 13:58:09.327106 137617 net.cpp:129] Top shape: 131 268 16 16 (8987648)
I0320 13:58:09.327121 137617 net.cpp:129] Top shape: 131 268 16 16 (8987648)
I0320 13:58:09.327136 137617 net.cpp:137] Memory required for data: 5482735140
I0320 13:58:09.327147 137617 layer_factory.hpp:77] Creating layer group1_b9_bn
I0320 13:58:09.327160 137617 net.cpp:84] Creating Layer group1_b9_bn
I0320 13:58:09.327172 137617 net.cpp:406] group1_b9_bn <- group1_b8_concat_group1_b8_concat_0_split_0
I0320 13:58:09.327186 137617 net.cpp:380] group1_b9_bn -> group1_b9_bn_top
I0320 13:58:09.327477 137617 net.cpp:122] Setting up group1_b9_bn
I0320 13:58:09.327488 137617 net.cpp:129] Top shape: 131 268 16 16 (8987648)
I0320 13:58:09.327503 137617 net.cpp:137] Memory required for data: 5518685732
I0320 13:58:09.327525 137617 layer_factory.hpp:77] Creating layer group1_b9_scale
I0320 13:58:09.327540 137617 net.cpp:84] Creating Layer group1_b9_scale
I0320 13:58:09.327553 137617 net.cpp:406] group1_b9_scale <- group1_b9_bn_top
I0320 13:58:09.327566 137617 net.cpp:367] group1_b9_scale -> group1_b9_bn_top (in-place)
I0320 13:58:09.327632 137617 layer_factory.hpp:77] Creating layer group1_b9_scale
I0320 13:58:09.327800 137617 net.cpp:122] Setting up group1_b9_scale
I0320 13:58:09.327811 137617 net.cpp:129] Top shape: 131 268 16 16 (8987648)
I0320 13:58:09.327826 137617 net.cpp:137] Memory required for data: 5554636324
I0320 13:58:09.327844 137617 layer_factory.hpp:77] Creating layer group1_b9_relu
I0320 13:58:09.327857 137617 net.cpp:84] Creating Layer group1_b9_relu
I0320 13:58:09.327869 137617 net.cpp:406] group1_b9_relu <- group1_b9_bn_top
I0320 13:58:09.327883 137617 net.cpp:367] group1_b9_relu -> group1_b9_bn_top (in-place)
I0320 13:58:09.328388 137617 net.cpp:122] Setting up group1_b9_relu
I0320 13:58:09.328399 137617 net.cpp:129] Top shape: 131 268 16 16 (8987648)
I0320 13:58:09.328414 137617 net.cpp:137] Memory required for data: 5590586916
I0320 13:58:09.328425 137617 layer_factory.hpp:77] Creating layer group1_b9_conv
I0320 13:58:09.328444 137617 net.cpp:84] Creating Layer group1_b9_conv
I0320 13:58:09.328455 137617 net.cpp:406] group1_b9_conv <- group1_b9_bn_top
I0320 13:58:09.328471 137617 net.cpp:380] group1_b9_conv -> group1_b9_conv_top
I0320 13:58:09.331359 137617 net.cpp:122] Setting up group1_b9_conv
I0320 13:58:09.331372 137617 net.cpp:129] Top shape: 131 12 16 16 (402432)
I0320 13:58:09.331387 137617 net.cpp:137] Memory required for data: 5592196644
I0320 13:58:09.331403 137617 layer_factory.hpp:77] Creating layer group1_b9_dropout
I0320 13:58:09.331441 137617 net.cpp:84] Creating Layer group1_b9_dropout
I0320 13:58:09.331454 137617 net.cpp:406] group1_b9_dropout <- group1_b9_conv_top
I0320 13:58:09.331470 137617 net.cpp:380] group1_b9_dropout -> group1_b9_dropout
I0320 13:58:09.331532 137617 net.cpp:122] Setting up group1_b9_dropout
I0320 13:58:09.331542 137617 net.cpp:129] Top shape: 131 12 16 16 (402432)
I0320 13:58:09.331557 137617 net.cpp:137] Memory required for data: 5593806372
I0320 13:58:09.331568 137617 layer_factory.hpp:77] Creating layer group1_b9_concat
I0320 13:58:09.331583 137617 net.cpp:84] Creating Layer group1_b9_concat
I0320 13:58:09.331593 137617 net.cpp:406] group1_b9_concat <- group1_b9_dropout
I0320 13:58:09.331605 137617 net.cpp:406] group1_b9_concat <- group1_b8_concat_group1_b8_concat_0_split_1
I0320 13:58:09.331621 137617 net.cpp:380] group1_b9_concat -> group1_b9_concat
I0320 13:58:09.331667 137617 net.cpp:122] Setting up group1_b9_concat
I0320 13:58:09.331677 137617 net.cpp:129] Top shape: 131 280 16 16 (9390080)
I0320 13:58:09.331692 137617 net.cpp:137] Memory required for data: 5631366692
I0320 13:58:09.331703 137617 layer_factory.hpp:77] Creating layer group1_b9_concat_group1_b9_concat_0_split
I0320 13:58:09.331717 137617 net.cpp:84] Creating Layer group1_b9_concat_group1_b9_concat_0_split
I0320 13:58:09.331727 137617 net.cpp:406] group1_b9_concat_group1_b9_concat_0_split <- group1_b9_concat
I0320 13:58:09.331742 137617 net.cpp:380] group1_b9_concat_group1_b9_concat_0_split -> group1_b9_concat_group1_b9_concat_0_split_0
I0320 13:58:09.331758 137617 net.cpp:380] group1_b9_concat_group1_b9_concat_0_split -> group1_b9_concat_group1_b9_concat_0_split_1
I0320 13:58:09.331825 137617 net.cpp:122] Setting up group1_b9_concat_group1_b9_concat_0_split
I0320 13:58:09.331835 137617 net.cpp:129] Top shape: 131 280 16 16 (9390080)
I0320 13:58:09.331849 137617 net.cpp:129] Top shape: 131 280 16 16 (9390080)
I0320 13:58:09.331863 137617 net.cpp:137] Memory required for data: 5706487332
I0320 13:58:09.331874 137617 layer_factory.hpp:77] Creating layer group1_b10_bn
I0320 13:58:09.331888 137617 net.cpp:84] Creating Layer group1_b10_bn
I0320 13:58:09.331899 137617 net.cpp:406] group1_b10_bn <- group1_b9_concat_group1_b9_concat_0_split_0
I0320 13:58:09.331915 137617 net.cpp:380] group1_b10_bn -> group1_b10_bn_top
I0320 13:58:09.332222 137617 net.cpp:122] Setting up group1_b10_bn
I0320 13:58:09.332233 137617 net.cpp:129] Top shape: 131 280 16 16 (9390080)
I0320 13:58:09.332248 137617 net.cpp:137] Memory required for data: 5744047652
I0320 13:58:09.332270 137617 layer_factory.hpp:77] Creating layer group1_b10_scale
I0320 13:58:09.332285 137617 net.cpp:84] Creating Layer group1_b10_scale
I0320 13:58:09.332296 137617 net.cpp:406] group1_b10_scale <- group1_b10_bn_top
I0320 13:58:09.332311 137617 net.cpp:367] group1_b10_scale -> group1_b10_bn_top (in-place)
I0320 13:58:09.332376 137617 layer_factory.hpp:77] Creating layer group1_b10_scale
I0320 13:58:09.332540 137617 net.cpp:122] Setting up group1_b10_scale
I0320 13:58:09.332551 137617 net.cpp:129] Top shape: 131 280 16 16 (9390080)
I0320 13:58:09.332566 137617 net.cpp:137] Memory required for data: 5781607972
I0320 13:58:09.332583 137617 layer_factory.hpp:77] Creating layer group1_b10_relu
I0320 13:58:09.332597 137617 net.cpp:84] Creating Layer group1_b10_relu
I0320 13:58:09.332608 137617 net.cpp:406] group1_b10_relu <- group1_b10_bn_top
I0320 13:58:09.332623 137617 net.cpp:367] group1_b10_relu -> group1_b10_bn_top (in-place)
I0320 13:58:09.333132 137617 net.cpp:122] Setting up group1_b10_relu
I0320 13:58:09.333142 137617 net.cpp:129] Top shape: 131 280 16 16 (9390080)
I0320 13:58:09.333158 137617 net.cpp:137] Memory required for data: 5819168292
I0320 13:58:09.333169 137617 layer_factory.hpp:77] Creating layer group1_b10_conv
I0320 13:58:09.333189 137617 net.cpp:84] Creating Layer group1_b10_conv
I0320 13:58:09.333199 137617 net.cpp:406] group1_b10_conv <- group1_b10_bn_top
I0320 13:58:09.333215 137617 net.cpp:380] group1_b10_conv -> group1_b10_conv_top
I0320 13:58:09.336102 137617 net.cpp:122] Setting up group1_b10_conv
I0320 13:58:09.336114 137617 net.cpp:129] Top shape: 131 12 16 16 (402432)
I0320 13:58:09.336130 137617 net.cpp:137] Memory required for data: 5820778020
I0320 13:58:09.336145 137617 layer_factory.hpp:77] Creating layer group1_b10_dropout
I0320 13:58:09.336160 137617 net.cpp:84] Creating Layer group1_b10_dropout
I0320 13:58:09.336171 137617 net.cpp:406] group1_b10_dropout <- group1_b10_conv_top
I0320 13:58:09.336187 137617 net.cpp:380] group1_b10_dropout -> group1_b10_dropout
I0320 13:58:09.336252 137617 net.cpp:122] Setting up group1_b10_dropout
I0320 13:58:09.336262 137617 net.cpp:129] Top shape: 131 12 16 16 (402432)
I0320 13:58:09.336277 137617 net.cpp:137] Memory required for data: 5822387748
I0320 13:58:09.336288 137617 layer_factory.hpp:77] Creating layer group1_b10_concat
I0320 13:58:09.336303 137617 net.cpp:84] Creating Layer group1_b10_concat
I0320 13:58:09.336314 137617 net.cpp:406] group1_b10_concat <- group1_b10_dropout
I0320 13:58:09.336328 137617 net.cpp:406] group1_b10_concat <- group1_b9_concat_group1_b9_concat_0_split_1
I0320 13:58:09.336343 137617 net.cpp:380] group1_b10_concat -> group1_b10_concat
I0320 13:58:09.336390 137617 net.cpp:122] Setting up group1_b10_concat
I0320 13:58:09.336400 137617 net.cpp:129] Top shape: 131 292 16 16 (9792512)
I0320 13:58:09.336414 137617 net.cpp:137] Memory required for data: 5861557796
I0320 13:58:09.336426 137617 layer_factory.hpp:77] Creating layer group1_b10_concat_group1_b10_concat_0_split
I0320 13:58:09.336439 137617 net.cpp:84] Creating Layer group1_b10_concat_group1_b10_concat_0_split
I0320 13:58:09.336449 137617 net.cpp:406] group1_b10_concat_group1_b10_concat_0_split <- group1_b10_concat
I0320 13:58:09.336463 137617 net.cpp:380] group1_b10_concat_group1_b10_concat_0_split -> group1_b10_concat_group1_b10_concat_0_split_0
I0320 13:58:09.336482 137617 net.cpp:380] group1_b10_concat_group1_b10_concat_0_split -> group1_b10_concat_group1_b10_concat_0_split_1
I0320 13:58:09.336546 137617 net.cpp:122] Setting up group1_b10_concat_group1_b10_concat_0_split
I0320 13:58:09.336557 137617 net.cpp:129] Top shape: 131 292 16 16 (9792512)
I0320 13:58:09.336571 137617 net.cpp:129] Top shape: 131 292 16 16 (9792512)
I0320 13:58:09.336585 137617 net.cpp:137] Memory required for data: 5939897892
I0320 13:58:09.336596 137617 layer_factory.hpp:77] Creating layer group1_b11_bn
I0320 13:58:09.336611 137617 net.cpp:84] Creating Layer group1_b11_bn
I0320 13:58:09.336621 137617 net.cpp:406] group1_b11_bn <- group1_b10_concat_group1_b10_concat_0_split_0
I0320 13:58:09.336637 137617 net.cpp:380] group1_b11_bn -> group1_b11_bn_top
I0320 13:58:09.336937 137617 net.cpp:122] Setting up group1_b11_bn
I0320 13:58:09.336948 137617 net.cpp:129] Top shape: 131 292 16 16 (9792512)
I0320 13:58:09.336963 137617 net.cpp:137] Memory required for data: 5979067940
I0320 13:58:09.336984 137617 layer_factory.hpp:77] Creating layer group1_b11_scale
I0320 13:58:09.337000 137617 net.cpp:84] Creating Layer group1_b11_scale
I0320 13:58:09.337011 137617 net.cpp:406] group1_b11_scale <- group1_b11_bn_top
I0320 13:58:09.337026 137617 net.cpp:367] group1_b11_scale -> group1_b11_bn_top (in-place)
I0320 13:58:09.337091 137617 layer_factory.hpp:77] Creating layer group1_b11_scale
I0320 13:58:09.337260 137617 net.cpp:122] Setting up group1_b11_scale
I0320 13:58:09.337270 137617 net.cpp:129] Top shape: 131 292 16 16 (9792512)
I0320 13:58:09.337285 137617 net.cpp:137] Memory required for data: 6018237988
I0320 13:58:09.337304 137617 layer_factory.hpp:77] Creating layer group1_b11_relu
I0320 13:58:09.337317 137617 net.cpp:84] Creating Layer group1_b11_relu
I0320 13:58:09.337328 137617 net.cpp:406] group1_b11_relu <- group1_b11_bn_top
I0320 13:58:09.337342 137617 net.cpp:367] group1_b11_relu -> group1_b11_bn_top (in-place)
I0320 13:58:09.338291 137617 net.cpp:122] Setting up group1_b11_relu
I0320 13:58:09.338304 137617 net.cpp:129] Top shape: 131 292 16 16 (9792512)
I0320 13:58:09.338318 137617 net.cpp:137] Memory required for data: 6057408036
I0320 13:58:09.338330 137617 layer_factory.hpp:77] Creating layer group1_b11_conv
I0320 13:58:09.338349 137617 net.cpp:84] Creating Layer group1_b11_conv
I0320 13:58:09.338361 137617 net.cpp:406] group1_b11_conv <- group1_b11_bn_top
I0320 13:58:09.338377 137617 net.cpp:380] group1_b11_conv -> group1_b11_conv_top
I0320 13:58:09.341284 137617 net.cpp:122] Setting up group1_b11_conv
I0320 13:58:09.341296 137617 net.cpp:129] Top shape: 131 12 16 16 (402432)
I0320 13:58:09.341312 137617 net.cpp:137] Memory required for data: 6059017764
I0320 13:58:09.341327 137617 layer_factory.hpp:77] Creating layer group1_b11_dropout
I0320 13:58:09.341342 137617 net.cpp:84] Creating Layer group1_b11_dropout
I0320 13:58:09.341353 137617 net.cpp:406] group1_b11_dropout <- group1_b11_conv_top
I0320 13:58:09.341368 137617 net.cpp:380] group1_b11_dropout -> group1_b11_dropout
I0320 13:58:09.341434 137617 net.cpp:122] Setting up group1_b11_dropout
I0320 13:58:09.341444 137617 net.cpp:129] Top shape: 131 12 16 16 (402432)
I0320 13:58:09.341459 137617 net.cpp:137] Memory required for data: 6060627492
I0320 13:58:09.341470 137617 layer_factory.hpp:77] Creating layer group1_b11_concat
I0320 13:58:09.341485 137617 net.cpp:84] Creating Layer group1_b11_concat
I0320 13:58:09.341495 137617 net.cpp:406] group1_b11_concat <- group1_b11_dropout
I0320 13:58:09.341507 137617 net.cpp:406] group1_b11_concat <- group1_b10_concat_group1_b10_concat_0_split_1
I0320 13:58:09.341523 137617 net.cpp:380] group1_b11_concat -> group1_b11_concat
I0320 13:58:09.341569 137617 net.cpp:122] Setting up group1_b11_concat
I0320 13:58:09.341580 137617 net.cpp:129] Top shape: 131 304 16 16 (10194944)
I0320 13:58:09.341595 137617 net.cpp:137] Memory required for data: 6101407268
I0320 13:58:09.341606 137617 layer_factory.hpp:77] Creating layer group1_b12_bn
I0320 13:58:09.341620 137617 net.cpp:84] Creating Layer group1_b12_bn
I0320 13:58:09.341631 137617 net.cpp:406] group1_b12_bn <- group1_b11_concat
I0320 13:58:09.341646 137617 net.cpp:380] group1_b12_bn -> group1_b12_bn_top
I0320 13:58:09.341949 137617 net.cpp:122] Setting up group1_b12_bn
I0320 13:58:09.341959 137617 net.cpp:129] Top shape: 131 304 16 16 (10194944)
I0320 13:58:09.341974 137617 net.cpp:137] Memory required for data: 6142187044
I0320 13:58:09.341996 137617 layer_factory.hpp:77] Creating layer group1_b12_scale
I0320 13:58:09.342010 137617 net.cpp:84] Creating Layer group1_b12_scale
I0320 13:58:09.342021 137617 net.cpp:406] group1_b12_scale <- group1_b12_bn_top
I0320 13:58:09.342036 137617 net.cpp:367] group1_b12_scale -> group1_b12_bn_top (in-place)
I0320 13:58:09.342101 137617 layer_factory.hpp:77] Creating layer group1_b12_scale
I0320 13:58:09.342267 137617 net.cpp:122] Setting up group1_b12_scale
I0320 13:58:09.342278 137617 net.cpp:129] Top shape: 131 304 16 16 (10194944)
I0320 13:58:09.342293 137617 net.cpp:137] Memory required for data: 6182966820
I0320 13:58:09.342310 137617 layer_factory.hpp:77] Creating layer group1_b12_relu
I0320 13:58:09.342324 137617 net.cpp:84] Creating Layer group1_b12_relu
I0320 13:58:09.342335 137617 net.cpp:406] group1_b12_relu <- group1_b12_bn_top
I0320 13:58:09.342350 137617 net.cpp:367] group1_b12_relu -> group1_b12_bn_top (in-place)
I0320 13:58:09.342876 137617 net.cpp:122] Setting up group1_b12_relu
I0320 13:58:09.342887 137617 net.cpp:129] Top shape: 131 304 16 16 (10194944)
I0320 13:58:09.342902 137617 net.cpp:137] Memory required for data: 6223746596
I0320 13:58:09.342913 137617 layer_factory.hpp:77] Creating layer group1_b12_conv
I0320 13:58:09.342932 137617 net.cpp:84] Creating Layer group1_b12_conv
I0320 13:58:09.342943 137617 net.cpp:406] group1_b12_conv <- group1_b12_bn_top
I0320 13:58:09.342959 137617 net.cpp:380] group1_b12_conv -> group1_b12_conv_top
I0320 13:58:09.345767 137617 net.cpp:122] Setting up group1_b12_conv
I0320 13:58:09.345779 137617 net.cpp:129] Top shape: 131 304 16 16 (10194944)
I0320 13:58:09.345794 137617 net.cpp:137] Memory required for data: 6264526372
I0320 13:58:09.345809 137617 layer_factory.hpp:77] Creating layer group1_b12_dropout
I0320 13:58:09.345824 137617 net.cpp:84] Creating Layer group1_b12_dropout
I0320 13:58:09.345836 137617 net.cpp:406] group1_b12_dropout <- group1_b12_conv_top
I0320 13:58:09.345850 137617 net.cpp:380] group1_b12_dropout -> group1_b12_dropout
I0320 13:58:09.345916 137617 net.cpp:122] Setting up group1_b12_dropout
I0320 13:58:09.345927 137617 net.cpp:129] Top shape: 131 304 16 16 (10194944)
I0320 13:58:09.345942 137617 net.cpp:137] Memory required for data: 6305306148
I0320 13:58:09.345952 137617 layer_factory.hpp:77] Creating layer group1_b12_pool
I0320 13:58:09.345968 137617 net.cpp:84] Creating Layer group1_b12_pool
I0320 13:58:09.345979 137617 net.cpp:406] group1_b12_pool <- group1_b12_dropout
I0320 13:58:09.345993 137617 net.cpp:380] group1_b12_pool -> group1_b12_pool
I0320 13:58:09.346527 137617 net.cpp:122] Setting up group1_b12_pool
I0320 13:58:09.346539 137617 net.cpp:129] Top shape: 131 304 8 8 (2548736)
I0320 13:58:09.346552 137617 net.cpp:137] Memory required for data: 6315501092
I0320 13:58:09.346563 137617 layer_factory.hpp:77] Creating layer group1_b12_pool_group1_b12_pool_0_split
I0320 13:58:09.346577 137617 net.cpp:84] Creating Layer group1_b12_pool_group1_b12_pool_0_split
I0320 13:58:09.346588 137617 net.cpp:406] group1_b12_pool_group1_b12_pool_0_split <- group1_b12_pool
I0320 13:58:09.346603 137617 net.cpp:380] group1_b12_pool_group1_b12_pool_0_split -> group1_b12_pool_group1_b12_pool_0_split_0
I0320 13:58:09.346621 137617 net.cpp:380] group1_b12_pool_group1_b12_pool_0_split -> group1_b12_pool_group1_b12_pool_0_split_1
I0320 13:58:09.346686 137617 net.cpp:122] Setting up group1_b12_pool_group1_b12_pool_0_split
I0320 13:58:09.346696 137617 net.cpp:129] Top shape: 131 304 8 8 (2548736)
I0320 13:58:09.346711 137617 net.cpp:129] Top shape: 131 304 8 8 (2548736)
I0320 13:58:09.346725 137617 net.cpp:137] Memory required for data: 6335890980
I0320 13:58:09.346736 137617 layer_factory.hpp:77] Creating layer group2_b0_bn
I0320 13:58:09.346751 137617 net.cpp:84] Creating Layer group2_b0_bn
I0320 13:58:09.346761 137617 net.cpp:406] group2_b0_bn <- group1_b12_pool_group1_b12_pool_0_split_0
I0320 13:58:09.346777 137617 net.cpp:380] group2_b0_bn -> group2_b0_bn_top
I0320 13:58:09.347085 137617 net.cpp:122] Setting up group2_b0_bn
I0320 13:58:09.347095 137617 net.cpp:129] Top shape: 131 304 8 8 (2548736)
I0320 13:58:09.347110 137617 net.cpp:137] Memory required for data: 6346085924
I0320 13:58:09.347132 137617 layer_factory.hpp:77] Creating layer group2_b0_scale
I0320 13:58:09.347147 137617 net.cpp:84] Creating Layer group2_b0_scale
I0320 13:58:09.347159 137617 net.cpp:406] group2_b0_scale <- group2_b0_bn_top
I0320 13:58:09.347173 137617 net.cpp:367] group2_b0_scale -> group2_b0_bn_top (in-place)
I0320 13:58:09.347245 137617 layer_factory.hpp:77] Creating layer group2_b0_scale
I0320 13:58:09.347415 137617 net.cpp:122] Setting up group2_b0_scale
I0320 13:58:09.347425 137617 net.cpp:129] Top shape: 131 304 8 8 (2548736)
I0320 13:58:09.347440 137617 net.cpp:137] Memory required for data: 6356280868
I0320 13:58:09.347458 137617 layer_factory.hpp:77] Creating layer group2_b0_relu
I0320 13:58:09.347472 137617 net.cpp:84] Creating Layer group2_b0_relu
I0320 13:58:09.347483 137617 net.cpp:406] group2_b0_relu <- group2_b0_bn_top
I0320 13:58:09.347497 137617 net.cpp:367] group2_b0_relu -> group2_b0_bn_top (in-place)
I0320 13:58:09.348007 137617 net.cpp:122] Setting up group2_b0_relu
I0320 13:58:09.348018 137617 net.cpp:129] Top shape: 131 304 8 8 (2548736)
I0320 13:58:09.348033 137617 net.cpp:137] Memory required for data: 6366475812
I0320 13:58:09.348044 137617 layer_factory.hpp:77] Creating layer group2_b0_conv
I0320 13:58:09.348062 137617 net.cpp:84] Creating Layer group2_b0_conv
I0320 13:58:09.348074 137617 net.cpp:406] group2_b0_conv <- group2_b0_bn_top
I0320 13:58:09.348090 137617 net.cpp:380] group2_b0_conv -> group2_b0_conv_top
I0320 13:58:09.350536 137617 net.cpp:122] Setting up group2_b0_conv
I0320 13:58:09.350548 137617 net.cpp:129] Top shape: 131 12 8 8 (100608)
I0320 13:58:09.350564 137617 net.cpp:137] Memory required for data: 6366878244
I0320 13:58:09.350579 137617 layer_factory.hpp:77] Creating layer group2_b0_dropout
I0320 13:58:09.350594 137617 net.cpp:84] Creating Layer group2_b0_dropout
I0320 13:58:09.350606 137617 net.cpp:406] group2_b0_dropout <- group2_b0_conv_top
I0320 13:58:09.350620 137617 net.cpp:380] group2_b0_dropout -> group2_b0_dropout
I0320 13:58:09.350685 137617 net.cpp:122] Setting up group2_b0_dropout
I0320 13:58:09.350695 137617 net.cpp:129] Top shape: 131 12 8 8 (100608)
I0320 13:58:09.350710 137617 net.cpp:137] Memory required for data: 6367280676
I0320 13:58:09.350721 137617 layer_factory.hpp:77] Creating layer group2_b0_concat
I0320 13:58:09.350736 137617 net.cpp:84] Creating Layer group2_b0_concat
I0320 13:58:09.350747 137617 net.cpp:406] group2_b0_concat <- group2_b0_dropout
I0320 13:58:09.350760 137617 net.cpp:406] group2_b0_concat <- group1_b12_pool_group1_b12_pool_0_split_1
I0320 13:58:09.350775 137617 net.cpp:380] group2_b0_concat -> group2_b0_concat
I0320 13:58:09.350828 137617 net.cpp:122] Setting up group2_b0_concat
I0320 13:58:09.350838 137617 net.cpp:129] Top shape: 131 316 8 8 (2649344)
I0320 13:58:09.350854 137617 net.cpp:137] Memory required for data: 6377878052
I0320 13:58:09.350865 137617 layer_factory.hpp:77] Creating layer group2_b0_concat_group2_b0_concat_0_split
I0320 13:58:09.350879 137617 net.cpp:84] Creating Layer group2_b0_concat_group2_b0_concat_0_split
I0320 13:58:09.350890 137617 net.cpp:406] group2_b0_concat_group2_b0_concat_0_split <- group2_b0_concat
I0320 13:58:09.350904 137617 net.cpp:380] group2_b0_concat_group2_b0_concat_0_split -> group2_b0_concat_group2_b0_concat_0_split_0
I0320 13:58:09.350921 137617 net.cpp:380] group2_b0_concat_group2_b0_concat_0_split -> group2_b0_concat_group2_b0_concat_0_split_1
I0320 13:58:09.350986 137617 net.cpp:122] Setting up group2_b0_concat_group2_b0_concat_0_split
I0320 13:58:09.350996 137617 net.cpp:129] Top shape: 131 316 8 8 (2649344)
I0320 13:58:09.351011 137617 net.cpp:129] Top shape: 131 316 8 8 (2649344)
I0320 13:58:09.351025 137617 net.cpp:137] Memory required for data: 6399072804
I0320 13:58:09.351037 137617 layer_factory.hpp:77] Creating layer group2_b1_bn
I0320 13:58:09.351050 137617 net.cpp:84] Creating Layer group2_b1_bn
I0320 13:58:09.351061 137617 net.cpp:406] group2_b1_bn <- group2_b0_concat_group2_b0_concat_0_split_0
I0320 13:58:09.351078 137617 net.cpp:380] group2_b1_bn -> group2_b1_bn_top
I0320 13:58:09.351382 137617 net.cpp:122] Setting up group2_b1_bn
I0320 13:58:09.351392 137617 net.cpp:129] Top shape: 131 316 8 8 (2649344)
I0320 13:58:09.351406 137617 net.cpp:137] Memory required for data: 6409670180
I0320 13:58:09.351428 137617 layer_factory.hpp:77] Creating layer group2_b1_scale
I0320 13:58:09.351442 137617 net.cpp:84] Creating Layer group2_b1_scale
I0320 13:58:09.351454 137617 net.cpp:406] group2_b1_scale <- group2_b1_bn_top
I0320 13:58:09.351467 137617 net.cpp:367] group2_b1_scale -> group2_b1_bn_top (in-place)
I0320 13:58:09.351534 137617 layer_factory.hpp:77] Creating layer group2_b1_scale
I0320 13:58:09.351706 137617 net.cpp:122] Setting up group2_b1_scale
I0320 13:58:09.351716 137617 net.cpp:129] Top shape: 131 316 8 8 (2649344)
I0320 13:58:09.351730 137617 net.cpp:137] Memory required for data: 6420267556
I0320 13:58:09.351748 137617 layer_factory.hpp:77] Creating layer group2_b1_relu
I0320 13:58:09.351761 137617 net.cpp:84] Creating Layer group2_b1_relu
I0320 13:58:09.351773 137617 net.cpp:406] group2_b1_relu <- group2_b1_bn_top
I0320 13:58:09.351788 137617 net.cpp:367] group2_b1_relu -> group2_b1_bn_top (in-place)
I0320 13:58:09.352738 137617 net.cpp:122] Setting up group2_b1_relu
I0320 13:58:09.352749 137617 net.cpp:129] Top shape: 131 316 8 8 (2649344)
I0320 13:58:09.352766 137617 net.cpp:137] Memory required for data: 6430864932
…
I0320 13:58:09.563285 137617 net.cpp:129] Top shape: 37 316 8 8 (748288)
I0320 13:58:09.563300 137617 net.cpp:137] Memory required for data: 1810364860
I0320 13:58:09.563321 137617 layer_factory.hpp:77] Creating layer group2_b1_scale
I0320 13:58:09.563338 137617 net.cpp:84] Creating Layer group2_b1_scale
I0320 13:58:09.563349 137617 net.cpp:406] group2_b1_scale <- group2_b1_bn_top
I0320 13:58:09.563364 137617 net.cpp:367] group2_b1_scale -> group2_b1_bn_top (in-place)
I0320 13:58:09.563447 137617 layer_factory.hpp:77] Creating layer group2_b1_scale
I0320 13:58:09.563644 137617 net.cpp:122] Setting up group2_b1_scale
I0320 13:58:09.563654 137617 net.cpp:129] Top shape: 37 316 8 8 (748288)
I0320 13:58:09.563669 137617 net.cpp:137] Memory required for data: 1813358012
I0320 13:58:09.563688 137617 layer_factory.hpp:77] Creating layer group2_b1_relu
I0320 13:58:09.563702 137617 net.cpp:84] Creating Layer group2_b1_relu
I0320 13:58:09.563714 137617 net.cpp:406] group2_b1_relu <- group2_b1_bn_top
I0320 13:58:09.563727 137617 net.cpp:367] group2_b1_relu -> group2_b1_bn_top (in-place)
I0320 13:58:09.564707 137617 net.cpp:122] Setting up group2_b1_relu
I0320 13:58:09.564718 137617 net.cpp:129] Top shape: 37 316 8 8 (748288)
I0320 13:58:09.564733 137617 net.cpp:137] Memory required for data: 1816351164
I0320 13:58:09.564744 137617 layer_factory.hpp:77] Creating layer group2_b1_conv
I0320 13:58:09.564764 137617 net.cpp:84] Creating Layer group2_b1_conv
I0320 13:58:09.564776 137617 net.cpp:406] group2_b1_conv <- group2_b1_bn_top
I0320 13:58:09.564792 137617 net.cpp:380] group2_b1_conv -> group2_b1_conv_top
I0320 13:58:09.567366 137617 net.cpp:122] Setting up group2_b1_conv
I0320 13:58:09.567378 137617 net.cpp:129] Top shape: 37 12 8 8 (28416)
I0320 13:58:09.567394 137617 net.cpp:137] Memory required for data: 1816464828
I0320 13:58:09.567409 137617 layer_factory.hpp:77] Creating layer group2_b1_dropout
I0320 13:58:09.567425 137617 net.cpp:84] Creating Layer group2_b1_dropout
I0320 13:58:09.567435 137617 net.cpp:406] group2_b1_dropout <- group2_b1_conv_top
I0320 13:58:09.567451 137617 net.cpp:380] group2_b1_dropout -> group2_b1_dropout
I0320 13:58:09.567524 137617 net.cpp:122] Setting up group2_b1_dropout
I0320 13:58:09.567534 137617 net.cpp:129] Top shape: 37 12 8 8 (28416)
I0320 13:58:09.567549 137617 net.cpp:137] Memory required for data: 1816578492
I0320 13:58:09.567560 137617 layer_factory.hpp:77] Creating layer group2_b1_concat
I0320 13:58:09.567575 137617 net.cpp:84] Creating Layer group2_b1_concat
I0320 13:58:09.567586 137617 net.cpp:406] group2_b1_concat <- group2_b1_dropout
I0320 13:58:09.567600 137617 net.cpp:406] group2_b1_concat <- group2_b0_concat_group2_b0_concat_0_split_1
I0320 13:58:09.567620 137617 net.cpp:380] group2_b1_concat -> group2_b1_concat
I0320 13:58:09.567680 137617 net.cpp:122] Setting up group2_b1_concat
I0320 13:58:09.567690 137617 net.cpp:129] Top shape: 37 328 8 8 (776704)
I0320 13:58:09.567705 137617 net.cpp:137] Memory required for data: 1819685308
I0320 13:58:09.567715 137617 layer_factory.hpp:77] Creating layer group2_b1_concat_group2_b1_concat_0_split
I0320 13:58:09.567729 137617 net.cpp:84] Creating Layer group2_b1_concat_group2_b1_concat_0_split
I0320 13:58:09.567740 137617 net.cpp:406] group2_b1_concat_group2_b1_concat_0_split <- group2_b1_concat
I0320 13:58:09.567755 137617 net.cpp:380] group2_b1_concat_group2_b1_concat_0_split -> group2_b1_concat_group2_b1_concat_0_split_0
I0320 13:58:09.567778 137617 net.cpp:380] group2_b1_concat_group2_b1_concat_0_split -> group2_b1_concat_group2_b1_concat_0_split_1
I0320 13:58:09.567852 137617 net.cpp:122] Setting up group2_b1_concat_group2_b1_concat_0_split
I0320 13:58:09.567862 137617 net.cpp:129] Top shape: 37 328 8 8 (776704)
I0320 13:58:09.567878 137617 net.cpp:129] Top shape: 37 328 8 8 (776704)
I0320 13:58:09.567890 137617 net.cpp:137] Memory required for data: 1825898940
I0320 13:58:09.567901 137617 layer_factory.hpp:77] Creating layer group2_b2_bn
I0320 13:58:09.567915 137617 net.cpp:84] Creating Layer group2_b2_bn
I0320 13:58:09.567926 137617 net.cpp:406] group2_b2_bn <- group2_b1_concat_group2_b1_concat_0_split_0
I0320 13:58:09.567942 137617 net.cpp:380] group2_b2_bn -> group2_b2_bn_top
I0320 13:58:09.568327 137617 net.cpp:122] Setting up group2_b2_bn
I0320 13:58:09.568338 137617 net.cpp:129] Top shape: 37 328 8 8 (776704)
I0320 13:58:09.568352 137617 net.cpp:137] Memory required for data: 1829005756
I0320 13:58:09.568374 137617 layer_factory.hpp:77] Creating layer group2_b2_scale
I0320 13:58:09.568389 137617 net.cpp:84] Creating Layer group2_b2_scale
I0320 13:58:09.568400 137617 net.cpp:406] group2_b2_scale <- group2_b2_bn_top
I0320 13:58:09.568415 137617 net.cpp:367] group2_b2_scale -> group2_b2_bn_top (in-place)
I0320 13:58:09.568490 137617 layer_factory.hpp:77] Creating layer group2_b2_scale
I0320 13:58:09.568691 137617 net.cpp:122] Setting up group2_b2_scale
I0320 13:58:09.568701 137617 net.cpp:129] Top shape: 37 328 8 8 (776704)
I0320 13:58:09.568716 137617 net.cpp:137] Memory required for data: 1832112572
I0320 13:58:09.568734 137617 layer_factory.hpp:77] Creating layer group2_b2_relu
I0320 13:58:09.568747 137617 net.cpp:84] Creating Layer group2_b2_relu
I0320 13:58:09.568758 137617 net.cpp:406] group2_b2_relu <- group2_b2_bn_top
I0320 13:58:09.568773 137617 net.cpp:367] group2_b2_relu -> group2_b2_bn_top (in-place)
I0320 13:58:09.569313 137617 net.cpp:122] Setting up group2_b2_relu
I0320 13:58:09.569324 137617 net.cpp:129] Top shape: 37 328 8 8 (776704)
I0320 13:58:09.569339 137617 net.cpp:137] Memory required for data: 1835219388
I0320 13:58:09.569350 137617 layer_factory.hpp:77] Creating layer group2_b2_conv
I0320 13:58:09.569368 137617 net.cpp:84] Creating Layer group2_b2_conv
I0320 13:58:09.569380 137617 net.cpp:406] group2_b2_conv <- group2_b2_bn_top
I0320 13:58:09.569397 137617 net.cpp:380] group2_b2_conv -> group2_b2_conv_top
I0320 13:58:09.572477 137617 net.cpp:122] Setting up group2_b2_conv
I0320 13:58:09.572490 137617 net.cpp:129] Top shape: 37 12 8 8 (28416)
I0320 13:58:09.572506 137617 net.cpp:137] Memory required for data: 1835333052
I0320 13:58:09.572521 137617 layer_factory.hpp:77] Creating layer group2_b2_dropout
I0320 13:58:09.572536 137617 net.cpp:84] Creating Layer group2_b2_dropout
I0320 13:58:09.572547 137617 net.cpp:406] group2_b2_dropout <- group2_b2_conv_top
I0320 13:58:09.572563 137617 net.cpp:380] group2_b2_dropout -> group2_b2_dropout
I0320 13:58:09.572638 137617 net.cpp:122] Setting up group2_b2_dropout
I0320 13:58:09.572648 137617 net.cpp:129] Top shape: 37 12 8 8 (28416)
I0320 13:58:09.572662 137617 net.cpp:137] Memory required for data: 1835446716
I0320 13:58:09.572674 137617 layer_factory.hpp:77] Creating layer group2_b2_concat
I0320 13:58:09.572688 137617 net.cpp:84] Creating Layer group2_b2_concat
I0320 13:58:09.572700 137617 net.cpp:406] group2_b2_concat <- group2_b2_dropout
I0320 13:58:09.572712 137617 net.cpp:406] group2_b2_concat <- group2_b1_concat_group2_b1_concat_0_split_1
I0320 13:58:09.572726 137617 net.cpp:380] group2_b2_concat -> group2_b2_concat
I0320 13:58:09.572773 137617 net.cpp:122] Setting up group2_b2_concat
I0320 13:58:09.572782 137617 net.cpp:129] Top shape: 37 340 8 8 (805120)
I0320 13:58:09.572798 137617 net.cpp:137] Memory required for data: 1838667196
I0320 13:58:09.572808 137617 layer_factory.hpp:77] Creating layer group2_b2_concat_group2_b2_concat_0_split
I0320 13:58:09.572823 137617 net.cpp:84] Creating Layer group2_b2_concat_group2_b2_concat_0_split
I0320 13:58:09.572834 137617 net.cpp:406] group2_b2_concat_group2_b2_concat_0_split <- group2_b2_concat
I0320 13:58:09.572847 137617 net.cpp:380] group2_b2_concat_group2_b2_concat_0_split -> group2_b2_concat_group2_b2_concat_0_split_0
I0320 13:58:09.572865 137617 net.cpp:380] group2_b2_concat_group2_b2_concat_0_split -> group2_b2_concat_group2_b2_concat_0_split_1
I0320 13:58:09.572938 137617 net.cpp:122] Setting up group2_b2_concat_group2_b2_concat_0_split
I0320 13:58:09.572948 137617 net.cpp:129] Top shape: 37 340 8 8 (805120)
I0320 13:58:09.572963 137617 net.cpp:129] Top shape: 37 340 8 8 (805120)
I0320 13:58:09.572976 137617 net.cpp:137] Memory required for data: 1845108156
I0320 13:58:09.572988 137617 layer_factory.hpp:77] Creating layer group2_b3_bn
I0320 13:58:09.573001 137617 net.cpp:84] Creating Layer group2_b3_bn
I0320 13:58:09.573012 137617 net.cpp:406] group2_b3_bn <- group2_b2_concat_group2_b2_concat_0_split_0
I0320 13:58:09.573027 137617 net.cpp:380] group2_b3_bn -> group2_b3_bn_top
I0320 13:58:09.573398 137617 net.cpp:122] Setting up group2_b3_bn
I0320 13:58:09.573410 137617 net.cpp:129] Top shape: 37 340 8 8 (805120)
I0320 13:58:09.573424 137617 net.cpp:137] Memory required for data: 1848328636
I0320 13:58:09.573446 137617 layer_factory.hpp:77] Creating layer group2_b3_scale
I0320 13:58:09.573462 137617 net.cpp:84] Creating Layer group2_b3_scale
I0320 13:58:09.573474 137617 net.cpp:406] group2_b3_scale <- group2_b3_bn_top
I0320 13:58:09.573489 137617 net.cpp:367] group2_b3_scale -> group2_b3_bn_top (in-place)
I0320 13:58:09.573563 137617 layer_factory.hpp:77] Creating layer group2_b3_scale
I0320 13:58:09.573760 137617 net.cpp:122] Setting up group2_b3_scale
I0320 13:58:09.573770 137617 net.cpp:129] Top shape: 37 340 8 8 (805120)
I0320 13:58:09.573784 137617 net.cpp:137] Memory required for data: 1851549116
I0320 13:58:09.573802 137617 layer_factory.hpp:77] Creating layer group2_b3_relu
I0320 13:58:09.573817 137617 net.cpp:84] Creating Layer group2_b3_relu
I0320 13:58:09.573827 137617 net.cpp:406] group2_b3_relu <- group2_b3_bn_top
I0320 13:58:09.573842 137617 net.cpp:367] group2_b3_relu -> group2_b3_bn_top (in-place)
I0320 13:58:09.574528 137617 net.cpp:122] Setting up group2_b3_relu
I0320 13:58:09.574540 137617 net.cpp:129] Top shape: 37 340 8 8 (805120)
I0320 13:58:09.574555 137617 net.cpp:137] Memory required for data: 1854769596
I0320 13:58:09.574566 137617 layer_factory.hpp:77] Creating layer group2_b3_conv
I0320 13:58:09.574586 137617 net.cpp:84] Creating Layer group2_b3_conv
I0320 13:58:09.574597 137617 net.cpp:406] group2_b3_conv <- group2_b3_bn_top
I0320 13:58:09.574615 137617 net.cpp:380] group2_b3_conv -> group2_b3_conv_top
I0320 13:58:09.577973 137617 net.cpp:122] Setting up group2_b3_conv
I0320 13:58:09.577987 137617 net.cpp:129] Top shape: 37 12 8 8 (28416)
I0320 13:58:09.578003 137617 net.cpp:137] Memory required for data: 1854883260
I0320 13:58:09.578018 137617 layer_factory.hpp:77] Creating layer group2_b3_dropout
I0320 13:58:09.578033 137617 net.cpp:84] Creating Layer group2_b3_dropout
I0320 13:58:09.578045 137617 net.cpp:406] group2_b3_dropout <- group2_b3_conv_top
I0320 13:58:09.578061 137617 net.cpp:380] group2_b3_dropout -> group2_b3_dropout
I0320 13:58:09.578136 137617 net.cpp:122] Setting up group2_b3_dropout
I0320 13:58:09.578146 137617 net.cpp:129] Top shape: 37 12 8 8 (28416)
I0320 13:58:09.578161 137617 net.cpp:137] Memory required for data: 1854996924
I0320 13:58:09.578172 137617 layer_factory.hpp:77] Creating layer group2_b3_concat
I0320 13:58:09.578187 137617 net.cpp:84] Creating Layer group2_b3_concat
I0320 13:58:09.578198 137617 net.cpp:406] group2_b3_concat <- group2_b3_dropout
I0320 13:58:09.578212 137617 net.cpp:406] group2_b3_concat <- group2_b2_concat_group2_b2_concat_0_split_1
I0320 13:58:09.578227 137617 net.cpp:380] group2_b3_concat -> group2_b3_concat
I0320 13:58:09.578279 137617 net.cpp:122] Setting up group2_b3_concat
I0320 13:58:09.578289 137617 net.cpp:129] Top shape: 37 352 8 8 (833536)
I0320 13:58:09.578305 137617 net.cpp:137] Memory required for data: 1858331068
I0320 13:58:09.578315 137617 layer_factory.hpp:77] Creating layer group2_b3_concat_group2_b3_concat_0_split
I0320 13:58:09.578330 137617 net.cpp:84] Creating Layer group2_b3_concat_group2_b3_concat_0_split
I0320 13:58:09.578341 137617 net.cpp:406] group2_b3_concat_group2_b3_concat_0_split <- group2_b3_concat
I0320 13:58:09.578354 137617 net.cpp:380] group2_b3_concat_group2_b3_concat_0_split -> group2_b3_concat_group2_b3_concat_0_split_0
I0320 13:58:09.578375 137617 net.cpp:380] group2_b3_concat_group2_b3_concat_0_split -> group2_b3_concat_group2_b3_concat_0_split_1
I0320 13:58:09.578454 137617 net.cpp:122] Setting up group2_b3_concat_group2_b3_concat_0_split
I0320 13:58:09.578465 137617 net.cpp:129] Top shape: 37 352 8 8 (833536)
I0320 13:58:09.578480 137617 net.cpp:129] Top shape: 37 352 8 8 (833536)
I0320 13:58:09.578495 137617 net.cpp:137] Memory required for data: 1864999356
I0320 13:58:09.578505 137617 layer_factory.hpp:77] Creating layer group2_b4_bn
I0320 13:58:09.578518 137617 net.cpp:84] Creating Layer group2_b4_bn
I0320 13:58:09.578529 137617 net.cpp:406] group2_b4_bn <- group2_b3_concat_group2_b3_concat_0_split_0
I0320 13:58:09.578546 137617 net.cpp:380] group2_b4_bn -> group2_b4_bn_top
I0320 13:58:09.579010 137617 net.cpp:122] Setting up group2_b4_bn
I0320 13:58:09.579021 137617 net.cpp:129] Top shape: 37 352 8 8 (833536)
I0320 13:58:09.579036 137617 net.cpp:137] Memory required for data: 1868333500
I0320 13:58:09.579057 137617 layer_factory.hpp:77] Creating layer group2_b4_scale
I0320 13:58:09.579072 137617 net.cpp:84] Creating Layer group2_b4_scale
I0320 13:58:09.579084 137617 net.cpp:406] group2_b4_scale <- group2_b4_bn_top
I0320 13:58:09.579099 137617 net.cpp:367] group2_b4_scale -> group2_b4_bn_top (in-place)
I0320 13:58:09.579182 137617 layer_factory.hpp:77] Creating layer group2_b4_scale
I0320 13:58:09.579433 137617 net.cpp:122] Setting up group2_b4_scale
I0320 13:58:09.579445 137617 net.cpp:129] Top shape: 37 352 8 8 (833536)
I0320 13:58:09.579460 137617 net.cpp:137] Memory required for data: 1871667644
I0320 13:58:09.579478 137617 layer_factory.hpp:77] Creating layer group2_b4_relu
I0320 13:58:09.579493 137617 net.cpp:84] Creating Layer group2_b4_relu
I0320 13:58:09.579504 137617 net.cpp:406] group2_b4_relu <- group2_b4_bn_top
I0320 13:58:09.579519 137617 net.cpp:367] group2_b4_relu -> group2_b4_bn_top (in-place)
I0320 13:58:09.580672 137617 net.cpp:122] Setting up group2_b4_relu
I0320 13:58:09.580682 137617 net.cpp:129] Top shape: 37 352 8 8 (833536)
I0320 13:58:09.580698 137617 net.cpp:137] Memory required for data: 1875001788
I0320 13:58:09.580709 137617 layer_factory.hpp:77] Creating layer group2_b4_conv
I0320 13:58:09.580729 137617 net.cpp:84] Creating Layer group2_b4_conv
I0320 13:58:09.580741 137617 net.cpp:406] group2_b4_conv <- group2_b4_bn_top
I0320 13:58:09.580757 137617 net.cpp:380] group2_b4_conv -> group2_b4_conv_top
I0320 13:58:09.583845 137617 net.cpp:122] Setting up group2_b4_conv
I0320 13:58:09.583858 137617 net.cpp:129] Top shape: 37 12 8 8 (28416)
I0320 13:58:09.583874 137617 net.cpp:137] Memory required for data: 1875115452
I0320 13:58:09.583890 137617 layer_factory.hpp:77] Creating layer group2_b4_dropout
I0320 13:58:09.583905 137617 net.cpp:84] Creating Layer group2_b4_dropout
I0320 13:58:09.583916 137617 net.cpp:406] group2_b4_dropout <- group2_b4_conv_top
I0320 13:58:09.583932 137617 net.cpp:380] group2_b4_dropout -> group2_b4_dropout
I0320 13:58:09.584007 137617 net.cpp:122] Setting up group2_b4_dropout
I0320 13:58:09.584017 137617 net.cpp:129] Top shape: 37 12 8 8 (28416)
I0320 13:58:09.584031 137617 net.cpp:137] Memory required for data: 1875229116
I0320 13:58:09.584043 137617 layer_factory.hpp:77] Creating layer group2_b4_concat
I0320 13:58:09.584058 137617 net.cpp:84] Creating Layer group2_b4_concat
I0320 13:58:09.584069 137617 net.cpp:406] group2_b4_concat <- group2_b4_dropout
I0320 13:58:09.584081 137617 net.cpp:406] group2_b4_concat <- group2_b3_concat_group2_b3_concat_0_split_1
I0320 13:58:09.584096 137617 net.cpp:380] group2_b4_concat -> group2_b4_concat
I0320 13:58:09.584143 137617 net.cpp:122] Setting up group2_b4_concat
I0320 13:58:09.584153 137617 net.cpp:129] Top shape: 37 364 8 8 (861952)
I0320 13:58:09.584168 137617 net.cpp:137] Memory required for data: 1878676924
I0320 13:58:09.584179 137617 layer_factory.hpp:77] Creating layer group2_b4_concat_group2_b4_concat_0_split
I0320 13:58:09.584193 137617 net.cpp:84] Creating Layer group2_b4_concat_group2_b4_concat_0_split
I0320 13:58:09.584204 137617 net.cpp:406] group2_b4_concat_group2_b4_concat_0_split <- group2_b4_concat
I0320 13:58:09.584219 137617 net.cpp:380] group2_b4_concat_group2_b4_concat_0_split -> group2_b4_concat_group2_b4_concat_0_split_0
I0320 13:58:09.584236 137617 net.cpp:380] group2_b4_concat_group2_b4_concat_0_split -> group2_b4_concat_group2_b4_concat_0_split_1
I0320 13:58:09.584314 137617 net.cpp:122] Setting up group2_b4_concat_group2_b4_concat_0_split
I0320 13:58:09.584324 137617 net.cpp:129] Top shape: 37 364 8 8 (861952)
I0320 13:58:09.584339 137617 net.cpp:129] Top shape: 37 364 8 8 (861952)
I0320 13:58:09.584353 137617 net.cpp:137] Memory required for data: 1885572540
I0320 13:58:09.584364 137617 layer_factory.hpp:77] Creating layer group2_b5_bn
I0320 13:58:09.584378 137617 net.cpp:84] Creating Layer group2_b5_bn
I0320 13:58:09.584389 137617 net.cpp:406] group2_b5_bn <- group2_b4_concat_group2_b4_concat_0_split_0
I0320 13:58:09.584404 137617 net.cpp:380] group2_b5_bn -> group2_b5_bn_top
I0320 13:58:09.584772 137617 net.cpp:122] Setting up group2_b5_bn
I0320 13:58:09.584784 137617 net.cpp:129] Top shape: 37 364 8 8 (861952)
I0320 13:58:09.584800 137617 net.cpp:137] Memory required for data: 1889020348
I0320 13:58:09.584820 137617 layer_factory.hpp:77] Creating layer group2_b5_scale
I0320 13:58:09.584836 137617 net.cpp:84] Creating Layer group2_b5_scale
I0320 13:58:09.584846 137617 net.cpp:406] group2_b5_scale <- group2_b5_bn_top
I0320 13:58:09.584861 137617 net.cpp:367] group2_b5_scale -> group2_b5_bn_top (in-place)
I0320 13:58:09.584935 137617 layer_factory.hpp:77] Creating layer group2_b5_scale
I0320 13:58:09.585181 137617 net.cpp:122] Setting up group2_b5_scale
I0320 13:58:09.585193 137617 net.cpp:129] Top shape: 37 364 8 8 (861952)
I0320 13:58:09.585208 137617 net.cpp:137] Memory required for data: 1892468156
I0320 13:58:09.585227 137617 layer_factory.hpp:77] Creating layer group2_b5_relu
I0320 13:58:09.585240 137617 net.cpp:84] Creating Layer group2_b5_relu
I0320 13:58:09.585253 137617 net.cpp:406] group2_b5_relu <- group2_b5_bn_top
I0320 13:58:09.585266 137617 net.cpp:367] group2_b5_relu -> group2_b5_bn_top (in-place)
I0320 13:58:09.585937 137617 net.cpp:122] Setting up group2_b5_relu
I0320 13:58:09.585949 137617 net.cpp:129] Top shape: 37 364 8 8 (861952)
I0320 13:58:09.585964 137617 net.cpp:137] Memory required for data: 1895915964
I0320 13:58:09.585975 137617 layer_factory.hpp:77] Creating layer group2_b5_conv
I0320 13:58:09.585994 137617 net.cpp:84] Creating Layer group2_b5_conv
I0320 13:58:09.586006 137617 net.cpp:406] group2_b5_conv <- group2_b5_bn_top
I0320 13:58:09.586046 137617 net.cpp:380] group2_b5_conv -> group2_b5_conv_top
I0320 13:58:09.589360 137617 net.cpp:122] Setting up group2_b5_conv
I0320 13:58:09.589373 137617 net.cpp:129] Top shape: 37 12 8 8 (28416)
I0320 13:58:09.589390 137617 net.cpp:137] Memory required for data: 1896029628
I0320 13:58:09.589406 137617 layer_factory.hpp:77] Creating layer group2_b5_dropout
I0320 13:58:09.589421 137617 net.cpp:84] Creating Layer group2_b5_dropout
I0320 13:58:09.589432 137617 net.cpp:406] group2_b5_dropout <- group2_b5_conv_top
I0320 13:58:09.589447 137617 net.cpp:380] group2_b5_dropout -> group2_b5_dropout
I0320 13:58:09.589522 137617 net.cpp:122] Setting up group2_b5_dropout
I0320 13:58:09.589532 137617 net.cpp:129] Top shape: 37 12 8 8 (28416)
I0320 13:58:09.589547 137617 net.cpp:137] Memory required for data: 1896143292
I0320 13:58:09.589558 137617 layer_factory.hpp:77] Creating layer group2_b5_concat
I0320 13:58:09.589573 137617 net.cpp:84] Creating Layer group2_b5_concat
I0320 13:58:09.589584 137617 net.cpp:406] group2_b5_concat <- group2_b5_dropout
I0320 13:58:09.589597 137617 net.cpp:406] group2_b5_concat <- group2_b4_concat_group2_b4_concat_0_split_1
I0320 13:58:09.589612 137617 net.cpp:380] group2_b5_concat -> group2_b5_concat
I0320 13:58:09.589664 137617 net.cpp:122] Setting up group2_b5_concat
I0320 13:58:09.589675 137617 net.cpp:129] Top shape: 37 376 8 8 (890368)
I0320 13:58:09.589691 137617 net.cpp:137] Memory required for data: 1899704764
I0320 13:58:09.589701 137617 layer_factory.hpp:77] Creating layer group2_b5_concat_group2_b5_concat_0_split
I0320 13:58:09.589716 137617 net.cpp:84] Creating Layer group2_b5_concat_group2_b5_concat_0_split
I0320 13:58:09.589727 137617 net.cpp:406] group2_b5_concat_group2_b5_concat_0_split <- group2_b5_concat
I0320 13:58:09.589741 137617 net.cpp:380] group2_b5_concat_group2_b5_concat_0_split -> group2_b5_concat_group2_b5_concat_0_split_0
I0320 13:58:09.589758 137617 net.cpp:380] group2_b5_concat_group2_b5_concat_0_split -> group2_b5_concat_group2_b5_concat_0_split_1
I0320 13:58:09.589838 137617 net.cpp:122] Setting up group2_b5_concat_group2_b5_concat_0_split
I0320 13:58:09.589848 137617 net.cpp:129] Top shape: 37 376 8 8 (890368)
I0320 13:58:09.589864 137617 net.cpp:129] Top shape: 37 376 8 8 (890368)
I0320 13:58:09.589877 137617 net.cpp:137] Memory required for data: 1906827708
I0320 13:58:09.589889 137617 layer_factory.hpp:77] Creating layer group2_b6_bn
I0320 13:58:09.589902 137617 net.cpp:84] Creating Layer group2_b6_bn
I0320 13:58:09.589913 137617 net.cpp:406] group2_b6_bn <- group2_b5_concat_group2_b5_concat_0_split_0
I0320 13:58:09.589928 137617 net.cpp:380] group2_b6_bn -> group2_b6_bn_top
I0320 13:58:09.590400 137617 net.cpp:122] Setting up group2_b6_bn
I0320 13:58:09.590412 137617 net.cpp:129] Top shape: 37 376 8 8 (890368)
I0320 13:58:09.590427 137617 net.cpp:137] Memory required for data: 1910389180
I0320 13:58:09.590448 137617 layer_factory.hpp:77] Creating layer group2_b6_scale
I0320 13:58:09.590463 137617 net.cpp:84] Creating Layer group2_b6_scale
I0320 13:58:09.590476 137617 net.cpp:406] group2_b6_scale <- group2_b6_bn_top
I0320 13:58:09.590489 137617 net.cpp:367] group2_b6_scale -> group2_b6_bn_top (in-place)
I0320 13:58:09.590574 137617 layer_factory.hpp:77] Creating layer group2_b6_scale
I0320 13:58:09.590821 137617 net.cpp:122] Setting up group2_b6_scale
I0320 13:58:09.590832 137617 net.cpp:129] Top shape: 37 376 8 8 (890368)
I0320 13:58:09.590847 137617 net.cpp:137] Memory required for data: 1913950652
I0320 13:58:09.590865 137617 layer_factory.hpp:77] Creating layer group2_b6_relu
I0320 13:58:09.590879 137617 net.cpp:84] Creating Layer group2_b6_relu
I0320 13:58:09.590890 137617 net.cpp:406] group2_b6_relu <- group2_b6_bn_top
I0320 13:58:09.590904 137617 net.cpp:367] group2_b6_relu -> group2_b6_bn_top (in-place)
I0320 13:58:09.591572 137617 net.cpp:122] Setting up group2_b6_relu
I0320 13:58:09.591584 137617 net.cpp:129] Top shape: 37 376 8 8 (890368)
I0320 13:58:09.591599 137617 net.cpp:137] Memory required for data: 1917512124
I0320 13:58:09.591610 137617 layer_factory.hpp:77] Creating layer group2_b6_conv
I0320 13:58:09.591636 137617 net.cpp:84] Creating Layer group2_b6_conv
I0320 13:58:09.591650 137617 net.cpp:406] group2_b6_conv <- group2_b6_bn_top
I0320 13:58:09.591665 137617 net.cpp:380] group2_b6_conv -> group2_b6_conv_top
I0320 13:58:09.595293 137617 net.cpp:122] Setting up group2_b6_conv
I0320 13:58:09.595309 137617 net.cpp:129] Top shape: 37 12 8 8 (28416)
I0320 13:58:09.595324 137617 net.cpp:137] Memory required for data: 1917625788
I0320 13:58:09.595340 137617 layer_factory.hpp:77] Creating layer group2_b6_dropout
I0320 13:58:09.595355 137617 net.cpp:84] Creating Layer group2_b6_dropout
I0320 13:58:09.595367 137617 net.cpp:406] group2_b6_dropout <- group2_b6_conv_top
I0320 13:58:09.595383 137617 net.cpp:380] group2_b6_dropout -> group2_b6_dropout
I0320 13:58:09.595455 137617 net.cpp:122] Setting up group2_b6_dropout
I0320 13:58:09.595465 137617 net.cpp:129] Top shape: 37 12 8 8 (28416)
I0320 13:58:09.595480 137617 net.cpp:137] Memory required for data: 1917739452
I0320 13:58:09.595491 137617 layer_factory.hpp:77] Creating layer group2_b6_concat
I0320 13:58:09.595505 137617 net.cpp:84] Creating Layer group2_b6_concat
I0320 13:58:09.595517 137617 net.cpp:406] group2_b6_concat <- group2_b6_dropout
I0320 13:58:09.595530 137617 net.cpp:406] group2_b6_concat <- group2_b5_concat_group2_b5_concat_0_split_1
I0320 13:58:09.595546 137617 net.cpp:380] group2_b6_concat -> group2_b6_concat
I0320 13:58:09.595595 137617 net.cpp:122] Setting up group2_b6_concat
I0320 13:58:09.595607 137617 net.cpp:129] Top shape: 37 388 8 8 (918784)
I0320 13:58:09.595621 137617 net.cpp:137] Memory required for data: 1921414588
I0320 13:58:09.595633 137617 layer_factory.hpp:77] Creating layer group2_b6_concat_group2_b6_concat_0_split
I0320 13:58:09.595646 137617 net.cpp:84] Creating Layer group2_b6_concat_group2_b6_concat_0_split
I0320 13:58:09.595657 137617 net.cpp:406] group2_b6_concat_group2_b6_concat_0_split <- group2_b6_concat
I0320 13:58:09.595671 137617 net.cpp:380] group2_b6_concat_group2_b6_concat_0_split -> group2_b6_concat_group2_b6_concat_0_split_0
I0320 13:58:09.595690 137617 net.cpp:380] group2_b6_concat_group2_b6_concat_0_split -> group2_b6_concat_group2_b6_concat_0_split_1
I0320 13:58:09.595769 137617 net.cpp:122] Setting up group2_b6_concat_group2_b6_concat_0_split
I0320 13:58:09.595780 137617 net.cpp:129] Top shape: 37 388 8 8 (918784)
I0320 13:58:09.595795 137617 net.cpp:129] Top shape: 37 388 8 8 (918784)
I0320 13:58:09.595808 137617 net.cpp:137] Memory required for data: 1928764860
I0320 13:58:09.595819 137617 layer_factory.hpp:77] Creating layer group2_b7_bn
I0320 13:58:09.595834 137617 net.cpp:84] Creating Layer group2_b7_bn
I0320 13:58:09.595845 137617 net.cpp:406] group2_b7_bn <- group2_b6_concat_group2_b6_concat_0_split_0
I0320 13:58:09.595860 137617 net.cpp:380] group2_b7_bn -> group2_b7_bn_top
I0320 13:58:09.596333 137617 net.cpp:122] Setting up group2_b7_bn
I0320 13:58:09.596344 137617 net.cpp:129] Top shape: 37 388 8 8 (918784)
I0320 13:58:09.596359 137617 net.cpp:137] Memory required for data: 1932439996
I0320 13:58:09.596381 137617 layer_factory.hpp:77] Creating layer group2_b7_scale
I0320 13:58:09.596397 137617 net.cpp:84] Creating Layer group2_b7_scale
I0320 13:58:09.596410 137617 net.cpp:406] group2_b7_scale <- group2_b7_bn_top
I0320 13:58:09.596424 137617 net.cpp:367] group2_b7_scale -> group2_b7_bn_top (in-place)
I0320 13:58:09.596509 137617 layer_factory.hpp:77] Creating layer group2_b7_scale
I0320 13:58:09.596757 137617 net.cpp:122] Setting up group2_b7_scale
I0320 13:58:09.596770 137617 net.cpp:129] Top shape: 37 388 8 8 (918784)
I0320 13:58:09.596784 137617 net.cpp:137] Memory required for data: 1936115132
I0320 13:58:09.596802 137617 layer_factory.hpp:77] Creating layer group2_b7_relu
I0320 13:58:09.596817 137617 net.cpp:84] Creating Layer group2_b7_relu
I0320 13:58:09.596828 137617 net.cpp:406] group2_b7_relu <- group2_b7_bn_top
I0320 13:58:09.596843 137617 net.cpp:367] group2_b7_relu -> group2_b7_bn_top (in-place)
I0320 13:58:09.597513 137617 net.cpp:122] Setting up group2_b7_relu
I0320 13:58:09.597525 137617 net.cpp:129] Top shape: 37 388 8 8 (918784)
I0320 13:58:09.597540 137617 net.cpp:137] Memory required for data: 1939790268
I0320 13:58:09.597551 137617 layer_factory.hpp:77] Creating layer group2_b7_conv
I0320 13:58:09.597571 137617 net.cpp:84] Creating Layer group2_b7_conv
I0320 13:58:09.597582 137617 net.cpp:406] group2_b7_conv <- group2_b7_bn_top
I0320 13:58:09.597606 137617 net.cpp:380] group2_b7_conv -> group2_b7_conv_top
I0320 13:58:09.600953 137617 net.cpp:122] Setting up group2_b7_conv
I0320 13:58:09.600966 137617 net.cpp:129] Top shape: 37 12 8 8 (28416)
I0320 13:58:09.600982 137617 net.cpp:137] Memory required for data: 1939903932
I0320 13:58:09.600996 137617 layer_factory.hpp:77] Creating layer group2_b7_dropout
I0320 13:58:09.601011 137617 net.cpp:84] Creating Layer group2_b7_dropout
I0320 13:58:09.601023 137617 net.cpp:406] group2_b7_dropout <- group2_b7_conv_top
I0320 13:58:09.601039 137617 net.cpp:380] group2_b7_dropout -> group2_b7_dropout
I0320 13:58:09.601115 137617 net.cpp:122] Setting up group2_b7_dropout
I0320 13:58:09.601125 137617 net.cpp:129] Top shape: 37 12 8 8 (28416)
I0320 13:58:09.601141 137617 net.cpp:137] Memory required for data: 1940017596
I0320 13:58:09.601151 137617 layer_factory.hpp:77] Creating layer group2_b7_concat
I0320 13:58:09.601166 137617 net.cpp:84] Creating Layer group2_b7_concat
I0320 13:58:09.601177 137617 net.cpp:406] group2_b7_concat <- group2_b7_dropout
I0320 13:58:09.601191 137617 net.cpp:406] group2_b7_concat <- group2_b6_concat_group2_b6_concat_0_split_1
I0320 13:58:09.601205 137617 net.cpp:380] group2_b7_concat -> group2_b7_concat
I0320 13:58:09.601258 137617 net.cpp:122] Setting up group2_b7_concat
I0320 13:58:09.601269 137617 net.cpp:129] Top shape: 37 400 8 8 (947200)
I0320 13:58:09.601284 137617 net.cpp:137] Memory required for data: 1943806396
I0320 13:58:09.601294 137617 layer_factory.hpp:77] Creating layer group2_b7_concat_group2_b7_concat_0_split
I0320 13:58:09.601308 137617 net.cpp:84] Creating Layer group2_b7_concat_group2_b7_concat_0_split
I0320 13:58:09.601320 137617 net.cpp:406] group2_b7_concat_group2_b7_concat_0_split <- group2_b7_concat
I0320 13:58:09.601333 137617 net.cpp:380] group2_b7_concat_group2_b7_concat_0_split -> group2_b7_concat_group2_b7_concat_0_split_0
I0320 13:58:09.601351 137617 net.cpp:380] group2_b7_concat_group2_b7_concat_0_split -> group2_b7_concat_group2_b7_concat_0_split_1
I0320 13:58:09.601431 137617 net.cpp:122] Setting up group2_b7_concat_group2_b7_concat_0_split
I0320 13:58:09.601442 137617 net.cpp:129] Top shape: 37 400 8 8 (947200)
I0320 13:58:09.601457 137617 net.cpp:129] Top shape: 37 400 8 8 (947200)
I0320 13:58:09.601471 137617 net.cpp:137] Memory required for data: 1951383996
I0320 13:58:09.601482 137617 layer_factory.hpp:77] Creating layer group2_b8_bn
I0320 13:58:09.601496 137617 net.cpp:84] Creating Layer group2_b8_bn
I0320 13:58:09.601507 137617 net.cpp:406] group2_b8_bn <- group2_b7_concat_group2_b7_concat_0_split_0
I0320 13:58:09.601522 137617 net.cpp:380] group2_b8_bn -> group2_b8_bn_top
I0320 13:58:09.601991 137617 net.cpp:122] Setting up group2_b8_bn
I0320 13:58:09.602003 137617 net.cpp:129] Top shape: 37 400 8 8 (947200)
I0320 13:58:09.602018 137617 net.cpp:137] Memory required for data: 1955172796
I0320 13:58:09.602041 137617 layer_factory.hpp:77] Creating layer group2_b8_scale
I0320 13:58:09.602056 137617 net.cpp:84] Creating Layer group2_b8_scale
I0320 13:58:09.602067 137617 net.cpp:406] group2_b8_scale <- group2_b8_bn_top
I0320 13:58:09.602082 137617 net.cpp:367] group2_b8_scale -> group2_b8_bn_top (in-place)
I0320 13:58:09.602166 137617 layer_factory.hpp:77] Creating layer group2_b8_scale
I0320 13:58:09.602422 137617 net.cpp:122] Setting up group2_b8_scale
I0320 13:58:09.602433 137617 net.cpp:129] Top shape: 37 400 8 8 (947200)
I0320 13:58:09.602448 137617 net.cpp:137] Memory required for data: 1958961596
I0320 13:58:09.602468 137617 layer_factory.hpp:77] Creating layer group2_b8_relu
I0320 13:58:09.602480 137617 net.cpp:84] Creating Layer group2_b8_relu
I0320 13:58:09.602493 137617 net.cpp:406] group2_b8_relu <- group2_b8_bn_top
I0320 13:58:09.602506 137617 net.cpp:367] group2_b8_relu -> group2_b8_bn_top (in-place)
I0320 13:58:09.603643 137617 net.cpp:122] Setting up group2_b8_relu
I0320 13:58:09.603655 137617 net.cpp:129] Top shape: 37 400 8 8 (947200)
I0320 13:58:09.603670 137617 net.cpp:137] Memory required for data: 1962750396
I0320 13:58:09.603682 137617 layer_factory.hpp:77] Creating layer group2_b8_conv
I0320 13:58:09.603700 137617 net.cpp:84] Creating Layer group2_b8_conv
I0320 13:58:09.603713 137617 net.cpp:406] group2_b8_conv <- group2_b8_bn_top
I0320 13:58:09.603729 137617 net.cpp:380] group2_b8_conv -> group2_b8_conv_top
I0320 13:58:09.606850 137617 net.cpp:122] Setting up group2_b8_conv
I0320 13:58:09.606863 137617 net.cpp:129] Top shape: 37 12 8 8 (28416)
I0320 13:58:09.606878 137617 net.cpp:137] Memory required for data: 1962864060
I0320 13:58:09.606894 137617 layer_factory.hpp:77] Creating layer group2_b8_dropout
I0320 13:58:09.606909 137617 net.cpp:84] Creating Layer group2_b8_dropout
I0320 13:58:09.606920 137617 net.cpp:406] group2_b8_dropout <- group2_b8_conv_top
I0320 13:58:09.606935 137617 net.cpp:380] group2_b8_dropout -> group2_b8_dropout
I0320 13:58:09.607007 137617 net.cpp:122] Setting up group2_b8_dropout
I0320 13:58:09.607017 137617 net.cpp:129] Top shape: 37 12 8 8 (28416)
I0320 13:58:09.607031 137617 net.cpp:137] Memory required for data: 1962977724
I0320 13:58:09.607043 137617 layer_factory.hpp:77] Creating layer group2_b8_concat
I0320 13:58:09.607056 137617 net.cpp:84] Creating Layer group2_b8_concat
I0320 13:58:09.607067 137617 net.cpp:406] group2_b8_concat <- group2_b8_dropout
I0320 13:58:09.607080 137617 net.cpp:406] group2_b8_concat <- group2_b7_concat_group2_b7_concat_0_split_1
I0320 13:58:09.607095 137617 net.cpp:380] group2_b8_concat -> group2_b8_concat
I0320 13:58:09.607146 137617 net.cpp:122] Setting up group2_b8_concat
I0320 13:58:09.607157 137617 net.cpp:129] Top shape: 37 412 8 8 (975616)
I0320 13:58:09.607172 137617 net.cpp:137] Memory required for data: 1966880188
I0320 13:58:09.607182 137617 layer_factory.hpp:77] Creating layer group2_b8_concat_group2_b8_concat_0_split
I0320 13:58:09.607197 137617 net.cpp:84] Creating Layer group2_b8_concat_group2_b8_concat_0_split
I0320 13:58:09.607208 137617 net.cpp:406] group2_b8_concat_group2_b8_concat_0_split <- group2_b8_concat
I0320 13:58:09.607221 137617 net.cpp:380] group2_b8_concat_group2_b8_concat_0_split -> group2_b8_concat_group2_b8_concat_0_split_0
I0320 13:58:09.607239 137617 net.cpp:380] group2_b8_concat_group2_b8_concat_0_split -> group2_b8_concat_group2_b8_concat_0_split_1
I0320 13:58:09.607313 137617 net.cpp:122] Setting up group2_b8_concat_group2_b8_concat_0_split
I0320 13:58:09.607323 137617 net.cpp:129] Top shape: 37 412 8 8 (975616)
I0320 13:58:09.607338 137617 net.cpp:129] Top shape: 37 412 8 8 (975616)
I0320 13:58:09.607352 137617 net.cpp:137] Memory required for data: 1974685116
I0320 13:58:09.607363 137617 layer_factory.hpp:77] Creating layer group2_b9_bn
I0320 13:58:09.607383 137617 net.cpp:84] Creating Layer group2_b9_bn
I0320 13:58:09.607394 137617 net.cpp:406] group2_b9_bn <- group2_b8_concat_group2_b8_concat_0_split_0
I0320 13:58:09.607410 137617 net.cpp:380] group2_b9_bn -> group2_b9_bn_top
I0320 13:58:09.607795 137617 net.cpp:122] Setting up group2_b9_bn
I0320 13:58:09.607806 137617 net.cpp:129] Top shape: 37 412 8 8 (975616)
I0320 13:58:09.607821 137617 net.cpp:137] Memory required for data: 1978587580
I0320 13:58:09.607843 137617 layer_factory.hpp:77] Creating layer group2_b9_scale
I0320 13:58:09.607858 137617 net.cpp:84] Creating Layer group2_b9_scale
I0320 13:58:09.607869 137617 net.cpp:406] group2_b9_scale <- group2_b9_bn_top
I0320 13:58:09.607883 137617 net.cpp:367] group2_b9_scale -> group2_b9_bn_top (in-place)
I0320 13:58:09.607959 137617 layer_factory.hpp:77] Creating layer group2_b9_scale
I0320 13:58:09.608209 137617 net.cpp:122] Setting up group2_b9_scale
I0320 13:58:09.608222 137617 net.cpp:129] Top shape: 37 412 8 8 (975616)
I0320 13:58:09.608237 137617 net.cpp:137] Memory required for data: 1982490044
I0320 13:58:09.608254 137617 layer_factory.hpp:77] Creating layer group2_b9_relu
I0320 13:58:09.608268 137617 net.cpp:84] Creating Layer group2_b9_relu
I0320 13:58:09.608279 137617 net.cpp:406] group2_b9_relu <- group2_b9_bn_top
I0320 13:58:09.608294 137617 net.cpp:367] group2_b9_relu -> group2_b9_bn_top (in-place)
I0320 13:58:09.608970 137617 net.cpp:122] Setting up group2_b9_relu
I0320 13:58:09.608983 137617 net.cpp:129] Top shape: 37 412 8 8 (975616)
I0320 13:58:09.608997 137617 net.cpp:137] Memory required for data: 1986392508
I0320 13:58:09.609009 137617 layer_factory.hpp:77] Creating layer group2_b9_conv
I0320 13:58:09.609027 137617 net.cpp:84] Creating Layer group2_b9_conv
I0320 13:58:09.609040 137617 net.cpp:406] group2_b9_conv <- group2_b9_bn_top
I0320 13:58:09.609055 137617 net.cpp:380] group2_b9_conv -> group2_b9_conv_top
I0320 13:58:09.612429 137617 net.cpp:122] Setting up group2_b9_conv
I0320 13:58:09.612442 137617 net.cpp:129] Top shape: 37 12 8 8 (28416)
I0320 13:58:09.612459 137617 net.cpp:137] Memory required for data: 1986506172
I0320 13:58:09.612475 137617 layer_factory.hpp:77] Creating layer group2_b9_dropout
I0320 13:58:09.612489 137617 net.cpp:84] Creating Layer group2_b9_dropout
I0320 13:58:09.612501 137617 net.cpp:406] group2_b9_dropout <- group2_b9_conv_top
I0320 13:58:09.612516 137617 net.cpp:380] group2_b9_dropout -> group2_b9_dropout
I0320 13:58:09.612593 137617 net.cpp:122] Setting up group2_b9_dropout
I0320 13:58:09.612603 137617 net.cpp:129] Top shape: 37 12 8 8 (28416)
I0320 13:58:09.612618 137617 net.cpp:137] Memory required for data: 1986619836
I0320 13:58:09.612629 137617 layer_factory.hpp:77] Creating layer group2_b9_concat
I0320 13:58:09.612643 137617 net.cpp:84] Creating Layer group2_b9_concat
I0320 13:58:09.612654 137617 net.cpp:406] group2_b9_concat <- group2_b9_dropout
I0320 13:58:09.612668 137617 net.cpp:406] group2_b9_concat <- group2_b8_concat_group2_b8_concat_0_split_1
I0320 13:58:09.612682 137617 net.cpp:380] group2_b9_concat -> group2_b9_concat
I0320 13:58:09.612733 137617 net.cpp:122] Setting up group2_b9_concat
I0320 13:58:09.612745 137617 net.cpp:129] Top shape: 37 424 8 8 (1004032)
I0320 13:58:09.612759 137617 net.cpp:137] Memory required for data: 1990635964
I0320 13:58:09.612769 137617 layer_factory.hpp:77] Creating layer group2_b9_concat_group2_b9_concat_0_split
I0320 13:58:09.612783 137617 net.cpp:84] Creating Layer group2_b9_concat_group2_b9_concat_0_split
I0320 13:58:09.612794 137617 net.cpp:406] group2_b9_concat_group2_b9_concat_0_split <- group2_b9_concat
I0320 13:58:09.612808 137617 net.cpp:380] group2_b9_concat_group2_b9_concat_0_split -> group2_b9_concat_group2_b9_concat_0_split_0
I0320 13:58:09.612826 137617 net.cpp:380] group2_b9_concat_group2_b9_concat_0_split -> group2_b9_concat_group2_b9_concat_0_split_1
I0320 13:58:09.612907 137617 net.cpp:122] Setting up group2_b9_concat_group2_b9_concat_0_split
I0320 13:58:09.612920 137617 net.cpp:129] Top shape: 37 424 8 8 (1004032)
I0320 13:58:09.612934 137617 net.cpp:129] Top shape: 37 424 8 8 (1004032)
I0320 13:58:09.612948 137617 net.cpp:137] Memory required for data: 1998668220
I0320 13:58:09.612959 137617 layer_factory.hpp:77] Creating layer group2_b10_bn
I0320 13:58:09.612973 137617 net.cpp:84] Creating Layer group2_b10_bn
I0320 13:58:09.612985 137617 net.cpp:406] group2_b10_bn <- group2_b9_concat_group2_b9_concat_0_split_0
I0320 13:58:09.613001 137617 net.cpp:380] group2_b10_bn -> group2_b10_bn_top
I0320 13:58:09.613484 137617 net.cpp:122] Setting up group2_b10_bn
I0320 13:58:09.613497 137617 net.cpp:129] Top shape: 37 424 8 8 (1004032)
I0320 13:58:09.613512 137617 net.cpp:137] Memory required for data: 2002684348
I0320 13:58:09.613534 137617 layer_factory.hpp:77] Creating layer group2_b10_scale
I0320 13:58:09.613548 137617 net.cpp:84] Creating Layer group2_b10_scale
I0320 13:58:09.613560 137617 net.cpp:406] group2_b10_scale <- group2_b10_bn_top
I0320 13:58:09.613574 137617 net.cpp:367] group2_b10_scale -> group2_b10_bn_top (in-place)
I0320 13:58:09.613659 137617 layer_factory.hpp:77] Creating layer group2_b10_scale
I0320 13:58:09.613911 137617 net.cpp:122] Setting up group2_b10_scale
I0320 13:58:09.613924 137617 net.cpp:129] Top shape: 37 424 8 8 (1004032)
I0320 13:58:09.613939 137617 net.cpp:137] Memory required for data: 2006700476
I0320 13:58:09.613956 137617 layer_factory.hpp:77] Creating layer group2_b10_relu
I0320 13:58:09.614053 137617 net.cpp:84] Creating Layer group2_b10_relu
I0320 13:58:09.614066 137617 net.cpp:406] group2_b10_relu <- group2_b10_bn_top
I0320 13:58:09.614080 137617 net.cpp:367] group2_b10_relu -> group2_b10_bn_top (in-place)
I0320 13:58:09.614765 137617 net.cpp:122] Setting up group2_b10_relu
I0320 13:58:09.614776 137617 net.cpp:129] Top shape: 37 424 8 8 (1004032)
I0320 13:58:09.614792 137617 net.cpp:137] Memory required for data: 2010716604
I0320 13:58:09.614804 137617 layer_factory.hpp:77] Creating layer group2_b10_conv
I0320 13:58:09.614823 137617 net.cpp:84] Creating Layer group2_b10_conv
I0320 13:58:09.614835 137617 net.cpp:406] group2_b10_conv <- group2_b10_bn_top
I0320 13:58:09.614851 137617 net.cpp:380] group2_b10_conv -> group2_b10_conv_top
I0320 13:58:09.618865 137617 net.cpp:122] Setting up group2_b10_conv
I0320 13:58:09.618880 137617 net.cpp:129] Top shape: 37 12 8 8 (28416)
I0320 13:58:09.618896 137617 net.cpp:137] Memory required for data: 2010830268
I0320 13:58:09.618911 137617 layer_factory.hpp:77] Creating layer group2_b10_dropout
I0320 13:58:09.618927 137617 net.cpp:84] Creating Layer group2_b10_dropout
I0320 13:58:09.618938 137617 net.cpp:406] group2_b10_dropout <- group2_b10_conv_top
I0320 13:58:09.618954 137617 net.cpp:380] group2_b10_dropout -> group2_b10_dropout
I0320 13:58:09.619030 137617 net.cpp:122] Setting up group2_b10_dropout
I0320 13:58:09.619040 137617 net.cpp:129] Top shape: 37 12 8 8 (28416)
I0320 13:58:09.619055 137617 net.cpp:137] Memory required for data: 2010943932
I0320 13:58:09.619066 137617 layer_factory.hpp:77] Creating layer group2_b10_concat
I0320 13:58:09.619081 137617 net.cpp:84] Creating Layer group2_b10_concat
I0320 13:58:09.619092 137617 net.cpp:406] group2_b10_concat <- group2_b10_dropout
I0320 13:58:09.619105 137617 net.cpp:406] group2_b10_concat <- group2_b9_concat_group2_b9_concat_0_split_1
I0320 13:58:09.619120 137617 net.cpp:380] group2_b10_concat -> group2_b10_concat
I0320 13:58:09.619174 137617 net.cpp:122] Setting up group2_b10_concat
I0320 13:58:09.619185 137617 net.cpp:129] Top shape: 37 436 8 8 (1032448)
I0320 13:58:09.619199 137617 net.cpp:137] Memory required for data: 2015073724
I0320 13:58:09.619210 137617 layer_factory.hpp:77] Creating layer group2_b10_concat_group2_b10_concat_0_split
I0320 13:58:09.619225 137617 net.cpp:84] Creating Layer group2_b10_concat_group2_b10_concat_0_split
I0320 13:58:09.619235 137617 net.cpp:406] group2_b10_concat_group2_b10_concat_0_split <- group2_b10_concat
I0320 13:58:09.619249 137617 net.cpp:380] group2_b10_concat_group2_b10_concat_0_split -> group2_b10_concat_group2_b10_concat_0_split_0
I0320 13:58:09.619266 137617 net.cpp:380] group2_b10_concat_group2_b10_concat_0_split -> group2_b10_concat_group2_b10_concat_0_split_1
I0320 13:58:09.619349 137617 net.cpp:122] Setting up group2_b10_concat_group2_b10_concat_0_split
I0320 13:58:09.619360 137617 net.cpp:129] Top shape: 37 436 8 8 (1032448)
I0320 13:58:09.619375 137617 net.cpp:129] Top shape: 37 436 8 8 (1032448)
I0320 13:58:09.619388 137617 net.cpp:137] Memory required for data: 2023333308
I0320 13:58:09.619400 137617 layer_factory.hpp:77] Creating layer group2_b11_bn
I0320 13:58:09.619413 137617 net.cpp:84] Creating Layer group2_b11_bn
I0320 13:58:09.619426 137617 net.cpp:406] group2_b11_bn <- group2_b10_concat_group2_b10_concat_0_split_0
I0320 13:58:09.619441 137617 net.cpp:380] group2_b11_bn -> group2_b11_bn_top
I0320 13:58:09.619917 137617 net.cpp:122] Setting up group2_b11_bn
I0320 13:58:09.619928 137617 net.cpp:129] Top shape: 37 436 8 8 (1032448)
I0320 13:58:09.619945 137617 net.cpp:137] Memory required for data: 2027463100
I0320 13:58:09.619966 137617 layer_factory.hpp:77] Creating layer group2_b11_scale
I0320 13:58:09.619980 137617 net.cpp:84] Creating Layer group2_b11_scale
I0320 13:58:09.619992 137617 net.cpp:406] group2_b11_scale <- group2_b11_bn_top
I0320 13:58:09.620005 137617 net.cpp:367] group2_b11_scale -> group2_b11_bn_top (in-place)
I0320 13:58:09.620091 137617 layer_factory.hpp:77] Creating layer group2_b11_scale
I0320 13:58:09.620352 137617 net.cpp:122] Setting up group2_b11_scale
I0320 13:58:09.620363 137617 net.cpp:129] Top shape: 37 436 8 8 (1032448)
I0320 13:58:09.620378 137617 net.cpp:137] Memory required for data: 2031592892
I0320 13:58:09.620396 137617 layer_factory.hpp:77] Creating layer group2_b11_relu
I0320 13:58:09.620410 137617 net.cpp:84] Creating Layer group2_b11_relu
I0320 13:58:09.620421 137617 net.cpp:406] group2_b11_relu <- group2_b11_bn_top
I0320 13:58:09.620435 137617 net.cpp:367] group2_b11_relu -> group2_b11_bn_top (in-place)
I0320 13:58:09.621582 137617 net.cpp:122] Setting up group2_b11_relu
I0320 13:58:09.621593 137617 net.cpp:129] Top shape: 37 436 8 8 (1032448)
I0320 13:58:09.621608 137617 net.cpp:137] Memory required for data: 2035722684
I0320 13:58:09.621620 137617 layer_factory.hpp:77] Creating layer group2_b11_conv
I0320 13:58:09.621639 137617 net.cpp:84] Creating Layer group2_b11_conv
I0320 13:58:09.621651 137617 net.cpp:406] group2_b11_conv <- group2_b11_bn_top
I0320 13:58:09.621667 137617 net.cpp:380] group2_b11_conv -> group2_b11_conv_top
I0320 13:58:09.625718 137617 net.cpp:122] Setting up group2_b11_conv
I0320 13:58:09.625737 137617 net.cpp:129] Top shape: 37 12 8 8 (28416)
I0320 13:58:09.625753 137617 net.cpp:137] Memory required for data: 2035836348
I0320 13:58:09.625771 137617 layer_factory.hpp:77] Creating layer group2_b11_dropout
I0320 13:58:09.625787 137617 net.cpp:84] Creating Layer group2_b11_dropout
I0320 13:58:09.625800 137617 net.cpp:406] group2_b11_dropout <- group2_b11_conv_top
I0320 13:58:09.625818 137617 net.cpp:380] group2_b11_dropout -> group2_b11_dropout
I0320 13:58:09.625898 137617 net.cpp:122] Setting up group2_b11_dropout
I0320 13:58:09.625910 137617 net.cpp:129] Top shape: 37 12 8 8 (28416)
I0320 13:58:09.625924 137617 net.cpp:137] Memory required for data: 2035950012
I0320 13:58:09.625934 137617 layer_factory.hpp:77] Creating layer group2_b11_concat
I0320 13:58:09.625950 137617 net.cpp:84] Creating Layer group2_b11_concat
I0320 13:58:09.625962 137617 net.cpp:406] group2_b11_concat <- group2_b11_dropout
I0320 13:58:09.625974 137617 net.cpp:406] group2_b11_concat <- group2_b10_concat_group2_b10_concat_0_split_1
I0320 13:58:09.625989 137617 net.cpp:380] group2_b11_concat -> group2_b11_concat
I0320 13:58:09.626039 137617 net.cpp:122] Setting up group2_b11_concat
I0320 13:58:09.626049 137617 net.cpp:129] Top shape: 37 448 8 8 (1060864)
I0320 13:58:09.626067 137617 net.cpp:137] Memory required for data: 2040193468
I0320 13:58:09.626078 137617 layer_factory.hpp:77] Creating layer group2_b12_bn
I0320 13:58:09.626093 137617 net.cpp:84] Creating Layer group2_b12_bn
I0320 13:58:09.626106 137617 net.cpp:406] group2_b12_bn <- group2_b11_concat
I0320 13:58:09.626121 137617 net.cpp:380] group2_b12_bn -> group2_b12_bn_top
I0320 13:58:09.626495 137617 net.cpp:122] Setting up group2_b12_bn
I0320 13:58:09.626507 137617 net.cpp:129] Top shape: 37 448 8 8 (1060864)
I0320 13:58:09.626523 137617 net.cpp:137] Memory required for data: 2044436924
I0320 13:58:09.626543 137617 layer_factory.hpp:77] Creating layer group2_b12_scale
I0320 13:58:09.626559 137617 net.cpp:84] Creating Layer group2_b12_scale
I0320 13:58:09.626570 137617 net.cpp:406] group2_b12_scale <- group2_b12_bn_top
I0320 13:58:09.626585 137617 net.cpp:367] group2_b12_scale -> group2_b12_bn_top (in-place)
I0320 13:58:09.626662 137617 layer_factory.hpp:77] Creating layer group2_b12_scale
I0320 13:58:09.626865 137617 net.cpp:122] Setting up group2_b12_scale
I0320 13:58:09.626876 137617 net.cpp:129] Top shape: 37 448 8 8 (1060864)
I0320 13:58:09.626891 137617 net.cpp:137] Memory required for data: 2048680380
I0320 13:58:09.626909 137617 layer_factory.hpp:77] Creating layer group2_b12_relu
I0320 13:58:09.626924 137617 net.cpp:84] Creating Layer group2_b12_relu
I0320 13:58:09.626935 137617 net.cpp:406] group2_b12_relu <- group2_b12_bn_top
I0320 13:58:09.626950 137617 net.cpp:367] group2_b12_relu -> group2_b12_bn_top (in-place)
I0320 13:58:09.627487 137617 net.cpp:122] Setting up group2_b12_relu
I0320 13:58:09.627498 137617 net.cpp:129] Top shape: 37 448 8 8 (1060864)
I0320 13:58:09.627513 137617 net.cpp:137] Memory required for data: 2052923836
I0320 13:58:09.627524 137617 layer_factory.hpp:77] Creating layer group2_b12_pool
I0320 13:58:09.627539 137617 net.cpp:84] Creating Layer group2_b12_pool
I0320 13:58:09.627552 137617 net.cpp:406] group2_b12_pool <- group2_b12_bn_top
I0320 13:58:09.627565 137617 net.cpp:380] group2_b12_pool -> group2_b12_pool
I0320 13:58:09.628136 137617 net.cpp:122] Setting up group2_b12_pool
I0320 13:58:09.628147 137617 net.cpp:129] Top shape: 37 448 1 1 (16576)
I0320 13:58:09.628162 137617 net.cpp:137] Memory required for data: 2052990140
I0320 13:58:09.628173 137617 layer_factory.hpp:77] Creating layer post_FC
I0320 13:58:09.628190 137617 net.cpp:84] Creating Layer post_FC
I0320 13:58:09.628201 137617 net.cpp:406] post_FC <- group2_b12_pool
I0320 13:58:09.628218 137617 net.cpp:380] post_FC -> post_FC_top
I0320 13:58:09.628450 137617 net.cpp:122] Setting up post_FC
I0320 13:58:09.628461 137617 net.cpp:129] Top shape: 37 10 (370)
I0320 13:58:09.628475 137617 net.cpp:137] Memory required for data: 2052991620
I0320 13:58:09.628494 137617 layer_factory.hpp:77] Creating layer post_FC_top_post_FC_0_split
I0320 13:58:09.628509 137617 net.cpp:84] Creating Layer post_FC_top_post_FC_0_split
I0320 13:58:09.628520 137617 net.cpp:406] post_FC_top_post_FC_0_split <- post_FC_top
I0320 13:58:09.628535 137617 net.cpp:380] post_FC_top_post_FC_0_split -> post_FC_top_post_FC_0_split_0
I0320 13:58:09.628552 137617 net.cpp:380] post_FC_top_post_FC_0_split -> post_FC_top_post_FC_0_split_1
I0320 13:58:09.628625 137617 net.cpp:122] Setting up post_FC_top_post_FC_0_split
I0320 13:58:09.628635 137617 net.cpp:129] Top shape: 37 10 (370)
I0320 13:58:09.628649 137617 net.cpp:129] Top shape: 37 10 (370)
I0320 13:58:09.628664 137617 net.cpp:137] Memory required for data: 2052994580
I0320 13:58:09.628674 137617 layer_factory.hpp:77] Creating layer accuracy
I0320 13:58:09.628688 137617 net.cpp:84] Creating Layer accuracy
I0320 13:58:09.628700 137617 net.cpp:406] accuracy <- post_FC_top_post_FC_0_split_0
I0320 13:58:09.628713 137617 net.cpp:406] accuracy <- label_dataLayer_1_split_0
I0320 13:58:09.628728 137617 net.cpp:380] accuracy -> accuracy
…
