…
I0314 23:38:33.822693 33055 net.cpp:294] The NetState phase (0) differed from the phase (1) specified by a rule in layer dataLayer
I0314 23:38:33.822952 33055 net.cpp:51] Initializing net from parameters: 
name: "Cifar-Resnet"
state {
  phase: TRAIN
  level: 0
  stage: ""
}
layer {
  name: "dataLayer"
  type: "Data"
  top: "data_top"
  top: "label"
  include {
    phase: TRAIN
  }
  transform_param {
    mirror: true
    crop_size: 32
    mean_file: "examples/cifar10/mean.binaryproto"
  }
  data_param {
    source: "examples/cifar10/cifar10_train_lmdb"
    batch_size: 128
    backend: LMDB
  }
  image_data_param {
    shuffle: true
  }
}
layer {
  name: "first"
  type: "Convolution"
  bottom: "data_top"
  top: "first_conv_top"
  convolution_param {
    num_output: 16
    pad: 1
    kernel_size: 3
    stride: 1
    weight_filler {
      type: "xavier"
    }
    bias_filler {
      type: "constant"
    }
  }
}
layer {
  name: "first_bn"
  type: "BatchNorm"
  bottom: "first_conv_top"
  top: "first_conv_top"
  param {
    lr_mult: 0
    decay_mult: 0
  }
  param {
    lr_mult: 0
    decay_mult: 0
  }
  param {
    lr_mult: 0
    decay_mult: 0
  }
  batch_norm_param {
    moving_average_fraction: 0.9
  }
}
layer {
  name: "first_scale"
  type: "Scale"
  bottom: "first_conv_top"
  top: "first_conv_top"
  scale_param {
    filler {
      value: 1
    }
    bias_term: true
    bias_filler {
      value: 0
    }
  }
}
layer {
  name: "first_relu"
  type: "ReLU"
  bottom: "first_conv_top"
  top: "first_conv_top"
}
layer {
  name: "group0_block0_conv0"
  type: "Convolution"
  bottom: "first_conv_top"
  top: "group0_block0_conv0_conv_top"
  convolution_param {
    num_output: 16
    pad: 1
    kernel_size: 3
    stride: 1
    weight_filler {
      type: "xavier"
    }
    bias_filler {
      type: "constant"
    }
  }
}
layer {
  name: "group0_block0_conv0_bn"
  type: "BatchNorm"
  bottom: "group0_block0_conv0_conv_top"
  top: "group0_block0_conv0_conv_top"
  param {
    lr_mult: 0
    decay_mult: 0
  }
  param {
    lr_mult: 0
    decay_mult: 0
  }
  param {
    lr_mult: 0
    decay_mult: 0
  }
  batch_norm_param {
    moving_average_fraction: 0.9
  }
}
layer {
  name: "group0_block0_conv0_scale"
  type: "Scale"
  bottom: "group0_block0_conv0_conv_top"
  top: "group0_block0_conv0_conv_top"
  scale_param {
    filler {
      value: 1
    }
    bias_term: true
    bias_filler {
      value: 0
    }
  }
}
layer {
  name: "group0_block0_conv0_relu"
  type: "ReLU"
  bottom: "group0_block0_conv0_conv_top"
  top: "group0_block0_conv0_conv_top"
}
layer {
  name: "group0_block0_conv1"
  type: "Convolution"
  bottom: "group0_block0_conv0_conv_top"
  top: "group0_block0_conv1_conv_top"
  convolution_param {
    num_output: 16
    pad: 1
    kernel_size: 3
    stride: 1
    weight_filler {
      type: "xavier"
    }
    bias_filler {
      type: "constant"
    }
  }
}
layer {
  name: "group0_block0_conv1_bn"
  type: "BatchNorm"
  bottom: "group0_block0_conv1_conv_top"
  top: "group0_block0_conv1_conv_top"
  param {
    lr_mult: 0
    decay_mult: 0
  }
  param {
    lr_mult: 0
    decay_mult: 0
  }
  param {
    lr_mult: 0
    decay_mult: 0
  }
  batch_norm_param {
    moving_average_fraction: 0.9
  }
}
layer {
  name: "group0_block0_conv1_scale"
  type: "Scale"
  bottom: "group0_block0_conv1_conv_top"
  top: "group0_block0_conv1_conv_top"
  scale_param {
    filler {
      value: 1
    }
    bias_term: true
    bias_filler {
      value: 0
    }
  }
}
layer {
  name: "group0_block0_sum_eltwise"
  type: "Eltwise"
  bottom: "group0_block0_conv1_conv_top"
  bottom: "first_conv_top"
  top: "group0_block0_sum_eltwise_top"
  eltwise_param {
    operation: SUM
  }
}
layer {
  name: "group0_block1_conv0"
  type: "Convolution"
  bottom: "group0_block0_sum_eltwise_top"
  top: "group0_block1_conv0_conv_top"
  convolution_param {
    num_output: 16
    pad: 1
    kernel_size: 3
    stride: 1
    weight_filler {
      type: "xavier"
    }
    bias_filler {
      type: "constant"
    }
  }
}
layer {
  name: "group0_block1_conv0_bn"
  type: "BatchNorm"
  bottom: "group0_block1_conv0_conv_top"
  top: "group0_block1_conv0_conv_top"
  param {
    lr_mult: 0
    decay_mult: 0
  }
  param {
    lr_mult: 0
    decay_mult: 0
  }
  param {
    lr_mult: 0
    decay_mult: 0
  }
  batch_norm_param {
    moving_average_fraction: 0.9
  }
}
layer {
  name: "group0_block1_conv0_scale"
  type: "Scale"
  bottom: "group0_block1_conv0_conv_top"
  top: "group0_block1_conv0_conv_top"
  scale_param {
    filler {
      value: 1
    }
    bias_term: true
    bias_filler {
      value: 0
    }
  }
}
layer {
  name: "group0_block1_conv0_relu"
  type: "ReLU"
  bottom: "group0_block1_conv0_conv_top"
  top: "group0_block1_conv0_conv_top"
}
layer {
  name: "group0_block1_conv1"
  type: "Convolution"
  bottom: "group0_block1_conv0_conv_top"
  top: "group0_block1_conv1_conv_top"
  convolution_param {
    num_output: 16
    pad: 1
    kernel_size: 3
    stride: 1
    weight_filler {
      type: "xavier"
    }
    bias_filler {
      type: "constant"
    }
  }
}
layer {
  name: "group0_block1_conv1_bn"
  type: "BatchNorm"
  bottom: "group0_block1_conv1_conv_top"
  top: "group0_block1_conv1_conv_top"
  param {
    lr_mult: 0
    decay_mult: 0
  }
  param {
    lr_mult: 0
    decay_mult: 0
  }
  param {
    lr_mult: 0
    decay_mult: 0
  }
  batch_norm_param {
    moving_average_fraction: 0.9
  }
}
layer {
  name: "group0_block1_conv1_scale"
  type: "Scale"
  bottom: "group0_block1_conv1_conv_top"
  top: "group0_block1_conv1_conv_top"
  scale_param {
    filler {
      value: 1
    }
    bias_term: true
    bias_filler {
      value: 0
    }
  }
}
layer {
  name: "group0_block1_sum_eltwise"
  type: "Eltwise"
  bottom: "group0_block1_conv1_conv_top"
  bottom: "group0_block0_sum_eltwise_top"
  top: "group0_block1_sum_eltwise_top"
  eltwise_param {
    operation: SUM
  }
}
layer {
  name: "group0_block2_conv0"
  type: "Convolution"
  bottom: "group0_block1_sum_eltwise_top"
  top: "group0_block2_conv0_conv_top"
  convolution_param {
    num_output: 16
    pad: 1
    kernel_size: 3
    stride: 1
    weight_filler {
      type: "xavier"
    }
    bias_filler {
      type: "constant"
    }
  }
}
layer {
  name: "group0_block2_conv0_bn"
  type: "BatchNorm"
  bottom: "group0_block2_conv0_conv_top"
  top: "group0_block2_conv0_conv_top"
  param {
    lr_mult: 0
    decay_mult: 0
  }
  param {
    lr_mult: 0
    decay_mult: 0
  }
  param {
    lr_mult: 0
    decay_mult: 0
  }
  batch_norm_param {
    moving_average_fraction: 0.9
  }
}
layer {
  name: "group0_block2_conv0_scale"
  type: "Scale"
  bottom: "group0_block2_conv0_conv_top"
  top: "group0_block2_conv0_conv_top"
  scale_param {
    filler {
      value: 1
    }
    bias_term: true
    bias_filler {
      value: 0
    }
  }
}
layer {
  name: "group0_block2_conv0_relu"
  type: "ReLU"
  bottom: "group0_block2_conv0_conv_top"
  top: "group0_block2_conv0_conv_top"
}
layer {
  name: "group0_block2_conv1"
  type: "Convolution"
  bottom: "group0_block2_conv0_conv_top"
  top: "group0_block2_conv1_conv_top"
  convolution_param {
    num_output: 16
    pad: 1
    kernel_size: 3
    stride: 1
    weight_filler {
      type: "xavier"
    }
    bias_filler {
      type: "constant"
    }
  }
}
layer {
  name: "group0_block2_conv1_bn"
  type: "BatchNorm"
  bottom: "group0_block2_conv1_conv_top"
  top: "group0_block2_conv1_conv_top"
  param {
    lr_mult: 0
    decay_mult: 0
  }
  param {
    lr_mult: 0
    decay_mult: 0
  }
  param {
    lr_mult: 0
    decay_mult: 0
  }
  batch_norm_param {
    moving_average_fraction: 0.9
  }
}
layer {
  name: "group0_block2_conv1_scale"
  type: "Scale"
  bottom: "group0_block2_conv1_conv_top"
  top: "group0_block2_conv1_conv_top"
  scale_param {
    filler {
      value: 1
    }
    bias_term: true
    bias_filler {
      value: 0
    }
  }
}
layer {
  name: "group0_block2_sum_eltwise"
  type: "Eltwise"
  bottom: "group0_block2_conv1_conv_top"
  bottom: "group0_block1_sum_eltwise_top"
  top: "group0_block2_sum_eltwise_top"
  eltwise_param {
    operation: SUM
  }
}
layer {
  name: "group0_block3_conv0"
  type: "Convolution"
  bottom: "group0_block2_sum_eltwise_top"
  top: "group0_block3_conv0_conv_top"
  convolution_param {
    num_output: 16
    pad: 1
    kernel_size: 3
    stride: 1
    weight_filler {
      type: "xavier"
    }
    bias_filler {
      type: "constant"
    }
  }
}
layer {
  name: "group0_block3_conv0_bn"
  type: "BatchNorm"
  bottom: "group0_block3_conv0_conv_top"
  top: "group0_block3_conv0_conv_top"
  param {
    lr_mult: 0
    decay_mult: 0
  }
  param {
    lr_mult: 0
    decay_mult: 0
  }
  param {
    lr_mult: 0
    decay_mult: 0
  }
  batch_norm_param {
    moving_average_fraction: 0.9
  }
}
layer {
  name: "group0_block3_conv0_scale"
  type: "Scale"
  bottom: "group0_block3_conv0_conv_top"
  top: "group0_block3_conv0_conv_top"
  scale_param {
    filler {
      value: 1
    }
    bias_term: true
    bias_filler {
      value: 0
    }
  }
}
layer {
  name: "group0_block3_conv0_relu"
  type: "ReLU"
  bottom: "group0_block3_conv0_conv_top"
  top: "group0_block3_conv0_conv_top"
}
layer {
  name: "group0_block3_conv1"
  type: "Convolution"
  bottom: "group0_block3_conv0_conv_top"
  top: "group0_block3_conv1_conv_top"
  convolution_param {
    num_output: 16
    pad: 1
    kernel_size: 3
    stride: 1
    weight_filler {
      type: "xavier"
    }
    bias_filler {
      type: "constant"
    }
  }
}
layer {
  name: "group0_block3_conv1_bn"
  type: "BatchNorm"
  bottom: "group0_block3_conv1_conv_top"
  top: "group0_block3_conv1_conv_top"
  param {
    lr_mult: 0
    decay_mult: 0
  }
  param {
    lr_mult: 0
    decay_mult: 0
  }
  param {
    lr_mult: 0
    decay_mult: 0
  }
  batch_norm_param {
    moving_average_fraction: 0.9
  }
}
layer {
  name: "group0_block3_conv1_scale"
  type: "Scale"
  bottom: "group0_block3_conv1_conv_top"
  top: "group0_block3_conv1_conv_top"
  scale_param {
    filler {
      value: 1
    }
    bias_term: true
    bias_filler {
      value: 0
    }
  }
}
layer {
  name: "group0_block3_sum_eltwise"
  type: "Eltwise"
  bottom: "group0_block3_conv1_conv_top"
  bottom: "group0_block2_sum_eltwise_top"
  top: "group0_block3_sum_eltwise_top"
  eltwise_param {
    operation: SUM
  }
}
layer {
  name: "group0_block4_conv0"
  type: "Convolution"
  bottom: "group0_block3_sum_eltwise_top"
  top: "group0_block4_conv0_conv_top"
  convolution_param {
    num_output: 16
    pad: 1
    kernel_size: 3
    stride: 1
    weight_filler {
      type: "xavier"
    }
    bias_filler {
      type: "constant"
    }
  }
}
layer {
  name: "group0_block4_conv0_bn"
  type: "BatchNorm"
  bottom: "group0_block4_conv0_conv_top"
  top: "group0_block4_conv0_conv_top"
  param {
    lr_mult: 0
    decay_mult: 0
  }
  param {
    lr_mult: 0
    decay_mult: 0
  }
  param {
    lr_mult: 0
    decay_mult: 0
  }
  batch_norm_param {
    moving_average_fraction: 0.9
  }
}
layer {
  name: "group0_block4_conv0_scale"
  type: "Scale"
  bottom: "group0_block4_conv0_conv_top"
  top: "group0_block4_conv0_conv_top"
  scale_param {
    filler {
      value: 1
    }
    bias_term: true
    bias_filler {
      value: 0
    }
  }
}
layer {
  name: "group0_block4_conv0_relu"
  type: "ReLU"
  bottom: "group0_block4_conv0_conv_top"
  top: "group0_block4_conv0_conv_top"
}
layer {
  name: "group0_block4_conv1"
  type: "Convolution"
  bottom: "group0_block4_conv0_conv_top"
  top: "group0_block4_conv1_conv_top"
  convolution_param {
    num_output: 16
    pad: 1
    kernel_size: 3
    stride: 1
    weight_filler {
      type: "xavier"
    }
    bias_filler {
      type: "constant"
    }
  }
}
layer {
  name: "group0_block4_conv1_bn"
  type: "BatchNorm"
  bottom: "group0_block4_conv1_conv_top"
  top: "group0_block4_conv1_conv_top"
  param {
    lr_mult: 0
    decay_mult: 0
  }
  param {
    lr_mult: 0
    decay_mult: 0
  }
  param {
    lr_mult: 0
    decay_mult: 0
  }
  batch_norm_param {
    moving_average_fraction: 0.9
  }
}
layer {
  name: "group0_block4_conv1_scale"
  type: "Scale"
  bottom: "group0_block4_conv1_conv_top"
  top: "group0_block4_conv1_conv_top"
  scale_param {
    filler {
      value: 1
    }
    bias_term: true
    bias_filler {
      value: 0
    }
  }
}
layer {
  name: "group0_block4_sum_eltwise"
  type: "Eltwise"
  bottom: "group0_block4_conv1_conv_top"
  bottom: "group0_block3_sum_eltwise_top"
  top: "group0_block4_sum_eltwise_top"
  eltwise_param {
    operation: SUM
  }
}
layer {
  name: "group0_block5_conv0"
  type: "Convolution"
  bottom: "group0_block4_sum_eltwise_top"
  top: "group0_block5_conv0_conv_top"
  convolution_param {
    num_output: 16
    pad: 1
    kernel_size: 3
    stride: 1
    weight_filler {
      type: "xavier"
    }
    bias_filler {
      type: "constant"
    }
  }
}
layer {
  name: "group0_block5_conv0_bn"
  type: "BatchNorm"
  bottom: "group0_block5_conv0_conv_top"
  top: "group0_block5_conv0_conv_top"
  param {
    lr_mult: 0
    decay_mult: 0
  }
  param {
    lr_mult: 0
    decay_mult: 0
  }
  param {
    lr_mult: 0
    decay_mult: 0
  }
  batch_norm_param {
    moving_average_fraction: 0.9
  }
}
layer {
  name: "group0_block5_conv0_scale"
  type: "Scale"
  bottom: "group0_block5_conv0_conv_top"
  top: "group0_block5_conv0_conv_top"
  scale_param {
    filler {
      value: 1
    }
    bias_term: true
    bias_filler {
      value: 0
    }
  }
}
layer {
  name: "group0_block5_conv0_relu"
  type: "ReLU"
  bottom: "group0_block5_conv0_conv_top"
  top: "group0_block5_conv0_conv_top"
}
layer {
  name: "group0_block5_conv1"
  type: "Convolution"
  bottom: "group0_block5_conv0_conv_top"
  top: "group0_block5_conv1_conv_top"
  convolution_param {
    num_output: 16
    pad: 1
    kernel_size: 3
    stride: 1
    weight_filler {
      type: "xavier"
    }
    bias_filler {
      type: "constant"
    }
  }
}
layer {
  name: "group0_block5_conv1_bn"
  type: "BatchNorm"
  bottom: "group0_block5_conv1_conv_top"
  top: "group0_block5_conv1_conv_top"
  param {
    lr_mult: 0
    decay_mult: 0
  }
  param {
    lr_mult: 0
    decay_mult: 0
  }
  param {
    lr_mult: 0
    decay_mult: 0
  }
  batch_norm_param {
    moving_average_fraction: 0.9
  }
}
layer {
  name: "group0_block5_conv1_scale"
  type: "Scale"
  bottom: "group0_block5_conv1_conv_top"
  top: "group0_block5_conv1_conv_top"
  scale_param {
    filler {
      value: 1
    }
    bias_term: true
    bias_filler {
      value: 0
    }
  }
}
layer {
  name: "group0_block5_sum_eltwise"
  type: "Eltwise"
  bottom: "group0_block5_conv1_conv_top"
  bottom: "group0_block4_sum_eltwise_top"
  top: "group0_block5_sum_eltwise_top"
  eltwise_param {
    operation: SUM
  }
}
layer {
  name: "group0_block6_conv0"
  type: "Convolution"
  bottom: "group0_block5_sum_eltwise_top"
  top: "group0_block6_conv0_conv_top"
  convolution_param {
    num_output: 16
    pad: 1
    kernel_size: 3
    stride: 1
    weight_filler {
      type: "xavier"
    }
    bias_filler {
      type: "constant"
    }
  }
}
layer {
  name: "group0_block6_conv0_bn"
  type: "BatchNorm"
  bottom: "group0_block6_conv0_conv_top"
  top: "group0_block6_conv0_conv_top"
  param {
    lr_mult: 0
    decay_mult: 0
  }
  param {
    lr_mult: 0
    decay_mult: 0
  }
  param {
    lr_mult: 0
    decay_mult: 0
  }
  batch_norm_param {
    moving_average_fraction: 0.9
  }
}
layer {
  name: "group0_block6_conv0_scale"
  type: "Scale"
  bottom: "group0_block6_conv0_conv_top"
  top: "group0_block6_conv0_conv_top"
  scale_param {
    filler {
      value: 1
    }
    bias_term: true
    bias_filler {
      value: 0
    }
  }
}
layer {
  name: "group0_block6_conv0_relu"
  type: "ReLU"
  bottom: "group0_block6_conv0_conv_top"
  top: "group0_block6_conv0_conv_top"
}
layer {
  name: "group0_block6_conv1"
  type: "Convolution"
  bottom: "group0_block6_conv0_conv_top"
  top: "group0_block6_conv1_conv_top"
  convolution_param {
    num_output: 16
    pad: 1
    kernel_size: 3
    stride: 1
    weight_filler {
      type: "xavier"
    }
    bias_filler {
      type: "constant"
    }
  }
}
layer {
  name: "group0_block6_conv1_bn"
  type: "BatchNorm"
  bottom: "group0_block6_conv1_conv_top"
  top: "group0_block6_conv1_conv_top"
  param {
    lr_mult: 0
    decay_mult: 0
  }
  param {
    lr_mult: 0
    decay_mult: 0
  }
  param {
    lr_mult: 0
    decay_mult: 0
  }
  batch_norm_param {
    moving_average_fraction: 0.9
  }
}
layer {
  name: "group0_block6_conv1_scale"
  type: "Scale"
  bottom: "group0_block6_conv1_conv_top"
  top: "group0_block6_conv1_conv_top"
  scale_param {
    filler {
      value: 1
    }
    bias_term: true
    bias_filler {
      value: 0
    }
  }
}
layer {
  name: "group0_block6_sum_eltwise"
  type: "Eltwise"
  bottom: "group0_block6_conv1_conv_top"
  bottom: "group0_block5_sum_eltwise_top"
  top: "group0_block6_sum_eltwise_top"
  eltwise_param {
    operation: SUM
  }
}
layer {
  name: "group0_block7_conv0"
  type: "Convolution"
  bottom: "group0_block6_sum_eltwise_top"
  top: "group0_block7_conv0_conv_top"
  convolution_param {
    num_output: 16
    pad: 1
    kernel_size: 3
    stride: 1
    weight_filler {
      type: "xavier"
    }
    bias_filler {
      type: "constant"
    }
  }
}
layer {
  name: "group0_block7_conv0_bn"
  type: "BatchNorm"
  bottom: "group0_block7_conv0_conv_top"
  top: "group0_block7_conv0_conv_top"
  param {
    lr_mult: 0
    decay_mult: 0
  }
  param {
    lr_mult: 0
    decay_mult: 0
  }
  param {
    lr_mult: 0
    decay_mult: 0
  }
  batch_norm_param {
    moving_average_fraction: 0.9
  }
}
layer {
  name: "group0_block7_conv0_scale"
  type: "Scale"
  bottom: "group0_block7_conv0_conv_top"
  top: "group0_block7_conv0_conv_top"
  scale_param {
    filler {
      value: 1
    }
    bias_term: true
    bias_filler {
      value: 0
    }
  }
}
layer {
  name: "group0_block7_conv0_relu"
  type: "ReLU"
  bottom: "group0_block7_conv0_conv_top"
  top: "group0_block7_conv0_conv_top"
}
layer {
  name: "group0_block7_conv1"
  type: "Convolution"
  bottom: "group0_block7_conv0_conv_top"
  top: "group0_block7_conv1_conv_top"
  convolution_param {
    num_output: 16
    pad: 1
    kernel_size: 3
    stride: 1
    weight_filler {
      type: "xavier"
    }
    bias_filler {
      type: "constant"
    }
  }
}
layer {
  name: "group0_block7_conv1_bn"
  type: "BatchNorm"
  bottom: "group0_block7_conv1_conv_top"
  top: "group0_block7_conv1_conv_top"
  param {
    lr_mult: 0
    decay_mult: 0
  }
  param {
    lr_mult: 0
    decay_mult: 0
  }
  param {
    lr_mult: 0
    decay_mult: 0
  }
  batch_norm_param {
    moving_average_fraction: 0.9
  }
}
layer {
  name: "group0_block7_conv1_scale"
  type: "Scale"
  bottom: "group0_block7_conv1_conv_top"
  top: "group0_block7_conv1_conv_top"
  scale_param {
    filler {
      value: 1
    }
    bias_term: true
    bias_filler {
      value: 0
    }
  }
}
layer {
  name: "group0_block7_sum_eltwise"
  type: "Eltwise"
  bottom: "group0_block7_conv1_conv_top"
  bottom: "group0_block6_sum_eltwise_top"
  top: "group0_block7_sum_eltwise_top"
  eltwise_param {
    operation: SUM
  }
}
layer {
  name: "group0_block8_conv0"
  type: "Convolution"
  bottom: "group0_block7_sum_eltwise_top"
  top: "group0_block8_conv0_conv_top"
  convolution_param {
    num_output: 32
    pad: 1
    kernel_size: 3
    stride: 2
    weight_filler {
      type: "xavier"
    }
    bias_filler {
      type: "constant"
    }
  }
}
layer {
  name: "group0_block8_conv0_bn"
  type: "BatchNorm"
  bottom: "group0_block8_conv0_conv_top"
  top: "group0_block8_conv0_conv_top"
  param {
    lr_mult: 0
    decay_mult: 0
  }
  param {
    lr_mult: 0
    decay_mult: 0
  }
  param {
    lr_mult: 0
    decay_mult: 0
  }
  batch_norm_param {
    moving_average_fraction: 0.9
  }
}
layer {
  name: "group0_block8_conv0_scale"
  type: "Scale"
  bottom: "group0_block8_conv0_conv_top"
  top: "group0_block8_conv0_conv_top"
  scale_param {
    filler {
      value: 1
    }
    bias_term: true
    bias_filler {
      value: 0
    }
  }
}
layer {
  name: "group0_block8_conv0_relu"
  type: "ReLU"
  bottom: "group0_block8_conv0_conv_top"
  top: "group0_block8_conv0_conv_top"
}
layer {
  name: "group0_block8_conv1"
  type: "Convolution"
  bottom: "group0_block8_conv0_conv_top"
  top: "group0_block8_conv1_conv_top"
  convolution_param {
    num_output: 32
    pad: 1
    kernel_size: 3
    stride: 1
    weight_filler {
      type: "xavier"
    }
    bias_filler {
      type: "constant"
    }
  }
}
layer {
  name: "group0_block8_conv1_bn"
  type: "BatchNorm"
  bottom: "group0_block8_conv1_conv_top"
  top: "group0_block8_conv1_conv_top"
  param {
    lr_mult: 0
    decay_mult: 0
  }
  param {
    lr_mult: 0
    decay_mult: 0
  }
  param {
    lr_mult: 0
    decay_mult: 0
  }
  batch_norm_param {
    moving_average_fraction: 0.9
  }
}
layer {
  name: "group0_block8_conv1_scale"
  type: "Scale"
  bottom: "group0_block8_conv1_conv_top"
  top: "group0_block8_conv1_conv_top"
  scale_param {
    filler {
      value: 1
    }
    bias_term: true
    bias_filler {
      value: 0
    }
  }
}
layer {
  name: "group0_block8_proj"
  type: "Convolution"
  bottom: "group0_block7_sum_eltwise_top"
  top: "group0_block8_proj_conv_top"
  convolution_param {
    num_output: 32
    pad: 0
    kernel_size: 2
    stride: 2
    weight_filler {
      type: "xavier"
    }
    bias_filler {
      type: "constant"
    }
  }
}
layer {
  name: "group0_block8_proj_bn"
  type: "BatchNorm"
  bottom: "group0_block8_proj_conv_top"
  top: "group0_block8_proj_conv_top"
  param {
    lr_mult: 0
    decay_mult: 0
  }
  param {
    lr_mult: 0
    decay_mult: 0
  }
  param {
    lr_mult: 0
    decay_mult: 0
  }
  batch_norm_param {
    moving_average_fraction: 0.9
  }
}
layer {
  name: "group0_block8_proj_scale"
  type: "Scale"
  bottom: "group0_block8_proj_conv_top"
  top: "group0_block8_proj_conv_top"
  scale_param {
    filler {
      value: 1
    }
    bias_term: true
    bias_filler {
      value: 0
    }
  }
}
layer {
  name: "group0_block8_sum_eltwise"
  type: "Eltwise"
  bottom: "group0_block8_conv1_conv_top"
  bottom: "group0_block8_proj_conv_top"
  top: "group0_block8_sum_eltwise_top"
  eltwise_param {
    operation: SUM
  }
}
layer {
  name: "group1_block0_conv0"
  type: "Convolution"
  bottom: "group0_block8_sum_eltwise_top"
  top: "group1_block0_conv0_conv_top"
  convolution_param {
    num_output: 32
    pad: 1
    kernel_size: 3
    stride: 1
    weight_filler {
      type: "xavier"
    }
    bias_filler {
      type: "constant"
    }
  }
}
layer {
  name: "group1_block0_conv0_bn"
  type: "BatchNorm"
  bottom: "group1_block0_conv0_conv_top"
  top: "group1_block0_conv0_conv_top"
  param {
    lr_mult: 0
    decay_mult: 0
  }
  param {
    lr_mult: 0
    decay_mult: 0
  }
  param {
    lr_mult: 0
    decay_mult: 0
  }
  batch_norm_param {
    moving_average_fraction: 0.9
  }
}
layer {
  name: "group1_block0_conv0_scale"
  type: "Scale"
  bottom: "group1_block0_conv0_conv_top"
  top: "group1_block0_conv0_conv_top"
  scale_param {
    filler {
      value: 1
    }
    bias_term: true
    bias_filler {
      value: 0
    }
  }
}
layer {
  name: "group1_block0_conv0_relu"
  type: "ReLU"
  bottom: "group1_block0_conv0_conv_top"
  top: "group1_block0_conv0_conv_top"
}
layer {
  name: "group1_block0_conv1"
  type: "Convolution"
  bottom: "group1_block0_conv0_conv_top"
  top: "group1_block0_conv1_conv_top"
  convolution_param {
    num_output: 32
    pad: 1
    kernel_size: 3
    stride: 1
    weight_filler {
      type: "xavier"
    }
    bias_filler {
      type: "constant"
    }
  }
}
layer {
  name: "group1_block0_conv1_bn"
  type: "BatchNorm"
  bottom: "group1_block0_conv1_conv_top"
  top: "group1_block0_conv1_conv_top"
  param {
    lr_mult: 0
    decay_mult: 0
  }
  param {
    lr_mult: 0
    decay_mult: 0
  }
  param {
    lr_mult: 0
    decay_mult: 0
  }
  batch_norm_param {
    moving_average_fraction: 0.9
  }
}
layer {
  name: "group1_block0_conv1_scale"
  type: "Scale"
  bottom: "group1_block0_conv1_conv_top"
  top: "group1_block0_conv1_conv_top"
  scale_param {
    filler {
      value: 1
    }
    bias_term: true
    bias_filler {
      value: 0
    }
  }
}
layer {
  name: "group1_block0_sum_eltwise"
  type: "Eltwise"
  bottom: "group1_block0_conv1_conv_top"
  bottom: "group0_block8_sum_eltwise_top"
  top: "group1_block0_sum_eltwise_top"
  eltwise_param {
    operation: SUM
  }
}
layer {
  name: "group1_block1_conv0"
  type: "Convolution"
  bottom: "group1_block0_sum_eltwise_top"
  top: "group1_block1_conv0_conv_top"
  convolution_param {
    num_output: 32
    pad: 1
    kernel_size: 3
    stride: 1
    weight_filler {
      type: "xavier"
    }
    bias_filler {
      type: "constant"
    }
  }
}
layer {
  name: "group1_block1_conv0_bn"
  type: "BatchNorm"
  bottom: "group1_block1_conv0_conv_top"
  top: "group1_block1_conv0_conv_top"
  param {
    lr_mult: 0
    decay_mult: 0
  }
  param {
    lr_mult: 0
    decay_mult: 0
  }
  param {
    lr_mult: 0
    decay_mult: 0
  }
  batch_norm_param {
    moving_average_fraction: 0.9
  }
}
layer {
  name: "group1_block1_conv0_scale"
  type: "Scale"
  bottom: "group1_block1_conv0_conv_top"
  top: "group1_block1_conv0_conv_top"
  scale_param {
    filler {
      value: 1
    }
    bias_term: true
    bias_filler {
      value: 0
    }
  }
}
layer {
  name: "group1_block1_conv0_relu"
  type: "ReLU"
  bottom: "group1_block1_conv0_conv_top"
  top: "group1_block1_conv0_conv_top"
}
layer {
  name: "group1_block1_conv1"
  type: "Convolution"
  bottom: "group1_block1_conv0_conv_top"
  top: "group1_block1_conv1_conv_top"
  convolution_param {
    num_output: 32
    pad: 1
    kernel_size: 3
    stride: 1
    weight_filler {
      type: "xavier"
    }
    bias_filler {
      type: "constant"
    }
  }
}
layer {
  name: "group1_block1_conv1_bn"
  type: "BatchNorm"
  bottom: "group1_block1_conv1_conv_top"
  top: "group1_block1_conv1_conv_top"
  param {
    lr_mult: 0
    decay_mult: 0
  }
  param {
    lr_mult: 0
    decay_mult: 0
  }
  param {
    lr_mult: 0
    decay_mult: 0
  }
  batch_norm_param {
    moving_average_fraction: 0.9
  }
}
layer {
  name: "group1_block1_conv1_scale"
  type: "Scale"
  bottom: "group1_block1_conv1_conv_top"
  top: "group1_block1_conv1_conv_top"
  scale_param {
    filler {
      value: 1
    }
    bias_term: true
    bias_filler {
      value: 0
    }
  }
}
layer {
  name: "group1_block1_sum_eltwise"
  type: "Eltwise"
  bottom: "group1_block1_conv1_conv_top"
  bottom: "group1_block0_sum_eltwise_top"
  top: "group1_block1_sum_eltwise_top"
  eltwise_param {
    operation: SUM
  }
}
layer {
  name: "group1_block2_conv0"
  type: "Convolution"
  bottom: "group1_block1_sum_eltwise_top"
  top: "group1_block2_conv0_conv_top"
  convolution_param {
    num_output: 32
    pad: 1
    kernel_size: 3
    stride: 1
    weight_filler {
      type: "xavier"
    }
    bias_filler {
      type: "constant"
    }
  }
}
layer {
  name: "group1_block2_conv0_bn"
  type: "BatchNorm"
  bottom: "group1_block2_conv0_conv_top"
  top: "group1_block2_conv0_conv_top"
  param {
    lr_mult: 0
    decay_mult: 0
  }
  param {
    lr_mult: 0
    decay_mult: 0
  }
  param {
    lr_mult: 0
    decay_mult: 0
  }
  batch_norm_param {
    moving_average_fraction: 0.9
  }
}
layer {
  name: "group1_block2_conv0_scale"
  type: "Scale"
  bottom: "group1_block2_conv0_conv_top"
  top: "group1_block2_conv0_conv_top"
  scale_param {
    filler {
      value: 1
    }
    bias_term: true
    bias_filler {
      value: 0
    }
  }
}
layer {
  name: "group1_block2_conv0_relu"
  type: "ReLU"
  bottom: "group1_block2_conv0_conv_top"
  top: "group1_block2_conv0_conv_top"
}
layer {
  name: "group1_block2_conv1"
  type: "Convolution"
  bottom: "group1_block2_conv0_conv_top"
  top: "group1_block2_conv1_conv_top"
  convolution_param {
    num_output: 32
    pad: 1
    kernel_size: 3
    stride: 1
    weight_filler {
      type: "xavier"
    }
    bias_filler {
      type: "constant"
    }
  }
}
layer {
  name: "group1_block2_conv1_bn"
  type: "BatchNorm"
  bottom: "group1_block2_conv1_conv_top"
  top: "group1_block2_conv1_conv_top"
  param {
    lr_mult: 0
    decay_mult: 0
  }
  param {
    lr_mult: 0
    decay_mult: 0
  }
  param {
    lr_mult: 0
    decay_mult: 0
  }
  batch_norm_param {
    moving_average_fraction: 0.9
  }
}
layer {
  name: "group1_block2_conv1_scale"
  type: "Scale"
  bottom: "group1_block2_conv1_conv_top"
  top: "group1_block2_conv1_conv_top"
  scale_param {
    filler {
      value: 1
    }
    bias_term: true
    bias_filler {
      value: 0
    }
  }
}
layer {
  name: "group1_block2_sum_eltwise"
  type: "Eltwise"
  bottom: "group1_block2_conv1_conv_top"
  bottom: "group1_block1_sum_eltwise_top"
  top: "group1_block2_sum_eltwise_top"
  eltwise_param {
    operation: SUM
  }
}
layer {
  name: "group1_block3_conv0"
  type: "Convolution"
  bottom: "group1_block2_sum_eltwise_top"
  top: "group1_block3_conv0_conv_top"
  convolution_param {
    num_output: 32
    pad: 1
    kernel_size: 3
    stride: 1
    weight_filler {
      type: "xavier"
    }
    bias_filler {
      type: "constant"
    }
  }
}
layer {
  name: "group1_block3_conv0_bn"
  type: "BatchNorm"
  bottom: "group1_block3_conv0_conv_top"
  top: "group1_block3_conv0_conv_top"
  param {
    lr_mult: 0
    decay_mult: 0
  }
  param {
    lr_mult: 0
    decay_mult: 0
  }
  param {
    lr_mult: 0
    decay_mult: 0
  }
  batch_norm_param {
    moving_average_fraction: 0.9
  }
}
layer {
  name: "group1_block3_conv0_scale"
  type: "Scale"
  bottom: "group1_block3_conv0_conv_top"
  top: "group1_block3_conv0_conv_top"
  scale_param {
    filler {
      value: 1
    }
    bias_term: true
    bias_filler {
      value: 0
    }
  }
}
layer {
  name: "group1_block3_conv0_relu"
  type: "ReLU"
  bottom: "group1_block3_conv0_conv_top"
  top: "group1_block3_conv0_conv_top"
}
layer {
  name: "group1_block3_conv1"
  type: "Convolution"
  bottom: "group1_block3_conv0_conv_top"
  top: "group1_block3_conv1_conv_top"
  convolution_param {
    num_output: 32
    pad: 1
    kerne
I0314 23:38:33.826278 33055 layer_factory.hpp:77] Creating layer dataLayer
I0314 23:38:33.831938 33055 db_lmdb.cpp:35] Opened lmdb examples/cifar10/cifar10_train_lmdb
I0314 23:38:33.832448 33055 net.cpp:84] Creating Layer dataLayer
I0314 23:38:33.832473 33055 net.cpp:380] dataLayer -> data_top
I0314 23:38:33.832527 33055 net.cpp:380] dataLayer -> label
I0314 23:38:33.832567 33055 data_transformer.cpp:25] Loading mean file from: examples/cifar10/mean.binaryproto
I0314 23:38:33.845783 33055 data_layer.cpp:45] output data size: 128,3,32,32
I0314 23:38:33.851285 33055 net.cpp:122] Setting up dataLayer
I0314 23:38:33.851316 33055 net.cpp:129] Top shape: 128 3 32 32 (393216)
I0314 23:38:33.851341 33055 net.cpp:129] Top shape: 128 (128)
I0314 23:38:33.851354 33055 net.cpp:137] Memory required for data: 1573376
I0314 23:38:33.851380 33055 layer_factory.hpp:77] Creating layer label_dataLayer_1_split
I0314 23:38:33.851405 33055 net.cpp:84] Creating Layer label_dataLayer_1_split
I0314 23:38:33.851421 33055 net.cpp:406] label_dataLayer_1_split <- label
I0314 23:38:33.851467 33055 net.cpp:380] label_dataLayer_1_split -> label_dataLayer_1_split_0
I0314 23:38:33.851490 33055 net.cpp:380] label_dataLayer_1_split -> label_dataLayer_1_split_1
I0314 23:38:33.851555 33055 net.cpp:122] Setting up label_dataLayer_1_split
I0314 23:38:33.851565 33055 net.cpp:129] Top shape: 128 (128)
I0314 23:38:33.851582 33055 net.cpp:129] Top shape: 128 (128)
I0314 23:38:33.851596 33055 net.cpp:137] Memory required for data: 1574400
I0314 23:38:33.851608 33055 layer_factory.hpp:77] Creating layer first
I0314 23:38:33.851644 33055 net.cpp:84] Creating Layer first
I0314 23:38:33.851656 33055 net.cpp:406] first <- data_top
I0314 23:38:33.851673 33055 net.cpp:380] first -> first_conv_top
I0314 23:38:34.371454 33055 net.cpp:122] Setting up first
I0314 23:38:34.371484 33055 net.cpp:129] Top shape: 128 16 32 32 (2097152)
I0314 23:38:34.371505 33055 net.cpp:137] Memory required for data: 9963008
I0314 23:38:34.371568 33055 layer_factory.hpp:77] Creating layer first_bn
I0314 23:38:34.371595 33055 net.cpp:84] Creating Layer first_bn
I0314 23:38:34.371608 33055 net.cpp:406] first_bn <- first_conv_top
I0314 23:38:34.371626 33055 net.cpp:367] first_bn -> first_conv_top (in-place)
I0314 23:38:34.371893 33055 net.cpp:122] Setting up first_bn
I0314 23:38:34.371903 33055 net.cpp:129] Top shape: 128 16 32 32 (2097152)
I0314 23:38:34.371918 33055 net.cpp:137] Memory required for data: 18351616
I0314 23:38:34.371948 33055 layer_factory.hpp:77] Creating layer first_scale
I0314 23:38:34.371973 33055 net.cpp:84] Creating Layer first_scale
I0314 23:38:34.371985 33055 net.cpp:406] first_scale <- first_conv_top
I0314 23:38:34.372000 33055 net.cpp:367] first_scale -> first_conv_top (in-place)
I0314 23:38:34.372072 33055 layer_factory.hpp:77] Creating layer first_scale
I0314 23:38:34.372232 33055 net.cpp:122] Setting up first_scale
I0314 23:38:34.372242 33055 net.cpp:129] Top shape: 128 16 32 32 (2097152)
I0314 23:38:34.372257 33055 net.cpp:137] Memory required for data: 26740224
I0314 23:38:34.372275 33055 layer_factory.hpp:77] Creating layer first_relu
I0314 23:38:34.372293 33055 net.cpp:84] Creating Layer first_relu
I0314 23:38:34.372304 33055 net.cpp:406] first_relu <- first_conv_top
I0314 23:38:34.372318 33055 net.cpp:367] first_relu -> first_conv_top (in-place)
I0314 23:38:34.372825 33055 net.cpp:122] Setting up first_relu
I0314 23:38:34.372836 33055 net.cpp:129] Top shape: 128 16 32 32 (2097152)
I0314 23:38:34.372851 33055 net.cpp:137] Memory required for data: 35128832
I0314 23:38:34.372862 33055 layer_factory.hpp:77] Creating layer first_conv_top_first_relu_0_split
I0314 23:38:34.372877 33055 net.cpp:84] Creating Layer first_conv_top_first_relu_0_split
I0314 23:38:34.372889 33055 net.cpp:406] first_conv_top_first_relu_0_split <- first_conv_top
I0314 23:38:34.372903 33055 net.cpp:380] first_conv_top_first_relu_0_split -> first_conv_top_first_relu_0_split_0
I0314 23:38:34.372920 33055 net.cpp:380] first_conv_top_first_relu_0_split -> first_conv_top_first_relu_0_split_1
I0314 23:38:34.372982 33055 net.cpp:122] Setting up first_conv_top_first_relu_0_split
I0314 23:38:34.372992 33055 net.cpp:129] Top shape: 128 16 32 32 (2097152)
I0314 23:38:34.373008 33055 net.cpp:129] Top shape: 128 16 32 32 (2097152)
I0314 23:38:34.373021 33055 net.cpp:137] Memory required for data: 51906048
I0314 23:38:34.373033 33055 layer_factory.hpp:77] Creating layer group0_block0_conv0
I0314 23:38:34.373054 33055 net.cpp:84] Creating Layer group0_block0_conv0
I0314 23:38:34.373064 33055 net.cpp:406] group0_block0_conv0 <- first_conv_top_first_relu_0_split_0
I0314 23:38:34.373080 33055 net.cpp:380] group0_block0_conv0 -> group0_block0_conv0_conv_top
I0314 23:38:34.375761 33055 net.cpp:122] Setting up group0_block0_conv0
I0314 23:38:34.375773 33055 net.cpp:129] Top shape: 128 16 32 32 (2097152)
I0314 23:38:34.375789 33055 net.cpp:137] Memory required for data: 60294656
I0314 23:38:34.375813 33055 layer_factory.hpp:77] Creating layer group0_block0_conv0_bn
I0314 23:38:34.375831 33055 net.cpp:84] Creating Layer group0_block0_conv0_bn
I0314 23:38:34.375843 33055 net.cpp:406] group0_block0_conv0_bn <- group0_block0_conv0_conv_top
I0314 23:38:34.375857 33055 net.cpp:367] group0_block0_conv0_bn -> group0_block0_conv0_conv_top (in-place)
I0314 23:38:34.376101 33055 net.cpp:122] Setting up group0_block0_conv0_bn
I0314 23:38:34.376111 33055 net.cpp:129] Top shape: 128 16 32 32 (2097152)
I0314 23:38:34.376129 33055 net.cpp:137] Memory required for data: 68683264
I0314 23:38:34.376150 33055 layer_factory.hpp:77] Creating layer group0_block0_conv0_scale
I0314 23:38:34.376169 33055 net.cpp:84] Creating Layer group0_block0_conv0_scale
I0314 23:38:34.376181 33055 net.cpp:406] group0_block0_conv0_scale <- group0_block0_conv0_conv_top
I0314 23:38:34.376196 33055 net.cpp:367] group0_block0_conv0_scale -> group0_block0_conv0_conv_top (in-place)
I0314 23:38:34.376255 33055 layer_factory.hpp:77] Creating layer group0_block0_conv0_scale
I0314 23:38:34.376399 33055 net.cpp:122] Setting up group0_block0_conv0_scale
I0314 23:38:34.376410 33055 net.cpp:129] Top shape: 128 16 32 32 (2097152)
I0314 23:38:34.376425 33055 net.cpp:137] Memory required for data: 77071872
I0314 23:38:34.376442 33055 layer_factory.hpp:77] Creating layer group0_block0_conv0_relu
I0314 23:38:34.376456 33055 net.cpp:84] Creating Layer group0_block0_conv0_relu
I0314 23:38:34.376467 33055 net.cpp:406] group0_block0_conv0_relu <- group0_block0_conv0_conv_top
I0314 23:38:34.376482 33055 net.cpp:367] group0_block0_conv0_relu -> group0_block0_conv0_conv_top (in-place)
I0314 23:38:34.376976 33055 net.cpp:122] Setting up group0_block0_conv0_relu
I0314 23:38:34.376986 33055 net.cpp:129] Top shape: 128 16 32 32 (2097152)
I0314 23:38:34.377002 33055 net.cpp:137] Memory required for data: 85460480
I0314 23:38:34.377012 33055 layer_factory.hpp:77] Creating layer group0_block0_conv1
I0314 23:38:34.377032 33055 net.cpp:84] Creating Layer group0_block0_conv1
I0314 23:38:34.377043 33055 net.cpp:406] group0_block0_conv1 <- group0_block0_conv0_conv_top
I0314 23:38:34.377058 33055 net.cpp:380] group0_block0_conv1 -> group0_block0_conv1_conv_top
I0314 23:38:34.379284 33055 net.cpp:122] Setting up group0_block0_conv1
I0314 23:38:34.379297 33055 net.cpp:129] Top shape: 128 16 32 32 (2097152)
I0314 23:38:34.379312 33055 net.cpp:137] Memory required for data: 93849088
I0314 23:38:34.379331 33055 layer_factory.hpp:77] Creating layer group0_block0_conv1_bn
I0314 23:38:34.379353 33055 net.cpp:84] Creating Layer group0_block0_conv1_bn
I0314 23:38:34.379364 33055 net.cpp:406] group0_block0_conv1_bn <- group0_block0_conv1_conv_top
I0314 23:38:34.379379 33055 net.cpp:367] group0_block0_conv1_bn -> group0_block0_conv1_conv_top (in-place)
I0314 23:38:34.379628 33055 net.cpp:122] Setting up group0_block0_conv1_bn
I0314 23:38:34.379638 33055 net.cpp:129] Top shape: 128 16 32 32 (2097152)
I0314 23:38:34.379653 33055 net.cpp:137] Memory required for data: 102237696
I0314 23:38:34.379681 33055 layer_factory.hpp:77] Creating layer group0_block0_conv1_scale
I0314 23:38:34.379696 33055 net.cpp:84] Creating Layer group0_block0_conv1_scale
I0314 23:38:34.379707 33055 net.cpp:406] group0_block0_conv1_scale <- group0_block0_conv1_conv_top
I0314 23:38:34.379721 33055 net.cpp:367] group0_block0_conv1_scale -> group0_block0_conv1_conv_top (in-place)
I0314 23:38:34.379777 33055 layer_factory.hpp:77] Creating layer group0_block0_conv1_scale
I0314 23:38:34.379922 33055 net.cpp:122] Setting up group0_block0_conv1_scale
I0314 23:38:34.379932 33055 net.cpp:129] Top shape: 128 16 32 32 (2097152)
I0314 23:38:34.379948 33055 net.cpp:137] Memory required for data: 110626304
I0314 23:38:34.379967 33055 layer_factory.hpp:77] Creating layer group0_block0_sum_eltwise
I0314 23:38:34.379986 33055 net.cpp:84] Creating Layer group0_block0_sum_eltwise
I0314 23:38:34.379997 33055 net.cpp:406] group0_block0_sum_eltwise <- group0_block0_conv1_conv_top
I0314 23:38:34.380008 33055 net.cpp:406] group0_block0_sum_eltwise <- first_conv_top_first_relu_0_split_1
I0314 23:38:34.380023 33055 net.cpp:380] group0_block0_sum_eltwise -> group0_block0_sum_eltwise_top
I0314 23:38:34.380076 33055 net.cpp:122] Setting up group0_block0_sum_eltwise
I0314 23:38:34.380086 33055 net.cpp:129] Top shape: 128 16 32 32 (2097152)
I0314 23:38:34.380100 33055 net.cpp:137] Memory required for data: 119014912
I0314 23:38:34.380111 33055 layer_factory.hpp:77] Creating layer group0_block0_sum_eltwise_top_group0_block0_sum_eltwise_0_split
I0314 23:38:34.380127 33055 net.cpp:84] Creating Layer group0_block0_sum_eltwise_top_group0_block0_sum_eltwise_0_split
I0314 23:38:34.380138 33055 net.cpp:406] group0_block0_sum_eltwise_top_group0_block0_sum_eltwise_0_split <- group0_block0_sum_eltwise_top
I0314 23:38:34.380152 33055 net.cpp:380] group0_block0_sum_eltwise_top_group0_block0_sum_eltwise_0_split -> group0_block0_sum_eltwise_top_group0_block0_sum_eltwise_0_split_0
I0314 23:38:34.380169 33055 net.cpp:380] group0_block0_sum_eltwise_top_group0_block0_sum_eltwise_0_split -> group0_block0_sum_eltwise_top_group0_block0_sum_eltwise_0_split_1
I0314 23:38:34.380230 33055 net.cpp:122] Setting up group0_block0_sum_eltwise_top_group0_block0_sum_eltwise_0_split
I0314 23:38:34.380239 33055 net.cpp:129] Top shape: 128 16 32 32 (2097152)
I0314 23:38:34.380254 33055 net.cpp:129] Top shape: 128 16 32 32 (2097152)
I0314 23:38:34.380267 33055 net.cpp:137] Memory required for data: 135792128
I0314 23:38:34.380278 33055 layer_factory.hpp:77] Creating layer group0_block1_conv0
I0314 23:38:34.380300 33055 net.cpp:84] Creating Layer group0_block1_conv0
I0314 23:38:34.380311 33055 net.cpp:406] group0_block1_conv0 <- group0_block0_sum_eltwise_top_group0_block0_sum_eltwise_0_split_0
I0314 23:38:34.380327 33055 net.cpp:380] group0_block1_conv0 -> group0_block1_conv0_conv_top
I0314 23:38:34.382539 33055 net.cpp:122] Setting up group0_block1_conv0
I0314 23:38:34.382551 33055 net.cpp:129] Top shape: 128 16 32 32 (2097152)
I0314 23:38:34.382566 33055 net.cpp:137] Memory required for data: 144180736
I0314 23:38:34.382586 33055 layer_factory.hpp:77] Creating layer group0_block1_conv0_bn
I0314 23:38:34.382601 33055 net.cpp:84] Creating Layer group0_block1_conv0_bn
I0314 23:38:34.382611 33055 net.cpp:406] group0_block1_conv0_bn <- group0_block1_conv0_conv_top
I0314 23:38:34.382627 33055 net.cpp:367] group0_block1_conv0_bn -> group0_block1_conv0_conv_top (in-place)
I0314 23:38:34.382875 33055 net.cpp:122] Setting up group0_block1_conv0_bn
I0314 23:38:34.382885 33055 net.cpp:129] Top shape: 128 16 32 32 (2097152)
I0314 23:38:34.382900 33055 net.cpp:137] Memory required for data: 152569344
I0314 23:38:34.382922 33055 layer_factory.hpp:77] Creating layer group0_block1_conv0_scale
I0314 23:38:34.382937 33055 net.cpp:84] Creating Layer group0_block1_conv0_scale
I0314 23:38:34.382948 33055 net.cpp:406] group0_block1_conv0_scale <- group0_block1_conv0_conv_top
I0314 23:38:34.382963 33055 net.cpp:367] group0_block1_conv0_scale -> group0_block1_conv0_conv_top (in-place)
I0314 23:38:34.383018 33055 layer_factory.hpp:77] Creating layer group0_block1_conv0_scale
I0314 23:38:34.383165 33055 net.cpp:122] Setting up group0_block1_conv0_scale
I0314 23:38:34.383175 33055 net.cpp:129] Top shape: 128 16 32 32 (2097152)
I0314 23:38:34.383190 33055 net.cpp:137] Memory required for data: 160957952
I0314 23:38:34.383208 33055 layer_factory.hpp:77] Creating layer group0_block1_conv0_relu
I0314 23:38:34.383221 33055 net.cpp:84] Creating Layer group0_block1_conv0_relu
I0314 23:38:34.383232 33055 net.cpp:406] group0_block1_conv0_relu <- group0_block1_conv0_conv_top
I0314 23:38:34.383246 33055 net.cpp:367] group0_block1_conv0_relu -> group0_block1_conv0_conv_top (in-place)
I0314 23:38:34.384155 33055 net.cpp:122] Setting up group0_block1_conv0_relu
I0314 23:38:34.384166 33055 net.cpp:129] Top shape: 128 16 32 32 (2097152)
I0314 23:38:34.384182 33055 net.cpp:137] Memory required for data: 169346560
I0314 23:38:34.384193 33055 layer_factory.hpp:77] Creating layer group0_block1_conv1
I0314 23:38:34.384212 33055 net.cpp:84] Creating Layer group0_block1_conv1
I0314 23:38:34.384223 33055 net.cpp:406] group0_block1_conv1 <- group0_block1_conv0_conv_top
I0314 23:38:34.384239 33055 net.cpp:380] group0_block1_conv1 -> group0_block1_conv1_conv_top
I0314 23:38:34.386456 33055 net.cpp:122] Setting up group0_block1_conv1
I0314 23:38:34.386468 33055 net.cpp:129] Top shape: 128 16 32 32 (2097152)
I0314 23:38:34.386483 33055 net.cpp:137] Memory required for data: 177735168
I0314 23:38:34.386502 33055 layer_factory.hpp:77] Creating layer group0_block1_conv1_bn
I0314 23:38:34.386519 33055 net.cpp:84] Creating Layer group0_block1_conv1_bn
I0314 23:38:34.386530 33055 net.cpp:406] group0_block1_conv1_bn <- group0_block1_conv1_conv_top
I0314 23:38:34.386545 33055 net.cpp:367] group0_block1_conv1_bn -> group0_block1_conv1_conv_top (in-place)
I0314 23:38:34.386802 33055 net.cpp:122] Setting up group0_block1_conv1_bn
I0314 23:38:34.386813 33055 net.cpp:129] Top shape: 128 16 32 32 (2097152)
I0314 23:38:34.386827 33055 net.cpp:137] Memory required for data: 186123776
I0314 23:38:34.386858 33055 layer_factory.hpp:77] Creating layer group0_block1_conv1_scale
I0314 23:38:34.386871 33055 net.cpp:84] Creating Layer group0_block1_conv1_scale
I0314 23:38:34.386883 33055 net.cpp:406] group0_block1_conv1_scale <- group0_block1_conv1_conv_top
I0314 23:38:34.386898 33055 net.cpp:367] group0_block1_conv1_scale -> group0_block1_conv1_conv_top (in-place)
I0314 23:38:34.386955 33055 layer_factory.hpp:77] Creating layer group0_block1_conv1_scale
I0314 23:38:34.387101 33055 net.cpp:122] Setting up group0_block1_conv1_scale
I0314 23:38:34.387111 33055 net.cpp:129] Top shape: 128 16 32 32 (2097152)
I0314 23:38:34.387126 33055 net.cpp:137] Memory required for data: 194512384
I0314 23:38:34.387145 33055 layer_factory.hpp:77] Creating layer group0_block1_sum_eltwise
I0314 23:38:34.387158 33055 net.cpp:84] Creating Layer group0_block1_sum_eltwise
I0314 23:38:34.387171 33055 net.cpp:406] group0_block1_sum_eltwise <- group0_block1_conv1_conv_top
I0314 23:38:34.387182 33055 net.cpp:406] group0_block1_sum_eltwise <- group0_block0_sum_eltwise_top_group0_block0_sum_eltwise_0_split_1
I0314 23:38:34.387197 33055 net.cpp:380] group0_block1_sum_eltwise -> group0_block1_sum_eltwise_top
I0314 23:38:34.387240 33055 net.cpp:122] Setting up group0_block1_sum_eltwise
I0314 23:38:34.387250 33055 net.cpp:129] Top shape: 128 16 32 32 (2097152)
I0314 23:38:34.387265 33055 net.cpp:137] Memory required for data: 202900992
I0314 23:38:34.387275 33055 layer_factory.hpp:77] Creating layer group0_block1_sum_eltwise_top_group0_block1_sum_eltwise_0_split
I0314 23:38:34.387290 33055 net.cpp:84] Creating Layer group0_block1_sum_eltwise_top_group0_block1_sum_eltwise_0_split
I0314 23:38:34.387300 33055 net.cpp:406] group0_block1_sum_eltwise_top_group0_block1_sum_eltwise_0_split <- group0_block1_sum_eltwise_top
I0314 23:38:34.387315 33055 net.cpp:380] group0_block1_sum_eltwise_top_group0_block1_sum_eltwise_0_split -> group0_block1_sum_eltwise_top_group0_block1_sum_eltwise_0_split_0
I0314 23:38:34.387331 33055 net.cpp:380] group0_block1_sum_eltwise_top_group0_block1_sum_eltwise_0_split -> group0_block1_sum_eltwise_top_group0_block1_sum_eltwise_0_split_1
I0314 23:38:34.387394 33055 net.cpp:122] Setting up group0_block1_sum_eltwise_top_group0_block1_sum_eltwise_0_split
I0314 23:38:34.387404 33055 net.cpp:129] Top shape: 128 16 32 32 (2097152)
I0314 23:38:34.387420 33055 net.cpp:129] Top shape: 128 16 32 32 (2097152)
I0314 23:38:34.387434 33055 net.cpp:137] Memory required for data: 219678208
I0314 23:38:34.387445 33055 layer_factory.hpp:77] Creating layer group0_block2_conv0
I0314 23:38:34.387464 33055 net.cpp:84] Creating Layer group0_block2_conv0
I0314 23:38:34.387475 33055 net.cpp:406] group0_block2_conv0 <- group0_block1_sum_eltwise_top_group0_block1_sum_eltwise_0_split_0
I0314 23:38:34.387506 33055 net.cpp:380] group0_block2_conv0 -> group0_block2_conv0_conv_top
I0314 23:38:34.389719 33055 net.cpp:122] Setting up group0_block2_conv0
I0314 23:38:34.389731 33055 net.cpp:129] Top shape: 128 16 32 32 (2097152)
I0314 23:38:34.389745 33055 net.cpp:137] Memory required for data: 228066816
I0314 23:38:34.389765 33055 layer_factory.hpp:77] Creating layer group0_block2_conv0_bn
I0314 23:38:34.389780 33055 net.cpp:84] Creating Layer group0_block2_conv0_bn
I0314 23:38:34.389791 33055 net.cpp:406] group0_block2_conv0_bn <- group0_block2_conv0_conv_top
I0314 23:38:34.389804 33055 net.cpp:367] group0_block2_conv0_bn -> group0_block2_conv0_conv_top (in-place)
I0314 23:38:34.390066 33055 net.cpp:122] Setting up group0_block2_conv0_bn
I0314 23:38:34.390077 33055 net.cpp:129] Top shape: 128 16 32 32 (2097152)
I0314 23:38:34.390092 33055 net.cpp:137] Memory required for data: 236455424
I0314 23:38:34.390115 33055 layer_factory.hpp:77] Creating layer group0_block2_conv0_scale
I0314 23:38:34.390130 33055 net.cpp:84] Creating Layer group0_block2_conv0_scale
I0314 23:38:34.390141 33055 net.cpp:406] group0_block2_conv0_scale <- group0_block2_conv0_conv_top
I0314 23:38:34.390156 33055 net.cpp:367] group0_block2_conv0_scale -> group0_block2_conv0_conv_top (in-place)
I0314 23:38:34.390213 33055 layer_factory.hpp:77] Creating layer group0_block2_conv0_scale
I0314 23:38:34.390362 33055 net.cpp:122] Setting up group0_block2_conv0_scale
I0314 23:38:34.390372 33055 net.cpp:129] Top shape: 128 16 32 32 (2097152)
I0314 23:38:34.390386 33055 net.cpp:137] Memory required for data: 244844032
I0314 23:38:34.390404 33055 layer_factory.hpp:77] Creating layer group0_block2_conv0_relu
I0314 23:38:34.390419 33055 net.cpp:84] Creating Layer group0_block2_conv0_relu
I0314 23:38:34.390429 33055 net.cpp:406] group0_block2_conv0_relu <- group0_block2_conv0_conv_top
I0314 23:38:34.390442 33055 net.cpp:367] group0_block2_conv0_relu -> group0_block2_conv0_conv_top (in-place)
I0314 23:38:34.390930 33055 net.cpp:122] Setting up group0_block2_conv0_relu
I0314 23:38:34.390941 33055 net.cpp:129] Top shape: 128 16 32 32 (2097152)
I0314 23:38:34.390956 33055 net.cpp:137] Memory required for data: 253232640
I0314 23:38:34.390966 33055 layer_factory.hpp:77] Creating layer group0_block2_conv1
I0314 23:38:34.390985 33055 net.cpp:84] Creating Layer group0_block2_conv1
I0314 23:38:34.390996 33055 net.cpp:406] group0_block2_conv1 <- group0_block2_conv0_conv_top
I0314 23:38:34.391011 33055 net.cpp:380] group0_block2_conv1 -> group0_block2_conv1_conv_top
I0314 23:38:34.393247 33055 net.cpp:122] Setting up group0_block2_conv1
I0314 23:38:34.393260 33055 net.cpp:129] Top shape: 128 16 32 32 (2097152)
I0314 23:38:34.393275 33055 net.cpp:137] Memory required for data: 261621248
I0314 23:38:34.393295 33055 layer_factory.hpp:77] Creating layer group0_block2_conv1_bn
I0314 23:38:34.393309 33055 net.cpp:84] Creating Layer group0_block2_conv1_bn
I0314 23:38:34.393321 33055 net.cpp:406] group0_block2_conv1_bn <- group0_block2_conv1_conv_top
I0314 23:38:34.393335 33055 net.cpp:367] group0_block2_conv1_bn -> group0_block2_conv1_conv_top (in-place)
I0314 23:38:34.393592 33055 net.cpp:122] Setting up group0_block2_conv1_bn
I0314 23:38:34.393602 33055 net.cpp:129] Top shape: 128 16 32 32 (2097152)
I0314 23:38:34.393617 33055 net.cpp:137] Memory required for data: 270009856
I0314 23:38:34.393640 33055 layer_factory.hpp:77] Creating layer group0_block2_conv1_scale
I0314 23:38:34.393656 33055 net.cpp:84] Creating Layer group0_block2_conv1_scale
I0314 23:38:34.393666 33055 net.cpp:406] group0_block2_conv1_scale <- group0_block2_conv1_conv_top
I0314 23:38:34.393681 33055 net.cpp:367] group0_block2_conv1_scale -> group0_block2_conv1_conv_top (in-place)
I0314 23:38:34.393738 33055 layer_factory.hpp:77] Creating layer group0_block2_conv1_scale
I0314 23:38:34.393887 33055 net.cpp:122] Setting up group0_block2_conv1_scale
I0314 23:38:34.393896 33055 net.cpp:129] Top shape: 128 16 32 32 (2097152)
I0314 23:38:34.393911 33055 net.cpp:137] Memory required for data: 278398464
I0314 23:38:34.393929 33055 layer_factory.hpp:77] Creating layer group0_block2_sum_eltwise
I0314 23:38:34.393949 33055 net.cpp:84] Creating Layer group0_block2_sum_eltwise
I0314 23:38:34.393960 33055 net.cpp:406] group0_block2_sum_eltwise <- group0_block2_conv1_conv_top
I0314 23:38:34.393973 33055 net.cpp:406] group0_block2_sum_eltwise <- group0_block1_sum_eltwise_top_group0_block1_sum_eltwise_0_split_1
I0314 23:38:34.393988 33055 net.cpp:380] group0_block2_sum_eltwise -> group0_block2_sum_eltwise_top
I0314 23:38:34.394031 33055 net.cpp:122] Setting up group0_block2_sum_eltwise
I0314 23:38:34.394040 33055 net.cpp:129] Top shape: 128 16 32 32 (2097152)
I0314 23:38:34.394055 33055 net.cpp:137] Memory required for data: 286787072
I0314 23:38:34.394065 33055 layer_factory.hpp:77] Creating layer group0_block2_sum_eltwise_top_group0_block2_sum_eltwise_0_split
I0314 23:38:34.394081 33055 net.cpp:84] Creating Layer group0_block2_sum_eltwise_top_group0_block2_sum_eltwise_0_split
I0314 23:38:34.394093 33055 net.cpp:406] group0_block2_sum_eltwise_top_group0_block2_sum_eltwise_0_split <- group0_block2_sum_eltwise_top
I0314 23:38:34.394106 33055 net.cpp:380] group0_block2_sum_eltwise_top_group0_block2_sum_eltwise_0_split -> group0_block2_sum_eltwise_top_group0_block2_sum_eltwise_0_split_0
I0314 23:38:34.394124 33055 net.cpp:380] group0_block2_sum_eltwise_top_group0_block2_sum_eltwise_0_split -> group0_block2_sum_eltwise_top_group0_block2_sum_eltwise_0_split_1
I0314 23:38:34.394184 33055 net.cpp:122] Setting up group0_block2_sum_eltwise_top_group0_block2_sum_eltwise_0_split
I0314 23:38:34.394194 33055 net.cpp:129] Top shape: 128 16 32 32 (2097152)
I0314 23:38:34.394217 33055 net.cpp:129] Top shape: 128 16 32 32 (2097152)
I0314 23:38:34.394230 33055 net.cpp:137] Memory required for data: 303564288
I0314 23:38:34.394240 33055 layer_factory.hpp:77] Creating layer group0_block3_conv0
I0314 23:38:34.394259 33055 net.cpp:84] Creating Layer group0_block3_conv0
I0314 23:38:34.394270 33055 net.cpp:406] group0_block3_conv0 <- group0_block2_sum_eltwise_top_group0_block2_sum_eltwise_0_split_0
I0314 23:38:34.394285 33055 net.cpp:380] group0_block3_conv0 -> group0_block3_conv0_conv_top
I0314 23:38:34.396524 33055 net.cpp:122] Setting up group0_block3_conv0
I0314 23:38:34.396536 33055 net.cpp:129] Top shape: 128 16 32 32 (2097152)
I0314 23:38:34.396551 33055 net.cpp:137] Memory required for data: 311952896
I0314 23:38:34.396570 33055 layer_factory.hpp:77] Creating layer group0_block3_conv0_bn
I0314 23:38:34.396585 33055 net.cpp:84] Creating Layer group0_block3_conv0_bn
I0314 23:38:34.396597 33055 net.cpp:406] group0_block3_conv0_bn <- group0_block3_conv0_conv_top
I0314 23:38:34.396612 33055 net.cpp:367] group0_block3_conv0_bn -> group0_block3_conv0_conv_top (in-place)
I0314 23:38:34.396865 33055 net.cpp:122] Setting up group0_block3_conv0_bn
I0314 23:38:34.396876 33055 net.cpp:129] Top shape: 128 16 32 32 (2097152)
I0314 23:38:34.396890 33055 net.cpp:137] Memory required for data: 320341504
I0314 23:38:34.396912 33055 layer_factory.hpp:77] Creating layer group0_block3_conv0_scale
I0314 23:38:34.396929 33055 net.cpp:84] Creating Layer group0_block3_conv0_scale
I0314 23:38:34.396939 33055 net.cpp:406] group0_block3_conv0_scale <- group0_block3_conv0_conv_top
I0314 23:38:34.396953 33055 net.cpp:367] group0_block3_conv0_scale -> group0_block3_conv0_conv_top (in-place)
I0314 23:38:34.397011 33055 layer_factory.hpp:77] Creating layer group0_block3_conv0_scale
I0314 23:38:34.397164 33055 net.cpp:122] Setting up group0_block3_conv0_scale
I0314 23:38:34.397174 33055 net.cpp:129] Top shape: 128 16 32 32 (2097152)
I0314 23:38:34.397189 33055 net.cpp:137] Memory required for data: 328730112
I0314 23:38:34.397207 33055 layer_factory.hpp:77] Creating layer group0_block3_conv0_relu
I0314 23:38:34.397220 33055 net.cpp:84] Creating Layer group0_block3_conv0_relu
I0314 23:38:34.397231 33055 net.cpp:406] group0_block3_conv0_relu <- group0_block3_conv0_conv_top
I0314 23:38:34.397245 33055 net.cpp:367] group0_block3_conv0_relu -> group0_block3_conv0_conv_top (in-place)
I0314 23:38:34.397752 33055 net.cpp:122] Setting up group0_block3_conv0_relu
I0314 23:38:34.397761 33055 net.cpp:129] Top shape: 128 16 32 32 (2097152)
I0314 23:38:34.397776 33055 net.cpp:137] Memory required for data: 337118720
I0314 23:38:34.397788 33055 layer_factory.hpp:77] Creating layer group0_block3_conv1
I0314 23:38:34.397805 33055 net.cpp:84] Creating Layer group0_block3_conv1
I0314 23:38:34.397817 33055 net.cpp:406] group0_block3_conv1 <- group0_block3_conv0_conv_top
I0314 23:38:34.397833 33055 net.cpp:380] group0_block3_conv1 -> group0_block3_conv1_conv_top
I0314 23:38:34.400055 33055 net.cpp:122] Setting up group0_block3_conv1
I0314 23:38:34.400068 33055 net.cpp:129] Top shape: 128 16 32 32 (2097152)
I0314 23:38:34.400082 33055 net.cpp:137] Memory required for data: 345507328
I0314 23:38:34.400104 33055 layer_factory.hpp:77] Creating layer group0_block3_conv1_bn
I0314 23:38:34.400120 33055 net.cpp:84] Creating Layer group0_block3_conv1_bn
I0314 23:38:34.400131 33055 net.cpp:406] group0_block3_conv1_bn <- group0_block3_conv1_conv_top
I0314 23:38:34.400146 33055 net.cpp:367] group0_block3_conv1_bn -> group0_block3_conv1_conv_top (in-place)
I0314 23:38:34.400405 33055 net.cpp:122] Setting up group0_block3_conv1_bn
I0314 23:38:34.400415 33055 net.cpp:129] Top shape: 128 16 32 32 (2097152)
I0314 23:38:34.400430 33055 net.cpp:137] Memory required for data: 353895936
I0314 23:38:34.400451 33055 layer_factory.hpp:77] Creating layer group0_block3_conv1_scale
I0314 23:38:34.400467 33055 net.cpp:84] Creating Layer group0_block3_conv1_scale
I0314 23:38:34.400478 33055 net.cpp:406] group0_block3_conv1_scale <- group0_block3_conv1_conv_top
I0314 23:38:34.400493 33055 net.cpp:367] group0_block3_conv1_scale -> group0_block3_conv1_conv_top (in-place)
I0314 23:38:34.400549 33055 layer_factory.hpp:77] Creating layer group0_block3_conv1_scale
I0314 23:38:34.400698 33055 net.cpp:122] Setting up group0_block3_conv1_scale
I0314 23:38:34.400708 33055 net.cpp:129] Top shape: 128 16 32 32 (2097152)
I0314 23:38:34.400723 33055 net.cpp:137] Memory required for data: 362284544
I0314 23:38:34.400743 33055 layer_factory.hpp:77] Creating layer group0_block3_sum_eltwise
I0314 23:38:34.400758 33055 net.cpp:84] Creating Layer group0_block3_sum_eltwise
I0314 23:38:34.400768 33055 net.cpp:406] group0_block3_sum_eltwise <- group0_block3_conv1_conv_top
I0314 23:38:34.400781 33055 net.cpp:406] group0_block3_sum_eltwise <- group0_block2_sum_eltwise_top_group0_block2_sum_eltwise_0_split_1
I0314 23:38:34.400795 33055 net.cpp:380] group0_block3_sum_eltwise -> group0_block3_sum_eltwise_top
I0314 23:38:34.400840 33055 net.cpp:122] Setting up group0_block3_sum_eltwise
I0314 23:38:34.400849 33055 net.cpp:129] Top shape: 128 16 32 32 (2097152)
I0314 23:38:34.400864 33055 net.cpp:137] Memory required for data: 370673152
I0314 23:38:34.400874 33055 layer_factory.hpp:77] Creating layer group0_block3_sum_eltwise_top_group0_block3_sum_eltwise_0_split
I0314 23:38:34.400889 33055 net.cpp:84] Creating Layer group0_block3_sum_eltwise_top_group0_block3_sum_eltwise_0_split
I0314 23:38:34.400899 33055 net.cpp:406] group0_block3_sum_eltwise_top_group0_block3_sum_eltwise_0_split <- group0_block3_sum_eltwise_top
I0314 23:38:34.400913 33055 net.cpp:380] group0_block3_sum_eltwise_top_group0_block3_sum_eltwise_0_split -> group0_block3_sum_eltwise_top_group0_block3_sum_eltwise_0_split_0
I0314 23:38:34.400930 33055 net.cpp:380] group0_block3_sum_eltwise_top_group0_block3_sum_eltwise_0_split -> group0_block3_sum_eltwise_top_group0_block3_sum_eltwise_0_split_1
I0314 23:38:34.400992 33055 net.cpp:122] Setting up group0_block3_sum_eltwise_top_group0_block3_sum_eltwise_0_split
I0314 23:38:34.401002 33055 net.cpp:129] Top shape: 128 16 32 32 (2097152)
I0314 23:38:34.401016 33055 net.cpp:129] Top shape: 128 16 32 32 (2097152)
I0314 23:38:34.401031 33055 net.cpp:137] Memory required for data: 387450368
I0314 23:38:34.401041 33055 layer_factory.hpp:77] Creating layer group0_block4_conv0
I0314 23:38:34.401058 33055 net.cpp:84] Creating Layer group0_block4_conv0
I0314 23:38:34.401069 33055 net.cpp:406] group0_block4_conv0 <- group0_block3_sum_eltwise_top_group0_block3_sum_eltwise_0_split_0
I0314 23:38:34.401087 33055 net.cpp:380] group0_block4_conv0 -> group0_block4_conv0_conv_top
I0314 23:38:34.403318 33055 net.cpp:122] Setting up group0_block4_conv0
I0314 23:38:34.403331 33055 net.cpp:129] Top shape: 128 16 32 32 (2097152)
I0314 23:38:34.403347 33055 net.cpp:137] Memory required for data: 395838976
I0314 23:38:34.403381 33055 layer_factory.hpp:77] Creating layer group0_block4_conv0_bn
I0314 23:38:34.403395 33055 net.cpp:84] Creating Layer group0_block4_conv0_bn
I0314 23:38:34.403407 33055 net.cpp:406] group0_block4_conv0_bn <- group0_block4_conv0_conv_top
I0314 23:38:34.403422 33055 net.cpp:367] group0_block4_conv0_bn -> group0_block4_conv0_conv_top (in-place)
I0314 23:38:34.403684 33055 net.cpp:122] Setting up group0_block4_conv0_bn
I0314 23:38:34.403694 33055 net.cpp:129] Top shape: 128 16 32 32 (2097152)
I0314 23:38:34.403709 33055 net.cpp:137] Memory required for data: 404227584
I0314 23:38:34.403730 33055 layer_factory.hpp:77] Creating layer group0_block4_conv0_scale
I0314 23:38:34.403745 33055 net.cpp:84] Creating Layer group0_block4_conv0_scale
I0314 23:38:34.403756 33055 net.cpp:406] group0_block4_conv0_scale <- group0_block4_conv0_conv_top
I0314 23:38:34.403771 33055 net.cpp:367] group0_block4_conv0_scale -> group0_block4_conv0_conv_top (in-place)
I0314 23:38:34.403827 33055 layer_factory.hpp:77] Creating layer group0_block4_conv0_scale
I0314 23:38:34.403977 33055 net.cpp:122] Setting up group0_block4_conv0_scale
I0314 23:38:34.403987 33055 net.cpp:129] Top shape: 128 16 32 32 (2097152)
I0314 23:38:34.404002 33055 net.cpp:137] Memory required for data: 412616192
I0314 23:38:34.404021 33055 layer_factory.hpp:77] Creating layer group0_block4_conv0_relu
I0314 23:38:34.404034 33055 net.cpp:84] Creating Layer group0_block4_conv0_relu
I0314 23:38:34.404045 33055 net.cpp:406] group0_block4_conv0_relu <- group0_block4_conv0_conv_top
I0314 23:38:34.404059 33055 net.cpp:367] group0_block4_conv0_relu -> group0_block4_conv0_conv_top (in-place)
I0314 23:38:34.404975 33055 net.cpp:122] Setting up group0_block4_conv0_relu
I0314 23:38:34.404986 33055 net.cpp:129] Top shape: 128 16 32 32 (2097152)
I0314 23:38:34.405001 33055 net.cpp:137] Memory required for data: 421004800
I0314 23:38:34.405012 33055 layer_factory.hpp:77] Creating layer group0_block4_conv1
I0314 23:38:34.405031 33055 net.cpp:84] Creating Layer group0_block4_conv1
I0314 23:38:34.405042 33055 net.cpp:406] group0_block4_conv1 <- group0_block4_conv0_conv_top
I0314 23:38:34.405058 33055 net.cpp:380] group0_block4_conv1 -> group0_block4_conv1_conv_top
I0314 23:38:34.407311 33055 net.cpp:122] Setting up group0_block4_conv1
I0314 23:38:34.407323 33055 net.cpp:129] Top shape: 128 16 32 32 (2097152)
I0314 23:38:34.407338 33055 net.cpp:137] Memory required for data: 429393408
I0314 23:38:34.407357 33055 layer_factory.hpp:77] Creating layer group0_block4_conv1_bn
I0314 23:38:34.407372 33055 net.cpp:84] Creating Layer group0_block4_conv1_bn
I0314 23:38:34.407383 33055 net.cpp:406] group0_block4_conv1_bn <- group0_block4_conv1_conv_top
I0314 23:38:34.407398 33055 net.cpp:367] group0_block4_conv1_bn -> group0_block4_conv1_conv_top (in-place)
I0314 23:38:34.407673 33055 net.cpp:122] Setting up group0_block4_conv1_bn
I0314 23:38:34.407683 33055 net.cpp:129] Top shape: 128 16 32 32 (2097152)
I0314 23:38:34.407698 33055 net.cpp:137] Memory required for data: 437782016
I0314 23:38:34.407719 33055 layer_factory.hpp:77] Creating layer group0_block4_conv1_scale
I0314 23:38:34.407734 33055 net.cpp:84] Creating Layer group0_block4_conv1_scale
I0314 23:38:34.407745 33055 net.cpp:406] group0_block4_conv1_scale <- group0_block4_conv1_conv_top
I0314 23:38:34.407759 33055 net.cpp:367] group0_block4_conv1_scale -> group0_block4_conv1_conv_top (in-place)
I0314 23:38:34.407815 33055 layer_factory.hpp:77] Creating layer group0_block4_conv1_scale
I0314 23:38:34.407974 33055 net.cpp:122] Setting up group0_block4_conv1_scale
I0314 23:38:34.407984 33055 net.cpp:129] Top shape: 128 16 32 32 (2097152)
I0314 23:38:34.407999 33055 net.cpp:137] Memory required for data: 446170624
I0314 23:38:34.408018 33055 layer_factory.hpp:77] Creating layer group0_block4_sum_eltwise
I0314 23:38:34.408033 33055 net.cpp:84] Creating Layer group0_block4_sum_eltwise
I0314 23:38:34.408044 33055 net.cpp:406] group0_block4_sum_eltwise <- group0_block4_conv1_conv_top
I0314 23:38:34.408057 33055 net.cpp:406] group0_block4_sum_eltwise <- group0_block3_sum_eltwise_top_group0_block3_sum_eltwise_0_split_1
I0314 23:38:34.408071 33055 net.cpp:380] group0_block4_sum_eltwise -> group0_block4_sum_eltwise_top
I0314 23:38:34.408116 33055 net.cpp:122] Setting up group0_block4_sum_eltwise
I0314 23:38:34.408125 33055 net.cpp:129] Top shape: 128 16 32 32 (2097152)
I0314 23:38:34.408140 33055 net.cpp:137] Memory required for data: 454559232
I0314 23:38:34.408180 33055 layer_factory.hpp:77] Creating layer group0_block4_sum_eltwise_top_group0_block4_sum_eltwise_0_split
I0314 23:38:34.408196 33055 net.cpp:84] Creating Layer group0_block4_sum_eltwise_top_group0_block4_sum_eltwise_0_split
I0314 23:38:34.408207 33055 net.cpp:406] group0_block4_sum_eltwise_top_group0_block4_sum_eltwise_0_split <- group0_block4_sum_eltwise_top
I0314 23:38:34.408221 33055 net.cpp:380] group0_block4_sum_eltwise_top_group0_block4_sum_eltwise_0_split -> group0_block4_sum_eltwise_top_group0_block4_sum_eltwise_0_split_0
I0314 23:38:34.408239 33055 net.cpp:380] group0_block4_sum_eltwise_top_group0_block4_sum_eltwise_0_split -> group0_block4_sum_eltwise_top_group0_block4_sum_eltwise_0_split_1
I0314 23:38:34.408303 33055 net.cpp:122] Setting up group0_block4_sum_eltwise_top_group0_block4_sum_eltwise_0_split
I0314 23:38:34.408313 33055 net.cpp:129] Top shape: 128 16 32 32 (2097152)
I0314 23:38:34.408327 33055 net.cpp:129] Top shape: 128 16 32 32 (2097152)
I0314 23:38:34.408341 33055 net.cpp:137] Memory required for data: 471336448
I0314 23:38:34.408351 33055 layer_factory.hpp:77] Creating layer group0_block5_conv0
I0314 23:38:34.408370 33055 net.cpp:84] Creating Layer group0_block5_conv0
I0314 23:38:34.408381 33055 net.cpp:406] group0_block5_conv0 <- group0_block4_sum_eltwise_top_group0_block4_sum_eltwise_0_split_0
I0314 23:38:34.408397 33055 net.cpp:380] group0_block5_conv0 -> group0_block5_conv0_conv_top
I0314 23:38:34.410653 33055 net.cpp:122] Setting up group0_block5_conv0
I0314 23:38:34.410666 33055 net.cpp:129] Top shape: 128 16 32 32 (2097152)
I0314 23:38:34.410681 33055 net.cpp:137] Memory required for data: 479725056
I0314 23:38:34.410701 33055 layer_factory.hpp:77] Creating layer group0_block5_conv0_bn
I0314 23:38:34.410717 33055 net.cpp:84] Creating Layer group0_block5_conv0_bn
I0314 23:38:34.410727 33055 net.cpp:406] group0_block5_conv0_bn <- group0_block5_conv0_conv_top
I0314 23:38:34.410742 33055 net.cpp:367] group0_block5_conv0_bn -> group0_block5_conv0_conv_top (in-place)
I0314 23:38:34.411013 33055 net.cpp:122] Setting up group0_block5_conv0_bn
I0314 23:38:34.411025 33055 net.cpp:129] Top shape: 128 16 32 32 (2097152)
I0314 23:38:34.411039 33055 net.cpp:137] Memory required for data: 488113664
I0314 23:38:34.411062 33055 layer_factory.hpp:77] Creating layer group0_block5_conv0_scale
I0314 23:38:34.411077 33055 net.cpp:84] Creating Layer group0_block5_conv0_scale
I0314 23:38:34.411087 33055 net.cpp:406] group0_block5_conv0_scale <- group0_block5_conv0_conv_top
I0314 23:38:34.411103 33055 net.cpp:367] group0_block5_conv0_scale -> group0_block5_conv0_conv_top (in-place)
I0314 23:38:34.411160 33055 layer_factory.hpp:77] Creating layer group0_block5_conv0_scale
I0314 23:38:34.411320 33055 net.cpp:122] Setting up group0_block5_conv0_scale
I0314 23:38:34.411330 33055 net.cpp:129] Top shape: 128 16 32 32 (2097152)
I0314 23:38:34.411345 33055 net.cpp:137] Memory required for data: 496502272
I0314 23:38:34.411363 33055 layer_factory.hpp:77] Creating layer group0_block5_conv0_relu
I0314 23:38:34.411377 33055 net.cpp:84] Creating Layer group0_block5_conv0_relu
I0314 23:38:34.411388 33055 net.cpp:406] group0_block5_conv0_relu <- group0_block5_conv0_conv_top
I0314 23:38:34.411402 33055 net.cpp:367] group0_block5_conv0_relu -> group0_block5_conv0_conv_top (in-place)
I0314 23:38:34.411891 33055 net.cpp:122] Setting up group0_block5_conv0_relu
I0314 23:38:34.411901 33055 net.cpp:129] Top shape: 128 16 32 32 (2097152)
I0314 23:38:34.411916 33055 net.cpp:137] Memory required for data: 504890880
I0314 23:38:34.411927 33055 layer_factory.hpp:77] Creating layer group0_block5_conv1
I0314 23:38:34.411945 33055 net.cpp:84] Creating Layer group0_block5_conv1
I0314 23:38:34.411957 33055 net.cpp:406] group0_block5_conv1 <- group0_block5_conv0_conv_top
I0314 23:38:34.411973 33055 net.cpp:380] group0_block5_conv1 -> group0_block5_conv1_conv_top
I0314 23:38:34.414209 33055 net.cpp:122] Setting up group0_block5_conv1
I0314 23:38:34.414222 33055 net.cpp:129] Top shape: 128 16 32 32 (2097152)
I0314 23:38:34.414237 33055 net.cpp:137] Memory required for data: 513279488
I0314 23:38:34.414255 33055 layer_factory.hpp:77] Creating layer group0_block5_conv1_bn
I0314 23:38:34.414271 33055 net.cpp:84] Creating Layer group0_block5_conv1_bn
I0314 23:38:34.414283 33055 net.cpp:406] group0_block5_conv1_bn <- group0_block5_conv1_conv_top
I0314 23:38:34.414297 33055 net.cpp:367] group0_block5_conv1_bn -> group0_block5_conv1_conv_top (in-place)
I0314 23:38:34.414567 33055 net.cpp:122] Setting up group0_block5_conv1_bn
I0314 23:38:34.414577 33055 net.cpp:129] Top shape: 128 16 32 32 (2097152)
I0314 23:38:34.414593 33055 net.cpp:137] Memory required for data: 521668096
I0314 23:38:34.414614 33055 layer_factory.hpp:77] Creating layer group0_block5_conv1_scale
I0314 23:38:34.414630 33055 net.cpp:84] Creating Layer group0_block5_conv1_scale
I0314 23:38:34.414643 33055 net.cpp:406] group0_block5_conv1_scale <- group0_block5_conv1_conv_top
I0314 23:38:34.414656 33055 net.cpp:367] group0_block5_conv1_scale -> group0_block5_conv1_conv_top (in-place)
I0314 23:38:34.414714 33055 layer_factory.hpp:77] Creating layer group0_block5_conv1_scale
I0314 23:38:34.414866 33055 net.cpp:122] Setting up group0_block5_conv1_scale
I0314 23:38:34.414876 33055 net.cpp:129] Top shape: 128 16 32 32 (2097152)
I0314 23:38:34.414891 33055 net.cpp:137] Memory required for data: 530056704
I0314 23:38:34.414909 33055 layer_factory.hpp:77] Creating layer group0_block5_sum_eltwise
I0314 23:38:34.414924 33055 net.cpp:84] Creating Layer group0_block5_sum_eltwise
I0314 23:38:34.414935 33055 net.cpp:406] group0_block5_sum_eltwise <- group0_block5_conv1_conv_top
I0314 23:38:34.414947 33055 net.cpp:406] group0_block5_sum_eltwise <- group0_block4_sum_eltwise_top_group0_block4_sum_eltwise_0_split_1
I0314 23:38:34.414963 33055 net.cpp:380] group0_block5_sum_eltwise -> group0_block5_sum_eltwise_top
I0314 23:38:34.415007 33055 net.cpp:122] Setting up group0_block5_sum_eltwise
I0314 23:38:34.415017 33055 net.cpp:129] Top shape: 128 16 32 32 (2097152)
I0314 23:38:34.415031 33055 net.cpp:137] Memory required for data: 538445312
I0314 23:38:34.415042 33055 layer_factory.hpp:77] Creating layer group0_block5_sum_eltwise_top_group0_block5_sum_eltwise_0_split
I0314 23:38:34.415056 33055 net.cpp:84] Creating Layer group0_block5_sum_eltwise_top_group0_block5_sum_eltwise_0_split
I0314 23:38:34.415066 33055 net.cpp:406] group0_block5_sum_eltwise_top_group0_block5_sum_eltwise_0_split <- group0_block5_sum_eltwise_top
I0314 23:38:34.415081 33055 net.cpp:380] group0_block5_sum_eltwise_top_group0_block5_sum_eltwise_0_split -> group0_block5_sum_eltwise_top_group0_block5_sum_eltwise_0_split_0
I0314 23:38:34.415098 33055 net.cpp:380] group0_block5_sum_eltwise_top_group0_block5_sum_eltwise_0_split -> group0_block5_sum_eltwise_top_group0_block5_sum_eltwise_0_split_1
I0314 23:38:34.415161 33055 net.cpp:122] Setting up group0_block5_sum_eltwise_top_group0_block5_sum_eltwise_0_split
I0314 23:38:34.415171 33055 net.cpp:129] Top shape: 128 16 32 32 (2097152)
I0314 23:38:34.415186 33055 net.cpp:129] Top shape: 128 16 32 32 (2097152)
I0314 23:38:34.415199 33055 net.cpp:137] Memory required for data: 555222528
I0314 23:38:34.415210 33055 layer_factory.hpp:77] Creating layer group0_block6_conv0
I0314 23:38:34.415230 33055 net.cpp:84] Creating Layer group0_block6_conv0
I0314 23:38:34.415241 33055 net.cpp:406] group0_block6_conv0 <- group0_block5_sum_eltwise_top_group0_block5_sum_eltwise_0_split_0
I0314 23:38:34.415256 33055 net.cpp:380] group0_block6_conv0 -> group0_block6_conv0_conv_top
I0314 23:38:34.417495 33055 net.cpp:122] Setting up group0_block6_conv0
I0314 23:38:34.417507 33055 net.cpp:129] Top shape: 128 16 32 32 (2097152)
I0314 23:38:34.417523 33055 net.cpp:137] Memory required for data: 563611136
I0314 23:38:34.417541 33055 layer_factory.hpp:77] Creating layer group0_block6_conv0_bn
I0314 23:38:34.417557 33055 net.cpp:84] Creating Layer group0_block6_conv0_bn
I0314 23:38:34.417567 33055 net.cpp:406] group0_block6_conv0_bn <- group0_block6_conv0_conv_top
I0314 23:38:34.417582 33055 net.cpp:367] group0_block6_conv0_bn -> group0_block6_conv0_conv_top (in-place)
I0314 23:38:34.417860 33055 net.cpp:122] Setting up group0_block6_conv0_bn
I0314 23:38:34.417870 33055 net.cpp:129] Top shape: 128 16 32 32 (2097152)
I0314 23:38:34.417886 33055 net.cpp:137] Memory required for data: 571999744
I0314 23:38:34.417906 33055 layer_factory.hpp:77] Creating layer group0_block6_conv0_scale
I0314 23:38:34.417922 33055 net.cpp:84] Creating Layer group0_block6_conv0_scale
I0314 23:38:34.417933 33055 net.cpp:406] group0_block6_conv0_scale <- group0_block6_conv0_conv_top
I0314 23:38:34.417948 33055 net.cpp:367] group0_block6_conv0_scale -> group0_block6_conv0_conv_top (in-place)
I0314 23:38:34.418006 33055 layer_factory.hpp:77] Creating layer group0_block6_conv0_scale
I0314 23:38:34.418159 33055 net.cpp:122] Setting up group0_block6_conv0_scale
I0314 23:38:34.418169 33055 net.cpp:129] Top shape: 128 16 32 32 (2097152)
I0314 23:38:34.418184 33055 net.cpp:137] Memory required for data: 580388352
I0314 23:38:34.418203 33055 layer_factory.hpp:77] Creating layer group0_block6_conv0_relu
I0314 23:38:34.418231 33055 net.cpp:84] Creating Layer group0_block6_conv0_relu
I0314 23:38:34.418242 33055 net.cpp:406] group0_block6_conv0_relu <- group0_block6_conv0_conv_top
I0314 23:38:34.418256 33055 net.cpp:367] group0_block6_conv0_relu -> group0_block6_conv0_conv_top (in-place)
I0314 23:38:34.418756 33055 net.cpp:122] Setting up group0_block6_conv0_relu
I0314 23:38:34.418766 33055 net.cpp:129] Top shape: 128 16 32 32 (2097152)
I0314 23:38:34.418781 33055 net.cpp:137] Memory required for data: 588776960
I0314 23:38:34.418792 33055 layer_factory.hpp:77] Creating layer group0_block6_conv1
I0314 23:38:34.418810 33055 net.cpp:84] Creating Layer group0_block6_conv1
I0314 23:38:34.418822 33055 net.cpp:406] group0_block6_conv1 <- group0_block6_conv0_conv_top
I0314 23:38:34.418838 33055 net.cpp:380] group0_block6_conv1 -> group0_block6_conv1_conv_top
I0314 23:38:34.421083 33055 net.cpp:122] Setting up group0_block6_conv1
I0314 23:38:34.421094 33055 net.cpp:129] Top shape: 128 16 32 32 (2097152)
I0314 23:38:34.421110 33055 net.cpp:137] Memory required for data: 597165568
I0314 23:38:34.421128 33055 layer_factory.hpp:77] Creating layer group0_block6_conv1_bn
I0314 23:38:34.421144 33055 net.cpp:84] Creating Layer group0_block6_conv1_bn
I0314 23:38:34.421154 33055 net.cpp:406] group0_block6_conv1_bn <- group0_block6_conv1_conv_top
I0314 23:38:34.421169 33055 net.cpp:367] group0_block6_conv1_bn -> group0_block6_conv1_conv_top (in-place)
I0314 23:38:34.421450 33055 net.cpp:122] Setting up group0_block6_conv1_bn
I0314 23:38:34.421461 33055 net.cpp:129] Top shape: 128 16 32 32 (2097152)
I0314 23:38:34.421476 33055 net.cpp:137] Memory required for data: 605554176
I0314 23:38:34.421499 33055 layer_factory.hpp:77] Creating layer group0_block6_conv1_scale
I0314 23:38:34.421514 33055 net.cpp:84] Creating Layer group0_block6_conv1_scale
I0314 23:38:34.421525 33055 net.cpp:406] group0_block6_conv1_scale <- group0_block6_conv1_conv_top
I0314 23:38:34.421540 33055 net.cpp:367] group0_block6_conv1_scale -> group0_block6_conv1_conv_top (in-place)
I0314 23:38:34.421598 33055 layer_factory.hpp:77] Creating layer group0_block6_conv1_scale
I0314 23:38:34.421752 33055 net.cpp:122] Setting up group0_block6_conv1_scale
I0314 23:38:34.421763 33055 net.cpp:129] Top shape: 128 16 32 32 (2097152)
I0314 23:38:34.421778 33055 net.cpp:137] Memory required for data: 613942784
I0314 23:38:34.421797 33055 layer_factory.hpp:77] Creating layer group0_block6_sum_eltwise
I0314 23:38:34.421810 33055 net.cpp:84] Creating Layer group0_block6_sum_eltwise
I0314 23:38:34.421821 33055 net.cpp:406] group0_block6_sum_eltwise <- group0_block6_conv1_conv_top
I0314 23:38:34.421834 33055 net.cpp:406] group0_block6_sum_eltwise <- group0_block5_sum_eltwise_top_group0_block5_sum_eltwise_0_split_1
I0314 23:38:34.421849 33055 net.cpp:380] group0_block6_sum_eltwise -> group0_block6_sum_eltwise_top
I0314 23:38:34.421895 33055 net.cpp:122] Setting up group0_block6_sum_eltwise
I0314 23:38:34.421905 33055 net.cpp:129] Top shape: 128 16 32 32 (2097152)
I0314 23:38:34.421918 33055 net.cpp:137] Memory required for data: 622331392
I0314 23:38:34.421929 33055 layer_factory.hpp:77] Creating layer group0_block6_sum_eltwise_top_group0_block6_sum_eltwise_0_split
I0314 23:38:34.421942 33055 net.cpp:84] Creating Layer group0_block6_sum_eltwise_top_group0_block6_sum_eltwise_0_split
I0314 23:38:34.421953 33055 net.cpp:406] group0_block6_sum_eltwise_top_group0_block6_sum_eltwise_0_split <- group0_block6_sum_eltwise_top
I0314 23:38:34.421967 33055 net.cpp:380] group0_block6_sum_eltwise_top_group0_block6_sum_eltwise_0_split -> group0_block6_sum_eltwise_top_group0_block6_sum_eltwise_0_split_0
I0314 23:38:34.421985 33055 net.cpp:380] group0_block6_sum_eltwise_top_group0_block6_sum_eltwise_0_split -> group0_block6_sum_eltwise_top_group0_block6_sum_eltwise_0_split_1
I0314 23:38:34.422049 33055 net.cpp:122] Setting up group0_block6_sum_eltwise_top_group0_block6_sum_eltwise_0_split
I0314 23:38:34.422060 33055 net.cpp:129] Top shape: 128 16 32 32 (2097152)
I0314 23:38:34.422075 33055 net.cpp:129] Top shape: 128 16 32 32 (2097152)
I0314 23:38:34.422087 33055 net.cpp:137] Memory required for data: 639108608
I0314 23:38:34.422098 33055 layer_factory.hpp:77] Creating layer group0_block7_conv0
I0314 23:38:34.422116 33055 net.cpp:84] Creating Layer group0_block7_conv0
I0314 23:38:34.422127 33055 net.cpp:406] group0_block7_conv0 <- group0_block6_sum_eltwise_top_group0_block6_sum_eltwise_0_split_0
I0314 23:38:34.422143 33055 net.cpp:380] group0_block7_conv0 -> group0_block7_conv0_conv_top
I0314 23:38:34.424389 33055 net.cpp:122] Setting up group0_block7_conv0
I0314 23:38:34.424401 33055 net.cpp:129] Top shape: 128 16 32 32 (2097152)
I0314 23:38:34.424417 33055 net.cpp:137] Memory required for data: 647497216
I0314 23:38:34.424435 33055 layer_factory.hpp:77] Creating layer group0_block7_conv0_bn
I0314 23:38:34.424450 33055 net.cpp:84] Creating Layer group0_block7_conv0_bn
I0314 23:38:34.424461 33055 net.cpp:406] group0_block7_conv0_bn <- group0_block7_conv0_conv_top
I0314 23:38:34.424476 33055 net.cpp:367] group0_block7_conv0_bn -> group0_block7_conv0_conv_top (in-place)
I0314 23:38:34.424751 33055 net.cpp:122] Setting up group0_block7_conv0_bn
I0314 23:38:34.424762 33055 net.cpp:129] Top shape: 128 16 32 32 (2097152)
I0314 23:38:34.424777 33055 net.cpp:137] Memory required for data: 655885824
I0314 23:38:34.424798 33055 layer_factory.hpp:77] Creating layer group0_block7_conv0_scale
I0314 23:38:34.424813 33055 net.cpp:84] Creating Layer group0_block7_conv0_scale
I0314 23:38:34.424823 33055 net.cpp:406] group0_block7_conv0_scale <- group0_block7_conv0_conv_top
I0314 23:38:34.424837 33055 net.cpp:367] group0_block7_conv0_scale -> group0_block7_conv0_conv_top (in-place)
I0314 23:38:34.424896 33055 layer_factory.hpp:77] Creating layer group0_block7_conv0_scale
I0314 23:38:34.425052 33055 net.cpp:122] Setting up group0_block7_conv0_scale
I0314 23:38:34.425062 33055 net.cpp:129] Top shape: 128 16 32 32 (2097152)
I0314 23:38:34.425077 33055 net.cpp:137] Memory required for data: 664274432
I0314 23:38:34.425096 33055 layer_factory.hpp:77] Creating layer group0_block7_conv0_relu
I0314 23:38:34.425109 33055 net.cpp:84] Creating Layer group0_block7_conv0_relu
I0314 23:38:34.425120 33055 net.cpp:406] group0_block7_conv0_relu <- group0_block7_conv0_conv_top
I0314 23:38:34.425133 33055 net.cpp:367] group0_block7_conv0_relu -> group0_block7_conv0_conv_top (in-place)
I0314 23:38:34.425627 33055 net.cpp:122] Setting up group0_block7_conv0_relu
I0314 23:38:34.425637 33055 net.cpp:129] Top shape: 128 16 32 32 (2097152)
I0314 23:38:34.425652 33055 net.cpp:137] Memory required for data: 672663040
I0314 23:38:34.425663 33055 layer_factory.hpp:77] Creating layer group0_block7_conv1
I0314 23:38:34.425681 33055 net.cpp:84] Creating Layer group0_block7_conv1
I0314 23:38:34.425693 33055 net.cpp:406] group0_block7_conv1 <- group0_block7_conv0_conv_top
I0314 23:38:34.425709 33055 net.cpp:380] group0_block7_conv1 -> group0_block7_conv1_conv_top
I0314 23:38:34.427987 33055 net.cpp:122] Setting up group0_block7_conv1
I0314 23:38:34.428000 33055 net.cpp:129] Top shape: 128 16 32 32 (2097152)
I0314 23:38:34.428015 33055 net.cpp:137] Memory required for data: 681051648
I0314 23:38:34.428035 33055 layer_factory.hpp:77] Creating layer group0_block7_conv1_bn
I0314 23:38:34.428048 33055 net.cpp:84] Creating Layer group0_block7_conv1_bn
I0314 23:38:34.428061 33055 net.cpp:406] group0_block7_conv1_bn <- group0_block7_conv1_conv_top
I0314 23:38:34.428076 33055 net.cpp:367] group0_block7_conv1_bn -> group0_block7_conv1_conv_top (in-place)
I0314 23:38:34.428345 33055 net.cpp:122] Setting up group0_block7_conv1_bn
I0314 23:38:34.428355 33055 net.cpp:129] Top shape: 128 16 32 32 (2097152)
I0314 23:38:34.428370 33055 net.cpp:137] Memory required for data: 689440256
I0314 23:38:34.428392 33055 layer_factory.hpp:77] Creating layer group0_block7_conv1_scale
I0314 23:38:34.428406 33055 net.cpp:84] Creating Layer group0_block7_conv1_scale
I0314 23:38:34.428417 33055 net.cpp:406] group0_block7_conv1_scale <- group0_block7_conv1_conv_top
I0314 23:38:34.428432 33055 net.cpp:367] group0_block7_conv1_scale -> group0_block7_conv1_conv_top (in-place)
I0314 23:38:34.428489 33055 layer_factory.hpp:77] Creating layer group0_block7_conv1_scale
I0314 23:38:34.428644 33055 net.cpp:122] Setting up group0_block7_conv1_scale
I0314 23:38:34.428654 33055 net.cpp:129] Top shape: 128 16 32 32 (2097152)
I0314 23:38:34.428670 33055 net.cpp:137] Memory required for data: 697828864
I0314 23:38:34.428689 33055 layer_factory.hpp:77] Creating layer group0_block7_sum_eltwise
I0314 23:38:34.428702 33055 net.cpp:84] Creating Layer group0_block7_sum_eltwise
I0314 23:38:34.428712 33055 net.cpp:406] group0_block7_sum_eltwise <- group0_block7_conv1_conv_top
I0314 23:38:34.428725 33055 net.cpp:406] group0_block7_sum_eltwise <- group0_block6_sum_eltwise_top_group0_block6_sum_eltwise_0_split_1
I0314 23:38:34.428740 33055 net.cpp:380] group0_block7_sum_eltwise -> group0_block7_sum_eltwise_top
I0314 23:38:34.428786 33055 net.cpp:122] Setting up group0_block7_sum_eltwise
I0314 23:38:34.428795 33055 net.cpp:129] Top shape: 128 16 32 32 (2097152)
I0314 23:38:34.428810 33055 net.cpp:137] Memory required for data: 706217472
I0314 23:38:34.428820 33055 layer_factory.hpp:77] Creating layer group0_block7_sum_eltwise_top_group0_block7_sum_eltwise_0_split
I0314 23:38:34.428834 33055 net.cpp:84] Creating Layer group0_block7_sum_eltwise_top_group0_block7_sum_eltwise_0_split
I0314 23:38:34.428844 33055 net.cpp:406] group0_block7_sum_eltwise_top_group0_block7_sum_eltwise_0_split <- group0_block7_sum_eltwise_top
I0314 23:38:34.428858 33055 net.cpp:380] group0_block7_sum_eltwise_top_group0_block7_sum_eltwise_0_split -> group0_block7_sum_eltwise_top_group0_block7_sum_eltwise_0_split_0
I0314 23:38:34.428875 33055 net.cpp:380] group0_block7_sum_eltwise_top_group0_block7_sum_eltwise_0_split -> group0_block7_sum_eltwise_top_group0_block7_sum_eltwise_0_split_1
I0314 23:38:34.428939 33055 net.cpp:122] Setting up group0_block7_sum_eltwise_top_group0_block7_sum_eltwise_0_split
I0314 23:38:34.428948 33055 net.cpp:129] Top shape: 128 16 32 32 (2097152)
I0314 23:38:34.428963 33055 net.cpp:129] Top shape: 128 16 32 32 (2097152)
I0314 23:38:34.428977 33055 net.cpp:137] Memory required for data: 722994688
I0314 23:38:34.428988 33055 layer_factory.hpp:77] Creating layer group0_block8_conv0
I0314 23:38:34.429013 33055 net.cpp:84] Creating Layer group0_block8_conv0
I0314 23:38:34.429024 33055 net.cpp:406] group0_block8_conv0 <- group0_block7_sum_eltwise_top_group0_block7_sum_eltwise_0_split_0
I0314 23:38:34.429040 33055 net.cpp:380] group0_block8_conv0 -> group0_block8_conv0_conv_top
I0314 23:38:34.432639 33055 net.cpp:122] Setting up group0_block8_conv0
I0314 23:38:34.432657 33055 net.cpp:129] Top shape: 128 32 16 16 (1048576)
I0314 23:38:34.432672 33055 net.cpp:137] Memory required for data: 727188992
I0314 23:38:34.432691 33055 layer_factory.hpp:77] Creating layer group0_block8_conv0_bn
I0314 23:38:34.432709 33055 net.cpp:84] Creating Layer group0_block8_conv0_bn
I0314 23:38:34.432721 33055 net.cpp:406] group0_block8_conv0_bn <- group0_block8_conv0_conv_top
I0314 23:38:34.432736 33055 net.cpp:367] group0_block8_conv0_bn -> group0_block8_conv0_conv_top (in-place)
I0314 23:38:34.432998 33055 net.cpp:122] Setting up group0_block8_conv0_bn
I0314 23:38:34.433008 33055 net.cpp:129] Top shape: 128 32 16 16 (1048576)
I0314 23:38:34.433023 33055 net.cpp:137] Memory required for data: 731383296
I0314 23:38:34.433045 33055 layer_factory.hpp:77] Creating layer group0_block8_conv0_scale
I0314 23:38:34.433061 33055 net.cpp:84] Creating Layer group0_block8_conv0_scale
I0314 23:38:34.433073 33055 net.cpp:406] group0_block8_conv0_scale <- group0_block8_conv0_conv_top
I0314 23:38:34.433087 33055 net.cpp:367] group0_block8_conv0_scale -> group0_block8_conv0_conv_top (in-place)
I0314 23:38:34.433147 33055 layer_factory.hpp:77] Creating layer group0_block8_conv0_scale
I0314 23:38:34.433312 33055 net.cpp:122] Setting up group0_block8_conv0_scale
I0314 23:38:34.433322 33055 net.cpp:129] Top shape: 128 32 16 16 (1048576)
I0314 23:38:34.433337 33055 net.cpp:137] Memory required for data: 735577600
I0314 23:38:34.433356 33055 layer_factory.hpp:77] Creating layer group0_block8_conv0_relu
I0314 23:38:34.433369 33055 net.cpp:84] Creating Layer group0_block8_conv0_relu
I0314 23:38:34.433380 33055 net.cpp:406] group0_block8_conv0_relu <- group0_block8_conv0_conv_top
I0314 23:38:34.433394 33055 net.cpp:367] group0_block8_conv0_relu -> group0_block8_conv0_conv_top (in-place)
I0314 23:38:34.434321 33055 net.cpp:122] Setting up group0_block8_conv0_relu
I0314 23:38:34.434332 33055 net.cpp:129] Top shape: 128 32 16 16 (1048576)
I0314 23:38:34.434347 33055 net.cpp:137] Memory required for data: 739771904
I0314 23:38:34.434358 33055 layer_factory.hpp:77] Creating layer group0_block8_conv1
I0314 23:38:34.434377 33055 net.cpp:84] Creating Layer group0_block8_conv1
I0314 23:38:34.434389 33055 net.cpp:406] group0_block8_conv1 <- group0_block8_conv0_conv_top
I0314 23:38:34.434406 33055 net.cpp:380] group0_block8_conv1 -> group0_block8_conv1_conv_top
I0314 23:38:34.436729 33055 net.cpp:122] Setting up group0_block8_conv1
I0314 23:38:34.436741 33055 net.cpp:129] Top shape: 128 32 16 16 (1048576)
I0314 23:38:34.436758 33055 net.cpp:137] Memory required for data: 743966208
I0314 23:38:34.436775 33055 layer_factory.hpp:77] Creating layer group0_block8_conv1_bn
I0314 23:38:34.436790 33055 net.cpp:84] Creating Layer group0_block8_conv1_bn
I0314 23:38:34.436802 33055 net.cpp:406] group0_block8_conv1_bn <- group0_block8_conv1_conv_top
I0314 23:38:34.436817 33055 net.cpp:367] group0_block8_conv1_bn -> group0_block8_conv1_conv_top (in-place)
I0314 23:38:34.437084 33055 net.cpp:122] Setting up group0_block8_conv1_bn
I0314 23:38:34.437094 33055 net.cpp:129] Top shape: 128 32 16 16 (1048576)
I0314 23:38:34.437109 33055 net.cpp:137] Memory required for data: 748160512
I0314 23:38:34.437160 33055 layer_factory.hpp:77] Creating layer group0_block8_conv1_scale
I0314 23:38:34.437175 33055 net.cpp:84] Creating Layer group0_block8_conv1_scale
I0314 23:38:34.437186 33055 net.cpp:406] group0_block8_conv1_scale <- group0_block8_conv1_conv_top
I0314 23:38:34.437201 33055 net.cpp:367] group0_block8_conv1_scale -> group0_block8_conv1_conv_top (in-place)
I0314 23:38:34.437260 33055 layer_factory.hpp:77] Creating layer group0_block8_conv1_scale
I0314 23:38:34.437420 33055 net.cpp:122] Setting up group0_block8_conv1_scale
I0314 23:38:34.437430 33055 net.cpp:129] Top shape: 128 32 16 16 (1048576)
I0314 23:38:34.437445 33055 net.cpp:137] Memory required for data: 752354816
I0314 23:38:34.437463 33055 layer_factory.hpp:77] Creating layer group0_block8_proj
I0314 23:38:34.437491 33055 net.cpp:84] Creating Layer group0_block8_proj
I0314 23:38:34.437503 33055 net.cpp:406] group0_block8_proj <- group0_block7_sum_eltwise_top_group0_block7_sum_eltwise_0_split_1
I0314 23:38:34.437520 33055 net.cpp:380] group0_block8_proj -> group0_block8_proj_conv_top
I0314 23:38:34.439827 33055 net.cpp:122] Setting up group0_block8_proj
I0314 23:38:34.439839 33055 net.cpp:129] Top shape: 128 32 16 16 (1048576)
I0314 23:38:34.439855 33055 net.cpp:137] Memory required for data: 756549120
I0314 23:38:34.439873 33055 layer_factory.hpp:77] Creating layer group0_block8_proj_bn
I0314 23:38:34.439888 33055 net.cpp:84] Creating Layer group0_block8_proj_bn
I0314 23:38:34.439900 33055 net.cpp:406] group0_block8_proj_bn <- group0_block8_proj_conv_top
I0314 23:38:34.439914 33055 net.cpp:367] group0_block8_proj_bn -> group0_block8_proj_conv_top (in-place)
I0314 23:38:34.440194 33055 net.cpp:122] Setting up group0_block8_proj_bn
I0314 23:38:34.440204 33055 net.cpp:129] Top shape: 128 32 16 16 (1048576)
I0314 23:38:34.440219 33055 net.cpp:137] Memory required for data: 760743424
I0314 23:38:34.440240 33055 layer_factory.hpp:77] Creating layer group0_block8_proj_scale
I0314 23:38:34.440255 33055 net.cpp:84] Creating Layer group0_block8_proj_scale
I0314 23:38:34.440266 33055 net.cpp:406] group0_block8_proj_scale <- group0_block8_proj_conv_top
I0314 23:38:34.440280 33055 net.cpp:367] group0_block8_proj_scale -> group0_block8_proj_conv_top (in-place)
I0314 23:38:34.440340 33055 layer_factory.hpp:77] Creating layer group0_block8_proj_scale
I0314 23:38:34.440502 33055 net.cpp:122] Setting up group0_block8_proj_scale
I0314 23:38:34.440512 33055 net.cpp:129] Top shape: 128 32 16 16 (1048576)
I0314 23:38:34.440527 33055 net.cpp:137] Memory required for data: 764937728
I0314 23:38:34.440546 33055 layer_factory.hpp:77] Creating layer group0_block8_sum_eltwise
I0314 23:38:34.440559 33055 net.cpp:84] Creating Layer group0_block8_sum_eltwise
I0314 23:38:34.440572 33055 net.cpp:406] group0_block8_sum_eltwise <- group0_block8_conv1_conv_top
I0314 23:38:34.440583 33055 net.cpp:406] group0_block8_sum_eltwise <- group0_block8_proj_conv_top
I0314 23:38:34.440598 33055 net.cpp:380] group0_block8_sum_eltwise -> group0_block8_sum_eltwise_top
I0314 23:38:34.440639 33055 net.cpp:122] Setting up group0_block8_sum_eltwise
I0314 23:38:34.440649 33055 net.cpp:129] Top shape: 128 32 16 16 (1048576)
I0314 23:38:34.440665 33055 net.cpp:137] Memory required for data: 769132032
I0314 23:38:34.440675 33055 layer_factory.hpp:77] Creating layer group0_block8_sum_eltwise_top_group0_block8_sum_eltwise_0_split
I0314 23:38:34.440690 33055 net.cpp:84] Creating Layer group0_block8_sum_eltwise_top_group0_block8_sum_eltwise_0_split
I0314 23:38:34.440701 33055 net.cpp:406] group0_block8_sum_eltwise_top_group0_block8_sum_eltwise_0_split <- group0_block8_sum_eltwise_top
I0314 23:38:34.440714 33055 net.cpp:380] group0_block8_sum_eltwise_top_group0_block8_sum_eltwise_0_split -> group0_block8_sum_eltwise_top_group0_block8_sum_eltwise_0_split_0
I0314 23:38:34.440732 33055 net.cpp:380] group0_block8_sum_eltwise_top_group0_block8_sum_eltwise_0_split -> group0_block8_sum_eltwise_top_group0_block8_sum_eltwise_0_split_1
I0314 23:38:34.440796 33055 net.cpp:122] Setting up group0_block8_sum_eltwise_top_group0_block8_sum_eltwise_0_split
I0314 23:38:34.440806 33055 net.cpp:129] Top shape: 128 32 16 16 (1048576)
I0314 23:38:34.440820 33055 net.cpp:129] Top shape: 128 32 16 16 (1048576)
I0314 23:38:34.440834 33055 net.cpp:137] Memory required for data: 777520640
I0314 23:38:34.440845 33055 layer_factory.hpp:77] Creating layer group1_block0_conv0
I0314 23:38:34.440862 33055 net.cpp:84] Creating Layer group1_block0_conv0
I0314 23:38:34.440874 33055 net.cpp:406] group1_block0_conv0 <- group0_block8_sum_eltwise_top_group0_block8_sum_eltwise_0_split_0
I0314 23:38:34.440891 33055 net.cpp:380] group1_block0_conv0 -> group1_block0_conv0_conv_top
I0314 23:38:34.443222 33055 net.cpp:122] Setting up group1_block0_conv0
I0314 23:38:34.443233 33055 net.cpp:129] Top shape: 128 32 16 16 (1048576)
I0314 23:38:34.443248 33055 net.cpp:137] Memory required for data: 781714944
I0314 23:38:34.443267 33055 layer_factory.hpp:77] Creating layer group1_block0_conv0_bn
I0314 23:38:34.443281 33055 net.cpp:84] Creating Layer group1_block0_conv0_bn
I0314 23:38:34.443294 33055 net.cpp:406] group1_block0_conv0_bn <- group1_block0_conv0_conv_top
I0314 23:38:34.443308 33055 net.cpp:367] group1_block0_conv0_bn -> group1_block0_conv0_conv_top (in-place)
I0314 23:38:34.443584 33055 net.cpp:122] Setting up group1_block0_conv0_bn
I0314 23:38:34.443595 33055 net.cpp:129] Top shape: 128 32 16 16 (1048576)
I0314 23:38:34.443609 33055 net.cpp:137] Memory required for data: 785909248
I0314 23:38:34.443631 33055 layer_factory.hpp:77] Creating layer group1_block0_conv0_scale
I0314 23:38:34.443646 33055 net.cpp:84] Creating Layer group1_block0_conv0_scale
I0314 23:38:34.443657 33055 net.cpp:406] group1_block0_conv0_scale <- group1_block0_conv0_conv_top
I0314 23:38:34.443671 33055 net.cpp:367] group1_block0_conv0_scale -> group1_block0_conv0_conv_top (in-place)
I0314 23:38:34.443729 33055 layer_factory.hpp:77] Creating layer group1_block0_conv0_scale
I0314 23:38:34.443889 33055 net.cpp:122] Setting up group1_block0_conv0_scale
I0314 23:38:34.443900 33055 net.cpp:129] Top shape: 128 32 16 16 (1048576)
I0314 23:38:34.443915 33055 net.cpp:137] Memory required for data: 790103552
I0314 23:38:34.443933 33055 layer_factory.hpp:77] Creating layer group1_block0_conv0_relu
I0314 23:38:34.443948 33055 net.cpp:84] Creating Layer group1_block0_conv0_relu
I0314 23:38:34.443958 33055 net.cpp:406] group1_block0_conv0_relu <- group1_block0_conv0_conv_top
I0314 23:38:34.443972 33055 net.cpp:367] group1_block0_conv0_relu -> group1_block0_conv0_conv_top (in-place)
I0314 23:38:34.444476 33055 net.cpp:122] Setting up group1_block0_conv0_relu
I0314 23:38:34.444488 33055 net.cpp:129] Top shape: 128 32 16 16 (1048576)
I0314 23:38:34.444502 33055 net.cpp:137] Memory required for data: 794297856
I0314 23:38:34.444514 33055 layer_factory.hpp:77] Creating layer group1_block0_conv1
I0314 23:38:34.444531 33055 net.cpp:84] Creating Layer group1_block0_conv1
I0314 23:38:34.444542 33055 net.cpp:406] group1_block0_conv1 <- group1_block0_conv0_conv_top
I0314 23:38:34.444558 33055 net.cpp:380] group1_block0_conv1 -> group1_block0_conv1_conv_top
I0314 23:38:34.447355 33055 net.cpp:122] Setting up group1_block0_conv1
I0314 23:38:34.447366 33055 net.cpp:129] Top shape: 128 32 16 16 (1048576)
I0314 23:38:34.447381 33055 net.cpp:137] Memory required for data: 798492160
I0314 23:38:34.447402 33055 layer_factory.hpp:77] Creating layer group1_block0_conv1_bn
I0314 23:38:34.447417 33055 net.cpp:84] Creating Layer group1_block0_conv1_bn
I0314 23:38:34.447428 33055 net.cpp:406] group1_block0_conv1_bn <- group1_block0_conv1_conv_top
I0314 23:38:34.447443 33055 net.cpp:367] group1_block0_conv1_bn -> group1_block0_conv1_conv_top (in-place)
I0314 23:38:34.447722 33055 net.cpp:122] Setting up group1_block0_conv1_bn
I0314 23:38:34.447733 33055 net.cpp:129] Top shape: 128 32 16 16 (1048576)
I0314 23:38:34.447748 33055 net.cpp:137] Memory required for data: 802686464
I0314 23:38:34.447770 33055 layer_factory.hpp:77] Creating layer group1_block0_conv1_scale
I0314 23:38:34.447785 33055 net.cpp:84] Creating Layer group1_block0_conv1_scale
I0314 23:38:34.447798 33055 net.cpp:406] group1_block0_conv1_scale <- group1_block0_conv1_conv_top
I0314 23:38:34.447811 33055 net.cpp:367] group1_block0_conv1_scale -> group1_block0_conv1_conv_top (in-place)
I0314 23:38:34.447870 33055 layer_factory.hpp:77] Creating layer group1_block0_conv1_scale
I0314 23:38:34.448029 33055 net.cpp:122] Setting up group1_block0_conv1_scale
I0314 23:38:34.448040 33055 net.cpp:129] Top shape: 128 32 16 16 (1048576)
I0314 23:38:34.448061 33055 net.cpp:137] Memory required for data: 806880768
I0314 23:38:34.448078 33055 layer_factory.hpp:77] Creating layer group1_block0_sum_eltwise
I0314 23:38:34.448093 33055 net.cpp:84] Creating Layer group1_block0_sum_eltwise
I0314 23:38:34.448104 33055 net.cpp:406] group1_block0_sum_eltwise <- group1_block0_conv1_conv_top
I0314 23:38:34.448117 33055 net.cpp:406] group1_block0_sum_eltwise <- group0_block8_sum_eltwise_top_group0_block8_sum_eltwise_0_split_1
I0314 23:38:34.448132 33055 net.cpp:380] group1_block0_sum_eltwise -> group1_block0_sum_eltwise_top
I0314 23:38:34.448171 33055 net.cpp:122] Setting up group1_block0_sum_eltwise
I0314 23:38:34.448181 33055 net.cpp:129] Top shape: 128 32 16 16 (1048576)
I0314 23:38:34.448196 33055 net.cpp:137] Memory required for data: 811075072
I0314 23:38:34.448207 33055 layer_factory.hpp:77] Creating layer group1_block0_sum_eltwise_top_group1_block0_sum_eltwise_0_split
I0314 23:38:34.448221 33055 net.cpp:84] Creating Layer group1_block0_sum_eltwise_top_group1_block0_sum_eltwise_0_split
I0314 23:38:34.448231 33055 net.cpp:406] group1_block0_sum_eltwise_top_group1_block0_sum_eltwise_0_split <- group1_block0_sum_eltwise_top
I0314 23:38:34.448246 33055 net.cpp:380] group1_block0_sum_eltwise_top_group1_block0_sum_eltwise_0_split -> group1_block0_sum_eltwise_top_group1_block0_sum_eltwise_0_split_0
I0314 23:38:34.448263 33055 net.cpp:380] group1_block0_sum_eltwise_top_group1_block0_sum_eltwise_0_split -> group1_block0_sum_eltwise_top_group1_block0_sum_eltwise_0_split_1
I0314 23:38:34.448326 33055 net.cpp:122] Setting up group1_block0_sum_eltwise_top_group1_block0_sum_eltwise_0_split
I0314 23:38:34.448336 33055 net.cpp:129] Top shape: 128 32 16 16 (1048576)
I0314 23:38:34.448351 33055 net.cpp:129] Top shape: 128 32 16 16 (1048576)
I0314 23:38:34.448365 33055 net.cpp:137] Memory required for data: 819463680
I0314 23:38:34.448375 33055 layer_factory.hpp:77] Creating layer group1_block1_conv0
I0314 23:38:34.448393 33055 net.cpp:84] Creating Layer group1_block1_conv0
I0314 23:38:34.448405 33055 net.cpp:406] group1_block1_conv0 <- group1_block0_sum_eltwise_top_group1_block0_sum_eltwise_0_split_0
I0314 23:38:34.448421 33055 net.cpp:380] group1_block1_conv0 -> group1_block1_conv0_conv_top
I0314 23:38:34.450767 33055 net.cpp:122] Setting up group1_block1_conv0
I0314 23:38:34.450778 33055 net.cpp:129] Top shape: 128 32 16 16 (1048576)
I0314 23:38:34.450793 33055 net.cpp:137] Memory required for data: 823657984
I0314 23:38:34.450811 33055 layer_factory.hpp:77] Creating layer group1_block1_conv0_bn
I0314 23:38:34.450826 33055 net.cpp:84] Creating Layer group1_block1_conv0_bn
I0314 23:38:34.450839 33055 net.cpp:406] group1_block1_conv0_bn <- group1_block1_conv0_conv_top
I0314 23:38:34.450852 33055 net.cpp:367] group1_block1_conv0_bn -> group1_block1_conv0_conv_top (in-place)
I0314 23:38:34.451120 33055 net.cpp:122] Setting up group1_block1_conv0_bn
I0314 23:38:34.451130 33055 net.cpp:129] Top shape: 128 32 16 16 (1048576)
I0314 23:38:34.451145 33055 net.cpp:137] Memory required for data: 827852288
I0314 23:38:34.451166 33055 layer_factory.hpp:77] Creating layer group1_block1_conv0_scale
I0314 23:38:34.451180 33055 net.cpp:84] Creating Layer group1_block1_conv0_scale
I0314 23:38:34.451191 33055 net.cpp:406] group1_block1_conv0_scale <- group1_block1_conv0_conv_top
I0314 23:38:34.451205 33055 net.cpp:367] group1_block1_conv0_scale -> group1_block1_conv0_conv_top (in-place)
I0314 23:38:34.451264 33055 layer_factory.hpp:77] Creating layer group1_block1_conv0_scale
I0314 23:38:34.451431 33055 net.cpp:122] Setting up group1_block1_conv0_scale
I0314 23:38:34.451441 33055 net.cpp:129] Top shape: 128 32 16 16 (1048576)
I0314 23:38:34.451455 33055 net.cpp:137] Memory required for data: 832046592
I0314 23:38:34.451473 33055 layer_factory.hpp:77] Creating layer group1_block1_conv0_relu
I0314 23:38:34.451486 33055 net.cpp:84] Creating Layer group1_block1_conv0_relu
I0314 23:38:34.451498 33055 net.cpp:406] group1_block1_conv0_relu <- group1_block1_conv0_conv_top
I0314 23:38:34.451511 33055 net.cpp:367] group1_block1_conv0_relu -> group1_block1_conv0_conv_top (in-place)
I0314 23:38:34.452004 33055 net.cpp:122] Setting up group1_block1_conv0_relu
I0314 23:38:34.452014 33055 net.cpp:129] Top shape: 128 32 16 16 (1048576)
I0314 23:38:34.452029 33055 net.cpp:137] Memory required for data: 836240896
I0314 23:38:34.452040 33055 layer_factory.hpp:77] Creating layer group1_block1_conv1
I0314 23:38:34.452059 33055 net.cpp:84] Creating Layer group1_block1_conv1
I0314 23:38:34.452069 33055 net.cpp:406] group1_block1_conv1 <- group1_block1_conv0_conv_top
I0314 23:38:34.452085 33055 net.cpp:380] group1_block1_conv1 -> group1_block1_conv1_conv_top
I0314 23:38:34.454435 33055 net.cpp:122] Setting up group1_block1_conv1
I0314 23:38:34.454448 33055 net.cpp:129] Top shape: 128 32 16 16 (1048576)
I0314 23:38:34.454464 33055 net.cpp:137] Memory required for data: 840435200
I0314 23:38:34.454483 33055 layer_factory.hpp:77] Creating layer group1_block1_conv1_bn
I0314 23:38:34.454499 33055 net.cpp:84] Creating Layer group1_block1_conv1_bn
I0314 23:38:34.454509 33055 net.cpp:406] group1_block1_conv1_bn <- group1_block1_conv1_conv_top
I0314 23:38:34.454524 33055 net.cpp:367] group1_block1_conv1_bn -> group1_block1_conv1_conv_top (in-place)
I0314 23:38:34.454798 33055 net.cpp:122] Setting up group1_block1_conv1_bn
I0314 23:38:34.454808 33055 net.cpp:129] Top shape: 128 32 16 16 (1048576)
I0314 23:38:34.454823 33055 net.cpp:137] Memory required for data: 844629504
I0314 23:38:34.454844 33055 layer_factory.hpp:77] Creating layer group1_block1_conv1_scale
I0314 23:38:34.454859 33055 net.cpp:84] Creating Layer group1_block1_conv1_scale
I0314 23:38:34.454869 33055 net.cpp:406] group1_block1_conv1_scale <- group1_block1_conv1_conv_top
I0314 23:38:34.454885 33055 net.cpp:367] group1_block1_conv1_scale -> group1_block1_conv1_conv_top (in-place)
I0314 23:38:34.454943 33055 layer_factory.hpp:77] Creating layer group1_block1_conv1_scale
I0314 23:38:34.455104 33055 net.cpp:122] Setting up group1_block1_conv1_scale
I0314 23:38:34.455114 33055 net.cpp:129] Top shape: 128 32 16 16 (1048576)
I0314 23:38:34.455130 33055 net.cpp:137] Memory required for data: 848823808
I0314 23:38:34.455148 33055 layer_factory.hpp:77] Creating layer group1_block1_sum_eltwise
I0314 23:38:34.455163 33055 net.cpp:84] Creating Layer group1_block1_sum_eltwise
I0314 23:38:34.455173 33055 net.cpp:406] group1_block1_sum_eltwise <- group1_block1_conv1_conv_top
I0314 23:38:34.455186 33055 net.cpp:406] group1_block1_sum_eltwise <- group1_block0_sum_eltwise_top_group1_block0_sum_eltwise_0_split_1
I0314 23:38:34.455201 33055 net.cpp:380] group1_block1_sum_eltwise -> group1_block1_sum_eltwise_top
I0314 23:38:34.455241 33055 net.cpp:122] Setting up group1_block1_sum_eltwise
I0314 23:38:34.455252 33055 net.cpp:129] Top shape: 128 32 16 16 (1048576)
I0314 23:38:34.455267 33055 net.cpp:137] Memory required for data: 853018112
I0314 23:38:34.455277 33055 layer_factory.hpp:77] Creating layer group1_block1_sum_eltwise_top_group1_block1_sum_eltwise_0_split
I0314 23:38:34.455291 33055 net.cpp:84] Creating Layer group1_block1_sum_eltwise_top_group1_block1_sum_eltwise_0_split
I0314 23:38:34.455302 33055 net.cpp:406] group1_block1_sum_eltwise_top_group1_block1_sum_eltwise_0_split <- group1_block1_sum_eltwise_top
I0314 23:38:34.455317 33055 net.cpp:380] group1_block1_sum_eltwise_top_group1_block1_sum_eltwise_0_split -> group1_block1_sum_eltwise_top_group1_block1_sum_eltwise_0_split_0
I0314 23:38:34.455333 33055 net.cpp:380] group1_block1_sum_eltwise_top_group1_block1_sum_eltwise_0_split -> group1_block1_sum_eltwise_top_group1_block1_sum_eltwise_0_split_1
I0314 23:38:34.455399 33055 net.cpp:122] Setting up group1_block1_sum_eltwise_top_group1_block1_sum_eltwise_0_split
I0314 23:38:34.455407 33055 net.cpp:129] Top shape: 128 32 16 16 (1048576)
I0314 23:38:34.455422 33055 net.cpp:129] Top shape: 128 32 16 16 (1048576)
I0314 23:38:34.455436 33055 net.cpp:137] Memory required for data: 861406720
I0314 23:38:34.455447 33055 layer_factory.hpp:77] Creating layer group1_block2_conv0
I0314 23:38:34.455466 33055 net.cpp:84] Creating Layer group1_block2_conv0
I0314 23:38:34.455476 33055 net.cpp:406] group1_block2_conv0 <- group1_block1_sum_eltwise_top_group1_block1_sum_eltwise_0_split_0
I0314 23:38:34.455492 33055 net.cpp:380] group1_block2_conv0 -> group1_block2_conv0_conv_top
I0314 23:38:34.457835 33055 net.cpp:122] Setting up group1_block2_conv0
I0314 23:38:34.457849 33055 net.cpp:129] Top shape: 128 32 16 16 (1048576)
I0314 23:38:34.457864 33055 net.cpp:137] Memory required for data: 865601024
I0314 23:38:34.457882 33055 layer_factory.hpp:77] Creating layer group1_block2_conv0_bn
I0314 23:38:34.457897 33055 net.cpp:84] Creating Layer group1_block2_conv0_bn
I0314 23:38:34.457908 33055 net.cpp:406] group1_block2_conv0_bn <- group1_block2_conv0_conv_top
I0314 23:38:34.457923 33055 net.cpp:367] group1_block2_conv0_bn -> group1_block2_conv0_conv_top (in-place)
I0314 23:38:34.458197 33055 net.cpp:122] Setting up group1_block2_conv0_bn
I0314 23:38:34.458207 33055 net.cpp:129] Top shape: 128 32 16 16 (1048576)
I0314 23:38:34.458222 33055 net.cpp:137] Memory required for data: 869795328
I0314 23:38:34.458245 33055 layer_factory.hpp:77] Creating layer group1_block2_conv0_scale
I0314 23:38:34.458259 33055 net.cpp:84] Creating Layer group1_block2_conv0_scale
I0314 23:38:34.458271 33055 net.cpp:406] group1_block2_conv0_scale <- group1_block2_conv0_conv_top
I0314 23:38:34.458284 33055 net.cpp:367] group1_block2_conv0_scale -> group1_block2_conv0_conv_top (in-place)
I0314 23:38:34.458343 33055 layer_factory.hpp:77] Creating layer group1_block2_conv0_scale
I0314 23:38:34.458508 33055 net.cpp:122] Setting up group1_block2_conv0_scale
I0314 23:38:34.458518 33055 net.cpp:129] Top shape: 128 32 16 16 (1048576)
I0314 23:38:34.458534 33055 net.cpp:137] Memory required for data: 873989632
I0314 23:38:34.458551 33055 layer_factory.hpp:77] Creating layer group1_block2_conv0_relu
I0314 23:38:34.458564 33055 net.cpp:84] Creating Layer group1_block2_conv0_relu
I0314 23:38:34.458576 33055 net.cpp:406] group1_block2_conv0_relu <- group1_block2_conv0_conv_top
I0314 23:38:34.458590 33055 net.cpp:367] group1_block2_conv0_relu -> group1_block2_conv0_conv_top (in-place)
I0314 23:38:34.459555 33055 net.cpp:122] Setting up group1_block2_conv0_relu
I0314 23:38:34.459566 33055 net.cpp:129] Top shape: 128 32 16 16 (1048576)
I0314 23:38:34.459583 33055 net.cpp:137] Memory required for data: 878183936
I0314 23:38:34.459594 33055 layer_factory.hpp:77] Creating layer group1_block2_conv1
I0314 23:38:34.459612 33055 net.cpp:84] Creating Layer group1_block2_conv1
I0314 23:38:34.459625 33055 net.cpp:406] group1_block2_conv1 <- group1_block2_conv0_conv_top
I0314 23:38:34.459640 33055 net.cpp:380] group1_block2_conv1 -> group1_block2_conv1_conv_top
I0314 23:38:34.461982 33055 net.cpp:122] Setting up group1_block2_conv1
I0314 23:38:34.461994 33055 net.cpp:129] Top shape: 128 32 16 16 (1048576)
I0314 23:38:34.462010 33055 net.cpp:137] Memory required for data: 882378240
I0314 23:38:34.462030 33055 layer_factory.hpp:77] Creating layer group1_block2_conv1_bn
I0314 23:38:34.462044 33055 net.cpp:84] Creating Layer group1_block2_conv1_bn
I0314 23:38:34.462056 33055 net.cpp:406] group1_block2_conv1_bn <- group1_block2_conv1_conv_top
I0314 23:38:34.462071 33055 net.cpp:367] group1_block2_conv1_bn -> group1_block2_conv1_conv_top (in-place)
I0314 23:38:34.462339 33055 net.cpp:122] Setting up group1_block2_conv1_bn
I0314 23:38:34.462349 33055 net.cpp:129] Top shape: 128 32 16 16 (1048576)
I0314 23:38:34.462364 33055 net.cpp:137] Memory required for data: 886572544
I0314 23:38:34.462386 33055 layer_factory.hpp:77] Creating layer group1_block2_conv1_scale
I0314 23:38:34.462400 33055 net.cpp:84] Creating Layer group1_block2_conv1_scale
I0314 23:38:34.462412 33055 net.cpp:406] group1_block2_conv1_scale <- group1_block2_conv1_conv_top
I0314 23:38:34.462426 33055 net.cpp:367] group1_block2_conv1_scale -> group1_block2_conv1_conv_top (in-place)
I0314 23:38:34.462484 33055 layer_factory.hpp:77] Creating layer group1_block2_conv1_scale
I0314 23:38:34.462651 33055 net.cpp:122] Setting up group1_block2_conv1_scale
I0314 23:38:34.462661 33055 net.cpp:129] Top shape: 128 32 16 16 (1048576)
I0314 23:38:34.462677 33055 net.cpp:137] Memory required for data: 890766848
I0314 23:38:34.462693 33055 layer_factory.hpp:77] Creating layer group1_block2_sum_eltwise
I0314 23:38:34.462707 33055 net.cpp:84] Creating Layer group1_block2_sum_eltwise
I0314 23:38:34.462718 33055 net.cpp:406] group1_block2_sum_eltwise <- group1_block2_conv1_conv_top
I0314 23:38:34.462731 33055 net.cpp:406] group1_block2_sum_eltwise <- group1_block1_sum_eltwise_top_group1_block1_sum_eltwise_0_split_1
I0314 23:38:34.462746 33055 net.cpp:380] group1_block2_sum_eltwise -> group1_block2_sum_eltwise_top
I0314 23:38:34.462785 33055 net.cpp:122] Setting up group1_block2_sum_eltwise
I0314 23:38:34.462797 33055 net.cpp:129] Top shape: 128 32 16 16 (1048576)
I0314 23:38:34.462811 33055 net.cpp:137] Memory required for data: 894961152
I0314 23:38:34.462822 33055 layer_factory.hpp:77] Creating layer group1_block2_sum_eltwise_top_group1_block2_sum_eltwise_0_split
I0314 23:38:34.462836 33055 net.cpp:84] Creating Layer group1_block2_sum_eltwise_top_group1_block2_sum_eltwise_0_split
I0314 23:38:34.462846 33055 net.cpp:406] group1_block2_sum_eltwise_top_group1_block2_sum_eltwise_0_split <- group1_block2_sum_eltwise_top
I0314 23:38:34.462860 33055 net.cpp:380] group1_block2_sum_eltwise_top_group1_block2_sum_eltwise_0_split -> group1_block2_sum_eltwise_top_group1_block2_sum_eltwise_0_split_0
I0314 23:38:34.462878 33055 net.cpp:380] group1_block2_sum_eltwise_top_group1_block2_sum_eltwise_0_split -> group1_block2_sum_eltwise_top_group1_block2_sum_eltwise_0_split_1
I0314 23:38:34.462942 33055 net.cpp:122] Setting up group1_block2_sum_eltwise_top_group1_block2_sum_eltwise_0_split
I0314 23:38:34.462952 33055 net.cpp:129] Top shape: 128 32 16 16 (1048576)
I0314 23:38:34.462967 33055 net.cpp:129] Top shape: 128 32 16 16 (1048576)
I0314 23:38:34.462981 33055 net.cpp:137] Memory required for data: 903349760
I0314 23:38:34.462992 33055 layer_factory.hpp:77] Creating layer group1_block3_conv0
I0314 23:38:34.463009 33055 net.cpp:84] Creating Layer group1_block3_conv0
I0314 23:38:34.463021 33055 net.cpp:406] group1_block3_conv0 <- group1_block2_sum_eltwise_top_group1_block2_sum_eltwise_0_split_0
I0314 23:38:34.463037 33055 net.cpp:380] group1_block3_conv0 -> group1_block3_conv0_conv_top
I0314 23:38:34.465375 33055 net.cpp:122] Setting up group1_block3_conv0
I0314 23:38:34.465387 33055 net.cpp:129] Top shape: 128 32 16 16 (1048576)
I0314 23:38:34.465404 33055 net.cpp:137] Memory required for data: 907544064
I0314 23:38:34.465422 33055 layer_factory.hpp:77] Creating layer group1_block3_conv0_bn
I0314 23:38:34.465437 33055 net.cpp:84] Creating Layer group1_block3_conv0_bn
I0314 23:38:34.465450 33055 net.cpp:406] group1_block3_conv0_bn <- group1_block3_conv0_conv_top
I0314 23:38:34.465464 33055 net.cpp:367] group1_block3_conv0_bn -> group1_block3_conv0_conv_top (in-place)
I0314 23:38:34.465739 33055 net.cpp:122] Setting up group1_block3_conv0_bn
I0314 23:38:34.465749 33055 net.cpp:129] Top shape: 128 32 16 16 (1048576)
I0314 23:38:34.465764 33055 net.cpp:137] Memory required for data: 911738368
I0314 23:38:34.465786 33055 layer_factory.hpp:77] Creating layer group1_block3_conv0_scale
I0314 23:38:34.465801 33055 net.cpp:84] Creating Layer group1_block3_conv0_scale
I0314 23:38:34.465812 33055 net.cpp:406] group1_block3_conv0_scale <- group1_block3_conv0_conv_top
I0314 23:38:34.465826 33055 net.cpp:367] group1_block3_conv0_scale -> group1_block3_conv0_conv_top (in-place)
I0314 23:38:34.465885 33055 layer_factory.hpp:77] Creating layer group1_block3_conv0_scale
I0314 23:38:34.466053 33055 net.cpp:122] Setting up group1_block3_conv0_scale
I0314 23:38:34.466063 33055 net.cpp:129] Top shape: 128 32 16 16 (1048576)
I0314 23:38:34.466078 33055 net.cpp:137] Memory required for data: 915932672
I0314 23:38:34.466096 33055 layer_factory.hpp:77] Creating layer group1_block3_conv0_relu
I0314 23:38:34.466109 33055 net.cpp:84] Creating Layer group1_block3_conv0_relu
I0314 23:38:34.466120 33055 net.cpp:406] group1_block3_conv0_relu <- group1_block3_conv0_conv_top
I0314 23:38:34.466135 33055 net.cpp:367] group1_block3_conv0_relu -> group1_block3_conv0_conv_top (in-place)
I0314 23:38:34.466622 33055 net.cpp:122] Setting up group1_block3_conv0_relu
I0314 23:38:34.466632 33055 net.cpp:129] Top shape: 128 32 16 16 (1048576)
I0314 23:38:34.466647 33055 net.cpp:137] Memory required for data: 920126976
I0314 23:38:34.466658 33055 layer_factory.hpp:77] Creating layer group1_block3_conv1
I0314 23:38:34.466677 33055 net.cpp:84] Creating Layer group1_block3_conv1
I0314 23:38:34.466688 33055 net.cpp:406] group1_block3_conv1 <- group1_block3_conv0_conv_top
I0314 23:38:34.466704 33055 net.cpp:380] group1_block3_conv1 -> group1_block3_conv1_conv_top
I0314 23:38:34.469050 33055 net.cpp:122] Setting up group1_block3_conv1
I0314 23:38:34.469063 33055 net.cpp:129] Top shape: 128 32 16 16 (1048576)
I0314 23:38:34.469079 33055 net.cpp:137] Memory required for data: 924321280
I0314 23:38:34.469096 33055 layer_factory.hpp:77] Creating layer group1_block3_conv1_bn
I0314 23:38:34.469112 33055 net.cpp:84] Creating Layer group1_block3_conv1_bn
I0314 23:38:34.469123 33055 net.cpp:406] group1_block3_conv1_bn <- group1_block3_conv1_conv_top
I0314 23:38:34.469138 33055 net.cpp:367] group1_block3_conv1_bn -> group1_block3_conv1_conv_top (in-place)
I0314 23:38:34.469419 33055 net.cpp:122] Setting up group1_block3_conv1_bn
I0314 23:38:34.469430 33055 net.cpp:129] Top shape: 128 32 16 16 (1048576)
I0314 23:38:34.469445 33055 net.cpp:137] Memory required for data: 928515584
I0314 23:38:34.469466 33055 layer_factory.hpp:77] Creating layer group1_block3_conv1_scale
I0314 23:38:34.469482 33055 net.cpp:84] Creating Layer group1_block3_conv1_scale
I0314 23:38:34.469494 33055 net.cpp:406] group1_block3_conv1_scale <- group1_block3_conv1_conv_top
I0314 23:38:34.469508 33055 net.cpp:367] group1_block3_conv1_scale -> group1_block3_conv1_conv_top (in-place)
I0314 23:38:34.469568 33055 layer_factory.hpp:77] Creating layer group1_block3_conv1_scale
I0314 23:38:34.469727 33055 net.cpp:122] Setting up group1_block3_conv1_scale
I0314 23:38:34.469738 33055 net.cpp:129] Top shape: 128 32 16 16 (1048576)
I0314 23:38:34.469751 33055 net.cpp:137] Memory required for data: 932709888
I0314 23:38:34.469770 33055 layer_factory.hpp:77] Creating layer group1_block3_sum_eltwise
I0314 23:38:34.469784 33055 net.cpp:84] Creating Layer group1_block3_sum_eltwise
I0314 23:38:34.469795 33055 net.cpp:406] group1_block3_sum_eltwise <- group1_block3_conv1_conv_top
I0314 23:38:34.469808 33055 net.cpp:406] group1_block3_sum_eltwise <- group1_block2_sum_eltwise_top_group1_block2_sum_eltwise_0_split_1
I0314 23:38:34.469822 33055 net.cpp:380] group1_block3_sum_eltwise -> group1_block3_sum_eltwise_top
I0314 23:38:34.469862 33055 net.cpp:122] Setting up group1_block3_sum_eltwise
I0314 23:38:34.469873 33055 net.cpp:129] Top shape: 128 32 16 16 (1048576)
I0314 23:38:34.469888 33055 net.cpp:137] Memory required for data: 936904192
I0314 23:38:34.469898 33055 layer_factory.hpp:77] Creating layer group1_block3_sum_eltwise_top_group1_block3_sum_eltwise_0_split
I0314 23:38:34.469913 33055 net.cpp:84] Creating Layer group1_block3_sum_eltwise_top_group1_block3_sum_eltwise_0_split
I0314 23:38:34.469923 33055 net.cpp:406] group1_block3_sum_eltwise_top_group1_block3_sum_eltwise_0_split <- group1_block3_sum_eltwise_top
I0314 23:38:34.469938 33055 net.cpp:380] group1_block3_sum_eltwise_top_group1_block3_sum_eltwise_0_split -> group1_block3_sum_eltwise_top_group1_block3_sum_eltwise_0_split_0
I0314 23:38:34.469954 33055 net.cpp:380] group1_block3_sum_eltwise_top_group1_block3_sum_eltwise_0_split -> group1_block3_sum_eltwise_top_group1_block3_sum_eltwise_0_split_1
I0314 23:38:34.470019 33055 net.cpp:122] Setting up group1_block3_sum_eltwise_top_group1_block3_sum_eltwise_0_split
I0314 23:38:34.470028 33055 net.cpp:129] Top shape: 128 32 16 16 (1048576)
I0314 23:38:34.470043 33055 net.cpp:129] Top shape: 128 32 16 16 (1048576)
I0314 23:38:34.470057 33055 net.cpp:137] Memory required for data: 945292800
I0314 23:38:34.470067 33055 layer_factory.hpp:77] Creating layer group1_block4_conv0
I0314 23:38:34.470085 33055 net.cpp:84] Creating Layer group1_block4_conv0
I0314 23:38:34.470098 33055 net.cpp:406] group1_block4_conv0 <- group1_block3_sum_eltwise_top_group1_block3_sum_eltwise_0_split_0
I0314 23:38:34.470113 33055 net.cpp:380] group1_block4_conv0 -> group1_block4_conv0_conv_top
I0314 23:38:34.472451 33055 net.cpp:122] Setting up group1_block4_conv0
I0314 23:38:34.472463 33055 net.cpp:129] Top shape: 128 32 16 16 (1048576)
I0314 23:38:34.472479 33055 net.cpp:137] Memory required for data: 949487104
I0314 23:38:34.472498 33055 layer_factory.hpp:77] Creating layer group1_block4_conv0_bn
I0314 23:38:34.472542 33055 net.cpp:84] Creating Layer group1_block4_conv0_bn
I0314 23:38:34.472551 33055 net.cpp:406] group1_block4_conv0_bn <- group1_block4_conv0_conv_top
I0314 23:38:34.472568 33055 net.cpp:367] group1_block4_conv0_bn -> group1_block4_conv0_conv_top (in-place)
I0314 23:38:34.472849 33055 net.cpp:122] Setting up group1_block4_conv0_bn
I0314 23:38:34.472859 33055 net.cpp:129] Top shape: 128 32 16 16 (1048576)
I0314 23:38:34.472875 33055 net.cpp:137] Memory required for data: 953681408
I0314 23:38:34.472898 33055 layer_factory.hpp:77] Creating layer group1_block4_conv0_scale
I0314 23:38:34.472913 33055 net.cpp:84] Creating Layer group1_block4_conv0_scale
I0314 23:38:34.472924 33055 net.cpp:406] group1_block4_conv0_scale <- group1_block4_conv0_conv_top
I0314 23:38:34.472939 33055 net.cpp:367] group1_block4_conv0_scale -> group1_block4_conv0_conv_top (in-place)
I0314 23:38:34.472998 33055 layer_factory.hpp:77] Creating layer group1_block4_conv0_scale
I0314 23:38:34.473160 33055 net.cpp:122] Setting up group1_block4_conv0_scale
I0314 23:38:34.473170 33055 net.cpp:129] Top shape: 128 32 16 16 (1048576)
I0314 23:38:34.473184 33055 net.cpp:137] Memory required for data: 957875712
I0314 23:38:34.473202 33055 layer_factory.hpp:77] Creating layer group1_block4_conv0_relu
I0314 23:38:34.473215 33055 net.cpp:84] Creating Layer group1_block4_conv0_relu
I0314 23:38:34.473227 33055 net.cpp:406] group1_block4_conv0_relu <- group1_block4_conv0_conv_top
I0314 23:38:34.473242 33055 net.cpp:367] group1_block4_conv0_relu -> group1_block4_conv0_conv_top (in-place)
I0314 23:38:34.473737 33055 net.cpp:122] Setting up group1_block4_conv0_relu
I0314 23:38:34.473748 33055 net.cpp:129] Top shape: 128 32 16 16 (1048576)
I0314 23:38:34.473763 33055 net.cpp:137] Memory required for data: 962070016
I0314 23:38:34.473774 33055 layer_factory.hpp:77] Creating layer group1_block4_conv1
I0314 23:38:34.473793 33055 net.cpp:84] Creating Layer group1_block4_conv1
I0314 23:38:34.473804 33055 net.cpp:406] group1_block4_conv1 <- group1_block4_conv0_conv_top
I0314 23:38:34.473820 33055 net.cpp:380] group1_block4_conv1 -> group1_block4_conv1_conv_top
I0314 23:38:34.476184 33055 net.cpp:122] Setting up group1_block4_conv1
I0314 23:38:34.476197 33055 net.cpp:129] Top shape: 128 32 16 16 (1048576)
I0314 23:38:34.476212 33055 net.cpp:137] Memory required for data: 966264320
I0314 23:38:34.476231 33055 layer_factory.hpp:77] Creating layer group1_block4_conv1_bn
I0314 23:38:34.476246 33055 net.cpp:84] Creating Layer group1_block4_conv1_bn
I0314 23:38:34.476258 33055 net.cpp:406] group1_block4_conv1_bn <- group1_block4_conv1_conv_top
I0314 23:38:34.476272 33055 net.cpp:367] group1_block4_conv1_bn -> group1_block4_conv1_conv_top (in-place)
I0314 23:38:34.476552 33055 net.cpp:122] Setting up group1_block4_conv1_bn
I0314 23:38:34.476562 33055 net.cpp:129] Top shape: 128 32 16 16 (1048576)
I0314 23:38:34.476577 33055 net.cpp:137] Memory required for data: 970458624
I0314 23:38:34.476598 33055 layer_factory.hpp:77] Creating layer group1_block4_conv1_scale
I0314 23:38:34.476613 33055 net.cpp:84] Creating Layer group1_block4_conv1_scale
I0314 23:38:34.476625 33055 net.cpp:406] group1_block4_conv1_scale <- group1_block4_conv1_conv_top
I0314 23:38:34.476639 33055 net.cpp:367] group1_block4_conv1_scale -> group1_block4_conv1_conv_top (in-place)
I0314 23:38:34.476698 33055 layer_factory.hpp:77] Creating layer group1_block4_conv1_scale
I0314 23:38:34.476861 33055 net.cpp:122] Setting up group1_block4_conv1_scale
I0314 23:38:34.476871 33055 net.cpp:129] Top shape: 128 32 16 16 (1048576)
I0314 23:38:34.476886 33055 net.cpp:137] Memory required for data: 974652928
I0314 23:38:34.476903 33055 layer_factory.hpp:77] Creating layer group1_block4_sum_eltwise
I0314 23:38:34.476918 33055 net.cpp:84] Creating Layer group1_block4_sum_eltwise
I0314 23:38:34.476929 33055 net.cpp:406] group1_block4_sum_eltwise <- group1_block4_conv1_conv_top
I0314 23:38:34.476943 33055 net.cpp:406] group1_block4_sum_eltwise <- group1_block3_sum_eltwise_top_group1_block3_sum_eltwise_0_split_1
I0314 23:38:34.476958 33055 net.cpp:380] group1_block4_sum_eltwise -> group1_block4_sum_eltwise_top
I0314 23:38:34.476999 33055 net.cpp:122] Setting up group1_block4_sum_eltwise
I0314 23:38:34.477010 33055 net.cpp:129] Top shape: 128 32 16 16 (1048576)
I0314 23:38:34.477025 33055 net.cpp:137] Memory required for data: 978847232
I0314 23:38:34.477035 33055 layer_factory.hpp:77] Creating layer group1_block4_sum_eltwise_top_group1_block4_sum_eltwise_0_split
I0314 23:38:34.477047 33055 net.cpp:84] Creating Layer group1_block4_sum_eltwise_top_group1_block4_sum_eltwise_0_split
I0314 23:38:34.477058 33055 net.cpp:406] group1_block4_sum_eltwise_top_group1_block4_sum_eltwise_0_split <- group1_block4_sum_eltwise_top
I0314 23:38:34.477072 33055 net.cpp:380] group1_block4_sum_eltwise_top_group1_block4_sum_eltwise_0_split -> group1_block4_sum_eltwise_top_group1_block4_sum_eltwise_0_split_0
I0314 23:38:34.477090 33055 net.cpp:380] group1_block4_sum_eltwise_top_group1_block4_sum_eltwise_0_split -> group1_block4_sum_eltwise_top_group1_block4_sum_eltwise_0_split_1
I0314 23:38:34.477154 33055 net.cpp:122] Setting up group1_block4_sum_eltwise_top_group1_block4_sum_eltwise_0_split
I0314 23:38:34.477164 33055 net.cpp:129] Top shape: 128 32 16 16 (1048576)
I0314 23:38:34.477180 33055 net.cpp:129] Top shape: 128 32 16 16 (1048576)
I0314 23:38:34.477193 33055 net.cpp:137] Memory required for data: 987235840
I0314 23:38:34.477205 33055 layer_factory.hpp:77] Creating layer group1_block5_conv0
I0314 23:38:34.477221 33055 net.cpp:84] Creating Layer group1_block5_conv0
I0314 23:38:34.477232 33055 net.cpp:406] group1_block5_conv0 <- group1_block4_sum_eltwise_top_group1_block4_sum_eltwise_0_split_0
I0314 23:38:34.477249 33055 net.cpp:380] group1_block5_conv0 -> group1_block5_conv0_conv_top
I0314 23:38:34.479611 33055 net.cpp:122] Setting up group1_block5_conv0
I0314 23:38:34.479624 33055 net.cpp:129] Top shape: 128 32 16 16 (1048576)
I0314 23:38:34.479640 33055 net.cpp:137] Memory required for data: 991430144
I0314 23:38:34.479658 33055 layer_factory.hpp:77] Creating layer group1_block5_conv0_bn
I0314 23:38:34.479673 33055 net.cpp:84] Creating Layer group1_block5_conv0_bn
I0314 23:38:34.479684 33055 net.cpp:406] group1_block5_conv0_bn <- group1_block5_conv0_conv_top
I0314 23:38:34.479701 33055 net.cpp:367] group1_block5_conv0_bn -> group1_block5_conv0_conv_top (in-place)
I0314 23:38:34.479979 33055 net.cpp:122] Setting up group1_block5_conv0_bn
I0314 23:38:34.479988 33055 net.cpp:129] Top shape: 128 32 16 16 (1048576)
I0314 23:38:34.480003 33055 net.cpp:137] Memory required for data: 995624448
I0314 23:38:34.480026 33055 layer_factory.hpp:77] Creating layer group1_block5_conv0_scale
I0314 23:38:34.480039 33055 net.cpp:84] Creating Layer group1_block5_conv0_scale
I0314 23:38:34.480051 33055 net.cpp:406] group1_block5_conv0_scale <- group1_block5_conv0_conv_top
I0314 23:38:34.480064 33055 net.cpp:367] group1_block5_conv0_scale -> group1_block5_conv0_conv_top (in-place)
I0314 23:38:34.480124 33055 layer_factory.hpp:77] Creating layer group1_block5_conv0_scale
I0314 23:38:34.480288 33055 net.cpp:122] Setting up group1_block5_conv0_scale
I0314 23:38:34.480298 33055 net.cpp:129] Top shape: 128 32 16 16 (1048576)
I0314 23:38:34.480312 33055 net.cpp:137] Memory required for data: 999818752
I0314 23:38:34.480330 33055 layer_factory.hpp:77] Creating layer group1_block5_conv0_relu
I0314 23:38:34.480345 33055 net.cpp:84] Creating Layer group1_block5_conv0_relu
I0314 23:38:34.480355 33055 net.cpp:406] group1_block5_conv0_relu <- group1_block5_conv0_conv_top
I0314 23:38:34.480368 33055 net.cpp:367] group1_block5_conv0_relu -> group1_block5_conv0_conv_top (in-place)
I0314 23:38:34.481303 33055 net.cpp:122] Setting up group1_block5_conv0_relu
I0314 23:38:34.481314 33055 net.cpp:129] Top shape: 128 32 16 16 (1048576)
I0314 23:38:34.481329 33055 net.cpp:137] Memory required for data: 1004013056
I0314 23:38:34.481340 33055 layer_factory.hpp:77] Creating layer group1_block5_conv1
I0314 23:38:34.481359 33055 net.cpp:84] Creating Layer group1_block5_conv1
I0314 23:38:34.481370 33055 net.cpp:406] group1_block5_conv1 <- group1_block5_conv0_conv_top
I0314 23:38:34.481386 33055 net.cpp:380] group1_block5_conv1 -> group1_block5_conv1_conv_top
I0314 23:38:34.484200 33055 net.cpp:122] Setting up group1_block5_conv1
I0314 23:38:34.484212 33055 net.cpp:129] Top shape: 128 32 16 16 (1048576)
I0314 23:38:34.484228 33055 net.cpp:137] Memory required for data: 1008207360
I0314 23:38:34.484248 33055 layer_factory.hpp:77] Creating layer group1_block5_conv1_bn
I0314 23:38:34.484262 33055 net.cpp:84] Creating Layer group1_block5_conv1_bn
I0314 23:38:34.484274 33055 net.cpp:406] group1_block5_conv1_bn <- group1_block5_conv1_conv_top
I0314 23:38:34.484289 33055 net.cpp:367] group1_block5_conv1_bn -> group1_block5_conv1_conv_top (in-place)
I0314 23:38:34.484565 33055 net.cpp:122] Setting up group1_block5_conv1_bn
I0314 23:38:34.484575 33055 net.cpp:129] Top shape: 128 32 16 16 (1048576)
I0314 23:38:34.484589 33055 net.cpp:137] Memory required for data: 1012401664
I0314 23:38:34.484611 33055 layer_factory.hpp:77] Creating layer group1_block5_conv1_scale
I0314 23:38:34.484624 33055 net.cpp:84] Creating Layer group1_block5_conv1_scale
I0314 23:38:34.484635 33055 net.cpp:406] group1_block5_conv1_scale <- group1_block5_conv1_conv_top
I0314 23:38:34.484650 33055 net.cpp:367] group1_block5_conv1_scale -> group1_block5_conv1_conv_top (in-place)
I0314 23:38:34.484709 33055 layer_factory.hpp:77] Creating layer group1_block5_conv1_scale
I0314 23:38:34.484879 33055 net.cpp:122] Setting up group1_block5_conv1_scale
I0314 23:38:34.484889 33055 net.cpp:129] Top shape: 128 32 16 16 (1048576)
I0314 23:38:34.484903 33055 net.cpp:137] Memory required for data: 1016595968
I0314 23:38:34.484921 33055 layer_factory.hpp:77] Creating layer group1_block5_sum_eltwise
I0314 23:38:34.484935 33055 net.cpp:84] Creating Layer group1_block5_sum_eltwise
I0314 23:38:34.484946 33055 net.cpp:406] group1_block5_sum_eltwise <- group1_block5_conv1_conv_top
I0314 23:38:34.484959 33055 net.cpp:406] group1_block5_sum_eltwise <- group1_block4_sum_eltwise_top_group1_block4_sum_eltwise_0_split_1
I0314 23:38:34.484974 33055 net.cpp:380] group1_block5_sum_eltwise -> group1_block5_sum_eltwise_top
I0314 23:38:34.485014 33055 net.cpp:122] Setting up group1_block5_sum_eltwise
I0314 23:38:34.485025 33055 net.cpp:129] Top shape: 128 32 16 16 (1048576)
I0314 23:38:34.485040 33055 net.cpp:137] Memory required for data: 1020790272
I0314 23:38:34.485050 33055 layer_factory.hpp:77] Creating layer group1_block5_sum_eltwise_top_group1_block5_sum_eltwise_0_split
I0314 23:38:34.485064 33055 net.cpp:84] Creating Layer group1_block5_sum_eltwise_top_group1_block5_sum_eltwise_0_split
I0314 23:38:34.485074 33055 net.cpp:406] group1_block5_sum_eltwise_top_group1_block5_sum_eltwise_0_split <- group1_block5_sum_eltwise_top
I0314 23:38:34.485090 33055 net.cpp:380] group1_block5_sum_eltwise_top_group1_block5_sum_eltwise_0_split -> group1_block5_sum_eltwise_top_group1_block5_sum_eltwise_0_split_0
I0314 23:38:34.485106 33055 net.cpp:380] group1_block5_sum_eltwise_top_group1_block5_sum_eltwise_0_split -> group1_block5_sum_eltwise_top_group1_block5_sum_eltwise_0_split_1
I0314 23:38:34.485172 33055 net.cpp:122] Setting up group1_block5_sum_eltwise_top_group1_block5_sum_eltwise_0_split
I0314 23:38:34.485180 33055 net.cpp:129] Top shape: 128 32 16 16 (1048576)
I0314 23:38:34.485195 33055 net.cpp:129] Top shape: 128 32 16 16 (1048576)
I0314 23:38:34.485209 33055 net.cpp:137] Memory required for data: 1029178880
I0314 23:38:34.485220 33055 layer_factory.hpp:77] Creating layer group1_block6_conv0
I0314 23:38:34.485239 33055 net.cpp:84] Creating Layer group1_block6_conv0
I0314 23:38:34.485249 33055 net.cpp:406] group1_block6_conv0 <- group1_block5_sum_eltwise_top_group1_block5_sum_eltwise_0_split_0
I0314 23:38:34.485265 33055 net.cpp:380] group1_block6_conv0 -> group1_block6_conv0_conv_top
I0314 23:38:34.487653 33055 net.cpp:122] Setting up group1_block6_conv0
I0314 23:38:34.487666 33055 net.cpp:129] Top shape: 128 32 16 16 (1048576)
I0314 23:38:34.487681 33055 net.cpp:137] Memory required for data: 1033373184
I0314 23:38:34.487700 33055 layer_factory.hpp:77] Creating layer group1_block6_conv0_bn
I0314 23:38:34.487737 33055 net.cpp:84] Creating Layer group1_block6_conv0_bn
I0314 23:38:34.487751 33055 net.cpp:406] group1_block6_conv0_bn <- group1_block6_conv0_conv_top
I0314 23:38:34.487766 33055 net.cpp:367] group1_block6_conv0_bn -> group1_block6_conv0_conv_top (in-place)
I0314 23:38:34.488045 33055 net.cpp:122] Setting up group1_block6_conv0_bn
I0314 23:38:34.488055 33055 net.cpp:129] Top shape: 128 32 16 16 (1048576)
I0314 23:38:34.488070 33055 net.cpp:137] Memory required for data: 1037567488
I0314 23:38:34.488092 33055 layer_factory.hpp:77] Creating layer group1_block6_conv0_scale
I0314 23:38:34.488106 33055 net.cpp:84] Creating Layer group1_block6_conv0_scale
I0314 23:38:34.488117 33055 net.cpp:406] group1_block6_conv0_scale <- group1_block6_conv0_conv_top
I0314 23:38:34.488132 33055 net.cpp:367] group1_block6_conv0_scale -> group1_block6_conv0_conv_top (in-place)
I0314 23:38:34.488191 33055 layer_factory.hpp:77] Creating layer group1_block6_conv0_scale
I0314 23:38:34.488363 33055 net.cpp:122] Setting up group1_block6_conv0_scale
I0314 23:38:34.488373 33055 net.cpp:129] Top shape: 128 32 16 16 (1048576)
I0314 23:38:34.488386 33055 net.cpp:137] Memory required for data: 1041761792
I0314 23:38:34.488405 33055 layer_factory.hpp:77] Creating layer group1_block6_conv0_relu
I0314 23:38:34.488418 33055 net.cpp:84] Creating Layer group1_block6_conv0_relu
I0314 23:38:34.488430 33055 net.cpp:406] group1_block6_conv0_relu <- group1_block6_conv0_conv_top
I0314 23:38:34.488442 33055 net.cpp:367] group1_block6_conv0_relu -> group1_block6_conv0_conv_top (in-place)
I0314 23:38:34.488937 33055 net.cpp:122] Setting up group1_block6_conv0_relu
I0314 23:38:34.488947 33055 net.cpp:129] Top shape: 128 32 16 16 (1048576)
I0314 23:38:34.488963 33055 net.cpp:137] Memory required for data: 1045956096
I0314 23:38:34.488973 33055 layer_factory.hpp:77] Creating layer group1_block6_conv1
I0314 23:38:34.488992 33055 net.cpp:84] Creating Layer group1_block6_conv1
I0314 23:38:34.489003 33055 net.cpp:406] group1_block6_conv1 <- group1_block6_conv0_conv_top
I0314 23:38:34.489019 33055 net.cpp:380] group1_block6_conv1 -> group1_block6_conv1_conv_top
I0314 23:38:34.491382 33055 net.cpp:122] Setting up group1_block6_conv1
I0314 23:38:34.491394 33055 net.cpp:129] Top shape: 128 32 16 16 (1048576)
I0314 23:38:34.491410 33055 net.cpp:137] Memory required for data: 1050150400
I0314 23:38:34.491428 33055 layer_factory.hpp:77] Creating layer group1_block6_conv1_bn
I0314 23:38:34.491444 33055 net.cpp:84] Creating Layer group1_block6_conv1_bn
I0314 23:38:34.491456 33055 net.cpp:406] group1_block6_conv1_bn <- group1_block6_conv1_conv_top
I0314 23:38:34.491470 33055 net.cpp:367] group1_block6_conv1_bn -> group1_block6_conv1_conv_top (in-place)
I0314 23:38:34.491756 33055 net.cpp:122] Setting up group1_block6_conv1_bn
I0314 23:38:34.491766 33055 net.cpp:129] Top shape: 128 32 16 16 (1048576)
I0314 23:38:34.491781 33055 net.cpp:137] Memory required for data: 1054344704
I0314 23:38:34.491802 33055 layer_factory.hpp:77] Creating layer group1_block6_conv1_scale
I0314 23:38:34.491816 33055 net.cpp:84] Creating Layer group1_block6_conv1_scale
I0314 23:38:34.491828 33055 net.cpp:406] group1_block6_conv1_scale <- group1_block6_conv1_conv_top
I0314 23:38:34.491842 33055 net.cpp:367] group1_block6_conv1_scale -> group1_block6_conv1_conv_top (in-place)
I0314 23:38:34.491902 33055 layer_factory.hpp:77] Creating layer group1_block6_conv1_scale
I0314 23:38:34.492065 33055 net.cpp:122] Setting up group1_block6_conv1_scale
I0314 23:38:34.492075 33055 net.cpp:129] Top shape: 128 32 16 16 (1048576)
I0314 23:38:34.492090 33055 net.cpp:137] Memory required for data: 1058539008
I0314 23:38:34.492108 33055 layer_factory.hpp:77] Creating layer group1_block6_sum_eltwise
I0314 23:38:34.492122 33055 net.cpp:84] Creating Layer group1_block6_sum_eltwise
I0314 23:38:34.492133 33055 net.cpp:406] group1_block6_sum_eltwise <- group1_block6_conv1_conv_top
I0314 23:38:34.492146 33055 net.cpp:406] group1_block6_sum_eltwise <- group1_block5_sum_eltwise_top_group1_block5_sum_eltwise_0_split_1
I0314 23:38:34.492161 33055 net.cpp:380] group1_block6_sum_eltwise -> group1_block6_sum_eltwise_top
I0314 23:38:34.492202 33055 net.cpp:122] Setting up group1_block6_sum_eltwise
I0314 23:38:34.492213 33055 net.cpp:129] Top shape: 128 32 16 16 (1048576)
I0314 23:38:34.492228 33055 net.cpp:137] Memory required for data: 1062733312
I0314 23:38:34.492238 33055 layer_factory.hpp:77] Creating layer group1_block6_sum_eltwise_top_group1_block6_sum_eltwise_0_split
I0314 23:38:34.492251 33055 net.cpp:84] Creating Layer group1_block6_sum_eltwise_top_group1_block6_sum_eltwise_0_split
I0314 23:38:34.492262 33055 net.cpp:406] group1_block6_sum_eltwise_top_group1_block6_sum_eltwise_0_split <- group1_block6_sum_eltwise_top
I0314 23:38:34.492276 33055 net.cpp:380] group1_block6_sum_eltwise_top_group1_block6_sum_eltwise_0_split -> group1_block6_sum_eltwise_top_group1_block6_sum_eltwise_0_split_0
I0314 23:38:34.492293 33055 net.cpp:380] group1_block6_sum_eltwise_top_group1_block6_sum_eltwise_0_split -> group1_block6_sum_eltwise_top_group1_block6_sum_eltwise_0_split_1
I0314 23:38:34.492359 33055 net.cpp:122] Setting up group1_block6_sum_eltwise_top_group1_block6_sum_eltwise_0_split
I0314 23:38:34.492369 33055 net.cpp:129] Top shape: 128 32 16 16 (1048576)
I0314 23:38:34.492384 33055 net.cpp:129] Top shape: 128 32 16 16 (1048576)
I0314 23:38:34.492398 33055 net.cpp:137] Memory required for data: 1071121920
I0314 23:38:34.492408 33055 layer_factory.hpp:77] Creating layer group1_block7_conv0
I0314 23:38:34.492426 33055 net.cpp:84] Creating Layer group1_block7_conv0
I0314 23:38:34.492437 33055 net.cpp:406] group1_block7_conv0 <- group1_block6_sum_eltwise_top_group1_block6_sum_eltwise_0_split_0
I0314 23:38:34.492455 33055 net.cpp:380] group1_block7_conv0 -> group1_block7_conv0_conv_top
I0314 23:38:34.494802 33055 net.cpp:122] Setting up group1_block7_conv0
I0314 23:38:34.494814 33055 net.cpp:129] Top shape: 128 32 16 16 (1048576)
I0314 23:38:34.494829 33055 net.cpp:137] Memory required for data: 1075316224
I0314 23:38:34.494848 33055 layer_factory.hpp:77] Creating layer group1_block7_conv0_bn
I0314 23:38:34.494863 33055 net.cpp:84] Creating Layer group1_block7_conv0_bn
I0314 23:38:34.494874 33055 net.cpp:406] group1_block7_conv0_bn <- group1_block7_conv0_conv_top
I0314 23:38:34.494890 33055 net.cpp:367] group1_block7_conv0_bn -> group1_block7_conv0_conv_top (in-place)
I0314 23:38:34.495178 33055 net.cpp:122] Setting up group1_block7_conv0_bn
I0314 23:38:34.495189 33055 net.cpp:129] Top shape: 128 32 16 16 (1048576)
I0314 23:38:34.495203 33055 net.cpp:137] Memory required for data: 1079510528
I0314 23:38:34.495225 33055 layer_factory.hpp:77] Creating layer group1_block7_conv0_scale
I0314 23:38:34.495241 33055 net.cpp:84] Creating Layer group1_block7_conv0_scale
I0314 23:38:34.495254 33055 net.cpp:406] group1_block7_conv0_scale <- group1_block7_conv0_conv_top
I0314 23:38:34.495267 33055 net.cpp:367] group1_block7_conv0_scale -> group1_block7_conv0_conv_top (in-place)
I0314 23:38:34.495326 33055 layer_factory.hpp:77] Creating layer group1_block7_conv0_scale
I0314 23:38:34.495488 33055 net.cpp:122] Setting up group1_block7_conv0_scale
I0314 23:38:34.495498 33055 net.cpp:129] Top shape: 128 32 16 16 (1048576)
I0314 23:38:34.495513 33055 net.cpp:137] Memory required for data: 1083704832
I0314 23:38:34.495532 33055 layer_factory.hpp:77] Creating layer group1_block7_conv0_relu
I0314 23:38:34.495544 33055 net.cpp:84] Creating Layer group1_block7_conv0_relu
I0314 23:38:34.495556 33055 net.cpp:406] group1_block7_conv0_relu <- group1_block7_conv0_conv_top
I0314 23:38:34.495570 33055 net.cpp:367] group1_block7_conv0_relu -> group1_block7_conv0_conv_top (in-place)
I0314 23:38:34.496069 33055 net.cpp:122] Setting up group1_block7_conv0_relu
I0314 23:38:34.496080 33055 net.cpp:129] Top shape: 128 32 16 16 (1048576)
I0314 23:38:34.496095 33055 net.cpp:137] Memory required for data: 1087899136
I0314 23:38:34.496105 33055 layer_factory.hpp:77] Creating layer group1_block7_conv1
I0314 23:38:34.496124 33055 net.cpp:84] Creating Layer group1_block7_conv1
I0314 23:38:34.496134 33055 net.cpp:406] group1_block7_conv1 <- group1_block7_conv0_conv_top
I0314 23:38:34.496150 33055 net.cpp:380] group1_block7_conv1 -> group1_block7_conv1_conv_top
I0314 23:38:34.499009 33055 net.cpp:122] Setting up group1_block7_conv1
I0314 23:38:34.499022 33055 net.cpp:129] Top shape: 128 32 16 16 (1048576)
I0314 23:38:34.499037 33055 net.cpp:137] Memory required for data: 1092093440
I0314 23:38:34.499056 33055 layer_factory.hpp:77] Creating layer group1_block7_conv1_bn
I0314 23:38:34.499071 33055 net.cpp:84] Creating Layer group1_block7_conv1_bn
I0314 23:38:34.499083 33055 net.cpp:406] group1_block7_conv1_bn <- group1_block7_conv1_conv_top
I0314 23:38:34.499099 33055 net.cpp:367] group1_block7_conv1_bn -> group1_block7_conv1_conv_top (in-place)
I0314 23:38:34.499380 33055 net.cpp:122] Setting up group1_block7_conv1_bn
I0314 23:38:34.499390 33055 net.cpp:129] Top shape: 128 32 16 16 (1048576)
I0314 23:38:34.499405 33055 net.cpp:137] Memory required for data: 1096287744
I0314 23:38:34.499426 33055 layer_factory.hpp:77] Creating layer group1_block7_conv1_scale
I0314 23:38:34.499441 33055 net.cpp:84] Creating Layer group1_block7_conv1_scale
I0314 23:38:34.499452 33055 net.cpp:406] group1_block7_conv1_scale <- group1_block7_conv1_conv_top
I0314 23:38:34.499467 33055 net.cpp:367] group1_block7_conv1_scale -> group1_block7_conv1_conv_top (in-place)
I0314 23:38:34.499526 33055 layer_factory.hpp:77] Creating layer group1_block7_conv1_scale
I0314 23:38:34.499706 33055 net.cpp:122] Setting up group1_block7_conv1_scale
I0314 23:38:34.499716 33055 net.cpp:129] Top shape: 128 32 16 16 (1048576)
I0314 23:38:34.499730 33055 net.cpp:137] Memory required for data: 1100482048
I0314 23:38:34.499748 33055 layer_factory.hpp:77] Creating layer group1_block7_sum_eltwise
I0314 23:38:34.499763 33055 net.cpp:84] Creating Layer group1_block7_sum_eltwise
I0314 23:38:34.499774 33055 net.cpp:406] group1_block7_sum_eltwise <- group1_block7_conv1_conv_top
I0314 23:38:34.499788 33055 net.cpp:406] group1_block7_sum_eltwise <- group1_block6_sum_eltwise_top_group1_block6_sum_eltwise_0_split_1
I0314 23:38:34.499802 33055 net.cpp:380] group1_block7_sum_eltwise -> group1_block7_sum_eltwise_top
I0314 23:38:34.499843 33055 net.cpp:122] Setting up group1_block7_sum_eltwise
I0314 23:38:34.499853 33055 net.cpp:129] Top shape: 128 32 16 16 (1048576)
I0314 23:38:34.499868 33055 net.cpp:137] Memory required for data: 1104676352
I0314 23:38:34.499878 33055 layer_factory.hpp:77] Creating layer group1_block7_sum_eltwise_top_group1_block7_sum_eltwise_0_split
I0314 23:38:34.499892 33055 net.cpp:84] Creating Layer group1_block7_sum_eltwise_top_group1_block7_sum_eltwise_0_split
I0314 23:38:34.499902 33055 net.cpp:406] group1_block7_sum_eltwise_top_group1_block7_sum_eltwise_0_split <- group1_block7_sum_eltwise_top
I0314 23:38:34.499917 33055 net.cpp:380] group1_block7_sum_eltwise_top_group1_block7_sum_eltwise_0_split -> group1_block7_sum_eltwise_top_group1_block7_sum_eltwise_0_split_0
I0314 23:38:34.499935 33055 net.cpp:380] group1_block7_sum_eltwise_top_group1_block7_sum_eltwise_0_split -> group1_block7_sum_eltwise_top_group1_block7_sum_eltwise_0_split_1
I0314 23:38:34.500000 33055 net.cpp:122] Setting up group1_block7_sum_eltwise_top_group1_block7_sum_eltwise_0_split
I0314 23:38:34.500010 33055 net.cpp:129] Top shape: 128 32 16 16 (1048576)
I0314 23:38:34.500026 33055 net.cpp:129] Top shape: 128 32 16 16 (1048576)
I0314 23:38:34.500041 33055 net.cpp:137] Memory required for data: 1113064960
I0314 23:38:34.500051 33055 layer_factory.hpp:77] Creating layer group1_block8_conv0
I0314 23:38:34.500069 33055 net.cpp:84] Creating Layer group1_block8_conv0
I0314 23:38:34.500080 33055 net.cpp:406] group1_block8_conv0 <- group1_block7_sum_eltwise_top_group1_block7_sum_eltwise_0_split_0
I0314 23:38:34.500097 33055 net.cpp:380] group1_block8_conv0 -> group1_block8_conv0_conv_top
I0314 23:38:34.503825 33055 net.cpp:122] Setting up group1_block8_conv0
I0314 23:38:34.503842 33055 net.cpp:129] Top shape: 128 64 8 8 (524288)
I0314 23:38:34.503859 33055 net.cpp:137] Memory required for data: 1115162112
I0314 23:38:34.503880 33055 layer_factory.hpp:77] Creating layer group1_block8_conv0_bn
I0314 23:38:34.503896 33055 net.cpp:84] Creating Layer group1_block8_conv0_bn
I0314 23:38:34.503907 33055 net.cpp:406] group1_block8_conv0_bn <- group1_block8_conv0_conv_top
I0314 23:38:34.503924 33055 net.cpp:367] group1_block8_conv0_bn -> group1_block8_conv0_conv_top (in-place)
I0314 23:38:34.504220 33055 net.cpp:122] Setting up group1_block8_conv0_bn
I0314 23:38:34.504230 33055 net.cpp:129] Top shape: 128 64 8 8 (524288)
I0314 23:38:34.504246 33055 net.cpp:137] Memory required for data: 1117259264
I0314 23:38:34.504328 33055 layer_factory.hpp:77] Creating layer group1_block8_conv0_scale
I0314 23:38:34.504343 33055 net.cpp:84] Creating Layer group1_block8_conv0_scale
I0314 23:38:34.504354 33055 net.cpp:406] group1_block8_conv0_scale <- group1_block8_conv0_conv_top
I0314 23:38:34.504369 33055 net.cpp:367] group1_block8_conv0_scale -> group1_block8_conv0_conv_top (in-place)
I0314 23:38:34.504433 33055 layer_factory.hpp:77] Creating layer group1_block8_conv0_scale
I0314 23:38:34.504608 33055 net.cpp:122] Setting up group1_block8_conv0_scale
I0314 23:38:34.504618 33055 net.cpp:129] Top shape: 128 64 8 8 (524288)
I0314 23:38:34.504633 33055 net.cpp:137] Memory required for data: 1119356416
I0314 23:38:34.504652 33055 layer_factory.hpp:77] Creating layer group1_block8_conv0_relu
I0314 23:38:34.504667 33055 net.cpp:84] Creating Layer group1_block8_conv0_relu
I0314 23:38:34.504678 33055 net.cpp:406] group1_block8_conv0_relu <- group1_block8_conv0_conv_top
I0314 23:38:34.504693 33055 net.cpp:367] group1_block8_conv0_relu -> group1_block8_conv0_conv_top (in-place)
I0314 23:38:34.505204 33055 net.cpp:122] Setting up group1_block8_conv0_relu
I0314 23:38:34.505215 33055 net.cpp:129] Top shape: 128 64 8 8 (524288)
I0314 23:38:34.505230 33055 net.cpp:137] Memory required for data: 1121453568
I0314 23:38:34.505241 33055 layer_factory.hpp:77] Creating layer group1_block8_conv1
I0314 23:38:34.505261 33055 net.cpp:84] Creating Layer group1_block8_conv1
I0314 23:38:34.505273 33055 net.cpp:406] group1_block8_conv1 <- group1_block8_conv0_conv_top
I0314 23:38:34.505290 33055 net.cpp:380] group1_block8_conv1 -> group1_block8_conv1_conv_top
I0314 23:38:34.507899 33055 net.cpp:122] Setting up group1_block8_conv1
I0314 23:38:34.507911 33055 net.cpp:129] Top shape: 128 64 8 8 (524288)
I0314 23:38:34.507927 33055 net.cpp:137] Memory required for data: 1123550720
I0314 23:38:34.507946 33055 layer_factory.hpp:77] Creating layer group1_block8_conv1_bn
I0314 23:38:34.507961 33055 net.cpp:84] Creating Layer group1_block8_conv1_bn
I0314 23:38:34.507972 33055 net.cpp:406] group1_block8_conv1_bn <- group1_block8_conv1_conv_top
I0314 23:38:34.507987 33055 net.cpp:367] group1_block8_conv1_bn -> group1_block8_conv1_conv_top (in-place)
I0314 23:38:34.508288 33055 net.cpp:122] Setting up group1_block8_conv1_bn
I0314 23:38:34.508298 33055 net.cpp:129] Top shape: 128 64 8 8 (524288)
I0314 23:38:34.508313 33055 net.cpp:137] Memory required for data: 1125647872
I0314 23:38:34.508335 33055 layer_factory.hpp:77] Creating layer group1_block8_conv1_scale
I0314 23:38:34.508350 33055 net.cpp:84] Creating Layer group1_block8_conv1_scale
I0314 23:38:34.508363 33055 net.cpp:406] group1_block8_conv1_scale <- group1_block8_conv1_conv_top
I0314 23:38:34.508378 33055 net.cpp:367] group1_block8_conv1_scale -> group1_block8_conv1_conv_top (in-place)
I0314 23:38:34.508438 33055 layer_factory.hpp:77] Creating layer group1_block8_conv1_scale
I0314 23:38:34.508618 33055 net.cpp:122] Setting up group1_block8_conv1_scale
I0314 23:38:34.508628 33055 net.cpp:129] Top shape: 128 64 8 8 (524288)
I0314 23:38:34.508643 33055 net.cpp:137] Memory required for data: 1127745024
I0314 23:38:34.508661 33055 layer_factory.hpp:77] Creating layer group1_block8_proj
I0314 23:38:34.508679 33055 net.cpp:84] Creating Layer group1_block8_proj
I0314 23:38:34.508692 33055 net.cpp:406] group1_block8_proj <- group1_block7_sum_eltwise_top_group1_block7_sum_eltwise_0_split_1
I0314 23:38:34.508708 33055 net.cpp:380] group1_block8_proj -> group1_block8_proj_conv_top
I0314 23:38:34.511091 33055 net.cpp:122] Setting up group1_block8_proj
I0314 23:38:34.511103 33055 net.cpp:129] Top shape: 128 64 8 8 (524288)
I0314 23:38:34.511118 33055 net.cpp:137] Memory required for data: 1129842176
I0314 23:38:34.511137 33055 layer_factory.hpp:77] Creating layer group1_block8_proj_bn
I0314 23:38:34.511152 33055 net.cpp:84] Creating Layer group1_block8_proj_bn
I0314 23:38:34.511163 33055 net.cpp:406] group1_block8_proj_bn <- group1_block8_proj_conv_top
I0314 23:38:34.511178 33055 net.cpp:367] group1_block8_proj_bn -> group1_block8_proj_conv_top (in-place)
I0314 23:38:34.511473 33055 net.cpp:122] Setting up group1_block8_proj_bn
I0314 23:38:34.511484 33055 net.cpp:129] Top shape: 128 64 8 8 (524288)
I0314 23:38:34.511498 33055 net.cpp:137] Memory required for data: 1131939328
I0314 23:38:34.511520 33055 layer_factory.hpp:77] Creating layer group1_block8_proj_scale
I0314 23:38:34.511536 33055 net.cpp:84] Creating Layer group1_block8_proj_scale
I0314 23:38:34.511548 33055 net.cpp:406] group1_block8_proj_scale <- group1_block8_proj_conv_top
I0314 23:38:34.511562 33055 net.cpp:367] group1_block8_proj_scale -> group1_block8_proj_conv_top (in-place)
I0314 23:38:34.511623 33055 layer_factory.hpp:77] Creating layer group1_block8_proj_scale
I0314 23:38:34.511804 33055 net.cpp:122] Setting up group1_block8_proj_scale
I0314 23:38:34.511814 33055 net.cpp:129] Top shape: 128 64 8 8 (524288)
I0314 23:38:34.511829 33055 net.cpp:137] Memory required for data: 1134036480
I0314 23:38:34.511847 33055 layer_factory.hpp:77] Creating layer group1_block8_sum_eltwise
I0314 23:38:34.511862 33055 net.cpp:84] Creating Layer group1_block8_sum_eltwise
I0314 23:38:34.511873 33055 net.cpp:406] group1_block8_sum_eltwise <- group1_block8_conv1_conv_top
I0314 23:38:34.511885 33055 net.cpp:406] group1_block8_sum_eltwise <- group1_block8_proj_conv_top
I0314 23:38:34.511900 33055 net.cpp:380] group1_block8_sum_eltwise -> group1_block8_sum_eltwise_top
I0314 23:38:34.511942 33055 net.cpp:122] Setting up group1_block8_sum_eltwise
I0314 23:38:34.511952 33055 net.cpp:129] Top shape: 128 64 8 8 (524288)
I0314 23:38:34.511967 33055 net.cpp:137] Memory required for data: 1136133632
I0314 23:38:34.511978 33055 layer_factory.hpp:77] Creating layer group1_block8_sum_eltwise_top_group1_block8_sum_eltwise_0_split
I0314 23:38:34.511992 33055 net.cpp:84] Creating Layer group1_block8_sum_eltwise_top_group1_block8_sum_eltwise_0_split
I0314 23:38:34.512002 33055 net.cpp:406] group1_block8_sum_eltwise_top_group1_block8_sum_eltwise_0_split <- group1_block8_sum_eltwise_top
I0314 23:38:34.512017 33055 net.cpp:380] group1_block8_sum_eltwise_top_group1_block8_sum_eltwise_0_split -> group1_block8_sum_eltwise_top_group1_block8_sum_eltwise_0_split_0
I0314 23:38:34.512034 33055 net.cpp:380] group1_block8_sum_eltwise_top_group1_block8_sum_eltwise_0_split -> group1_block8_sum_eltwise_top_group1_block8_sum_eltwise_0_split_1
I0314 23:38:34.512100 33055 net.cpp:122] Setting up group1_block8_sum_eltwise_top_group1_block8_sum_eltwise_0_split
I0314 23:38:34.512110 33055 net.cpp:129] Top shape: 128 64 8 8 (524288)
I0314 23:38:34.512125 33055 net.cpp:129] Top shape: 128 64 8 8 (524288)
I0314 23:38:34.512138 33055 net.cpp:137] Memory required for data: 1140327936
I0314 23:38:34.512150 33055 layer_factory.hpp:77] Creating layer group2_block0_conv0
I0314 23:38:34.512167 33055 net.cpp:84] Creating Layer group2_block0_conv0
I0314 23:38:34.512178 33055 net.cpp:406] group2_block0_conv0 <- group1_block8_sum_eltwise_top_group1_block8_sum_eltwise_0_split_0
…
I0314 23:38:34.756192 33055 net.cpp:84] Creating Layer group2_block0_conv0_scale
I0314 23:38:34.756204 33055 net.cpp:406] group2_block0_conv0_scale <- group2_block0_conv0_conv_top
I0314 23:38:34.756219 33055 net.cpp:367] group2_block0_conv0_scale -> group2_block0_conv0_conv_top (in-place)
I0314 23:38:34.756280 33055 layer_factory.hpp:77] Creating layer group2_block0_conv0_scale
I0314 23:38:34.756433 33055 net.cpp:122] Setting up group2_block0_conv0_scale
I0314 23:38:34.756443 33055 net.cpp:129] Top shape: 32 64 8 8 (131072)
I0314 23:38:34.756458 33055 net.cpp:137] Memory required for data: 286654848
I0314 23:38:34.756475 33055 layer_factory.hpp:77] Creating layer group2_block0_conv0_relu
I0314 23:38:34.756489 33055 net.cpp:84] Creating Layer group2_block0_conv0_relu
I0314 23:38:34.756500 33055 net.cpp:406] group2_block0_conv0_relu <- group2_block0_conv0_conv_top
I0314 23:38:34.756515 33055 net.cpp:367] group2_block0_conv0_relu -> group2_block0_conv0_conv_top (in-place)
I0314 23:38:34.757485 33055 net.cpp:122] Setting up group2_block0_conv0_relu
I0314 23:38:34.757498 33055 net.cpp:129] Top shape: 32 64 8 8 (131072)
I0314 23:38:34.757513 33055 net.cpp:137] Memory required for data: 287179136
I0314 23:38:34.757524 33055 layer_factory.hpp:77] Creating layer group2_block0_conv1
I0314 23:38:34.757542 33055 net.cpp:84] Creating Layer group2_block0_conv1
I0314 23:38:34.757553 33055 net.cpp:406] group2_block0_conv1 <- group2_block0_conv0_conv_top
I0314 23:38:34.757570 33055 net.cpp:380] group2_block0_conv1 -> group2_block0_conv1_conv_top
I0314 23:38:34.760592 33055 net.cpp:122] Setting up group2_block0_conv1
I0314 23:38:34.760605 33055 net.cpp:129] Top shape: 32 64 8 8 (131072)
I0314 23:38:34.760620 33055 net.cpp:137] Memory required for data: 287703424
I0314 23:38:34.760639 33055 layer_factory.hpp:77] Creating layer group2_block0_conv1_bn
I0314 23:38:34.760655 33055 net.cpp:84] Creating Layer group2_block0_conv1_bn
I0314 23:38:34.760668 33055 net.cpp:406] group2_block0_conv1_bn <- group2_block0_conv1_conv_top
I0314 23:38:34.760682 33055 net.cpp:367] group2_block0_conv1_bn -> group2_block0_conv1_conv_top (in-place)
I0314 23:38:34.760949 33055 net.cpp:122] Setting up group2_block0_conv1_bn
I0314 23:38:34.760960 33055 net.cpp:129] Top shape: 32 64 8 8 (131072)
I0314 23:38:34.760975 33055 net.cpp:137] Memory required for data: 288227712
I0314 23:38:34.760998 33055 layer_factory.hpp:77] Creating layer group2_block0_conv1_scale
I0314 23:38:34.761013 33055 net.cpp:84] Creating Layer group2_block0_conv1_scale
I0314 23:38:34.761023 33055 net.cpp:406] group2_block0_conv1_scale <- group2_block0_conv1_conv_top
I0314 23:38:34.761037 33055 net.cpp:367] group2_block0_conv1_scale -> group2_block0_conv1_conv_top (in-place)
I0314 23:38:34.761099 33055 layer_factory.hpp:77] Creating layer group2_block0_conv1_scale
I0314 23:38:34.761255 33055 net.cpp:122] Setting up group2_block0_conv1_scale
I0314 23:38:34.761265 33055 net.cpp:129] Top shape: 32 64 8 8 (131072)
I0314 23:38:34.761279 33055 net.cpp:137] Memory required for data: 288752000
I0314 23:38:34.761296 33055 layer_factory.hpp:77] Creating layer group2_block0_sum_eltwise
I0314 23:38:34.761310 33055 net.cpp:84] Creating Layer group2_block0_sum_eltwise
I0314 23:38:34.761322 33055 net.cpp:406] group2_block0_sum_eltwise <- group2_block0_conv1_conv_top
I0314 23:38:34.761335 33055 net.cpp:406] group2_block0_sum_eltwise <- group1_block8_sum_eltwise_top_group1_block8_sum_eltwise_0_split_1
I0314 23:38:34.761350 33055 net.cpp:380] group2_block0_sum_eltwise -> group2_block0_sum_eltwise_top
I0314 23:38:34.761395 33055 net.cpp:122] Setting up group2_block0_sum_eltwise
I0314 23:38:34.761405 33055 net.cpp:129] Top shape: 32 64 8 8 (131072)
I0314 23:38:34.761420 33055 net.cpp:137] Memory required for data: 289276288
I0314 23:38:34.761430 33055 layer_factory.hpp:77] Creating layer group2_block0_sum_eltwise_top_group2_block0_sum_eltwise_0_split
I0314 23:38:34.761445 33055 net.cpp:84] Creating Layer group2_block0_sum_eltwise_top_group2_block0_sum_eltwise_0_split
I0314 23:38:34.761456 33055 net.cpp:406] group2_block0_sum_eltwise_top_group2_block0_sum_eltwise_0_split <- group2_block0_sum_eltwise_top
I0314 23:38:34.761469 33055 net.cpp:380] group2_block0_sum_eltwise_top_group2_block0_sum_eltwise_0_split -> group2_block0_sum_eltwise_top_group2_block0_sum_eltwise_0_split_0
I0314 23:38:34.761487 33055 net.cpp:380] group2_block0_sum_eltwise_top_group2_block0_sum_eltwise_0_split -> group2_block0_sum_eltwise_top_group2_block0_sum_eltwise_0_split_1
I0314 23:38:34.761548 33055 net.cpp:122] Setting up group2_block0_sum_eltwise_top_group2_block0_sum_eltwise_0_split
I0314 23:38:34.761559 33055 net.cpp:129] Top shape: 32 64 8 8 (131072)
I0314 23:38:34.761574 33055 net.cpp:129] Top shape: 32 64 8 8 (131072)
I0314 23:38:34.761587 33055 net.cpp:137] Memory required for data: 290324864
I0314 23:38:34.761597 33055 layer_factory.hpp:77] Creating layer group2_block1_conv0
I0314 23:38:34.761616 33055 net.cpp:84] Creating Layer group2_block1_conv0
I0314 23:38:34.761627 33055 net.cpp:406] group2_block1_conv0 <- group2_block0_sum_eltwise_top_group2_block0_sum_eltwise_0_split_0
I0314 23:38:34.761643 33055 net.cpp:380] group2_block1_conv0 -> group2_block1_conv0_conv_top
I0314 23:38:34.764694 33055 net.cpp:122] Setting up group2_block1_conv0
I0314 23:38:34.764706 33055 net.cpp:129] Top shape: 32 64 8 8 (131072)
I0314 23:38:34.764724 33055 net.cpp:137] Memory required for data: 290849152
I0314 23:38:34.764742 33055 layer_factory.hpp:77] Creating layer group2_block1_conv0_bn
I0314 23:38:34.764758 33055 net.cpp:84] Creating Layer group2_block1_conv0_bn
I0314 23:38:34.764770 33055 net.cpp:406] group2_block1_conv0_bn <- group2_block1_conv0_conv_top
I0314 23:38:34.764784 33055 net.cpp:367] group2_block1_conv0_bn -> group2_block1_conv0_conv_top (in-place)
I0314 23:38:34.765044 33055 net.cpp:122] Setting up group2_block1_conv0_bn
I0314 23:38:34.765055 33055 net.cpp:129] Top shape: 32 64 8 8 (131072)
I0314 23:38:34.765069 33055 net.cpp:137] Memory required for data: 291373440
I0314 23:38:34.765091 33055 layer_factory.hpp:77] Creating layer group2_block1_conv0_scale
I0314 23:38:34.765105 33055 net.cpp:84] Creating Layer group2_block1_conv0_scale
I0314 23:38:34.765116 33055 net.cpp:406] group2_block1_conv0_scale <- group2_block1_conv0_conv_top
I0314 23:38:34.765131 33055 net.cpp:367] group2_block1_conv0_scale -> group2_block1_conv0_conv_top (in-place)
I0314 23:38:34.765192 33055 layer_factory.hpp:77] Creating layer group2_block1_conv0_scale
I0314 23:38:34.765342 33055 net.cpp:122] Setting up group2_block1_conv0_scale
I0314 23:38:34.765352 33055 net.cpp:129] Top shape: 32 64 8 8 (131072)
I0314 23:38:34.765367 33055 net.cpp:137] Memory required for data: 291897728
I0314 23:38:34.765385 33055 layer_factory.hpp:77] Creating layer group2_block1_conv0_relu
I0314 23:38:34.765398 33055 net.cpp:84] Creating Layer group2_block1_conv0_relu
I0314 23:38:34.765409 33055 net.cpp:406] group2_block1_conv0_relu <- group2_block1_conv0_conv_top
I0314 23:38:34.765424 33055 net.cpp:367] group2_block1_conv0_relu -> group2_block1_conv0_conv_top (in-place)
I0314 23:38:34.765944 33055 net.cpp:122] Setting up group2_block1_conv0_relu
I0314 23:38:34.765954 33055 net.cpp:129] Top shape: 32 64 8 8 (131072)
I0314 23:38:34.765969 33055 net.cpp:137] Memory required for data: 292422016
I0314 23:38:34.765980 33055 layer_factory.hpp:77] Creating layer group2_block1_conv1
I0314 23:38:34.766005 33055 net.cpp:84] Creating Layer group2_block1_conv1
I0314 23:38:34.766018 33055 net.cpp:406] group2_block1_conv1 <- group2_block1_conv0_conv_top
I0314 23:38:34.766034 33055 net.cpp:380] group2_block1_conv1 -> group2_block1_conv1_conv_top
I0314 23:38:34.769070 33055 net.cpp:122] Setting up group2_block1_conv1
I0314 23:38:34.769084 33055 net.cpp:129] Top shape: 32 64 8 8 (131072)
I0314 23:38:34.769099 33055 net.cpp:137] Memory required for data: 292946304
I0314 23:38:34.769119 33055 layer_factory.hpp:77] Creating layer group2_block1_conv1_bn
I0314 23:38:34.769135 33055 net.cpp:84] Creating Layer group2_block1_conv1_bn
I0314 23:38:34.769146 33055 net.cpp:406] group2_block1_conv1_bn <- group2_block1_conv1_conv_top
I0314 23:38:34.769160 33055 net.cpp:367] group2_block1_conv1_bn -> group2_block1_conv1_conv_top (in-place)
I0314 23:38:34.769418 33055 net.cpp:122] Setting up group2_block1_conv1_bn
I0314 23:38:34.769428 33055 net.cpp:129] Top shape: 32 64 8 8 (131072)
I0314 23:38:34.769443 33055 net.cpp:137] Memory required for data: 293470592
I0314 23:38:34.769464 33055 layer_factory.hpp:77] Creating layer group2_block1_conv1_scale
I0314 23:38:34.769480 33055 net.cpp:84] Creating Layer group2_block1_conv1_scale
I0314 23:38:34.769492 33055 net.cpp:406] group2_block1_conv1_scale <- group2_block1_conv1_conv_top
I0314 23:38:34.769507 33055 net.cpp:367] group2_block1_conv1_scale -> group2_block1_conv1_conv_top (in-place)
I0314 23:38:34.769568 33055 layer_factory.hpp:77] Creating layer group2_block1_conv1_scale
I0314 23:38:34.769721 33055 net.cpp:122] Setting up group2_block1_conv1_scale
I0314 23:38:34.769731 33055 net.cpp:129] Top shape: 32 64 8 8 (131072)
I0314 23:38:34.769747 33055 net.cpp:137] Memory required for data: 293994880
I0314 23:38:34.769764 33055 layer_factory.hpp:77] Creating layer group2_block1_sum_eltwise
I0314 23:38:34.769778 33055 net.cpp:84] Creating Layer group2_block1_sum_eltwise
I0314 23:38:34.769790 33055 net.cpp:406] group2_block1_sum_eltwise <- group2_block1_conv1_conv_top
I0314 23:38:34.769804 33055 net.cpp:406] group2_block1_sum_eltwise <- group2_block0_sum_eltwise_top_group2_block0_sum_eltwise_0_split_1
I0314 23:38:34.769819 33055 net.cpp:380] group2_block1_sum_eltwise -> group2_block1_sum_eltwise_top
I0314 23:38:34.769863 33055 net.cpp:122] Setting up group2_block1_sum_eltwise
I0314 23:38:34.769873 33055 net.cpp:129] Top shape: 32 64 8 8 (131072)
I0314 23:38:34.769887 33055 net.cpp:137] Memory required for data: 294519168
I0314 23:38:34.769898 33055 layer_factory.hpp:77] Creating layer group2_block1_sum_eltwise_top_group2_block1_sum_eltwise_0_split
I0314 23:38:34.769912 33055 net.cpp:84] Creating Layer group2_block1_sum_eltwise_top_group2_block1_sum_eltwise_0_split
I0314 23:38:34.769923 33055 net.cpp:406] group2_block1_sum_eltwise_top_group2_block1_sum_eltwise_0_split <- group2_block1_sum_eltwise_top
I0314 23:38:34.769944 33055 net.cpp:380] group2_block1_sum_eltwise_top_group2_block1_sum_eltwise_0_split -> group2_block1_sum_eltwise_top_group2_block1_sum_eltwise_0_split_0
I0314 23:38:34.769961 33055 net.cpp:380] group2_block1_sum_eltwise_top_group2_block1_sum_eltwise_0_split -> group2_block1_sum_eltwise_top_group2_block1_sum_eltwise_0_split_1
I0314 23:38:34.770022 33055 net.cpp:122] Setting up group2_block1_sum_eltwise_top_group2_block1_sum_eltwise_0_split
I0314 23:38:34.770032 33055 net.cpp:129] Top shape: 32 64 8 8 (131072)
I0314 23:38:34.770047 33055 net.cpp:129] Top shape: 32 64 8 8 (131072)
I0314 23:38:34.770061 33055 net.cpp:137] Memory required for data: 295567744
I0314 23:38:34.770071 33055 layer_factory.hpp:77] Creating layer group2_block2_conv0
I0314 23:38:34.770090 33055 net.cpp:84] Creating Layer group2_block2_conv0
I0314 23:38:34.770102 33055 net.cpp:406] group2_block2_conv0 <- group2_block1_sum_eltwise_top_group2_block1_sum_eltwise_0_split_0
I0314 23:38:34.770117 33055 net.cpp:380] group2_block2_conv0 -> group2_block2_conv0_conv_top
I0314 23:38:34.773150 33055 net.cpp:122] Setting up group2_block2_conv0
I0314 23:38:34.773164 33055 net.cpp:129] Top shape: 32 64 8 8 (131072)
I0314 23:38:34.773180 33055 net.cpp:137] Memory required for data: 296092032
I0314 23:38:34.773198 33055 layer_factory.hpp:77] Creating layer group2_block2_conv0_bn
I0314 23:38:34.773214 33055 net.cpp:84] Creating Layer group2_block2_conv0_bn
I0314 23:38:34.773226 33055 net.cpp:406] group2_block2_conv0_bn <- group2_block2_conv0_conv_top
I0314 23:38:34.773241 33055 net.cpp:367] group2_block2_conv0_bn -> group2_block2_conv0_conv_top (in-place)
I0314 23:38:34.773497 33055 net.cpp:122] Setting up group2_block2_conv0_bn
I0314 23:38:34.773507 33055 net.cpp:129] Top shape: 32 64 8 8 (131072)
I0314 23:38:34.773522 33055 net.cpp:137] Memory required for data: 296616320
I0314 23:38:34.773543 33055 layer_factory.hpp:77] Creating layer group2_block2_conv0_scale
I0314 23:38:34.773558 33055 net.cpp:84] Creating Layer group2_block2_conv0_scale
I0314 23:38:34.773569 33055 net.cpp:406] group2_block2_conv0_scale <- group2_block2_conv0_conv_top
I0314 23:38:34.773583 33055 net.cpp:367] group2_block2_conv0_scale -> group2_block2_conv0_conv_top (in-place)
I0314 23:38:34.773644 33055 layer_factory.hpp:77] Creating layer group2_block2_conv0_scale
I0314 23:38:34.773802 33055 net.cpp:122] Setting up group2_block2_conv0_scale
I0314 23:38:34.773813 33055 net.cpp:129] Top shape: 32 64 8 8 (131072)
I0314 23:38:34.773828 33055 net.cpp:137] Memory required for data: 297140608
I0314 23:38:34.773845 33055 layer_factory.hpp:77] Creating layer group2_block2_conv0_relu
I0314 23:38:34.773859 33055 net.cpp:84] Creating Layer group2_block2_conv0_relu
I0314 23:38:34.773869 33055 net.cpp:406] group2_block2_conv0_relu <- group2_block2_conv0_conv_top
I0314 23:38:34.773883 33055 net.cpp:367] group2_block2_conv0_relu -> group2_block2_conv0_conv_top (in-place)
I0314 23:38:34.774418 33055 net.cpp:122] Setting up group2_block2_conv0_relu
I0314 23:38:34.774428 33055 net.cpp:129] Top shape: 32 64 8 8 (131072)
I0314 23:38:34.774443 33055 net.cpp:137] Memory required for data: 297664896
I0314 23:38:34.774454 33055 layer_factory.hpp:77] Creating layer group2_block2_conv1
I0314 23:38:34.774473 33055 net.cpp:84] Creating Layer group2_block2_conv1
I0314 23:38:34.774485 33055 net.cpp:406] group2_block2_conv1 <- group2_block2_conv0_conv_top
I0314 23:38:34.774502 33055 net.cpp:380] group2_block2_conv1 -> group2_block2_conv1_conv_top
I0314 23:38:34.777555 33055 net.cpp:122] Setting up group2_block2_conv1
I0314 23:38:34.777568 33055 net.cpp:129] Top shape: 32 64 8 8 (131072)
I0314 23:38:34.777585 33055 net.cpp:137] Memory required for data: 298189184
I0314 23:38:34.777603 33055 layer_factory.hpp:77] Creating layer group2_block2_conv1_bn
I0314 23:38:34.777619 33055 net.cpp:84] Creating Layer group2_block2_conv1_bn
I0314 23:38:34.777631 33055 net.cpp:406] group2_block2_conv1_bn <- group2_block2_conv1_conv_top
I0314 23:38:34.777645 33055 net.cpp:367] group2_block2_conv1_bn -> group2_block2_conv1_conv_top (in-place)
I0314 23:38:34.777909 33055 net.cpp:122] Setting up group2_block2_conv1_bn
I0314 23:38:34.777918 33055 net.cpp:129] Top shape: 32 64 8 8 (131072)
I0314 23:38:34.777933 33055 net.cpp:137] Memory required for data: 298713472
I0314 23:38:34.777956 33055 layer_factory.hpp:77] Creating layer group2_block2_conv1_scale
I0314 23:38:34.777969 33055 net.cpp:84] Creating Layer group2_block2_conv1_scale
I0314 23:38:34.777981 33055 net.cpp:406] group2_block2_conv1_scale <- group2_block2_conv1_conv_top
I0314 23:38:34.777995 33055 net.cpp:367] group2_block2_conv1_scale -> group2_block2_conv1_conv_top (in-place)
I0314 23:38:34.778056 33055 layer_factory.hpp:77] Creating layer group2_block2_conv1_scale
I0314 23:38:34.778208 33055 net.cpp:122] Setting up group2_block2_conv1_scale
I0314 23:38:34.778218 33055 net.cpp:129] Top shape: 32 64 8 8 (131072)
I0314 23:38:34.778254 33055 net.cpp:137] Memory required for data: 299237760
I0314 23:38:34.778275 33055 layer_factory.hpp:77] Creating layer group2_block2_sum_eltwise
I0314 23:38:34.778290 33055 net.cpp:84] Creating Layer group2_block2_sum_eltwise
I0314 23:38:34.778302 33055 net.cpp:406] group2_block2_sum_eltwise <- group2_block2_conv1_conv_top
I0314 23:38:34.778316 33055 net.cpp:406] group2_block2_sum_eltwise <- group2_block1_sum_eltwise_top_group2_block1_sum_eltwise_0_split_1
I0314 23:38:34.778331 33055 net.cpp:380] group2_block2_sum_eltwise -> group2_block2_sum_eltwise_top
I0314 23:38:34.778372 33055 net.cpp:122] Setting up group2_block2_sum_eltwise
I0314 23:38:34.778381 33055 net.cpp:129] Top shape: 32 64 8 8 (131072)
I0314 23:38:34.778395 33055 net.cpp:137] Memory required for data: 299762048
I0314 23:38:34.778406 33055 layer_factory.hpp:77] Creating layer group2_block2_sum_eltwise_top_group2_block2_sum_eltwise_0_split
I0314 23:38:34.778420 33055 net.cpp:84] Creating Layer group2_block2_sum_eltwise_top_group2_block2_sum_eltwise_0_split
I0314 23:38:34.778431 33055 net.cpp:406] group2_block2_sum_eltwise_top_group2_block2_sum_eltwise_0_split <- group2_block2_sum_eltwise_top
I0314 23:38:34.778446 33055 net.cpp:380] group2_block2_sum_eltwise_top_group2_block2_sum_eltwise_0_split -> group2_block2_sum_eltwise_top_group2_block2_sum_eltwise_0_split_0
I0314 23:38:34.778463 33055 net.cpp:380] group2_block2_sum_eltwise_top_group2_block2_sum_eltwise_0_split -> group2_block2_sum_eltwise_top_group2_block2_sum_eltwise_0_split_1
I0314 23:38:34.778525 33055 net.cpp:122] Setting up group2_block2_sum_eltwise_top_group2_block2_sum_eltwise_0_split
I0314 23:38:34.778535 33055 net.cpp:129] Top shape: 32 64 8 8 (131072)
I0314 23:38:34.778550 33055 net.cpp:129] Top shape: 32 64 8 8 (131072)
I0314 23:38:34.778563 33055 net.cpp:137] Memory required for data: 300810624
I0314 23:38:34.778574 33055 layer_factory.hpp:77] Creating layer group2_block3_conv0
I0314 23:38:34.778594 33055 net.cpp:84] Creating Layer group2_block3_conv0
I0314 23:38:34.778605 33055 net.cpp:406] group2_block3_conv0 <- group2_block2_sum_eltwise_top_group2_block2_sum_eltwise_0_split_0
I0314 23:38:34.778621 33055 net.cpp:380] group2_block3_conv0 -> group2_block3_conv0_conv_top
I0314 23:38:34.781688 33055 net.cpp:122] Setting up group2_block3_conv0
I0314 23:38:34.781702 33055 net.cpp:129] Top shape: 32 64 8 8 (131072)
I0314 23:38:34.781716 33055 net.cpp:137] Memory required for data: 301334912
I0314 23:38:34.781736 33055 layer_factory.hpp:77] Creating layer group2_block3_conv0_bn
I0314 23:38:34.781752 33055 net.cpp:84] Creating Layer group2_block3_conv0_bn
I0314 23:38:34.781764 33055 net.cpp:406] group2_block3_conv0_bn <- group2_block3_conv0_conv_top
I0314 23:38:34.781778 33055 net.cpp:367] group2_block3_conv0_bn -> group2_block3_conv0_conv_top (in-place)
I0314 23:38:34.782045 33055 net.cpp:122] Setting up group2_block3_conv0_bn
I0314 23:38:34.782055 33055 net.cpp:129] Top shape: 32 64 8 8 (131072)
I0314 23:38:34.782070 33055 net.cpp:137] Memory required for data: 301859200
I0314 23:38:34.782091 33055 layer_factory.hpp:77] Creating layer group2_block3_conv0_scale
I0314 23:38:34.782106 33055 net.cpp:84] Creating Layer group2_block3_conv0_scale
I0314 23:38:34.782117 33055 net.cpp:406] group2_block3_conv0_scale <- group2_block3_conv0_conv_top
I0314 23:38:34.782132 33055 net.cpp:367] group2_block3_conv0_scale -> group2_block3_conv0_conv_top (in-place)
I0314 23:38:34.782196 33055 layer_factory.hpp:77] Creating layer group2_block3_conv0_scale
I0314 23:38:34.782351 33055 net.cpp:122] Setting up group2_block3_conv0_scale
I0314 23:38:34.782361 33055 net.cpp:129] Top shape: 32 64 8 8 (131072)
I0314 23:38:34.782375 33055 net.cpp:137] Memory required for data: 302383488
I0314 23:38:34.782393 33055 layer_factory.hpp:77] Creating layer group2_block3_conv0_relu
I0314 23:38:34.782407 33055 net.cpp:84] Creating Layer group2_block3_conv0_relu
I0314 23:38:34.782418 33055 net.cpp:406] group2_block3_conv0_relu <- group2_block3_conv0_conv_top
I0314 23:38:34.782433 33055 net.cpp:367] group2_block3_conv0_relu -> group2_block3_conv0_conv_top (in-place)
I0314 23:38:34.783419 33055 net.cpp:122] Setting up group2_block3_conv0_relu
I0314 23:38:34.783430 33055 net.cpp:129] Top shape: 32 64 8 8 (131072)
I0314 23:38:34.783447 33055 net.cpp:137] Memory required for data: 302907776
I0314 23:38:34.783457 33055 layer_factory.hpp:77] Creating layer group2_block3_conv1
I0314 23:38:34.783476 33055 net.cpp:84] Creating Layer group2_block3_conv1
I0314 23:38:34.783488 33055 net.cpp:406] group2_block3_conv1 <- group2_block3_conv0_conv_top
I0314 23:38:34.783504 33055 net.cpp:380] group2_block3_conv1 -> group2_block3_conv1_conv_top
I0314 23:38:34.786546 33055 net.cpp:122] Setting up group2_block3_conv1
I0314 23:38:34.786559 33055 net.cpp:129] Top shape: 32 64 8 8 (131072)
I0314 23:38:34.786576 33055 net.cpp:137] Memory required for data: 303432064
I0314 23:38:34.786594 33055 layer_factory.hpp:77] Creating layer group2_block3_conv1_bn
I0314 23:38:34.786610 33055 net.cpp:84] Creating Layer group2_block3_conv1_bn
I0314 23:38:34.786623 33055 net.cpp:406] group2_block3_conv1_bn <- group2_block3_conv1_conv_top
I0314 23:38:34.786636 33055 net.cpp:367] group2_block3_conv1_bn -> group2_block3_conv1_conv_top (in-place)
I0314 23:38:34.786901 33055 net.cpp:122] Setting up group2_block3_conv1_bn
I0314 23:38:34.786911 33055 net.cpp:129] Top shape: 32 64 8 8 (131072)
I0314 23:38:34.786926 33055 net.cpp:137] Memory required for data: 303956352
I0314 23:38:34.786947 33055 layer_factory.hpp:77] Creating layer group2_block3_conv1_scale
I0314 23:38:34.786962 33055 net.cpp:84] Creating Layer group2_block3_conv1_scale
I0314 23:38:34.786973 33055 net.cpp:406] group2_block3_conv1_scale <- group2_block3_conv1_conv_top
I0314 23:38:34.786988 33055 net.cpp:367] group2_block3_conv1_scale -> group2_block3_conv1_conv_top (in-place)
I0314 23:38:34.787055 33055 layer_factory.hpp:77] Creating layer group2_block3_conv1_scale
I0314 23:38:34.787214 33055 net.cpp:122] Setting up group2_block3_conv1_scale
I0314 23:38:34.787225 33055 net.cpp:129] Top shape: 32 64 8 8 (131072)
I0314 23:38:34.787240 33055 net.cpp:137] Memory required for data: 304480640
I0314 23:38:34.787257 33055 layer_factory.hpp:77] Creating layer group2_block3_sum_eltwise
I0314 23:38:34.787272 33055 net.cpp:84] Creating Layer group2_block3_sum_eltwise
I0314 23:38:34.787283 33055 net.cpp:406] group2_block3_sum_eltwise <- group2_block3_conv1_conv_top
I0314 23:38:34.787297 33055 net.cpp:406] group2_block3_sum_eltwise <- group2_block2_sum_eltwise_top_group2_block2_sum_eltwise_0_split_1
I0314 23:38:34.787312 33055 net.cpp:380] group2_block3_sum_eltwise -> group2_block3_sum_eltwise_top
I0314 23:38:34.787356 33055 net.cpp:122] Setting up group2_block3_sum_eltwise
I0314 23:38:34.787365 33055 net.cpp:129] Top shape: 32 64 8 8 (131072)
I0314 23:38:34.787380 33055 net.cpp:137] Memory required for data: 305004928
I0314 23:38:34.787391 33055 layer_factory.hpp:77] Creating layer group2_block3_sum_eltwise_top_group2_block3_sum_eltwise_0_split
I0314 23:38:34.787405 33055 net.cpp:84] Creating Layer group2_block3_sum_eltwise_top_group2_block3_sum_eltwise_0_split
I0314 23:38:34.787415 33055 net.cpp:406] group2_block3_sum_eltwise_top_group2_block3_sum_eltwise_0_split <- group2_block3_sum_eltwise_top
I0314 23:38:34.787431 33055 net.cpp:380] group2_block3_sum_eltwise_top_group2_block3_sum_eltwise_0_split -> group2_block3_sum_eltwise_top_group2_block3_sum_eltwise_0_split_0
I0314 23:38:34.787447 33055 net.cpp:380] group2_block3_sum_eltwise_top_group2_block3_sum_eltwise_0_split -> group2_block3_sum_eltwise_top_group2_block3_sum_eltwise_0_split_1
I0314 23:38:34.787520 33055 net.cpp:122] Setting up group2_block3_sum_eltwise_top_group2_block3_sum_eltwise_0_split
I0314 23:38:34.787531 33055 net.cpp:129] Top shape: 32 64 8 8 (131072)
I0314 23:38:34.787546 33055 net.cpp:129] Top shape: 32 64 8 8 (131072)
I0314 23:38:34.787557 33055 net.cpp:137] Memory required for data: 306053504
I0314 23:38:34.787565 33055 layer_factory.hpp:77] Creating layer group2_block4_conv0
I0314 23:38:34.787577 33055 net.cpp:84] Creating Layer group2_block4_conv0
I0314 23:38:34.787585 33055 net.cpp:406] group2_block4_conv0 <- group2_block3_sum_eltwise_top_group2_block3_sum_eltwise_0_split_0
I0314 23:38:34.787595 33055 net.cpp:380] group2_block4_conv0 -> group2_block4_conv0_conv_top
I0314 23:38:34.791524 33055 net.cpp:122] Setting up group2_block4_conv0
I0314 23:38:34.791543 33055 net.cpp:129] Top shape: 32 64 8 8 (131072)
I0314 23:38:34.791558 33055 net.cpp:137] Memory required for data: 306577792
I0314 23:38:34.791579 33055 layer_factory.hpp:77] Creating layer group2_block4_conv0_bn
I0314 23:38:34.791595 33055 net.cpp:84] Creating Layer group2_block4_conv0_bn
I0314 23:38:34.791607 33055 net.cpp:406] group2_block4_conv0_bn <- group2_block4_conv0_conv_top
I0314 23:38:34.791623 33055 net.cpp:367] group2_block4_conv0_bn -> group2_block4_conv0_conv_top (in-place)
I0314 23:38:34.791904 33055 net.cpp:122] Setting up group2_block4_conv0_bn
I0314 23:38:34.791914 33055 net.cpp:129] Top shape: 32 64 8 8 (131072)
I0314 23:38:34.791930 33055 net.cpp:137] Memory required for data: 307102080
I0314 23:38:34.791951 33055 layer_factory.hpp:77] Creating layer group2_block4_conv0_scale
I0314 23:38:34.791966 33055 net.cpp:84] Creating Layer group2_block4_conv0_scale
I0314 23:38:34.791978 33055 net.cpp:406] group2_block4_conv0_scale <- group2_block4_conv0_conv_top
I0314 23:38:34.791992 33055 net.cpp:367] group2_block4_conv0_scale -> group2_block4_conv0_conv_top (in-place)
I0314 23:38:34.792057 33055 layer_factory.hpp:77] Creating layer group2_block4_conv0_scale
I0314 23:38:34.792218 33055 net.cpp:122] Setting up group2_block4_conv0_scale
I0314 23:38:34.792228 33055 net.cpp:129] Top shape: 32 64 8 8 (131072)
I0314 23:38:34.792243 33055 net.cpp:137] Memory required for data: 307626368
I0314 23:38:34.792261 33055 layer_factory.hpp:77] Creating layer group2_block4_conv0_relu
I0314 23:38:34.792275 33055 net.cpp:84] Creating Layer group2_block4_conv0_relu
I0314 23:38:34.792286 33055 net.cpp:406] group2_block4_conv0_relu <- group2_block4_conv0_conv_top
I0314 23:38:34.792300 33055 net.cpp:367] group2_block4_conv0_relu -> group2_block4_conv0_conv_top (in-place)
I0314 23:38:34.792831 33055 net.cpp:122] Setting up group2_block4_conv0_relu
I0314 23:38:34.792841 33055 net.cpp:129] Top shape: 32 64 8 8 (131072)
I0314 23:38:34.792856 33055 net.cpp:137] Memory required for data: 308150656
I0314 23:38:34.792867 33055 layer_factory.hpp:77] Creating layer group2_block4_conv1
I0314 23:38:34.792886 33055 net.cpp:84] Creating Layer group2_block4_conv1
I0314 23:38:34.792897 33055 net.cpp:406] group2_block4_conv1 <- group2_block4_conv0_conv_top
I0314 23:38:34.792919 33055 net.cpp:380] group2_block4_conv1 -> group2_block4_conv1_conv_top
I0314 23:38:34.795996 33055 net.cpp:122] Setting up group2_block4_conv1
I0314 23:38:34.796008 33055 net.cpp:129] Top shape: 32 64 8 8 (131072)
I0314 23:38:34.796023 33055 net.cpp:137] Memory required for data: 308674944
I0314 23:38:34.796042 33055 layer_factory.hpp:77] Creating layer group2_block4_conv1_bn
I0314 23:38:34.796058 33055 net.cpp:84] Creating Layer group2_block4_conv1_bn
I0314 23:38:34.796069 33055 net.cpp:406] group2_block4_conv1_bn <- group2_block4_conv1_conv_top
I0314 23:38:34.796084 33055 net.cpp:367] group2_block4_conv1_bn -> group2_block4_conv1_conv_top (in-place)
I0314 23:38:34.796357 33055 net.cpp:122] Setting up group2_block4_conv1_bn
I0314 23:38:34.796367 33055 net.cpp:129] Top shape: 32 64 8 8 (131072)
I0314 23:38:34.796382 33055 net.cpp:137] Memory required for data: 309199232
I0314 23:38:34.796404 33055 layer_factory.hpp:77] Creating layer group2_block4_conv1_scale
I0314 23:38:34.796420 33055 net.cpp:84] Creating Layer group2_block4_conv1_scale
I0314 23:38:34.796432 33055 net.cpp:406] group2_block4_conv1_scale <- group2_block4_conv1_conv_top
I0314 23:38:34.796447 33055 net.cpp:367] group2_block4_conv1_scale -> group2_block4_conv1_conv_top (in-place)
I0314 23:38:34.796510 33055 layer_factory.hpp:77] Creating layer group2_block4_conv1_scale
I0314 23:38:34.796669 33055 net.cpp:122] Setting up group2_block4_conv1_scale
I0314 23:38:34.796679 33055 net.cpp:129] Top shape: 32 64 8 8 (131072)
I0314 23:38:34.796694 33055 net.cpp:137] Memory required for data: 309723520
I0314 23:38:34.796712 33055 layer_factory.hpp:77] Creating layer group2_block4_sum_eltwise
I0314 23:38:34.796727 33055 net.cpp:84] Creating Layer group2_block4_sum_eltwise
I0314 23:38:34.796739 33055 net.cpp:406] group2_block4_sum_eltwise <- group2_block4_conv1_conv_top
I0314 23:38:34.796751 33055 net.cpp:406] group2_block4_sum_eltwise <- group2_block3_sum_eltwise_top_group2_block3_sum_eltwise_0_split_1
I0314 23:38:34.796766 33055 net.cpp:380] group2_block4_sum_eltwise -> group2_block4_sum_eltwise_top
I0314 23:38:34.796811 33055 net.cpp:122] Setting up group2_block4_sum_eltwise
I0314 23:38:34.796821 33055 net.cpp:129] Top shape: 32 64 8 8 (131072)
I0314 23:38:34.796836 33055 net.cpp:137] Memory required for data: 310247808
I0314 23:38:34.796847 33055 layer_factory.hpp:77] Creating layer group2_block4_sum_eltwise_top_group2_block4_sum_eltwise_0_split
I0314 23:38:34.796861 33055 net.cpp:84] Creating Layer group2_block4_sum_eltwise_top_group2_block4_sum_eltwise_0_split
I0314 23:38:34.796872 33055 net.cpp:406] group2_block4_sum_eltwise_top_group2_block4_sum_eltwise_0_split <- group2_block4_sum_eltwise_top
I0314 23:38:34.796886 33055 net.cpp:380] group2_block4_sum_eltwise_top_group2_block4_sum_eltwise_0_split -> group2_block4_sum_eltwise_top_group2_block4_sum_eltwise_0_split_0
I0314 23:38:34.796903 33055 net.cpp:380] group2_block4_sum_eltwise_top_group2_block4_sum_eltwise_0_split -> group2_block4_sum_eltwise_top_group2_block4_sum_eltwise_0_split_1
I0314 23:38:34.796972 33055 net.cpp:122] Setting up group2_block4_sum_eltwise_top_group2_block4_sum_eltwise_0_split
I0314 23:38:34.796982 33055 net.cpp:129] Top shape: 32 64 8 8 (131072)
I0314 23:38:34.796996 33055 net.cpp:129] Top shape: 32 64 8 8 (131072)
I0314 23:38:34.797010 33055 net.cpp:137] Memory required for data: 311296384
I0314 23:38:34.797021 33055 layer_factory.hpp:77] Creating layer group2_block5_conv0
I0314 23:38:34.797039 33055 net.cpp:84] Creating Layer group2_block5_conv0
I0314 23:38:34.797050 33055 net.cpp:406] group2_block5_conv0 <- group2_block4_sum_eltwise_top_group2_block4_sum_eltwise_0_split_0
I0314 23:38:34.797067 33055 net.cpp:380] group2_block5_conv0 -> group2_block5_conv0_conv_top
I0314 23:38:34.800153 33055 net.cpp:122] Setting up group2_block5_conv0
I0314 23:38:34.800168 33055 net.cpp:129] Top shape: 32 64 8 8 (131072)
I0314 23:38:34.800184 33055 net.cpp:137] Memory required for data: 311820672
I0314 23:38:34.800202 33055 layer_factory.hpp:77] Creating layer group2_block5_conv0_bn
I0314 23:38:34.800218 33055 net.cpp:84] Creating Layer group2_block5_conv0_bn
I0314 23:38:34.800230 33055 net.cpp:406] group2_block5_conv0_bn <- group2_block5_conv0_conv_top
I0314 23:38:34.800246 33055 net.cpp:367] group2_block5_conv0_bn -> group2_block5_conv0_conv_top (in-place)
I0314 23:38:34.800509 33055 net.cpp:122] Setting up group2_block5_conv0_bn
I0314 23:38:34.800519 33055 net.cpp:129] Top shape: 32 64 8 8 (131072)
I0314 23:38:34.800534 33055 net.cpp:137] Memory required for data: 312344960
I0314 23:38:34.800556 33055 layer_factory.hpp:77] Creating layer group2_block5_conv0_scale
I0314 23:38:34.800570 33055 net.cpp:84] Creating Layer group2_block5_conv0_scale
I0314 23:38:34.800581 33055 net.cpp:406] group2_block5_conv0_scale <- group2_block5_conv0_conv_top
I0314 23:38:34.800596 33055 net.cpp:367] group2_block5_conv0_scale -> group2_block5_conv0_conv_top (in-place)
I0314 23:38:34.800658 33055 layer_factory.hpp:77] Creating layer group2_block5_conv0_scale
I0314 23:38:34.800824 33055 net.cpp:122] Setting up group2_block5_conv0_scale
I0314 23:38:34.800834 33055 net.cpp:129] Top shape: 32 64 8 8 (131072)
I0314 23:38:34.800849 33055 net.cpp:137] Memory required for data: 312869248
I0314 23:38:34.800868 33055 layer_factory.hpp:77] Creating layer group2_block5_conv0_relu
I0314 23:38:34.800881 33055 net.cpp:84] Creating Layer group2_block5_conv0_relu
I0314 23:38:34.800892 33055 net.cpp:406] group2_block5_conv0_relu <- group2_block5_conv0_conv_top
I0314 23:38:34.800906 33055 net.cpp:367] group2_block5_conv0_relu -> group2_block5_conv0_conv_top (in-place)
I0314 23:38:34.801436 33055 net.cpp:122] Setting up group2_block5_conv0_relu
I0314 23:38:34.801446 33055 net.cpp:129] Top shape: 32 64 8 8 (131072)
I0314 23:38:34.801461 33055 net.cpp:137] Memory required for data: 313393536
I0314 23:38:34.801472 33055 layer_factory.hpp:77] Creating layer group2_block5_conv1
I0314 23:38:34.801491 33055 net.cpp:84] Creating Layer group2_block5_conv1
I0314 23:38:34.801502 33055 net.cpp:406] group2_block5_conv1 <- group2_block5_conv0_conv_top
I0314 23:38:34.801519 33055 net.cpp:380] group2_block5_conv1 -> group2_block5_conv1_conv_top
I0314 23:38:34.805125 33055 net.cpp:122] Setting up group2_block5_conv1
I0314 23:38:34.805140 33055 net.cpp:129] Top shape: 32 64 8 8 (131072)
I0314 23:38:34.805155 33055 net.cpp:137] Memory required for data: 313917824
I0314 23:38:34.805174 33055 layer_factory.hpp:77] Creating layer group2_block5_conv1_bn
I0314 23:38:34.805191 33055 net.cpp:84] Creating Layer group2_block5_conv1_bn
I0314 23:38:34.805202 33055 net.cpp:406] group2_block5_conv1_bn <- group2_block5_conv1_conv_top
I0314 23:38:34.805217 33055 net.cpp:367] group2_block5_conv1_bn -> group2_block5_conv1_conv_top (in-place)
I0314 23:38:34.805485 33055 net.cpp:122] Setting up group2_block5_conv1_bn
I0314 23:38:34.805495 33055 net.cpp:129] Top shape: 32 64 8 8 (131072)
I0314 23:38:34.805510 33055 net.cpp:137] Memory required for data: 314442112
I0314 23:38:34.805532 33055 layer_factory.hpp:77] Creating layer group2_block5_conv1_scale
I0314 23:38:34.805547 33055 net.cpp:84] Creating Layer group2_block5_conv1_scale
I0314 23:38:34.805558 33055 net.cpp:406] group2_block5_conv1_scale <- group2_block5_conv1_conv_top
I0314 23:38:34.805572 33055 net.cpp:367] group2_block5_conv1_scale -> group2_block5_conv1_conv_top (in-place)
I0314 23:38:34.805634 33055 layer_factory.hpp:77] Creating layer group2_block5_conv1_scale
I0314 23:38:34.805788 33055 net.cpp:122] Setting up group2_block5_conv1_scale
I0314 23:38:34.805799 33055 net.cpp:129] Top shape: 32 64 8 8 (131072)
I0314 23:38:34.805814 33055 net.cpp:137] Memory required for data: 314966400
I0314 23:38:34.805831 33055 layer_factory.hpp:77] Creating layer group2_block5_sum_eltwise
I0314 23:38:34.805845 33055 net.cpp:84] Creating Layer group2_block5_sum_eltwise
I0314 23:38:34.805857 33055 net.cpp:406] group2_block5_sum_eltwise <- group2_block5_conv1_conv_top
I0314 23:38:34.805869 33055 net.cpp:406] group2_block5_sum_eltwise <- group2_block4_sum_eltwise_top_group2_block4_sum_eltwise_0_split_1
I0314 23:38:34.805886 33055 net.cpp:380] group2_block5_sum_eltwise -> group2_block5_sum_eltwise_top
I0314 23:38:34.805929 33055 net.cpp:122] Setting up group2_block5_sum_eltwise
I0314 23:38:34.805939 33055 net.cpp:129] Top shape: 32 64 8 8 (131072)
I0314 23:38:34.805954 33055 net.cpp:137] Memory required for data: 315490688
I0314 23:38:34.805964 33055 layer_factory.hpp:77] Creating layer group2_block5_sum_eltwise_top_group2_block5_sum_eltwise_0_split
I0314 23:38:34.805979 33055 net.cpp:84] Creating Layer group2_block5_sum_eltwise_top_group2_block5_sum_eltwise_0_split
I0314 23:38:34.805989 33055 net.cpp:406] group2_block5_sum_eltwise_top_group2_block5_sum_eltwise_0_split <- group2_block5_sum_eltwise_top
I0314 23:38:34.806005 33055 net.cpp:380] group2_block5_sum_eltwise_top_group2_block5_sum_eltwise_0_split -> group2_block5_sum_eltwise_top_group2_block5_sum_eltwise_0_split_0
I0314 23:38:34.806021 33055 net.cpp:380] group2_block5_sum_eltwise_top_group2_block5_sum_eltwise_0_split -> group2_block5_sum_eltwise_top_group2_block5_sum_eltwise_0_split_1
I0314 23:38:34.806104 33055 net.cpp:122] Setting up group2_block5_sum_eltwise_top_group2_block5_sum_eltwise_0_split
I0314 23:38:34.806114 33055 net.cpp:129] Top shape: 32 64 8 8 (131072)
I0314 23:38:34.806129 33055 net.cpp:129] Top shape: 32 64 8 8 (131072)
I0314 23:38:34.806143 33055 net.cpp:137] Memory required for data: 316539264
I0314 23:38:34.806154 33055 layer_factory.hpp:77] Creating layer group2_block6_conv0
I0314 23:38:34.806174 33055 net.cpp:84] Creating Layer group2_block6_conv0
I0314 23:38:34.806185 33055 net.cpp:406] group2_block6_conv0 <- group2_block5_sum_eltwise_top_group2_block5_sum_eltwise_0_split_0
I0314 23:38:34.806200 33055 net.cpp:380] group2_block6_conv0 -> group2_block6_conv0_conv_top
I0314 23:38:34.809258 33055 net.cpp:122] Setting up group2_block6_conv0
I0314 23:38:34.809271 33055 net.cpp:129] Top shape: 32 64 8 8 (131072)
I0314 23:38:34.809288 33055 net.cpp:137] Memory required for data: 317063552
I0314 23:38:34.809306 33055 layer_factory.hpp:77] Creating layer group2_block6_conv0_bn
I0314 23:38:34.809322 33055 net.cpp:84] Creating Layer group2_block6_conv0_bn
I0314 23:38:34.809334 33055 net.cpp:406] group2_block6_conv0_bn <- group2_block6_conv0_conv_top
I0314 23:38:34.809348 33055 net.cpp:367] group2_block6_conv0_bn -> group2_block6_conv0_conv_top (in-place)
I0314 23:38:34.809615 33055 net.cpp:122] Setting up group2_block6_conv0_bn
I0314 23:38:34.809625 33055 net.cpp:129] Top shape: 32 64 8 8 (131072)
I0314 23:38:34.809640 33055 net.cpp:137] Memory required for data: 317587840
I0314 23:38:34.809662 33055 layer_factory.hpp:77] Creating layer group2_block6_conv0_scale
I0314 23:38:34.809676 33055 net.cpp:84] Creating Layer group2_block6_conv0_scale
I0314 23:38:34.809689 33055 net.cpp:406] group2_block6_conv0_scale <- group2_block6_conv0_conv_top
I0314 23:38:34.809702 33055 net.cpp:367] group2_block6_conv0_scale -> group2_block6_conv0_conv_top (in-place)
I0314 23:38:34.809764 33055 layer_factory.hpp:77] Creating layer group2_block6_conv0_scale
I0314 23:38:34.809922 33055 net.cpp:122] Setting up group2_block6_conv0_scale
I0314 23:38:34.809932 33055 net.cpp:129] Top shape: 32 64 8 8 (131072)
I0314 23:38:34.809947 33055 net.cpp:137] Memory required for data: 318112128
I0314 23:38:34.809965 33055 layer_factory.hpp:77] Creating layer group2_block6_conv0_relu
I0314 23:38:34.809979 33055 net.cpp:84] Creating Layer group2_block6_conv0_relu
I0314 23:38:34.809990 33055 net.cpp:406] group2_block6_conv0_relu <- group2_block6_conv0_conv_top
I0314 23:38:34.810004 33055 net.cpp:367] group2_block6_conv0_relu -> group2_block6_conv0_conv_top (in-place)
I0314 23:38:34.810978 33055 net.cpp:122] Setting up group2_block6_conv0_relu
I0314 23:38:34.810991 33055 net.cpp:129] Top shape: 32 64 8 8 (131072)
I0314 23:38:34.811005 33055 net.cpp:137] Memory required for data: 318636416
I0314 23:38:34.811017 33055 layer_factory.hpp:77] Creating layer group2_block6_conv1
I0314 23:38:34.811036 33055 net.cpp:84] Creating Layer group2_block6_conv1
I0314 23:38:34.811048 33055 net.cpp:406] group2_block6_conv1 <- group2_block6_conv0_conv_top
I0314 23:38:34.811064 33055 net.cpp:380] group2_block6_conv1 -> group2_block6_conv1_conv_top
I0314 23:38:34.814610 33055 net.cpp:122] Setting up group2_block6_conv1
I0314 23:38:34.814622 33055 net.cpp:129] Top shape: 32 64 8 8 (131072)
I0314 23:38:34.814637 33055 net.cpp:137] Memory required for data: 319160704
I0314 23:38:34.814656 33055 layer_factory.hpp:77] Creating layer group2_block6_conv1_bn
I0314 23:38:34.814673 33055 net.cpp:84] Creating Layer group2_block6_conv1_bn
I0314 23:38:34.814684 33055 net.cpp:406] group2_block6_conv1_bn <- group2_block6_conv1_conv_top
I0314 23:38:34.814699 33055 net.cpp:367] group2_block6_conv1_bn -> group2_block6_conv1_conv_top (in-place)
I0314 23:38:34.814973 33055 net.cpp:122] Setting up group2_block6_conv1_bn
I0314 23:38:34.814985 33055 net.cpp:129] Top shape: 32 64 8 8 (131072)
I0314 23:38:34.814999 33055 net.cpp:137] Memory required for data: 319684992
I0314 23:38:34.815021 33055 layer_factory.hpp:77] Creating layer group2_block6_conv1_scale
I0314 23:38:34.815037 33055 net.cpp:84] Creating Layer group2_block6_conv1_scale
I0314 23:38:34.815049 33055 net.cpp:406] group2_block6_conv1_scale <- group2_block6_conv1_conv_top
I0314 23:38:34.815063 33055 net.cpp:367] group2_block6_conv1_scale -> group2_block6_conv1_conv_top (in-place)
I0314 23:38:34.815127 33055 layer_factory.hpp:77] Creating layer group2_block6_conv1_scale
I0314 23:38:34.815287 33055 net.cpp:122] Setting up group2_block6_conv1_scale
I0314 23:38:34.815297 33055 net.cpp:129] Top shape: 32 64 8 8 (131072)
I0314 23:38:34.815312 33055 net.cpp:137] Memory required for data: 320209280
I0314 23:38:34.815330 33055 layer_factory.hpp:77] Creating layer group2_block6_sum_eltwise
I0314 23:38:34.815346 33055 net.cpp:84] Creating Layer group2_block6_sum_eltwise
I0314 23:38:34.815356 33055 net.cpp:406] group2_block6_sum_eltwise <- group2_block6_conv1_conv_top
I0314 23:38:34.815371 33055 net.cpp:406] group2_block6_sum_eltwise <- group2_block5_sum_eltwise_top_group2_block5_sum_eltwise_0_split_1
I0314 23:38:34.815385 33055 net.cpp:380] group2_block6_sum_eltwise -> group2_block6_sum_eltwise_top
I0314 23:38:34.815431 33055 net.cpp:122] Setting up group2_block6_sum_eltwise
I0314 23:38:34.815440 33055 net.cpp:129] Top shape: 32 64 8 8 (131072)
I0314 23:38:34.815455 33055 net.cpp:137] Memory required for data: 320733568
I0314 23:38:34.815466 33055 layer_factory.hpp:77] Creating layer group2_block6_sum_eltwise_top_group2_block6_sum_eltwise_0_split
I0314 23:38:34.815479 33055 net.cpp:84] Creating Layer group2_block6_sum_eltwise_top_group2_block6_sum_eltwise_0_split
I0314 23:38:34.815490 33055 net.cpp:406] group2_block6_sum_eltwise_top_group2_block6_sum_eltwise_0_split <- group2_block6_sum_eltwise_top
I0314 23:38:34.815505 33055 net.cpp:380] group2_block6_sum_eltwise_top_group2_block6_sum_eltwise_0_split -> group2_block6_sum_eltwise_top_group2_block6_sum_eltwise_0_split_0
I0314 23:38:34.815522 33055 net.cpp:380] group2_block6_sum_eltwise_top_group2_block6_sum_eltwise_0_split -> group2_block6_sum_eltwise_top_group2_block6_sum_eltwise_0_split_1
I0314 23:38:34.815587 33055 net.cpp:122] Setting up group2_block6_sum_eltwise_top_group2_block6_sum_eltwise_0_split
I0314 23:38:34.815596 33055 net.cpp:129] Top shape: 32 64 8 8 (131072)
I0314 23:38:34.815610 33055 net.cpp:129] Top shape: 32 64 8 8 (131072)
I0314 23:38:34.815624 33055 net.cpp:137] Memory required for data: 321782144
I0314 23:38:34.815635 33055 layer_factory.hpp:77] Creating layer group2_block7_conv0
I0314 23:38:34.815654 33055 net.cpp:84] Creating Layer group2_block7_conv0
I0314 23:38:34.815665 33055 net.cpp:406] group2_block7_conv0 <- group2_block6_sum_eltwise_top_group2_block6_sum_eltwise_0_split_0
I0314 23:38:34.815681 33055 net.cpp:380] group2_block7_conv0 -> group2_block7_conv0_conv_top
I0314 23:38:34.818776 33055 net.cpp:122] Setting up group2_block7_conv0
I0314 23:38:34.818789 33055 net.cpp:129] Top shape: 32 64 8 8 (131072)
I0314 23:38:34.818805 33055 net.cpp:137] Memory required for data: 322306432
I0314 23:38:34.818825 33055 layer_factory.hpp:77] Creating layer group2_block7_conv0_bn
I0314 23:38:34.818840 33055 net.cpp:84] Creating Layer group2_block7_conv0_bn
I0314 23:38:34.818852 33055 net.cpp:406] group2_block7_conv0_bn <- group2_block7_conv0_conv_top
I0314 23:38:34.818867 33055 net.cpp:367] group2_block7_conv0_bn -> group2_block7_conv0_conv_top (in-place)
I0314 23:38:34.819145 33055 net.cpp:122] Setting up group2_block7_conv0_bn
I0314 23:38:34.819155 33055 net.cpp:129] Top shape: 32 64 8 8 (131072)
I0314 23:38:34.819170 33055 net.cpp:137] Memory required for data: 322830720
I0314 23:38:34.819191 33055 layer_factory.hpp:77] Creating layer group2_block7_conv0_scale
I0314 23:38:34.819206 33055 net.cpp:84] Creating Layer group2_block7_conv0_scale
I0314 23:38:34.819218 33055 net.cpp:406] group2_block7_conv0_scale <- group2_block7_conv0_conv_top
I0314 23:38:34.819232 33055 net.cpp:367] group2_block7_conv0_scale -> group2_block7_conv0_conv_top (in-place)
I0314 23:38:34.819296 33055 layer_factory.hpp:77] Creating layer group2_block7_conv0_scale
I0314 23:38:34.819456 33055 net.cpp:122] Setting up group2_block7_conv0_scale
I0314 23:38:34.819466 33055 net.cpp:129] Top shape: 32 64 8 8 (131072)
I0314 23:38:34.819481 33055 net.cpp:137] Memory required for data: 323355008
I0314 23:38:34.819499 33055 layer_factory.hpp:77] Creating layer group2_block7_conv0_relu
I0314 23:38:34.819514 33055 net.cpp:84] Creating Layer group2_block7_conv0_relu
I0314 23:38:34.819525 33055 net.cpp:406] group2_block7_conv0_relu <- group2_block7_conv0_conv_top
I0314 23:38:34.819538 33055 net.cpp:367] group2_block7_conv0_relu -> group2_block7_conv0_conv_top (in-place)
I0314 23:38:34.820061 33055 net.cpp:122] Setting up group2_block7_conv0_relu
I0314 23:38:34.820072 33055 net.cpp:129] Top shape: 32 64 8 8 (131072)
I0314 23:38:34.820087 33055 net.cpp:137] Memory required for data: 323879296
I0314 23:38:34.820098 33055 layer_factory.hpp:77] Creating layer group2_block7_conv1
I0314 23:38:34.820123 33055 net.cpp:84] Creating Layer group2_block7_conv1
I0314 23:38:34.820135 33055 net.cpp:406] group2_block7_conv1 <- group2_block7_conv0_conv_top
I0314 23:38:34.820152 33055 net.cpp:380] group2_block7_conv1 -> group2_block7_conv1_conv_top
I0314 23:38:34.823223 33055 net.cpp:122] Setting up group2_block7_conv1
I0314 23:38:34.823237 33055 net.cpp:129] Top shape: 32 64 8 8 (131072)
I0314 23:38:34.823253 33055 net.cpp:137] Memory required for data: 324403584
I0314 23:38:34.823271 33055 layer_factory.hpp:77] Creating layer group2_block7_conv1_bn
I0314 23:38:34.823288 33055 net.cpp:84] Creating Layer group2_block7_conv1_bn
I0314 23:38:34.823299 33055 net.cpp:406] group2_block7_conv1_bn <- group2_block7_conv1_conv_top
I0314 23:38:34.823314 33055 net.cpp:367] group2_block7_conv1_bn -> group2_block7_conv1_conv_top (in-place)
I0314 23:38:34.823593 33055 net.cpp:122] Setting up group2_block7_conv1_bn
I0314 23:38:34.823603 33055 net.cpp:129] Top shape: 32 64 8 8 (131072)
I0314 23:38:34.823618 33055 net.cpp:137] Memory required for data: 324927872
I0314 23:38:34.823640 33055 layer_factory.hpp:77] Creating layer group2_block7_conv1_scale
I0314 23:38:34.823657 33055 net.cpp:84] Creating Layer group2_block7_conv1_scale
I0314 23:38:34.823668 33055 net.cpp:406] group2_block7_conv1_scale <- group2_block7_conv1_conv_top
I0314 23:38:34.823683 33055 net.cpp:367] group2_block7_conv1_scale -> group2_block7_conv1_conv_top (in-place)
I0314 23:38:34.823746 33055 layer_factory.hpp:77] Creating layer group2_block7_conv1_scale
I0314 23:38:34.823909 33055 net.cpp:122] Setting up group2_block7_conv1_scale
I0314 23:38:34.823920 33055 net.cpp:129] Top shape: 32 64 8 8 (131072)
I0314 23:38:34.823935 33055 net.cpp:137] Memory required for data: 325452160
I0314 23:38:34.823953 33055 layer_factory.hpp:77] Creating layer group2_block7_sum_eltwise
I0314 23:38:34.823967 33055 net.cpp:84] Creating Layer group2_block7_sum_eltwise
I0314 23:38:34.823979 33055 net.cpp:406] group2_block7_sum_eltwise <- group2_block7_conv1_conv_top
I0314 23:38:34.823992 33055 net.cpp:406] group2_block7_sum_eltwise <- group2_block6_sum_eltwise_top_group2_block6_sum_eltwise_0_split_1
I0314 23:38:34.824013 33055 net.cpp:380] group2_block7_sum_eltwise -> group2_block7_sum_eltwise_top
I0314 23:38:34.824059 33055 net.cpp:122] Setting up group2_block7_sum_eltwise
I0314 23:38:34.824069 33055 net.cpp:129] Top shape: 32 64 8 8 (131072)
I0314 23:38:34.824084 33055 net.cpp:137] Memory required for data: 325976448
I0314 23:38:34.824093 33055 layer_factory.hpp:77] Creating layer post_pool
I0314 23:38:34.824110 33055 net.cpp:84] Creating Layer post_pool
I0314 23:38:34.824120 33055 net.cpp:406] post_pool <- group2_block7_sum_eltwise_top
I0314 23:38:34.824136 33055 net.cpp:380] post_pool -> post_pool
I0314 23:38:34.824683 33055 net.cpp:122] Setting up post_pool
I0314 23:38:34.824694 33055 net.cpp:129] Top shape: 32 64 1 1 (2048)
I0314 23:38:34.824709 33055 net.cpp:137] Memory required for data: 325984640
I0314 23:38:34.824720 33055 layer_factory.hpp:77] Creating layer post_FC
I0314 23:38:34.824736 33055 net.cpp:84] Creating Layer post_FC
I0314 23:38:34.824748 33055 net.cpp:406] post_FC <- post_pool
I0314 23:38:34.824764 33055 net.cpp:380] post_FC -> post_FC_top
I0314 23:38:34.824942 33055 net.cpp:122] Setting up post_FC
I0314 23:38:34.824952 33055 net.cpp:129] Top shape: 32 10 (320)
I0314 23:38:34.824967 33055 net.cpp:137] Memory required for data: 325985920
I0314 23:38:34.824985 33055 layer_factory.hpp:77] Creating layer post_FC_top_post_FC_0_split
I0314 23:38:34.824998 33055 net.cpp:84] Creating Layer post_FC_top_post_FC_0_split
I0314 23:38:34.825011 33055 net.cpp:406] post_FC_top_post_FC_0_split <- post_FC_top
I0314 23:38:34.825024 33055 net.cpp:380] post_FC_top_post_FC_0_split -> post_FC_top_post_FC_0_split_0
I0314 23:38:34.825042 33055 net.cpp:380] post_FC_top_post_FC_0_split -> post_FC_top_post_FC_0_split_1
I0314 23:38:34.825105 33055 net.cpp:122] Setting up post_FC_top_post_FC_0_split
I0314 23:38:34.825115 33055 net.cpp:129] Top shape: 32 10 (320)
I0314 23:38:34.825129 33055 net.cpp:129] Top shape: 32 10 (320)
I0314 23:38:34.825143 33055 net.cpp:137] Memory required for data: 325988480
I0314 23:38:34.825155 33055 layer_factory.hpp:77] Creating layer loss
I0314 23:38:34.825167 33055 net.cpp:84] Creating Layer loss
I0314 23:38:34.825178 33055 net.cpp:406] loss <- post_FC_top_post_FC_0_split_0
I0314 23:38:34.825191 33055 net.cpp:406] loss <- label_dataLayer_1_split_0
I0314 23:38:34.825206 33055 net.cpp:380] loss -> loss
I0314 23:38:34.825225 33055 layer_factory.hpp:77] Creating layer loss
I0314 23:38:34.825871 33055 net.cpp:122] Setting up loss
I0314 23:38:34.825882 33055 net.cpp:129] Top shape: (1)
I0314 23:38:34.825897 33055 net.cpp:132]     with loss weight 1
I0314 23:38:34.825918 33055 net.cpp:137] Memory required for data: 325988484
I0314 23:38:34.825928 33055 layer_factory.hpp:77] Creating layer softmax
I0314 23:38:34.825942 33055 net.cpp:84] Creating Layer softmax
I0314 23:38:34.825953 33055 net.cpp:406] softmax <- post_FC_top_post_FC_0_split_1
I0314 23:38:34.825968 33055 net.cpp:380] softmax -> softmax
I0314 23:38:34.827018 33055 net.cpp:122] Setting up softmax
I0314 23:38:34.827030 33055 net.cpp:129] Top shape: 32 10 (320)
I0314 23:38:34.827045 33055 net.cpp:137] Memory required for data: 325989764
I0314 23:38:34.827056 33055 layer_factory.hpp:77] Creating layer accuracy
I0314 23:38:34.827071 33055 net.cpp:84] Creating Layer accuracy
I0314 23:38:34.827082 33055 net.cpp:406] accuracy <- softmax
I0314 23:38:34.827095 33055 net.cpp:406] accuracy <- label_dataLayer_1_split_1
I0314 23:38:34.827111 33055 net.cpp:380] accuracy -> accuracy
…
