…
I0315 06:32:26.182562 53024 net.cpp:294] The NetState phase (0) differed from the phase (1) specified by a rule in layer dataLayer
I0315 06:32:26.182724 53024 net.cpp:51] Initializing net from parameters: 
name: "widenet32 with k=4-cifar10"
state {
  phase: TRAIN
  level: 0
  stage: ""
}
layer {
  name: "dataLayer"
  type: "Data"
  top: "data"
  top: "label"
  include {
    phase: TRAIN
  }
  transform_param {
    mirror: true
    crop_size: 32
    mean_file: "examples/cifar10/mean.binaryproto"
  }
  data_param {
    source: "examples/cifar10/cifar10_train_lmdb"
    batch_size: 128
    backend: LMDB
  }
  image_data_param {
    shuffle: true
  }
}
layer {
  name: "first_conv"
  type: "Convolution"
  bottom: "data"
  top: "first_conv"
  param {
    lr_mult: 1
    decay_mult: 1
  }
  convolution_param {
    num_output: 16
    pad: 1
    kernel_size: 3
    stride: 1
    weight_filler {
      type: "xavier"
    }
  }
}
layer {
  name: "first_conv_bn"
  type: "BatchNorm"
  bottom: "first_conv"
  top: "first_conv"
  param {
    lr_mult: 0
    decay_mult: 0
  }
  param {
    lr_mult: 0
    decay_mult: 0
  }
  param {
    lr_mult: 0
    decay_mult: 0
  }
  batch_norm_param {
    moving_average_fraction: 0.9
  }
}
layer {
  name: "first_conv_scale"
  type: "Scale"
  bottom: "first_conv"
  top: "first_conv"
  scale_param {
    bias_term: true
  }
}
layer {
  name: "first_conv_relu"
  type: "ReLU"
  bottom: "first_conv"
  top: "first_conv"
}
layer {
  name: "group0_block0_conv0"
  type: "Convolution"
  bottom: "first_conv"
  top: "group0_block0_conv0"
  param {
    lr_mult: 1
    decay_mult: 1
  }
  convolution_param {
    num_output: 16
    pad: 1
    kernel_size: 3
    stride: 1
    weight_filler {
      type: "xavier"
    }
  }
}
layer {
  name: "group0_block0_conv0_bn"
  type: "BatchNorm"
  bottom: "group0_block0_conv0"
  top: "group0_block0_conv0"
  param {
    lr_mult: 0
    decay_mult: 0
  }
  param {
    lr_mult: 0
    decay_mult: 0
  }
  param {
    lr_mult: 0
    decay_mult: 0
  }
  batch_norm_param {
    moving_average_fraction: 0.9
  }
}
layer {
  name: "group0_block0_conv0_scale"
  type: "Scale"
  bottom: "group0_block0_conv0"
  top: "group0_block0_conv0"
  scale_param {
    bias_term: true
  }
}
layer {
  name: "group0_block0_conv0_relu"
  type: "ReLU"
  bottom: "group0_block0_conv0"
  top: "group0_block0_conv0"
}
layer {
  name: "group0_block0_conv1"
  type: "Convolution"
  bottom: "group0_block0_conv0"
  top: "group0_block0_conv1"
  param {
    lr_mult: 1
    decay_mult: 1
  }
  convolution_param {
    num_output: 16
    pad: 1
    kernel_size: 3
    stride: 1
    weight_filler {
      type: "xavier"
    }
  }
}
layer {
  name: "group0_block0_conv1_bn"
  type: "BatchNorm"
  bottom: "group0_block0_conv1"
  top: "group0_block0_conv1"
  param {
    lr_mult: 0
    decay_mult: 0
  }
  param {
    lr_mult: 0
    decay_mult: 0
  }
  param {
    lr_mult: 0
    decay_mult: 0
  }
  batch_norm_param {
    moving_average_fraction: 0.9
  }
}
layer {
  name: "group0_block0_conv1_scale"
  type: "Scale"
  bottom: "group0_block0_conv1"
  top: "group0_block0_conv1"
  scale_param {
    bias_term: true
  }
}
layer {
  name: "group0_block0_sum"
  type: "Eltwise"
  bottom: "group0_block0_conv1"
  bottom: "first_conv"
  top: "group0_block0_sum"
  eltwise_param {
    operation: SUM
  }
}
layer {
  name: "group0_block1_conv0"
  type: "Convolution"
  bottom: "group0_block0_sum"
  top: "group0_block1_conv0"
  param {
    lr_mult: 1
    decay_mult: 1
  }
  convolution_param {
    num_output: 16
    pad: 1
    kernel_size: 3
    stride: 1
    weight_filler {
      type: "xavier"
    }
  }
}
layer {
  name: "group0_block1_conv0_bn"
  type: "BatchNorm"
  bottom: "group0_block1_conv0"
  top: "group0_block1_conv0"
  param {
    lr_mult: 0
    decay_mult: 0
  }
  param {
    lr_mult: 0
    decay_mult: 0
  }
  param {
    lr_mult: 0
    decay_mult: 0
  }
  batch_norm_param {
    moving_average_fraction: 0.9
  }
}
layer {
  name: "group0_block1_conv0_scale"
  type: "Scale"
  bottom: "group0_block1_conv0"
  top: "group0_block1_conv0"
  scale_param {
    bias_term: true
  }
}
layer {
  name: "group0_block1_conv0_relu"
  type: "ReLU"
  bottom: "group0_block1_conv0"
  top: "group0_block1_conv0"
}
layer {
  name: "group0_block1_conv1"
  type: "Convolution"
  bottom: "group0_block1_conv0"
  top: "group0_block1_conv1"
  param {
    lr_mult: 1
    decay_mult: 1
  }
  convolution_param {
    num_output: 16
    pad: 1
    kernel_size: 3
    stride: 1
    weight_filler {
      type: "xavier"
    }
  }
}
layer {
  name: "group0_block1_conv1_bn"
  type: "BatchNorm"
  bottom: "group0_block1_conv1"
  top: "group0_block1_conv1"
  param {
    lr_mult: 0
    decay_mult: 0
  }
  param {
    lr_mult: 0
    decay_mult: 0
  }
  param {
    lr_mult: 0
    decay_mult: 0
  }
  batch_norm_param {
    moving_average_fraction: 0.9
  }
}
layer {
  name: "group0_block1_conv1_scale"
  type: "Scale"
  bottom: "group0_block1_conv1"
  top: "group0_block1_conv1"
  scale_param {
    bias_term: true
  }
}
layer {
  name: "group0_block1_sum"
  type: "Eltwise"
  bottom: "group0_block1_conv1"
  bottom: "group0_block0_sum"
  top: "group0_block1_sum"
  eltwise_param {
    operation: SUM
  }
}
layer {
  name: "group0_block2_conv0"
  type: "Convolution"
  bottom: "group0_block1_sum"
  top: "group0_block2_conv0"
  param {
    lr_mult: 1
    decay_mult: 1
  }
  convolution_param {
    num_output: 16
    pad: 1
    kernel_size: 3
    stride: 1
    weight_filler {
      type: "xavier"
    }
  }
}
layer {
  name: "group0_block2_conv0_bn"
  type: "BatchNorm"
  bottom: "group0_block2_conv0"
  top: "group0_block2_conv0"
  param {
    lr_mult: 0
    decay_mult: 0
  }
  param {
    lr_mult: 0
    decay_mult: 0
  }
  param {
    lr_mult: 0
    decay_mult: 0
  }
  batch_norm_param {
    moving_average_fraction: 0.9
  }
}
layer {
  name: "group0_block2_conv0_scale"
  type: "Scale"
  bottom: "group0_block2_conv0"
  top: "group0_block2_conv0"
  scale_param {
    bias_term: true
  }
}
layer {
  name: "group0_block2_conv0_relu"
  type: "ReLU"
  bottom: "group0_block2_conv0"
  top: "group0_block2_conv0"
}
layer {
  name: "group0_block2_conv1"
  type: "Convolution"
  bottom: "group0_block2_conv0"
  top: "group0_block2_conv1"
  param {
    lr_mult: 1
    decay_mult: 1
  }
  convolution_param {
    num_output: 16
    pad: 1
    kernel_size: 3
    stride: 1
    weight_filler {
      type: "xavier"
    }
  }
}
layer {
  name: "group0_block2_conv1_bn"
  type: "BatchNorm"
  bottom: "group0_block2_conv1"
  top: "group0_block2_conv1"
  param {
    lr_mult: 0
    decay_mult: 0
  }
  param {
    lr_mult: 0
    decay_mult: 0
  }
  param {
    lr_mult: 0
    decay_mult: 0
  }
  batch_norm_param {
    moving_average_fraction: 0.9
  }
}
layer {
  name: "group0_block2_conv1_scale"
  type: "Scale"
  bottom: "group0_block2_conv1"
  top: "group0_block2_conv1"
  scale_param {
    bias_term: true
  }
}
layer {
  name: "group0_block2_sum"
  type: "Eltwise"
  bottom: "group0_block2_conv1"
  bottom: "group0_block1_sum"
  top: "group0_block2_sum"
  eltwise_param {
    operation: SUM
  }
}
layer {
  name: "group0_block3_conv0"
  type: "Convolution"
  bottom: "group0_block2_sum"
  top: "group0_block3_conv0"
  param {
    lr_mult: 1
    decay_mult: 1
  }
  convolution_param {
    num_output: 16
    pad: 1
    kernel_size: 3
    stride: 1
    weight_filler {
      type: "xavier"
    }
  }
}
layer {
  name: "group0_block3_conv0_bn"
  type: "BatchNorm"
  bottom: "group0_block3_conv0"
  top: "group0_block3_conv0"
  param {
    lr_mult: 0
    decay_mult: 0
  }
  param {
    lr_mult: 0
    decay_mult: 0
  }
  param {
    lr_mult: 0
    decay_mult: 0
  }
  batch_norm_param {
    moving_average_fraction: 0.9
  }
}
layer {
  name: "group0_block3_conv0_scale"
  type: "Scale"
  bottom: "group0_block3_conv0"
  top: "group0_block3_conv0"
  scale_param {
    bias_term: true
  }
}
layer {
  name: "group0_block3_conv0_relu"
  type: "ReLU"
  bottom: "group0_block3_conv0"
  top: "group0_block3_conv0"
}
layer {
  name: "group0_block3_conv1"
  type: "Convolution"
  bottom: "group0_block3_conv0"
  top: "group0_block3_conv1"
  param {
    lr_mult: 1
    decay_mult: 1
  }
  convolution_param {
    num_output: 16
    pad: 1
    kernel_size: 3
    stride: 1
    weight_filler {
      type: "xavier"
    }
  }
}
layer {
  name: "group0_block3_conv1_bn"
  type: "BatchNorm"
  bottom: "group0_block3_conv1"
  top: "group0_block3_conv1"
  param {
    lr_mult: 0
    decay_mult: 0
  }
  param {
    lr_mult: 0
    decay_mult: 0
  }
  param {
    lr_mult: 0
    decay_mult: 0
  }
  batch_norm_param {
    moving_average_fraction: 0.9
  }
}
layer {
  name: "group0_block3_conv1_scale"
  type: "Scale"
  bottom: "group0_block3_conv1"
  top: "group0_block3_conv1"
  scale_param {
    bias_term: true
  }
}
layer {
  name: "group0_block3_sum"
  type: "Eltwise"
  bottom: "group0_block3_conv1"
  bottom: "group0_block2_sum"
  top: "group0_block3_sum"
  eltwise_param {
    operation: SUM
  }
}
layer {
  name: "group0_block8_conv0"
  type: "Convolution"
  bottom: "group0_block3_sum"
  top: "group0_block8_conv0"
  param {
    lr_mult: 1
    decay_mult: 1
  }
  convolution_param {
    num_output: 16
    pad: 1
    kernel_size: 3
    stride: 1
    weight_filler {
      type: "xavier"
    }
  }
}
layer {
  name: "group0_block8_conv0_bn"
  type: "BatchNorm"
  bottom: "group0_block8_conv0"
  top: "group0_block8_conv0"
  param {
    lr_mult: 0
    decay_mult: 0
  }
  param {
    lr_mult: 0
    decay_mult: 0
  }
  param {
    lr_mult: 0
    decay_mult: 0
  }
  batch_norm_param {
    moving_average_fraction: 0.9
  }
}
layer {
  name: "group0_block8_conv0_scale"
  type: "Scale"
  bottom: "group0_block8_conv0"
  top: "group0_block8_conv0"
  scale_param {
    bias_term: true
  }
}
layer {
  name: "group0_block8_conv0_relu"
  type: "ReLU"
  bottom: "group0_block8_conv0"
  top: "group0_block8_conv0"
}
layer {
  name: "group0_block8_conv1"
  type: "Convolution"
  bottom: "group0_block8_conv0"
  top: "group0_block8_conv1"
  param {
    lr_mult: 1
    decay_mult: 1
  }
  convolution_param {
    num_output: 16
    pad: 1
    kernel_size: 3
    stride: 1
    weight_filler {
      type: "xavier"
    }
  }
}
layer {
  name: "group0_block8_conv1_bn"
  type: "BatchNorm"
  bottom: "group0_block8_conv1"
  top: "group0_block8_conv1"
  param {
    lr_mult: 0
    decay_mult: 0
  }
  param {
    lr_mult: 0
    decay_mult: 0
  }
  param {
    lr_mult: 0
    decay_mult: 0
  }
  batch_norm_param {
    moving_average_fraction: 0.9
  }
}
layer {
  name: "group0_block8_conv1_scale"
  type: "Scale"
  bottom: "group0_block8_conv1"
  top: "group0_block8_conv1"
  scale_param {
    bias_term: true
  }
}
layer {
  name: "group0_block8_sum"
  type: "Eltwise"
  bottom: "group0_block8_conv1"
  bottom: "group0_block3_sum"
  top: "group0_block8_sum"
  eltwise_param {
    operation: SUM
  }
}
layer {
  name: "group1_block0_conv0"
  type: "Convolution"
  bottom: "group0_block8_sum"
  top: "group1_block0_conv0"
  param {
    lr_mult: 1
    decay_mult: 1
  }
  convolution_param {
    num_output: 64
    pad: 1
    kernel_size: 3
    stride: 2
    weight_filler {
      type: "xavier"
    }
  }
}
layer {
  name: "group1_block0_conv0_bn"
  type: "BatchNorm"
  bottom: "group1_block0_conv0"
  top: "group1_block0_conv0"
  param {
    lr_mult: 0
    decay_mult: 0
  }
  param {
    lr_mult: 0
    decay_mult: 0
  }
  param {
    lr_mult: 0
    decay_mult: 0
  }
  batch_norm_param {
    moving_average_fraction: 0.9
  }
}
layer {
  name: "group1_block0_conv0_scale"
  type: "Scale"
  bottom: "group1_block0_conv0"
  top: "group1_block0_conv0"
  scale_param {
    bias_term: true
  }
}
layer {
  name: "group1_block0_conv0_relu"
  type: "ReLU"
  bottom: "group1_block0_conv0"
  top: "group1_block0_conv0"
}
layer {
  name: "group1_block0_conv1"
  type: "Convolution"
  bottom: "group1_block0_conv0"
  top: "group1_block0_conv1"
  param {
    lr_mult: 1
    decay_mult: 1
  }
  convolution_param {
    num_output: 64
    pad: 1
    kernel_size: 3
    stride: 1
    weight_filler {
      type: "xavier"
    }
  }
}
layer {
  name: "group1_block0_conv1_bn"
  type: "BatchNorm"
  bottom: "group1_block0_conv1"
  top: "group1_block0_conv1"
  param {
    lr_mult: 0
    decay_mult: 0
  }
  param {
    lr_mult: 0
    decay_mult: 0
  }
  param {
    lr_mult: 0
    decay_mult: 0
  }
  batch_norm_param {
    moving_average_fraction: 0.9
  }
}
layer {
  name: "group1_block0_conv1_scale"
  type: "Scale"
  bottom: "group1_block0_conv1"
  top: "group1_block0_conv1"
  scale_param {
    bias_term: true
  }
}
layer {
  name: "group1_block0_proj"
  type: "Convolution"
  bottom: "group0_block8_sum"
  top: "group1_block0_proj"
  param {
    lr_mult: 1
    decay_mult: 1
  }
  convolution_param {
    num_output: 64
    pad: 0
    kernel_size: 2
    stride: 2
    weight_filler {
      type: "xavier"
    }
  }
}
layer {
  name: "group1_block0_proj_bn"
  type: "BatchNorm"
  bottom: "group1_block0_proj"
  top: "group1_block0_proj"
  param {
    lr_mult: 0
    decay_mult: 0
  }
  param {
    lr_mult: 0
    decay_mult: 0
  }
  param {
    lr_mult: 0
    decay_mult: 0
  }
  batch_norm_param {
    moving_average_fraction: 0.9
  }
}
layer {
  name: "group1_block0_proj_scale"
  type: "Scale"
  bottom: "group1_block0_proj"
  top: "group1_block0_proj"
  scale_param {
    bias_term: true
  }
}
layer {
  name: "group1_block0_sum"
  type: "Eltwise"
  bottom: "group1_block0_proj"
  bottom: "group1_block0_conv1"
  top: "group1_block0_sum"
  eltwise_param {
    operation: SUM
  }
}
layer {
  name: "group1_block1_conv0"
  type: "Convolution"
  bottom: "group1_block0_sum"
  top: "group1_block1_conv0"
  param {
    lr_mult: 1
    decay_mult: 1
  }
  convolution_param {
    num_output: 64
    pad: 1
    kernel_size: 3
    stride: 1
    weight_filler {
      type: "xavier"
    }
  }
}
layer {
  name: "group1_block1_conv0_bn"
  type: "BatchNorm"
  bottom: "group1_block1_conv0"
  top: "group1_block1_conv0"
  param {
    lr_mult: 0
    decay_mult: 0
  }
  param {
    lr_mult: 0
    decay_mult: 0
  }
  param {
    lr_mult: 0
    decay_mult: 0
  }
  batch_norm_param {
    moving_average_fraction: 0.9
  }
}
layer {
  name: "group1_block1_conv0_scale"
  type: "Scale"
  bottom: "group1_block1_conv0"
  top: "group1_block1_conv0"
  scale_param {
    bias_term: true
  }
}
layer {
  name: "group1_block1_conv0_relu"
  type: "ReLU"
  bottom: "group1_block1_conv0"
  top: "group1_block1_conv0"
}
layer {
  name: "group1_block1_conv1"
  type: "Convolution"
  bottom: "group1_block1_conv0"
  top: "group1_block1_conv1"
  param {
    lr_mult: 1
    decay_mult: 1
  }
  convolution_param {
    num_output: 64
    pad: 1
    kernel_size: 3
    stride: 1
    weight_filler {
      type: "xavier"
    }
  }
}
layer {
  name: "group1_block1_conv1_bn"
  type: "BatchNorm"
  bottom: "group1_block1_conv1"
  top: "group1_block1_conv1"
  param {
    lr_mult: 0
    decay_mult: 0
  }
  param {
    lr_mult: 0
    decay_mult: 0
  }
  param {
    lr_mult: 0
    decay_mult: 0
  }
  batch_norm_param {
    moving_average_fraction: 0.9
  }
}
layer {
  name: "group1_block1_conv1_scale"
  type: "Scale"
  bottom: "group1_block1_conv1"
  top: "group1_block1_conv1"
  scale_param {
    bias_term: true
  }
}
layer {
  name: "group1_block1_sum"
  type: "Eltwise"
  bottom: "group1_block1_conv1"
  bottom: "group1_block0_sum"
  top: "group1_block1_sum"
  eltwise_param {
    operation: SUM
  }
}
layer {
  name: "group1_block2_conv0"
  type: "Convolution"
  bottom: "group1_block1_sum"
  top: "group1_block2_conv0"
  param {
    lr_mult: 1
    decay_mult: 1
  }
  convolution_param {
    num_output: 64
    pad: 1
    kernel_size: 3
    stride: 1
    weight_filler {
      type: "xavier"
    }
  }
}
layer {
  name: "group1_block2_conv0_bn"
  type: "BatchNorm"
  bottom: "group1_block2_conv0"
  top: "group1_block2_conv0"
  param {
    lr_mult: 0
    decay_mult: 0
  }
  param {
    lr_mult: 0
    decay_mult: 0
  }
  param {
    lr_mult: 0
    decay_mult: 0
  }
  batch_norm_param {
    moving_average_fraction: 0.9
  }
}
layer {
  name: "group1_block2_conv0_scale"
  type: "Scale"
  bottom: "group1_block2_conv0"
  top: "group1_block2_conv0"
  scale_param {
    bias_term: true
  }
}
layer {
  name: "group1_block2_conv0_relu"
  type: "ReLU"
  bottom: "group1_block2_conv0"
  top: "group1_block2_conv0"
}
layer {
  name: "group1_block2_conv1"
  type: "Convolution"
  bottom: "group1_block2_conv0"
  top: "group1_block2_conv1"
  param {
    lr_mult: 1
    decay_mult: 1
  }
  convolution_param {
    num_output: 64
    pad: 1
    kernel_size: 3
    stride: 1
    weight_filler {
      type: "xavier"
    }
  }
}
layer {
  name: "group1_block2_conv1_bn"
  type: "BatchNorm"
  bottom: "group1_block2_conv1"
  top: "group1_block2_conv1"
  param {
    lr_mult: 0
    decay_mult: 0
  }
  param {
    lr_mult: 0
    decay_mult: 0
  }
  param {
    lr_mult: 0
    decay_mult: 0
  }
  batch_norm_param {
    moving_average_fraction: 0.9
  }
}
layer {
  name: "group1_block2_conv1_scale"
  type: "Scale"
  bottom: "group1_block2_conv1"
  top: "group1_block2_conv1"
  scale_param {
    bias_term: true
  }
}
layer {
  name: "group1_block2_sum"
  type: "Eltwise"
  bottom: "group1_block2_conv1"
  bottom: "group1_block1_sum"
  top: "group1_block2_sum"
  eltwise_param {
    operation: SUM
  }
}
layer {
  name: "group1_block3_conv0"
  type: "Convolution"
  bottom: "group1_block2_sum"
  top: "group1_block3_conv0"
  param {
    lr_mult: 1
    decay_mult: 1
  }
  convolution_param {
    num_output: 64
    pad: 1
    kernel_size: 3
    stride: 1
    weight_filler {
      type: "xavier"
    }
  }
}
layer {
  name: "group1_block3_conv0_bn"
  type: "BatchNorm"
  bottom: "group1_block3_conv0"
  top: "group1_block3_conv0"
  param {
    lr_mult: 0
    decay_mult: 0
  }
  param {
    lr_mult: 0
    decay_mult: 0
  }
  param {
    lr_mult: 0
    decay_mult: 0
  }
  batch_norm_param {
    moving_average_fraction: 0.9
  }
}
layer {
  name: "group1_block3_conv0_scale"
  type: "Scale"
  bottom: "group1_block3_conv0"
  top: "group1_block3_conv0"
  scale_param {
    bias_term: true
  }
}
layer {
  name: "group1_block3_conv0_relu"
  type: "ReLU"
  bottom: "group1_block3_conv0"
  top: "group1_block3_conv0"
}
layer {
  name: "group1_block3_conv1"
  type: "Convolution"
  bottom: "group1_block3_conv0"
  top: "group1_block3_conv1"
  param {
    lr_mult: 1
    decay_mult: 1
  }
  convolution_param {
    num_output: 64
    pad: 1
    kernel_size: 3
    stride: 1
    weight_filler {
      type: "xavier"
    }
  }
}
layer {
  name: "group1_block3_conv1_bn"
  type: "BatchNorm"
  bottom: "group1_block3_conv1"
  top: "group1_block3_conv1"
  param {
    lr_mult: 0
    decay_mult: 0
  }
  param {
    lr_mult: 0
    decay_mult: 0
  }
  param {
    lr_mult: 0
    decay_mult: 0
  }
  batch_norm_param {
    moving_average_fraction: 0.9
  }
}
layer {
  name: "group1_block3_conv1_scale"
  type: "Scale"
  bottom: "group1_block3_conv1"
  top: "group1_block3_conv1"
  scale_param {
    bias_term: true
  }
}
layer {
  name: "group1_block3_sum"
  type: "Eltwise"
  bottom: "group1_block3_conv1"
  bottom: "group1_block2_sum"
  top: "group1_block3_sum"
  eltwise_param {
    operation: SUM
  }
}
layer {
  name: "group1_block8_conv0"
  type: "Convolution"
  bottom: "group1_block3_sum"
  top: "group1_block8_conv0"
  param {
    lr_mult: 1
    decay_mult: 1
  }
  convolution_param {
    num_output: 64
    pad: 1
    kernel_size: 3
    stride: 1
    weight_filler {
      type: "xavier"
    }
  }
}
layer {
  name: "group1_block8_conv0_bn"
  type: "BatchNorm"
  bottom: "group1_block8_conv0"
  top: "group1_block8_conv0"
  param {
    lr_mult: 0
    decay_mult: 0
  }
  param {
    lr_mult: 0
    decay_mult: 0
  }
  param {
    lr_mult: 0
    decay_mult: 0
  }
  batch_norm_param {
    moving_average_fraction: 0.9
  }
}
layer {
  name: "group1_block8_conv0_scale"
  type: "Scale"
  bottom: "group1_block8_conv0"
  top: "group1_block8_conv0"
  scale_param {
    bias_term: true
  }
}
layer {
  name: "group1_block8_conv0_relu"
  type: "ReLU"
  bottom: "group1_block8_conv0"
  top: "group1_block8_conv0"
}
layer {
  name: "group1_block8_conv1"
  type: "Convolution"
  bottom: "group1_block8_conv0"
  top: "group1_block8_conv1"
  param {
    lr_mult: 1
    decay_mult: 1
  }
  convolution_param {
    num_output: 64
    pad: 1
    kernel_size: 3
    stride: 1
    weight_filler {
      type: "xavier"
    }
  }
}
layer {
  name: "group1_block8_conv1_bn"
  type: "BatchNorm"
  bottom: "group1_block8_conv1"
  top: "group1_block8_conv1"
  param {
    lr_mult: 0
    decay_mult: 0
  }
  param {
    lr_mult: 0
    decay_mult: 0
  }
  param {
    lr_mult: 0
    decay_mult: 0
  }
  batch_norm_param {
    moving_average_fraction: 0.9
  }
}
layer {
  name: "group1_block8_conv1_scale"
  type: "Scale"
  bottom: "group1_block8_conv1"
  top: "group1_block8_conv1"
  scale_param {
    bias_term: true
  }
}
layer {
  name: "group1_block8_sum"
  type: "Eltwise"
  bottom: "group1_block8_conv1"
  bottom: "group1_block3_sum"
  top: "group1_block8_sum"
  eltwise_param {
    operation: SUM
  }
}
layer {
  name: "group2_block0_conv0"
  type: "Convolution"
  bottom: "group1_block8_sum"
  top: "group2_block0_conv0"
  param {
    lr_mult: 1
    decay_mult: 1
  }
  convolution_param {
    num_output: 256
    pad: 1
    kernel_size: 3
    stride: 2
    weight_filler {
      type: "xavier"
    }
  }
}
layer {
  name: "group2_block0_conv0_bn"
  type: "BatchNorm"
  bottom: "group2_block0_conv0"
  top: "group2_block0_conv0"
  param {
    lr_mult: 0
    decay_mult: 0
  }
  param {
    lr_mult: 0
    decay_mult: 0
  }
  param {
    lr_mult: 0
    decay_mult: 0
  }
  batch_norm_param {
    moving_average_fraction: 0.9
  }
}
layer {
  name: "group2_block0_conv0_scale"
  type: "Scale"
  bottom: "group2_block0_conv0"
  top: "group2_block0_conv0"
  scale_param {
    bias_term: true
  }
}
layer {
  name: "group2_block0_conv0_relu"
  type: "ReLU"
  bottom: "group2_block0_conv0"
  top: "group2_block0_conv0"
}
layer {
  name: "group2_block0_conv1"
  type: "Convolution"
  bottom: "group2_block0_conv0"
  top: "group2_block0_conv1"
  param {
    lr_mult: 1
    decay_mult: 1
  }
  convolution_param {
    num_output: 256
    pad: 1
    kernel_size: 3
    stride: 1
    weight_filler {
      type: "xavier"
    }
  }
}
layer {
  name: "group2_block0_conv1_bn"
  type: "BatchNorm"
  bottom: "group2_block0_conv1"
  top: "group2_block0_conv1"
  param {
    lr_mult: 0
    decay_mult: 0
  }
  param {
    lr_mult: 0
    decay_mult: 0
  }
  param {
    lr_mult: 0
    decay_mult: 0
  }
  batch_norm_param {
    moving_average_fraction: 0.9
  }
}
layer {
  name: "group2_block0_conv1_scale"
  type: "Scale"
  bottom: "group2_block0_conv1"
  top: "group2_block0_conv1"
  scale_param {
    bias_term: true
  }
}
layer {
  name: "group2_block0_proj"
  type: "Convolution"
  bottom: "group1_block8_sum"
  top: "group2_block0_proj"
  param {
    lr_mult: 1
    decay_mult: 1
  }
  convolution_param {
    num_output: 256
    pad: 0
    kernel_size: 2
    stride: 2
    weight_filler {
      type: "xavier"
    }
  }
}
layer {
  name: "group2_block0_proj_bn"
  type: "BatchNorm"
  bottom: "group2_block0_proj"
  top: "group2_block0_proj"
  param {
    lr_mult: 0
    decay_mult: 0
  }
  param {
    lr_mult: 0
    decay_mult: 0
  }
  param {
    lr_mult: 0
    decay_mult: 0
  }
  batch_norm_param {
    moving_average_fraction: 0.9
  }
}
layer {
  name: "group2_block0_proj_scale"
  type: "Scale"
  bottom: "group2_block0_proj"
  top: "group2_block0_proj"
  scale_param {
    bias_term: true
  }
}
layer {
  name: "group2_block0_sum"
  type: "Eltwise"
  bottom: "group2_block0_proj"
  bottom: "group2_block0_conv1"
  top: "group2_block0_sum"
  eltwise_param {
    operation: SUM
  }
}
layer {
  name: "group2_block1_conv0"
  type: "Convolution"
  bottom: "group2_block0_sum"
  top: "group2_block1_conv0"
  param {
    lr_mult: 1
    decay_mult: 1
  }
  convolution_param {
    num_output: 256
    pad: 1
    kernel_size: 3
    stride: 1
    weight_filler {
      type: "xavier"
    }
  }
}
layer {
  name: "group2_block1_conv0_bn"
  type: "BatchNorm"
  bottom: "group2_block1_conv0"
  top: "group2_block1_conv0"
  param {
    lr_mult: 0
    decay_mult: 0
  }
  param {
    lr_mult: 0
    decay_mult: 0
  }
  param {
    lr_mult: 0
    decay_mult: 0
  }
  batch_norm_param {
    moving_average_fraction: 0.9
  }
}
layer {
  name: "group2_block1_conv0_scale"
  type: "Scale"
  bottom: "group2_block1_conv0"
  top: "group2_block1_conv0"
  scale_param {
    bias_term: true
  }
}
layer {
  name: "group2_block1_conv0_relu"
  type: "ReLU"
  bottom: "group2_block1_conv0"
  top: "group2_block1_conv0"
}
layer {
  name: "group2_block1_conv1"
  type: "Convolution"
  bottom: "group2_block1_conv0"
  top: "group2_block1_conv1"
  param {
    lr_mult: 1
    decay_mult: 1
  }
  convolution_param {
    num_output: 256
    pad: 1
    kernel_size: 3
    stride: 1
    weight_filler {
      type: "xavier"
    }
  }
}
layer {
  name: "group2_block1_conv1_bn"
  type: "BatchNorm"
  bottom: "group2_block1_conv1"
  top: "group2_block1_conv1"
  param {
    lr_mult: 0
    decay_mult: 0
  }
  param {
    lr_mult: 0
    decay_mult: 0
  }
  param {
    lr_mult: 0
    decay_mult: 0
  }
  batch_norm_param {
    moving_average_fraction: 0.9
  }
}
layer {
  name: "group2_block1_conv1_scale"
  type: "Scale"
  bottom: "group2_block1_conv1"
  top: "group2_block1_conv1"
  scale_param {
    bias_term: true
  }
}
layer {
  name: "group2_block1_sum"
  type: "Eltwise"
  bottom: "group2_block1_conv1"
  bottom: "group2_block0_sum"
  top: "group2_block1_sum"
  eltwise_param {
    operation: SUM
  }
}
layer {
  name: "group2_block2_conv0"
  type: "Convolution"
  bottom: "group2_block1_sum"
  top: "group2_block2_conv0"
  param {
    lr_mult: 1
    decay_mult: 1
  }
  convolution_param {
    num_output: 256
    pad: 1
    kernel_size: 3
    stride: 1
    weight_filler {
      type: "xavier"
    }
  }
}
layer {
  name: "group2_block2_conv0_bn"
  type: "BatchNorm"
  bottom: "group2_block2_conv0"
  top: "group2_block2_conv0"
  param {
    lr_mult: 0
    decay_mult: 0
  }
  param {
    lr_mult: 0
    decay_mult: 0
  }
  param {
    lr_mult: 0
    decay_mult: 0
  }
  batch_norm_param {
    moving_average_fraction: 0.9
  }
}
layer {
  name: "group2_block2_conv0_scale"
  type: "Scale"
  bottom: "group2_block2_conv0"
  top: "group2_block2_conv0"
  scale_param {
    bias_term: true
  }
}
layer {
  name: "group2_block2_conv0_relu"
  type: "ReLU"
  bottom: "group2_block2_conv0"
  top: "group2_block2_conv0"
}
layer {
  name: "group2_block2_conv1"
  type: "Convolution"
  bottom: "group2_block2_conv0"
  top: "group2_block2_conv1"
  param {
    lr_mult: 1
    decay_mult: 1
  }
  convolution_param {
    num_output: 256
    pad: 1
    kernel_size: 3
    stride: 1
    weight_filler {
      type: "xavier"
    }
  }
}
layer {
  name: "group2_block2_conv1_bn"
  type: "BatchNorm"
  bottom: "group2_block2_conv1"
  top: "group2_block2_conv1"
  param {
    lr_mult: 0
    decay_mult: 0
  }
  param {
    lr_mult: 0
    decay_mult: 0
  }
  param {
    lr_mult: 0
    decay_mult: 0
  }
  batch_norm_param {
    moving_average_fraction: 0.9
  }
}
layer {
  name: "group2_block2_conv1_scale"
  type: "Scale"
  bottom: "group2_block2_conv1"
  top: "group2_block2_conv1"
  scale_param {
    bias_term: true
  }
}
layer {
  name: "group2_block2_sum"
  type: "Eltwise"
  bottom: "group2_block2_conv1"
  bottom: "group2_block1_sum"
  top: "group2_block2_sum"
  eltwise_param {
    operation: SUM
  }
}
layer {
  name: "group2_block3_conv0"
  type: "Convolution"
  bottom: "group2_block2_sum"
  top: "group2_block3_conv0"
  param {
    lr_mult: 1
    decay_mult: 1
  }
  convolution_param {
    num_output: 256
    pad: 1
    kernel_size: 3
    stride: 1
    weight_filler {
      type: "xavier"
    }
  }
}
layer {
  name: "group2_block3_conv0_bn"
  type: "BatchNorm"
  bottom: "group2_block3_conv0"
  top: "group2_block3_conv0"
  param {
    lr_mult: 0
    decay_mult: 0
  }
  param {
    lr_mult: 0
    decay_mult: 0
  }
  param {
    lr_mult: 0
    decay_mult: 0
  }
  batch_norm_param {
    moving_average_fraction: 0.9
  }
}
layer {
  name: "group2_block3_conv0_scale"
  type: "Scale"
  bottom: "group2_block3_conv0"
  top: "group2_block3_conv0"
  scale_param {
    bias_term: true
  }
}
layer {
  name: "group2_block3_conv0_relu"
  type: "ReLU"
  bottom: "group2_block3_conv0"
  top: "group2_block3_conv0"
}
layer {
  name: "group2_block3_conv1"
  type: "Convolution"
  bottom: "group2_block3_conv0"
  top: "group2_block3_conv1"
  param {
    lr_mult: 1
    decay_mult: 1
  }
  convolution_param {
    num_output: 256
    pad: 1
    kernel_size: 3
    stride: 1
    weight_filler {
      type: "xavier"
    }
  }
}
layer {
  name: "group2_block3_conv1_bn"
  type: "BatchNorm"
  bottom: "group2_block3_conv1"
  top: "group2_block3_conv1"
  param {
    lr_mult: 0
    decay_mult: 0
  }
  param {
    lr_mult: 0
    decay_mult: 0
  }
  param {
    lr_mult: 0
    decay_mult: 0
  }
  batch_norm_param {
    moving_average_fraction: 0.9
  }
}
layer {
  name: "group2_block3_conv1_scale"
  type: "Scale"
  bottom: "group2_block3_conv1"
  top: "group2_block3_conv1"
  scale_param {
    bias_term: true
  }
}
layer {
  name: "group2_block3_sum"
  type: "Eltwise"
  bottom: "group2_block3_conv1"
  bottom: "group2_block2_sum"
  top: "group2_block3_sum"
  eltwise_param {
    operation: SUM
  }
}
layer {
  name: "group2_block8_conv0"
  type: "Convolution"
  bottom: "group2_block3_sum"
  top: "group2_block8_conv0"
  param {
    lr_mult: 1
    decay_mult: 1
  }
  convolution_param {
    num_output: 256
    pad: 1
    kernel_size: 3
    stride: 1
    weight_filler {
      type: "xavier"
    }
  }
}
layer {
  name: "group2_block8_conv0_bn"
  type: "BatchNorm"
  bottom: "group2_block8_conv0"
  top: "group2_block8_conv0"
  param {
    lr_mult: 0
    decay_mult: 0
  }
  param {
    lr_mult: 0
    decay_mult: 0
  }
  param {
    lr_mult: 0
    decay_mult: 0
  }
  batch_norm_param {
    moving_average_fraction: 0.9
  }
}
layer {
  name: "group2_block8_conv0_sc
I0315 06:32:26.184659 53024 layer_factory.hpp:77] Creating layer dataLayer
I0315 06:32:26.204490 53024 db_lmdb.cpp:35] Opened lmdb examples/cifar10/cifar10_train_lmdb
I0315 06:32:26.204686 53024 net.cpp:84] Creating Layer dataLayer
I0315 06:32:26.204713 53024 net.cpp:380] dataLayer -> data
I0315 06:32:26.204777 53024 net.cpp:380] dataLayer -> label
I0315 06:32:26.204821 53024 data_transformer.cpp:25] Loading mean file from: examples/cifar10/mean.binaryproto
I0315 06:32:26.218266 53024 data_layer.cpp:45] output data size: 128,3,32,32
I0315 06:32:26.223788 53024 net.cpp:122] Setting up dataLayer
I0315 06:32:26.223819 53024 net.cpp:129] Top shape: 128 3 32 32 (393216)
I0315 06:32:26.223845 53024 net.cpp:129] Top shape: 128 (128)
I0315 06:32:26.223858 53024 net.cpp:137] Memory required for data: 1573376
I0315 06:32:26.223884 53024 layer_factory.hpp:77] Creating layer label_dataLayer_1_split
I0315 06:32:26.223912 53024 net.cpp:84] Creating Layer label_dataLayer_1_split
I0315 06:32:26.223928 53024 net.cpp:406] label_dataLayer_1_split <- label
I0315 06:32:26.223974 53024 net.cpp:380] label_dataLayer_1_split -> label_dataLayer_1_split_0
I0315 06:32:26.223999 53024 net.cpp:380] label_dataLayer_1_split -> label_dataLayer_1_split_1
I0315 06:32:26.224062 53024 net.cpp:122] Setting up label_dataLayer_1_split
I0315 06:32:26.224073 53024 net.cpp:129] Top shape: 128 (128)
I0315 06:32:26.224088 53024 net.cpp:129] Top shape: 128 (128)
I0315 06:32:26.224104 53024 net.cpp:137] Memory required for data: 1574400
I0315 06:32:26.224115 53024 layer_factory.hpp:77] Creating layer first_conv
I0315 06:32:26.224151 53024 net.cpp:84] Creating Layer first_conv
I0315 06:32:26.224164 53024 net.cpp:406] first_conv <- data
I0315 06:32:26.224180 53024 net.cpp:380] first_conv -> first_conv
I0315 06:32:26.741510 53024 net.cpp:122] Setting up first_conv
I0315 06:32:26.741541 53024 net.cpp:129] Top shape: 128 16 32 32 (2097152)
I0315 06:32:26.741562 53024 net.cpp:137] Memory required for data: 9963008
I0315 06:32:26.741626 53024 layer_factory.hpp:77] Creating layer first_conv_bn
I0315 06:32:26.741653 53024 net.cpp:84] Creating Layer first_conv_bn
I0315 06:32:26.741665 53024 net.cpp:406] first_conv_bn <- first_conv
I0315 06:32:26.741683 53024 net.cpp:367] first_conv_bn -> first_conv (in-place)
I0315 06:32:26.741948 53024 net.cpp:122] Setting up first_conv_bn
I0315 06:32:26.741960 53024 net.cpp:129] Top shape: 128 16 32 32 (2097152)
I0315 06:32:26.741976 53024 net.cpp:137] Memory required for data: 18351616
I0315 06:32:26.742004 53024 layer_factory.hpp:77] Creating layer first_conv_scale
I0315 06:32:26.742028 53024 net.cpp:84] Creating Layer first_conv_scale
I0315 06:32:26.742040 53024 net.cpp:406] first_conv_scale <- first_conv
I0315 06:32:26.742054 53024 net.cpp:367] first_conv_scale -> first_conv (in-place)
I0315 06:32:26.742122 53024 layer_factory.hpp:77] Creating layer first_conv_scale
I0315 06:32:26.742285 53024 net.cpp:122] Setting up first_conv_scale
I0315 06:32:26.742295 53024 net.cpp:129] Top shape: 128 16 32 32 (2097152)
I0315 06:32:26.742311 53024 net.cpp:137] Memory required for data: 26740224
I0315 06:32:26.742328 53024 layer_factory.hpp:77] Creating layer first_conv_relu
I0315 06:32:26.742347 53024 net.cpp:84] Creating Layer first_conv_relu
I0315 06:32:26.742357 53024 net.cpp:406] first_conv_relu <- first_conv
I0315 06:32:26.742372 53024 net.cpp:367] first_conv_relu -> first_conv (in-place)
I0315 06:32:26.742877 53024 net.cpp:122] Setting up first_conv_relu
I0315 06:32:26.742887 53024 net.cpp:129] Top shape: 128 16 32 32 (2097152)
I0315 06:32:26.742902 53024 net.cpp:137] Memory required for data: 35128832
I0315 06:32:26.742914 53024 layer_factory.hpp:77] Creating layer first_conv_first_conv_relu_0_split
I0315 06:32:26.742930 53024 net.cpp:84] Creating Layer first_conv_first_conv_relu_0_split
I0315 06:32:26.742940 53024 net.cpp:406] first_conv_first_conv_relu_0_split <- first_conv
I0315 06:32:26.742955 53024 net.cpp:380] first_conv_first_conv_relu_0_split -> first_conv_first_conv_relu_0_split_0
I0315 06:32:26.742974 53024 net.cpp:380] first_conv_first_conv_relu_0_split -> first_conv_first_conv_relu_0_split_1
I0315 06:32:26.743034 53024 net.cpp:122] Setting up first_conv_first_conv_relu_0_split
I0315 06:32:26.743044 53024 net.cpp:129] Top shape: 128 16 32 32 (2097152)
I0315 06:32:26.743059 53024 net.cpp:129] Top shape: 128 16 32 32 (2097152)
I0315 06:32:26.743073 53024 net.cpp:137] Memory required for data: 51906048
I0315 06:32:26.743084 53024 layer_factory.hpp:77] Creating layer group0_block0_conv0
I0315 06:32:26.743108 53024 net.cpp:84] Creating Layer group0_block0_conv0
I0315 06:32:26.743119 53024 net.cpp:406] group0_block0_conv0 <- first_conv_first_conv_relu_0_split_0
I0315 06:32:26.743134 53024 net.cpp:380] group0_block0_conv0 -> group0_block0_conv0
I0315 06:32:26.745769 53024 net.cpp:122] Setting up group0_block0_conv0
I0315 06:32:26.745780 53024 net.cpp:129] Top shape: 128 16 32 32 (2097152)
I0315 06:32:26.745796 53024 net.cpp:137] Memory required for data: 60294656
I0315 06:32:26.745820 53024 layer_factory.hpp:77] Creating layer group0_block0_conv0_bn
I0315 06:32:26.745839 53024 net.cpp:84] Creating Layer group0_block0_conv0_bn
I0315 06:32:26.745851 53024 net.cpp:406] group0_block0_conv0_bn <- group0_block0_conv0
I0315 06:32:26.745867 53024 net.cpp:367] group0_block0_conv0_bn -> group0_block0_conv0 (in-place)
I0315 06:32:26.746122 53024 net.cpp:122] Setting up group0_block0_conv0_bn
I0315 06:32:26.746132 53024 net.cpp:129] Top shape: 128 16 32 32 (2097152)
I0315 06:32:26.746150 53024 net.cpp:137] Memory required for data: 68683264
I0315 06:32:26.746171 53024 layer_factory.hpp:77] Creating layer group0_block0_conv0_scale
I0315 06:32:26.746186 53024 net.cpp:84] Creating Layer group0_block0_conv0_scale
I0315 06:32:26.746196 53024 net.cpp:406] group0_block0_conv0_scale <- group0_block0_conv0
I0315 06:32:26.746212 53024 net.cpp:367] group0_block0_conv0_scale -> group0_block0_conv0 (in-place)
I0315 06:32:26.746273 53024 layer_factory.hpp:77] Creating layer group0_block0_conv0_scale
I0315 06:32:26.746418 53024 net.cpp:122] Setting up group0_block0_conv0_scale
I0315 06:32:26.746428 53024 net.cpp:129] Top shape: 128 16 32 32 (2097152)
I0315 06:32:26.746443 53024 net.cpp:137] Memory required for data: 77071872
I0315 06:32:26.746462 53024 layer_factory.hpp:77] Creating layer group0_block0_conv0_relu
I0315 06:32:26.746476 53024 net.cpp:84] Creating Layer group0_block0_conv0_relu
I0315 06:32:26.746487 53024 net.cpp:406] group0_block0_conv0_relu <- group0_block0_conv0
I0315 06:32:26.746501 53024 net.cpp:367] group0_block0_conv0_relu -> group0_block0_conv0 (in-place)
I0315 06:32:26.746989 53024 net.cpp:122] Setting up group0_block0_conv0_relu
I0315 06:32:26.747001 53024 net.cpp:129] Top shape: 128 16 32 32 (2097152)
I0315 06:32:26.747016 53024 net.cpp:137] Memory required for data: 85460480
I0315 06:32:26.747026 53024 layer_factory.hpp:77] Creating layer group0_block0_conv1
I0315 06:32:26.747046 53024 net.cpp:84] Creating Layer group0_block0_conv1
I0315 06:32:26.747057 53024 net.cpp:406] group0_block0_conv1 <- group0_block0_conv0
I0315 06:32:26.747073 53024 net.cpp:380] group0_block0_conv1 -> group0_block0_conv1
I0315 06:32:26.749263 53024 net.cpp:122] Setting up group0_block0_conv1
I0315 06:32:26.749275 53024 net.cpp:129] Top shape: 128 16 32 32 (2097152)
I0315 06:32:26.749291 53024 net.cpp:137] Memory required for data: 93849088
I0315 06:32:26.749310 53024 layer_factory.hpp:77] Creating layer group0_block0_conv1_bn
I0315 06:32:26.749325 53024 net.cpp:84] Creating Layer group0_block0_conv1_bn
I0315 06:32:26.749336 53024 net.cpp:406] group0_block0_conv1_bn <- group0_block0_conv1
I0315 06:32:26.749351 53024 net.cpp:367] group0_block0_conv1_bn -> group0_block0_conv1 (in-place)
I0315 06:32:26.749604 53024 net.cpp:122] Setting up group0_block0_conv1_bn
I0315 06:32:26.749614 53024 net.cpp:129] Top shape: 128 16 32 32 (2097152)
I0315 06:32:26.749629 53024 net.cpp:137] Memory required for data: 102237696
I0315 06:32:26.749657 53024 layer_factory.hpp:77] Creating layer group0_block0_conv1_scale
I0315 06:32:26.749671 53024 net.cpp:84] Creating Layer group0_block0_conv1_scale
I0315 06:32:26.749683 53024 net.cpp:406] group0_block0_conv1_scale <- group0_block0_conv1
I0315 06:32:26.749697 53024 net.cpp:367] group0_block0_conv1_scale -> group0_block0_conv1 (in-place)
I0315 06:32:26.749754 53024 layer_factory.hpp:77] Creating layer group0_block0_conv1_scale
I0315 06:32:26.749899 53024 net.cpp:122] Setting up group0_block0_conv1_scale
I0315 06:32:26.749909 53024 net.cpp:129] Top shape: 128 16 32 32 (2097152)
I0315 06:32:26.749925 53024 net.cpp:137] Memory required for data: 110626304
I0315 06:32:26.749944 53024 layer_factory.hpp:77] Creating layer group0_block0_sum
I0315 06:32:26.749963 53024 net.cpp:84] Creating Layer group0_block0_sum
I0315 06:32:26.749974 53024 net.cpp:406] group0_block0_sum <- group0_block0_conv1
I0315 06:32:26.749986 53024 net.cpp:406] group0_block0_sum <- first_conv_first_conv_relu_0_split_1
I0315 06:32:26.750000 53024 net.cpp:380] group0_block0_sum -> group0_block0_sum
I0315 06:32:26.750053 53024 net.cpp:122] Setting up group0_block0_sum
I0315 06:32:26.750063 53024 net.cpp:129] Top shape: 128 16 32 32 (2097152)
I0315 06:32:26.750079 53024 net.cpp:137] Memory required for data: 119014912
I0315 06:32:26.750089 53024 layer_factory.hpp:77] Creating layer group0_block0_sum_group0_block0_sum_0_split
I0315 06:32:26.750103 53024 net.cpp:84] Creating Layer group0_block0_sum_group0_block0_sum_0_split
I0315 06:32:26.750114 53024 net.cpp:406] group0_block0_sum_group0_block0_sum_0_split <- group0_block0_sum
I0315 06:32:26.750130 53024 net.cpp:380] group0_block0_sum_group0_block0_sum_0_split -> group0_block0_sum_group0_block0_sum_0_split_0
I0315 06:32:26.750147 53024 net.cpp:380] group0_block0_sum_group0_block0_sum_0_split -> group0_block0_sum_group0_block0_sum_0_split_1
I0315 06:32:26.750207 53024 net.cpp:122] Setting up group0_block0_sum_group0_block0_sum_0_split
I0315 06:32:26.750217 53024 net.cpp:129] Top shape: 128 16 32 32 (2097152)
I0315 06:32:26.750232 53024 net.cpp:129] Top shape: 128 16 32 32 (2097152)
I0315 06:32:26.750247 53024 net.cpp:137] Memory required for data: 135792128
I0315 06:32:26.750257 53024 layer_factory.hpp:77] Creating layer group0_block1_conv0
I0315 06:32:26.750278 53024 net.cpp:84] Creating Layer group0_block1_conv0
I0315 06:32:26.750289 53024 net.cpp:406] group0_block1_conv0 <- group0_block0_sum_group0_block0_sum_0_split_0
I0315 06:32:26.750305 53024 net.cpp:380] group0_block1_conv0 -> group0_block1_conv0
I0315 06:32:26.752480 53024 net.cpp:122] Setting up group0_block1_conv0
I0315 06:32:26.752491 53024 net.cpp:129] Top shape: 128 16 32 32 (2097152)
I0315 06:32:26.752507 53024 net.cpp:137] Memory required for data: 144180736
I0315 06:32:26.752527 53024 layer_factory.hpp:77] Creating layer group0_block1_conv0_bn
I0315 06:32:26.752543 53024 net.cpp:84] Creating Layer group0_block1_conv0_bn
I0315 06:32:26.752554 53024 net.cpp:406] group0_block1_conv0_bn <- group0_block1_conv0
I0315 06:32:26.752569 53024 net.cpp:367] group0_block1_conv0_bn -> group0_block1_conv0 (in-place)
I0315 06:32:26.752821 53024 net.cpp:122] Setting up group0_block1_conv0_bn
I0315 06:32:26.752832 53024 net.cpp:129] Top shape: 128 16 32 32 (2097152)
I0315 06:32:26.752847 53024 net.cpp:137] Memory required for data: 152569344
I0315 06:32:26.752869 53024 layer_factory.hpp:77] Creating layer group0_block1_conv0_scale
I0315 06:32:26.752884 53024 net.cpp:84] Creating Layer group0_block1_conv0_scale
I0315 06:32:26.752894 53024 net.cpp:406] group0_block1_conv0_scale <- group0_block1_conv0
I0315 06:32:26.752908 53024 net.cpp:367] group0_block1_conv0_scale -> group0_block1_conv0 (in-place)
I0315 06:32:26.752964 53024 layer_factory.hpp:77] Creating layer group0_block1_conv0_scale
I0315 06:32:26.753111 53024 net.cpp:122] Setting up group0_block1_conv0_scale
I0315 06:32:26.753121 53024 net.cpp:129] Top shape: 128 16 32 32 (2097152)
I0315 06:32:26.753136 53024 net.cpp:137] Memory required for data: 160957952
I0315 06:32:26.753154 53024 layer_factory.hpp:77] Creating layer group0_block1_conv0_relu
I0315 06:32:26.753168 53024 net.cpp:84] Creating Layer group0_block1_conv0_relu
I0315 06:32:26.753180 53024 net.cpp:406] group0_block1_conv0_relu <- group0_block1_conv0
I0315 06:32:26.753193 53024 net.cpp:367] group0_block1_conv0_relu -> group0_block1_conv0 (in-place)
I0315 06:32:26.754084 53024 net.cpp:122] Setting up group0_block1_conv0_relu
I0315 06:32:26.754096 53024 net.cpp:129] Top shape: 128 16 32 32 (2097152)
I0315 06:32:26.754112 53024 net.cpp:137] Memory required for data: 169346560
I0315 06:32:26.754122 53024 layer_factory.hpp:77] Creating layer group0_block1_conv1
I0315 06:32:26.754142 53024 net.cpp:84] Creating Layer group0_block1_conv1
I0315 06:32:26.754153 53024 net.cpp:406] group0_block1_conv1 <- group0_block1_conv0
I0315 06:32:26.754169 53024 net.cpp:380] group0_block1_conv1 -> group0_block1_conv1
I0315 06:32:26.756351 53024 net.cpp:122] Setting up group0_block1_conv1
I0315 06:32:26.756363 53024 net.cpp:129] Top shape: 128 16 32 32 (2097152)
I0315 06:32:26.756378 53024 net.cpp:137] Memory required for data: 177735168
I0315 06:32:26.756397 53024 layer_factory.hpp:77] Creating layer group0_block1_conv1_bn
I0315 06:32:26.756412 53024 net.cpp:84] Creating Layer group0_block1_conv1_bn
I0315 06:32:26.756423 53024 net.cpp:406] group0_block1_conv1_bn <- group0_block1_conv1
I0315 06:32:26.756438 53024 net.cpp:367] group0_block1_conv1_bn -> group0_block1_conv1 (in-place)
I0315 06:32:26.756695 53024 net.cpp:122] Setting up group0_block1_conv1_bn
I0315 06:32:26.756706 53024 net.cpp:129] Top shape: 128 16 32 32 (2097152)
I0315 06:32:26.756723 53024 net.cpp:137] Memory required for data: 186123776
I0315 06:32:26.756752 53024 layer_factory.hpp:77] Creating layer group0_block1_conv1_scale
I0315 06:32:26.756767 53024 net.cpp:84] Creating Layer group0_block1_conv1_scale
I0315 06:32:26.756778 53024 net.cpp:406] group0_block1_conv1_scale <- group0_block1_conv1
I0315 06:32:26.756793 53024 net.cpp:367] group0_block1_conv1_scale -> group0_block1_conv1 (in-place)
I0315 06:32:26.756852 53024 layer_factory.hpp:77] Creating layer group0_block1_conv1_scale
I0315 06:32:26.756999 53024 net.cpp:122] Setting up group0_block1_conv1_scale
I0315 06:32:26.757009 53024 net.cpp:129] Top shape: 128 16 32 32 (2097152)
I0315 06:32:26.757025 53024 net.cpp:137] Memory required for data: 194512384
I0315 06:32:26.757043 53024 layer_factory.hpp:77] Creating layer group0_block1_sum
I0315 06:32:26.757057 53024 net.cpp:84] Creating Layer group0_block1_sum
I0315 06:32:26.757068 53024 net.cpp:406] group0_block1_sum <- group0_block1_conv1
I0315 06:32:26.757081 53024 net.cpp:406] group0_block1_sum <- group0_block0_sum_group0_block0_sum_0_split_1
I0315 06:32:26.757095 53024 net.cpp:380] group0_block1_sum -> group0_block1_sum
I0315 06:32:26.757139 53024 net.cpp:122] Setting up group0_block1_sum
I0315 06:32:26.757149 53024 net.cpp:129] Top shape: 128 16 32 32 (2097152)
I0315 06:32:26.757164 53024 net.cpp:137] Memory required for data: 202900992
I0315 06:32:26.757175 53024 layer_factory.hpp:77] Creating layer group0_block1_sum_group0_block1_sum_0_split
I0315 06:32:26.757189 53024 net.cpp:84] Creating Layer group0_block1_sum_group0_block1_sum_0_split
I0315 06:32:26.757200 53024 net.cpp:406] group0_block1_sum_group0_block1_sum_0_split <- group0_block1_sum
I0315 06:32:26.757213 53024 net.cpp:380] group0_block1_sum_group0_block1_sum_0_split -> group0_block1_sum_group0_block1_sum_0_split_0
I0315 06:32:26.757230 53024 net.cpp:380] group0_block1_sum_group0_block1_sum_0_split -> group0_block1_sum_group0_block1_sum_0_split_1
I0315 06:32:26.757294 53024 net.cpp:122] Setting up group0_block1_sum_group0_block1_sum_0_split
I0315 06:32:26.757304 53024 net.cpp:129] Top shape: 128 16 32 32 (2097152)
I0315 06:32:26.757320 53024 net.cpp:129] Top shape: 128 16 32 32 (2097152)
I0315 06:32:26.757334 53024 net.cpp:137] Memory required for data: 219678208
I0315 06:32:26.757345 53024 layer_factory.hpp:77] Creating layer group0_block2_conv0
I0315 06:32:26.757364 53024 net.cpp:84] Creating Layer group0_block2_conv0
I0315 06:32:26.757374 53024 net.cpp:406] group0_block2_conv0 <- group0_block1_sum_group0_block1_sum_0_split_0
I0315 06:32:26.757390 53024 net.cpp:380] group0_block2_conv0 -> group0_block2_conv0
I0315 06:32:26.759593 53024 net.cpp:122] Setting up group0_block2_conv0
I0315 06:32:26.759604 53024 net.cpp:129] Top shape: 128 16 32 32 (2097152)
I0315 06:32:26.759620 53024 net.cpp:137] Memory required for data: 228066816
I0315 06:32:26.759639 53024 layer_factory.hpp:77] Creating layer group0_block2_conv0_bn
I0315 06:32:26.759654 53024 net.cpp:84] Creating Layer group0_block2_conv0_bn
I0315 06:32:26.759666 53024 net.cpp:406] group0_block2_conv0_bn <- group0_block2_conv0
I0315 06:32:26.759681 53024 net.cpp:367] group0_block2_conv0_bn -> group0_block2_conv0 (in-place)
I0315 06:32:26.759943 53024 net.cpp:122] Setting up group0_block2_conv0_bn
I0315 06:32:26.759953 53024 net.cpp:129] Top shape: 128 16 32 32 (2097152)
I0315 06:32:26.759968 53024 net.cpp:137] Memory required for data: 236455424
I0315 06:32:26.759990 53024 layer_factory.hpp:77] Creating layer group0_block2_conv0_scale
I0315 06:32:26.760005 53024 net.cpp:84] Creating Layer group0_block2_conv0_scale
I0315 06:32:26.760016 53024 net.cpp:406] group0_block2_conv0_scale <- group0_block2_conv0
I0315 06:32:26.760030 53024 net.cpp:367] group0_block2_conv0_scale -> group0_block2_conv0 (in-place)
I0315 06:32:26.760087 53024 layer_factory.hpp:77] Creating layer group0_block2_conv0_scale
I0315 06:32:26.760237 53024 net.cpp:122] Setting up group0_block2_conv0_scale
I0315 06:32:26.760247 53024 net.cpp:129] Top shape: 128 16 32 32 (2097152)
I0315 06:32:26.760264 53024 net.cpp:137] Memory required for data: 244844032
I0315 06:32:26.760282 53024 layer_factory.hpp:77] Creating layer group0_block2_conv0_relu
I0315 06:32:26.760298 53024 net.cpp:84] Creating Layer group0_block2_conv0_relu
I0315 06:32:26.760308 53024 net.cpp:406] group0_block2_conv0_relu <- group0_block2_conv0
I0315 06:32:26.760321 53024 net.cpp:367] group0_block2_conv0_relu -> group0_block2_conv0 (in-place)
I0315 06:32:26.760804 53024 net.cpp:122] Setting up group0_block2_conv0_relu
I0315 06:32:26.760814 53024 net.cpp:129] Top shape: 128 16 32 32 (2097152)
I0315 06:32:26.760830 53024 net.cpp:137] Memory required for data: 253232640
I0315 06:32:26.760841 53024 layer_factory.hpp:77] Creating layer group0_block2_conv1
I0315 06:32:26.760859 53024 net.cpp:84] Creating Layer group0_block2_conv1
I0315 06:32:26.760870 53024 net.cpp:406] group0_block2_conv1 <- group0_block2_conv0
I0315 06:32:26.760887 53024 net.cpp:380] group0_block2_conv1 -> group0_block2_conv1
I0315 06:32:26.763092 53024 net.cpp:122] Setting up group0_block2_conv1
I0315 06:32:26.763103 53024 net.cpp:129] Top shape: 128 16 32 32 (2097152)
I0315 06:32:26.763119 53024 net.cpp:137] Memory required for data: 261621248
I0315 06:32:26.763139 53024 layer_factory.hpp:77] Creating layer group0_block2_conv1_bn
I0315 06:32:26.763154 53024 net.cpp:84] Creating Layer group0_block2_conv1_bn
I0315 06:32:26.763165 53024 net.cpp:406] group0_block2_conv1_bn <- group0_block2_conv1
I0315 06:32:26.763180 53024 net.cpp:367] group0_block2_conv1_bn -> group0_block2_conv1 (in-place)
I0315 06:32:26.763433 53024 net.cpp:122] Setting up group0_block2_conv1_bn
I0315 06:32:26.763443 53024 net.cpp:129] Top shape: 128 16 32 32 (2097152)
I0315 06:32:26.763458 53024 net.cpp:137] Memory required for data: 270009856
I0315 06:32:26.763480 53024 layer_factory.hpp:77] Creating layer group0_block2_conv1_scale
I0315 06:32:26.763495 53024 net.cpp:84] Creating Layer group0_block2_conv1_scale
I0315 06:32:26.763506 53024 net.cpp:406] group0_block2_conv1_scale <- group0_block2_conv1
I0315 06:32:26.763520 53024 net.cpp:367] group0_block2_conv1_scale -> group0_block2_conv1 (in-place)
I0315 06:32:26.763577 53024 layer_factory.hpp:77] Creating layer group0_block2_conv1_scale
I0315 06:32:26.763723 53024 net.cpp:122] Setting up group0_block2_conv1_scale
I0315 06:32:26.763733 53024 net.cpp:129] Top shape: 128 16 32 32 (2097152)
I0315 06:32:26.763749 53024 net.cpp:137] Memory required for data: 278398464
I0315 06:32:26.763767 53024 layer_factory.hpp:77] Creating layer group0_block2_sum
I0315 06:32:26.763788 53024 net.cpp:84] Creating Layer group0_block2_sum
I0315 06:32:26.763799 53024 net.cpp:406] group0_block2_sum <- group0_block2_conv1
I0315 06:32:26.763813 53024 net.cpp:406] group0_block2_sum <- group0_block1_sum_group0_block1_sum_0_split_1
I0315 06:32:26.763828 53024 net.cpp:380] group0_block2_sum -> group0_block2_sum
I0315 06:32:26.763869 53024 net.cpp:122] Setting up group0_block2_sum
I0315 06:32:26.763878 53024 net.cpp:129] Top shape: 128 16 32 32 (2097152)
I0315 06:32:26.763893 53024 net.cpp:137] Memory required for data: 286787072
I0315 06:32:26.763905 53024 layer_factory.hpp:77] Creating layer group0_block2_sum_group0_block2_sum_0_split
I0315 06:32:26.763918 53024 net.cpp:84] Creating Layer group0_block2_sum_group0_block2_sum_0_split
I0315 06:32:26.763928 53024 net.cpp:406] group0_block2_sum_group0_block2_sum_0_split <- group0_block2_sum
I0315 06:32:26.763942 53024 net.cpp:380] group0_block2_sum_group0_block2_sum_0_split -> group0_block2_sum_group0_block2_sum_0_split_0
I0315 06:32:26.763959 53024 net.cpp:380] group0_block2_sum_group0_block2_sum_0_split -> group0_block2_sum_group0_block2_sum_0_split_1
I0315 06:32:26.764020 53024 net.cpp:122] Setting up group0_block2_sum_group0_block2_sum_0_split
I0315 06:32:26.764030 53024 net.cpp:129] Top shape: 128 16 32 32 (2097152)
I0315 06:32:26.764045 53024 net.cpp:129] Top shape: 128 16 32 32 (2097152)
I0315 06:32:26.764060 53024 net.cpp:137] Memory required for data: 303564288
I0315 06:32:26.764070 53024 layer_factory.hpp:77] Creating layer group0_block3_conv0
I0315 06:32:26.764091 53024 net.cpp:84] Creating Layer group0_block3_conv0
I0315 06:32:26.764101 53024 net.cpp:406] group0_block3_conv0 <- group0_block2_sum_group0_block2_sum_0_split_0
I0315 06:32:26.764117 53024 net.cpp:380] group0_block3_conv0 -> group0_block3_conv0
I0315 06:32:26.766320 53024 net.cpp:122] Setting up group0_block3_conv0
I0315 06:32:26.766332 53024 net.cpp:129] Top shape: 128 16 32 32 (2097152)
I0315 06:32:26.766348 53024 net.cpp:137] Memory required for data: 311952896
I0315 06:32:26.766367 53024 layer_factory.hpp:77] Creating layer group0_block3_conv0_bn
I0315 06:32:26.766382 53024 net.cpp:84] Creating Layer group0_block3_conv0_bn
I0315 06:32:26.766394 53024 net.cpp:406] group0_block3_conv0_bn <- group0_block3_conv0
I0315 06:32:26.766409 53024 net.cpp:367] group0_block3_conv0_bn -> group0_block3_conv0 (in-place)
I0315 06:32:26.766659 53024 net.cpp:122] Setting up group0_block3_conv0_bn
I0315 06:32:26.766670 53024 net.cpp:129] Top shape: 128 16 32 32 (2097152)
I0315 06:32:26.766685 53024 net.cpp:137] Memory required for data: 320341504
I0315 06:32:26.766706 53024 layer_factory.hpp:77] Creating layer group0_block3_conv0_scale
I0315 06:32:26.766722 53024 net.cpp:84] Creating Layer group0_block3_conv0_scale
I0315 06:32:26.766733 53024 net.cpp:406] group0_block3_conv0_scale <- group0_block3_conv0
I0315 06:32:26.766747 53024 net.cpp:367] group0_block3_conv0_scale -> group0_block3_conv0 (in-place)
I0315 06:32:26.766804 53024 layer_factory.hpp:77] Creating layer group0_block3_conv0_scale
I0315 06:32:26.766952 53024 net.cpp:122] Setting up group0_block3_conv0_scale
I0315 06:32:26.766963 53024 net.cpp:129] Top shape: 128 16 32 32 (2097152)
I0315 06:32:26.766978 53024 net.cpp:137] Memory required for data: 328730112
I0315 06:32:26.766996 53024 layer_factory.hpp:77] Creating layer group0_block3_conv0_relu
I0315 06:32:26.767010 53024 net.cpp:84] Creating Layer group0_block3_conv0_relu
I0315 06:32:26.767021 53024 net.cpp:406] group0_block3_conv0_relu <- group0_block3_conv0
I0315 06:32:26.767035 53024 net.cpp:367] group0_block3_conv0_relu -> group0_block3_conv0 (in-place)
I0315 06:32:26.767519 53024 net.cpp:122] Setting up group0_block3_conv0_relu
I0315 06:32:26.767530 53024 net.cpp:129] Top shape: 128 16 32 32 (2097152)
I0315 06:32:26.767545 53024 net.cpp:137] Memory required for data: 337118720
I0315 06:32:26.767556 53024 layer_factory.hpp:77] Creating layer group0_block3_conv1
I0315 06:32:26.767575 53024 net.cpp:84] Creating Layer group0_block3_conv1
I0315 06:32:26.767586 53024 net.cpp:406] group0_block3_conv1 <- group0_block3_conv0
I0315 06:32:26.767601 53024 net.cpp:380] group0_block3_conv1 -> group0_block3_conv1
I0315 06:32:26.769812 53024 net.cpp:122] Setting up group0_block3_conv1
I0315 06:32:26.769824 53024 net.cpp:129] Top shape: 128 16 32 32 (2097152)
I0315 06:32:26.769839 53024 net.cpp:137] Memory required for data: 345507328
I0315 06:32:26.769857 53024 layer_factory.hpp:77] Creating layer group0_block3_conv1_bn
I0315 06:32:26.769872 53024 net.cpp:84] Creating Layer group0_block3_conv1_bn
I0315 06:32:26.769884 53024 net.cpp:406] group0_block3_conv1_bn <- group0_block3_conv1
I0315 06:32:26.769899 53024 net.cpp:367] group0_block3_conv1_bn -> group0_block3_conv1 (in-place)
I0315 06:32:26.770159 53024 net.cpp:122] Setting up group0_block3_conv1_bn
I0315 06:32:26.770169 53024 net.cpp:129] Top shape: 128 16 32 32 (2097152)
I0315 06:32:26.770184 53024 net.cpp:137] Memory required for data: 353895936
I0315 06:32:26.770205 53024 layer_factory.hpp:77] Creating layer group0_block3_conv1_scale
I0315 06:32:26.770220 53024 net.cpp:84] Creating Layer group0_block3_conv1_scale
I0315 06:32:26.770232 53024 net.cpp:406] group0_block3_conv1_scale <- group0_block3_conv1
I0315 06:32:26.770246 53024 net.cpp:367] group0_block3_conv1_scale -> group0_block3_conv1 (in-place)
I0315 06:32:26.770303 53024 layer_factory.hpp:77] Creating layer group0_block3_conv1_scale
I0315 06:32:26.770450 53024 net.cpp:122] Setting up group0_block3_conv1_scale
I0315 06:32:26.770462 53024 net.cpp:129] Top shape: 128 16 32 32 (2097152)
I0315 06:32:26.770478 53024 net.cpp:137] Memory required for data: 362284544
I0315 06:32:26.770495 53024 layer_factory.hpp:77] Creating layer group0_block3_sum
I0315 06:32:26.770509 53024 net.cpp:84] Creating Layer group0_block3_sum
I0315 06:32:26.770521 53024 net.cpp:406] group0_block3_sum <- group0_block3_conv1
I0315 06:32:26.770534 53024 net.cpp:406] group0_block3_sum <- group0_block2_sum_group0_block2_sum_0_split_1
I0315 06:32:26.770548 53024 net.cpp:380] group0_block3_sum -> group0_block3_sum
I0315 06:32:26.770592 53024 net.cpp:122] Setting up group0_block3_sum
I0315 06:32:26.770601 53024 net.cpp:129] Top shape: 128 16 32 32 (2097152)
I0315 06:32:26.770617 53024 net.cpp:137] Memory required for data: 370673152
I0315 06:32:26.770627 53024 layer_factory.hpp:77] Creating layer group0_block3_sum_group0_block3_sum_0_split
I0315 06:32:26.770642 53024 net.cpp:84] Creating Layer group0_block3_sum_group0_block3_sum_0_split
I0315 06:32:26.770653 53024 net.cpp:406] group0_block3_sum_group0_block3_sum_0_split <- group0_block3_sum
I0315 06:32:26.770666 53024 net.cpp:380] group0_block3_sum_group0_block3_sum_0_split -> group0_block3_sum_group0_block3_sum_0_split_0
I0315 06:32:26.770683 53024 net.cpp:380] group0_block3_sum_group0_block3_sum_0_split -> group0_block3_sum_group0_block3_sum_0_split_1
I0315 06:32:26.770743 53024 net.cpp:122] Setting up group0_block3_sum_group0_block3_sum_0_split
I0315 06:32:26.770753 53024 net.cpp:129] Top shape: 128 16 32 32 (2097152)
I0315 06:32:26.770768 53024 net.cpp:129] Top shape: 128 16 32 32 (2097152)
I0315 06:32:26.770782 53024 net.cpp:137] Memory required for data: 387450368
I0315 06:32:26.770793 53024 layer_factory.hpp:77] Creating layer group0_block8_conv0
I0315 06:32:26.770810 53024 net.cpp:84] Creating Layer group0_block8_conv0
I0315 06:32:26.770822 53024 net.cpp:406] group0_block8_conv0 <- group0_block3_sum_group0_block3_sum_0_split_0
I0315 06:32:26.770838 53024 net.cpp:380] group0_block8_conv0 -> group0_block8_conv0
I0315 06:32:26.773072 53024 net.cpp:122] Setting up group0_block8_conv0
I0315 06:32:26.773083 53024 net.cpp:129] Top shape: 128 16 32 32 (2097152)
I0315 06:32:26.773099 53024 net.cpp:137] Memory required for data: 395838976
I0315 06:32:26.773138 53024 layer_factory.hpp:77] Creating layer group0_block8_conv0_bn
I0315 06:32:26.773154 53024 net.cpp:84] Creating Layer group0_block8_conv0_bn
I0315 06:32:26.773165 53024 net.cpp:406] group0_block8_conv0_bn <- group0_block8_conv0
I0315 06:32:26.773180 53024 net.cpp:367] group0_block8_conv0_bn -> group0_block8_conv0 (in-place)
I0315 06:32:26.773434 53024 net.cpp:122] Setting up group0_block8_conv0_bn
I0315 06:32:26.773444 53024 net.cpp:129] Top shape: 128 16 32 32 (2097152)
I0315 06:32:26.773459 53024 net.cpp:137] Memory required for data: 404227584
I0315 06:32:26.773481 53024 layer_factory.hpp:77] Creating layer group0_block8_conv0_scale
I0315 06:32:26.773496 53024 net.cpp:84] Creating Layer group0_block8_conv0_scale
I0315 06:32:26.773507 53024 net.cpp:406] group0_block8_conv0_scale <- group0_block8_conv0
I0315 06:32:26.773522 53024 net.cpp:367] group0_block8_conv0_scale -> group0_block8_conv0 (in-place)
I0315 06:32:26.773579 53024 layer_factory.hpp:77] Creating layer group0_block8_conv0_scale
I0315 06:32:26.773727 53024 net.cpp:122] Setting up group0_block8_conv0_scale
I0315 06:32:26.773737 53024 net.cpp:129] Top shape: 128 16 32 32 (2097152)
I0315 06:32:26.773752 53024 net.cpp:137] Memory required for data: 412616192
I0315 06:32:26.773771 53024 layer_factory.hpp:77] Creating layer group0_block8_conv0_relu
I0315 06:32:26.773784 53024 net.cpp:84] Creating Layer group0_block8_conv0_relu
I0315 06:32:26.773795 53024 net.cpp:406] group0_block8_conv0_relu <- group0_block8_conv0
I0315 06:32:26.773809 53024 net.cpp:367] group0_block8_conv0_relu -> group0_block8_conv0 (in-place)
I0315 06:32:26.774724 53024 net.cpp:122] Setting up group0_block8_conv0_relu
I0315 06:32:26.774734 53024 net.cpp:129] Top shape: 128 16 32 32 (2097152)
I0315 06:32:26.774750 53024 net.cpp:137] Memory required for data: 421004800
I0315 06:32:26.774761 53024 layer_factory.hpp:77] Creating layer group0_block8_conv1
I0315 06:32:26.774781 53024 net.cpp:84] Creating Layer group0_block8_conv1
I0315 06:32:26.774792 53024 net.cpp:406] group0_block8_conv1 <- group0_block8_conv0
I0315 06:32:26.774811 53024 net.cpp:380] group0_block8_conv1 -> group0_block8_conv1
I0315 06:32:26.777050 53024 net.cpp:122] Setting up group0_block8_conv1
I0315 06:32:26.777062 53024 net.cpp:129] Top shape: 128 16 32 32 (2097152)
I0315 06:32:26.777077 53024 net.cpp:137] Memory required for data: 429393408
I0315 06:32:26.777096 53024 layer_factory.hpp:77] Creating layer group0_block8_conv1_bn
I0315 06:32:26.777112 53024 net.cpp:84] Creating Layer group0_block8_conv1_bn
I0315 06:32:26.777123 53024 net.cpp:406] group0_block8_conv1_bn <- group0_block8_conv1
I0315 06:32:26.777138 53024 net.cpp:367] group0_block8_conv1_bn -> group0_block8_conv1 (in-place)
I0315 06:32:26.777397 53024 net.cpp:122] Setting up group0_block8_conv1_bn
I0315 06:32:26.777407 53024 net.cpp:129] Top shape: 128 16 32 32 (2097152)
I0315 06:32:26.777422 53024 net.cpp:137] Memory required for data: 437782016
I0315 06:32:26.777444 53024 layer_factory.hpp:77] Creating layer group0_block8_conv1_scale
I0315 06:32:26.777460 53024 net.cpp:84] Creating Layer group0_block8_conv1_scale
I0315 06:32:26.777472 53024 net.cpp:406] group0_block8_conv1_scale <- group0_block8_conv1
I0315 06:32:26.777487 53024 net.cpp:367] group0_block8_conv1_scale -> group0_block8_conv1 (in-place)
I0315 06:32:26.777542 53024 layer_factory.hpp:77] Creating layer group0_block8_conv1_scale
I0315 06:32:26.777696 53024 net.cpp:122] Setting up group0_block8_conv1_scale
I0315 06:32:26.777706 53024 net.cpp:129] Top shape: 128 16 32 32 (2097152)
I0315 06:32:26.777721 53024 net.cpp:137] Memory required for data: 446170624
I0315 06:32:26.777740 53024 layer_factory.hpp:77] Creating layer group0_block8_sum
I0315 06:32:26.777755 53024 net.cpp:84] Creating Layer group0_block8_sum
I0315 06:32:26.777765 53024 net.cpp:406] group0_block8_sum <- group0_block8_conv1
I0315 06:32:26.777778 53024 net.cpp:406] group0_block8_sum <- group0_block3_sum_group0_block3_sum_0_split_1
I0315 06:32:26.777792 53024 net.cpp:380] group0_block8_sum -> group0_block8_sum
I0315 06:32:26.777837 53024 net.cpp:122] Setting up group0_block8_sum
I0315 06:32:26.777846 53024 net.cpp:129] Top shape: 128 16 32 32 (2097152)
I0315 06:32:26.777860 53024 net.cpp:137] Memory required for data: 454559232
I0315 06:32:26.777871 53024 layer_factory.hpp:77] Creating layer group0_block8_sum_group0_block8_sum_0_split
I0315 06:32:26.777885 53024 net.cpp:84] Creating Layer group0_block8_sum_group0_block8_sum_0_split
I0315 06:32:26.777895 53024 net.cpp:406] group0_block8_sum_group0_block8_sum_0_split <- group0_block8_sum
I0315 06:32:26.777909 53024 net.cpp:380] group0_block8_sum_group0_block8_sum_0_split -> group0_block8_sum_group0_block8_sum_0_split_0
I0315 06:32:26.777926 53024 net.cpp:380] group0_block8_sum_group0_block8_sum_0_split -> group0_block8_sum_group0_block8_sum_0_split_1
I0315 06:32:26.777988 53024 net.cpp:122] Setting up group0_block8_sum_group0_block8_sum_0_split
I0315 06:32:26.777998 53024 net.cpp:129] Top shape: 128 16 32 32 (2097152)
I0315 06:32:26.778013 53024 net.cpp:129] Top shape: 128 16 32 32 (2097152)
I0315 06:32:26.778026 53024 net.cpp:137] Memory required for data: 471336448
I0315 06:32:26.778038 53024 layer_factory.hpp:77] Creating layer group1_block0_conv0
I0315 06:32:26.778054 53024 net.cpp:84] Creating Layer group1_block0_conv0
I0315 06:32:26.778065 53024 net.cpp:406] group1_block0_conv0 <- group0_block8_sum_group0_block8_sum_0_split_0
I0315 06:32:26.778081 53024 net.cpp:380] group1_block0_conv0 -> group1_block0_conv0
I0315 06:32:26.781198 53024 net.cpp:122] Setting up group1_block0_conv0
I0315 06:32:26.781213 53024 net.cpp:129] Top shape: 128 64 16 16 (2097152)
I0315 06:32:26.781229 53024 net.cpp:137] Memory required for data: 479725056
I0315 06:32:26.781247 53024 layer_factory.hpp:77] Creating layer group1_block0_conv0_bn
I0315 06:32:26.781262 53024 net.cpp:84] Creating Layer group1_block0_conv0_bn
I0315 06:32:26.781296 53024 net.cpp:406] group1_block0_conv0_bn <- group1_block0_conv0
I0315 06:32:26.781313 53024 net.cpp:367] group1_block0_conv0_bn -> group1_block0_conv0 (in-place)
I0315 06:32:26.781577 53024 net.cpp:122] Setting up group1_block0_conv0_bn
I0315 06:32:26.781589 53024 net.cpp:129] Top shape: 128 64 16 16 (2097152)
I0315 06:32:26.781603 53024 net.cpp:137] Memory required for data: 488113664
I0315 06:32:26.781625 53024 layer_factory.hpp:77] Creating layer group1_block0_conv0_scale
I0315 06:32:26.781641 53024 net.cpp:84] Creating Layer group1_block0_conv0_scale
I0315 06:32:26.781651 53024 net.cpp:406] group1_block0_conv0_scale <- group1_block0_conv0
I0315 06:32:26.781666 53024 net.cpp:367] group1_block0_conv0_scale -> group1_block0_conv0 (in-place)
I0315 06:32:26.781724 53024 layer_factory.hpp:77] Creating layer group1_block0_conv0_scale
I0315 06:32:26.781877 53024 net.cpp:122] Setting up group1_block0_conv0_scale
I0315 06:32:26.781886 53024 net.cpp:129] Top shape: 128 64 16 16 (2097152)
I0315 06:32:26.781901 53024 net.cpp:137] Memory required for data: 496502272
I0315 06:32:26.781919 53024 layer_factory.hpp:77] Creating layer group1_block0_conv0_relu
I0315 06:32:26.781934 53024 net.cpp:84] Creating Layer group1_block0_conv0_relu
I0315 06:32:26.781944 53024 net.cpp:406] group1_block0_conv0_relu <- group1_block0_conv0
I0315 06:32:26.781958 53024 net.cpp:367] group1_block0_conv0_relu -> group1_block0_conv0 (in-place)
I0315 06:32:26.782446 53024 net.cpp:122] Setting up group1_block0_conv0_relu
I0315 06:32:26.782457 53024 net.cpp:129] Top shape: 128 64 16 16 (2097152)
I0315 06:32:26.782472 53024 net.cpp:137] Memory required for data: 504890880
I0315 06:32:26.782483 53024 layer_factory.hpp:77] Creating layer group1_block0_conv1
I0315 06:32:26.782500 53024 net.cpp:84] Creating Layer group1_block0_conv1
I0315 06:32:26.782512 53024 net.cpp:406] group1_block0_conv1 <- group1_block0_conv0
I0315 06:32:26.782528 53024 net.cpp:380] group1_block0_conv1 -> group1_block0_conv1
I0315 06:32:26.786267 53024 net.cpp:122] Setting up group1_block0_conv1
I0315 06:32:26.786283 53024 net.cpp:129] Top shape: 128 64 16 16 (2097152)
I0315 06:32:26.786298 53024 net.cpp:137] Memory required for data: 513279488
I0315 06:32:26.786319 53024 layer_factory.hpp:77] Creating layer group1_block0_conv1_bn
I0315 06:32:26.786335 53024 net.cpp:84] Creating Layer group1_block0_conv1_bn
I0315 06:32:26.786347 53024 net.cpp:406] group1_block0_conv1_bn <- group1_block0_conv1
I0315 06:32:26.786363 53024 net.cpp:367] group1_block0_conv1_bn -> group1_block0_conv1 (in-place)
I0315 06:32:26.786620 53024 net.cpp:122] Setting up group1_block0_conv1_bn
I0315 06:32:26.786630 53024 net.cpp:129] Top shape: 128 64 16 16 (2097152)
I0315 06:32:26.786645 53024 net.cpp:137] Memory required for data: 521668096
I0315 06:32:26.786666 53024 layer_factory.hpp:77] Creating layer group1_block0_conv1_scale
I0315 06:32:26.786682 53024 net.cpp:84] Creating Layer group1_block0_conv1_scale
I0315 06:32:26.786695 53024 net.cpp:406] group1_block0_conv1_scale <- group1_block0_conv1
I0315 06:32:26.786708 53024 net.cpp:367] group1_block0_conv1_scale -> group1_block0_conv1 (in-place)
I0315 06:32:26.786767 53024 layer_factory.hpp:77] Creating layer group1_block0_conv1_scale
I0315 06:32:26.786922 53024 net.cpp:122] Setting up group1_block0_conv1_scale
I0315 06:32:26.786932 53024 net.cpp:129] Top shape: 128 64 16 16 (2097152)
I0315 06:32:26.786947 53024 net.cpp:137] Memory required for data: 530056704
I0315 06:32:26.786964 53024 layer_factory.hpp:77] Creating layer group1_block0_proj
I0315 06:32:26.786983 53024 net.cpp:84] Creating Layer group1_block0_proj
I0315 06:32:26.786994 53024 net.cpp:406] group1_block0_proj <- group0_block8_sum_group0_block8_sum_0_split_1
I0315 06:32:26.787011 53024 net.cpp:380] group1_block0_proj -> group1_block0_proj
I0315 06:32:26.789320 53024 net.cpp:122] Setting up group1_block0_proj
I0315 06:32:26.789332 53024 net.cpp:129] Top shape: 128 64 16 16 (2097152)
I0315 06:32:26.789348 53024 net.cpp:137] Memory required for data: 538445312
I0315 06:32:26.789367 53024 layer_factory.hpp:77] Creating layer group1_block0_proj_bn
I0315 06:32:26.789382 53024 net.cpp:84] Creating Layer group1_block0_proj_bn
I0315 06:32:26.789394 53024 net.cpp:406] group1_block0_proj_bn <- group1_block0_proj
I0315 06:32:26.789409 53024 net.cpp:367] group1_block0_proj_bn -> group1_block0_proj (in-place)
I0315 06:32:26.789664 53024 net.cpp:122] Setting up group1_block0_proj_bn
I0315 06:32:26.789675 53024 net.cpp:129] Top shape: 128 64 16 16 (2097152)
I0315 06:32:26.789690 53024 net.cpp:137] Memory required for data: 546833920
I0315 06:32:26.789711 53024 layer_factory.hpp:77] Creating layer group1_block0_proj_scale
I0315 06:32:26.789726 53024 net.cpp:84] Creating Layer group1_block0_proj_scale
I0315 06:32:26.789738 53024 net.cpp:406] group1_block0_proj_scale <- group1_block0_proj
I0315 06:32:26.789752 53024 net.cpp:367] group1_block0_proj_scale -> group1_block0_proj (in-place)
I0315 06:32:26.789810 53024 layer_factory.hpp:77] Creating layer group1_block0_proj_scale
I0315 06:32:26.789963 53024 net.cpp:122] Setting up group1_block0_proj_scale
I0315 06:32:26.789973 53024 net.cpp:129] Top shape: 128 64 16 16 (2097152)
I0315 06:32:26.789988 53024 net.cpp:137] Memory required for data: 555222528
I0315 06:32:26.790006 53024 layer_factory.hpp:77] Creating layer group1_block0_sum
I0315 06:32:26.790021 53024 net.cpp:84] Creating Layer group1_block0_sum
I0315 06:32:26.790032 53024 net.cpp:406] group1_block0_sum <- group1_block0_proj
I0315 06:32:26.790045 53024 net.cpp:406] group1_block0_sum <- group1_block0_conv1
I0315 06:32:26.790060 53024 net.cpp:380] group1_block0_sum -> group1_block0_sum
I0315 06:32:26.790100 53024 net.cpp:122] Setting up group1_block0_sum
I0315 06:32:26.790109 53024 net.cpp:129] Top shape: 128 64 16 16 (2097152)
I0315 06:32:26.790124 53024 net.cpp:137] Memory required for data: 563611136
I0315 06:32:26.790134 53024 layer_factory.hpp:77] Creating layer group1_block0_sum_group1_block0_sum_0_split
I0315 06:32:26.790149 53024 net.cpp:84] Creating Layer group1_block0_sum_group1_block0_sum_0_split
I0315 06:32:26.790160 53024 net.cpp:406] group1_block0_sum_group1_block0_sum_0_split <- group1_block0_sum
I0315 06:32:26.790174 53024 net.cpp:380] group1_block0_sum_group1_block0_sum_0_split -> group1_block0_sum_group1_block0_sum_0_split_0
I0315 06:32:26.790191 53024 net.cpp:380] group1_block0_sum_group1_block0_sum_0_split -> group1_block0_sum_group1_block0_sum_0_split_1
I0315 06:32:26.790253 53024 net.cpp:122] Setting up group1_block0_sum_group1_block0_sum_0_split
I0315 06:32:26.790263 53024 net.cpp:129] Top shape: 128 64 16 16 (2097152)
I0315 06:32:26.790277 53024 net.cpp:129] Top shape: 128 64 16 16 (2097152)
I0315 06:32:26.790292 53024 net.cpp:137] Memory required for data: 580388352
I0315 06:32:26.790302 53024 layer_factory.hpp:77] Creating layer group1_block1_conv0
I0315 06:32:26.790333 53024 net.cpp:84] Creating Layer group1_block1_conv0
I0315 06:32:26.790345 53024 net.cpp:406] group1_block1_conv0 <- group1_block0_sum_group1_block0_sum_0_split_0
I0315 06:32:26.790361 53024 net.cpp:380] group1_block1_conv0 -> group1_block1_conv0
I0315 06:32:26.792863 53024 net.cpp:122] Setting up group1_block1_conv0
I0315 06:32:26.792876 53024 net.cpp:129] Top shape: 128 64 16 16 (2097152)
I0315 06:32:26.792891 53024 net.cpp:137] Memory required for data: 588776960
I0315 06:32:26.792910 53024 layer_factory.hpp:77] Creating layer group1_block1_conv0_bn
I0315 06:32:26.792924 53024 net.cpp:84] Creating Layer group1_block1_conv0_bn
I0315 06:32:26.792937 53024 net.cpp:406] group1_block1_conv0_bn <- group1_block1_conv0
I0315 06:32:26.792951 53024 net.cpp:367] group1_block1_conv0_bn -> group1_block1_conv0 (in-place)
I0315 06:32:26.793207 53024 net.cpp:122] Setting up group1_block1_conv0_bn
I0315 06:32:26.793218 53024 net.cpp:129] Top shape: 128 64 16 16 (2097152)
I0315 06:32:26.793233 53024 net.cpp:137] Memory required for data: 597165568
I0315 06:32:26.793256 53024 layer_factory.hpp:77] Creating layer group1_block1_conv0_scale
I0315 06:32:26.793269 53024 net.cpp:84] Creating Layer group1_block1_conv0_scale
I0315 06:32:26.793282 53024 net.cpp:406] group1_block1_conv0_scale <- group1_block1_conv0
I0315 06:32:26.793295 53024 net.cpp:367] group1_block1_conv0_scale -> group1_block1_conv0 (in-place)
I0315 06:32:26.793354 53024 layer_factory.hpp:77] Creating layer group1_block1_conv0_scale
I0315 06:32:26.793514 53024 net.cpp:122] Setting up group1_block1_conv0_scale
I0315 06:32:26.793524 53024 net.cpp:129] Top shape: 128 64 16 16 (2097152)
I0315 06:32:26.793539 53024 net.cpp:137] Memory required for data: 605554176
I0315 06:32:26.793557 53024 layer_factory.hpp:77] Creating layer group1_block1_conv0_relu
I0315 06:32:26.793570 53024 net.cpp:84] Creating Layer group1_block1_conv0_relu
I0315 06:32:26.793581 53024 net.cpp:406] group1_block1_conv0_relu <- group1_block1_conv0
I0315 06:32:26.793596 53024 net.cpp:367] group1_block1_conv0_relu -> group1_block1_conv0 (in-place)
I0315 06:32:26.794090 53024 net.cpp:122] Setting up group1_block1_conv0_relu
I0315 06:32:26.794100 53024 net.cpp:129] Top shape: 128 64 16 16 (2097152)
I0315 06:32:26.794116 53024 net.cpp:137] Memory required for data: 613942784
I0315 06:32:26.794126 53024 layer_factory.hpp:77] Creating layer group1_block1_conv1
I0315 06:32:26.794144 53024 net.cpp:84] Creating Layer group1_block1_conv1
I0315 06:32:26.794155 53024 net.cpp:406] group1_block1_conv1 <- group1_block1_conv0
I0315 06:32:26.794172 53024 net.cpp:380] group1_block1_conv1 -> group1_block1_conv1
I0315 06:32:26.797117 53024 net.cpp:122] Setting up group1_block1_conv1
I0315 06:32:26.797129 53024 net.cpp:129] Top shape: 128 64 16 16 (2097152)
I0315 06:32:26.797145 53024 net.cpp:137] Memory required for data: 622331392
I0315 06:32:26.797164 53024 layer_factory.hpp:77] Creating layer group1_block1_conv1_bn
I0315 06:32:26.797179 53024 net.cpp:84] Creating Layer group1_block1_conv1_bn
I0315 06:32:26.797191 53024 net.cpp:406] group1_block1_conv1_bn <- group1_block1_conv1
I0315 06:32:26.797206 53024 net.cpp:367] group1_block1_conv1_bn -> group1_block1_conv1 (in-place)
I0315 06:32:26.797468 53024 net.cpp:122] Setting up group1_block1_conv1_bn
I0315 06:32:26.797478 53024 net.cpp:129] Top shape: 128 64 16 16 (2097152)
I0315 06:32:26.797494 53024 net.cpp:137] Memory required for data: 630720000
I0315 06:32:26.797515 53024 layer_factory.hpp:77] Creating layer group1_block1_conv1_scale
I0315 06:32:26.797529 53024 net.cpp:84] Creating Layer group1_block1_conv1_scale
I0315 06:32:26.797540 53024 net.cpp:406] group1_block1_conv1_scale <- group1_block1_conv1
I0315 06:32:26.797555 53024 net.cpp:367] group1_block1_conv1_scale -> group1_block1_conv1 (in-place)
I0315 06:32:26.797612 53024 layer_factory.hpp:77] Creating layer group1_block1_conv1_scale
I0315 06:32:26.797766 53024 net.cpp:122] Setting up group1_block1_conv1_scale
I0315 06:32:26.797776 53024 net.cpp:129] Top shape: 128 64 16 16 (2097152)
I0315 06:32:26.797791 53024 net.cpp:137] Memory required for data: 639108608
I0315 06:32:26.797809 53024 layer_factory.hpp:77] Creating layer group1_block1_sum
I0315 06:32:26.797824 53024 net.cpp:84] Creating Layer group1_block1_sum
I0315 06:32:26.797835 53024 net.cpp:406] group1_block1_sum <- group1_block1_conv1
I0315 06:32:26.797848 53024 net.cpp:406] group1_block1_sum <- group1_block0_sum_group1_block0_sum_0_split_1
I0315 06:32:26.797863 53024 net.cpp:380] group1_block1_sum -> group1_block1_sum
I0315 06:32:26.797901 53024 net.cpp:122] Setting up group1_block1_sum
I0315 06:32:26.797912 53024 net.cpp:129] Top shape: 128 64 16 16 (2097152)
I0315 06:32:26.797926 53024 net.cpp:137] Memory required for data: 647497216
I0315 06:32:26.797937 53024 layer_factory.hpp:77] Creating layer group1_block1_sum_group1_block1_sum_0_split
I0315 06:32:26.797951 53024 net.cpp:84] Creating Layer group1_block1_sum_group1_block1_sum_0_split
I0315 06:32:26.797962 53024 net.cpp:406] group1_block1_sum_group1_block1_sum_0_split <- group1_block1_sum
I0315 06:32:26.797976 53024 net.cpp:380] group1_block1_sum_group1_block1_sum_0_split -> group1_block1_sum_group1_block1_sum_0_split_0
I0315 06:32:26.797993 53024 net.cpp:380] group1_block1_sum_group1_block1_sum_0_split -> group1_block1_sum_group1_block1_sum_0_split_1
I0315 06:32:26.798056 53024 net.cpp:122] Setting up group1_block1_sum_group1_block1_sum_0_split
I0315 06:32:26.798066 53024 net.cpp:129] Top shape: 128 64 16 16 (2097152)
I0315 06:32:26.798081 53024 net.cpp:129] Top shape: 128 64 16 16 (2097152)
I0315 06:32:26.798095 53024 net.cpp:137] Memory required for data: 664274432
I0315 06:32:26.798105 53024 layer_factory.hpp:77] Creating layer group1_block2_conv0
I0315 06:32:26.798123 53024 net.cpp:84] Creating Layer group1_block2_conv0
I0315 06:32:26.798135 53024 net.cpp:406] group1_block2_conv0 <- group1_block1_sum_group1_block1_sum_0_split_0
I0315 06:32:26.798151 53024 net.cpp:380] group1_block2_conv0 -> group1_block2_conv0
I0315 06:32:26.800678 53024 net.cpp:122] Setting up group1_block2_conv0
I0315 06:32:26.800691 53024 net.cpp:129] Top shape: 128 64 16 16 (2097152)
I0315 06:32:26.800707 53024 net.cpp:137] Memory required for data: 672663040
I0315 06:32:26.800725 53024 layer_factory.hpp:77] Creating layer group1_block2_conv0_bn
I0315 06:32:26.800741 53024 net.cpp:84] Creating Layer group1_block2_conv0_bn
I0315 06:32:26.800752 53024 net.cpp:406] group1_block2_conv0_bn <- group1_block2_conv0
I0315 06:32:26.800767 53024 net.cpp:367] group1_block2_conv0_bn -> group1_block2_conv0 (in-place)
I0315 06:32:26.801029 53024 net.cpp:122] Setting up group1_block2_conv0_bn
I0315 06:32:26.801039 53024 net.cpp:129] Top shape: 128 64 16 16 (2097152)
I0315 06:32:26.801054 53024 net.cpp:137] Memory required for data: 681051648
I0315 06:32:26.801075 53024 layer_factory.hpp:77] Creating layer group1_block2_conv0_scale
I0315 06:32:26.801090 53024 net.cpp:84] Creating Layer group1_block2_conv0_scale
I0315 06:32:26.801102 53024 net.cpp:406] group1_block2_conv0_scale <- group1_block2_conv0
I0315 06:32:26.801116 53024 net.cpp:367] group1_block2_conv0_scale -> group1_block2_conv0 (in-place)
I0315 06:32:26.801174 53024 layer_factory.hpp:77] Creating layer group1_block2_conv0_scale
I0315 06:32:26.801327 53024 net.cpp:122] Setting up group1_block2_conv0_scale
I0315 06:32:26.801338 53024 net.cpp:129] Top shape: 128 64 16 16 (2097152)
I0315 06:32:26.801352 53024 net.cpp:137] Memory required for data: 689440256
I0315 06:32:26.801371 53024 layer_factory.hpp:77] Creating layer group1_block2_conv0_relu
I0315 06:32:26.801385 53024 net.cpp:84] Creating Layer group1_block2_conv0_relu
I0315 06:32:26.801396 53024 net.cpp:406] group1_block2_conv0_relu <- group1_block2_conv0
I0315 06:32:26.801410 53024 net.cpp:367] group1_block2_conv0_relu -> group1_block2_conv0 (in-place)
I0315 06:32:26.801905 53024 net.cpp:122] Setting up group1_block2_conv0_relu
I0315 06:32:26.801915 53024 net.cpp:129] Top shape: 128 64 16 16 (2097152)
I0315 06:32:26.801930 53024 net.cpp:137] Memory required for data: 697828864
I0315 06:32:26.801941 53024 layer_factory.hpp:77] Creating layer group1_block2_conv1
I0315 06:32:26.801959 53024 net.cpp:84] Creating Layer group1_block2_conv1
I0315 06:32:26.801970 53024 net.cpp:406] group1_block2_conv1 <- group1_block2_conv0
I0315 06:32:26.801987 53024 net.cpp:380] group1_block2_conv1 -> group1_block2_conv1
I0315 06:32:26.805421 53024 net.cpp:122] Setting up group1_block2_conv1
I0315 06:32:26.805433 53024 net.cpp:129] Top shape: 128 64 16 16 (2097152)
I0315 06:32:26.805449 53024 net.cpp:137] Memory required for data: 706217472
I0315 06:32:26.805469 53024 layer_factory.hpp:77] Creating layer group1_block2_conv1_bn
I0315 06:32:26.805485 53024 net.cpp:84] Creating Layer group1_block2_conv1_bn
I0315 06:32:26.805495 53024 net.cpp:406] group1_block2_conv1_bn <- group1_block2_conv1
I0315 06:32:26.805510 53024 net.cpp:367] group1_block2_conv1_bn -> group1_block2_conv1 (in-place)
I0315 06:32:26.805771 53024 net.cpp:122] Setting up group1_block2_conv1_bn
I0315 06:32:26.805783 53024 net.cpp:129] Top shape: 128 64 16 16 (2097152)
I0315 06:32:26.805797 53024 net.cpp:137] Memory required for data: 714606080
I0315 06:32:26.805819 53024 layer_factory.hpp:77] Creating layer group1_block2_conv1_scale
I0315 06:32:26.805833 53024 net.cpp:84] Creating Layer group1_block2_conv1_scale
I0315 06:32:26.805845 53024 net.cpp:406] group1_block2_conv1_scale <- group1_block2_conv1
I0315 06:32:26.805860 53024 net.cpp:367] group1_block2_conv1_scale -> group1_block2_conv1 (in-place)
I0315 06:32:26.805918 53024 layer_factory.hpp:77] Creating layer group1_block2_conv1_scale
I0315 06:32:26.806078 53024 net.cpp:122] Setting up group1_block2_conv1_scale
I0315 06:32:26.806088 53024 net.cpp:129] Top shape: 128 64 16 16 (2097152)
I0315 06:32:26.806103 53024 net.cpp:137] Memory required for data: 722994688
I0315 06:32:26.806123 53024 layer_factory.hpp:77] Creating layer group1_block2_sum
I0315 06:32:26.806136 53024 net.cpp:84] Creating Layer group1_block2_sum
I0315 06:32:26.806147 53024 net.cpp:406] group1_block2_sum <- group1_block2_conv1
I0315 06:32:26.806160 53024 net.cpp:406] group1_block2_sum <- group1_block1_sum_group1_block1_sum_0_split_1
I0315 06:32:26.806174 53024 net.cpp:380] group1_block2_sum -> group1_block2_sum
I0315 06:32:26.806213 53024 net.cpp:122] Setting up group1_block2_sum
I0315 06:32:26.806224 53024 net.cpp:129] Top shape: 128 64 16 16 (2097152)
I0315 06:32:26.806239 53024 net.cpp:137] Memory required for data: 731383296
I0315 06:32:26.806249 53024 layer_factory.hpp:77] Creating layer group1_block2_sum_group1_block2_sum_0_split
I0315 06:32:26.806263 53024 net.cpp:84] Creating Layer group1_block2_sum_group1_block2_sum_0_split
I0315 06:32:26.806274 53024 net.cpp:406] group1_block2_sum_group1_block2_sum_0_split <- group1_block2_sum
I0315 06:32:26.806288 53024 net.cpp:380] group1_block2_sum_group1_block2_sum_0_split -> group1_block2_sum_group1_block2_sum_0_split_0
I0315 06:32:26.806306 53024 net.cpp:380] group1_block2_sum_group1_block2_sum_0_split -> group1_block2_sum_group1_block2_sum_0_split_1
I0315 06:32:26.806368 53024 net.cpp:122] Setting up group1_block2_sum_group1_block2_sum_0_split
I0315 06:32:26.806378 53024 net.cpp:129] Top shape: 128 64 16 16 (2097152)
I0315 06:32:26.806393 53024 net.cpp:129] Top shape: 128 64 16 16 (2097152)
I0315 06:32:26.806406 53024 net.cpp:137] Memory required for data: 748160512
I0315 06:32:26.806417 53024 layer_factory.hpp:77] Creating layer group1_block3_conv0
I0315 06:32:26.806434 53024 net.cpp:84] Creating Layer group1_block3_conv0
I0315 06:32:26.806445 53024 net.cpp:406] group1_block3_conv0 <- group1_block2_sum_group1_block2_sum_0_split_0
I0315 06:32:26.806463 53024 net.cpp:380] group1_block3_conv0 -> group1_block3_conv0
I0315 06:32:26.808948 53024 net.cpp:122] Setting up group1_block3_conv0
I0315 06:32:26.808961 53024 net.cpp:129] Top shape: 128 64 16 16 (2097152)
I0315 06:32:26.808977 53024 net.cpp:137] Memory required for data: 756549120
I0315 06:32:26.808996 53024 layer_factory.hpp:77] Creating layer group1_block3_conv0_bn
I0315 06:32:26.809010 53024 net.cpp:84] Creating Layer group1_block3_conv0_bn
I0315 06:32:26.809022 53024 net.cpp:406] group1_block3_conv0_bn <- group1_block3_conv0
I0315 06:32:26.809037 53024 net.cpp:367] group1_block3_conv0_bn -> group1_block3_conv0 (in-place)
I0315 06:32:26.809296 53024 net.cpp:122] Setting up group1_block3_conv0_bn
I0315 06:32:26.809306 53024 net.cpp:129] Top shape: 128 64 16 16 (2097152)
I0315 06:32:26.809321 53024 net.cpp:137] Memory required for data: 764937728
I0315 06:32:26.809377 53024 layer_factory.hpp:77] Creating layer group1_block3_conv0_scale
I0315 06:32:26.809391 53024 net.cpp:84] Creating Layer group1_block3_conv0_scale
I0315 06:32:26.809402 53024 net.cpp:406] group1_block3_conv0_scale <- group1_block3_conv0
I0315 06:32:26.809417 53024 net.cpp:367] group1_block3_conv0_scale -> group1_block3_conv0 (in-place)
I0315 06:32:26.809478 53024 layer_factory.hpp:77] Creating layer group1_block3_conv0_scale
I0315 06:32:26.809633 53024 net.cpp:122] Setting up group1_block3_conv0_scale
I0315 06:32:26.809643 53024 net.cpp:129] Top shape: 128 64 16 16 (2097152)
I0315 06:32:26.809659 53024 net.cpp:137] Memory required for data: 773326336
I0315 06:32:26.809677 53024 layer_factory.hpp:77] Creating layer group1_block3_conv0_relu
I0315 06:32:26.809691 53024 net.cpp:84] Creating Layer group1_block3_conv0_relu
I0315 06:32:26.809703 53024 net.cpp:406] group1_block3_conv0_relu <- group1_block3_conv0
I0315 06:32:26.809716 53024 net.cpp:367] group1_block3_conv0_relu -> group1_block3_conv0 (in-place)
I0315 06:32:26.810642 53024 net.cpp:122] Setting up group1_block3_conv0_relu
I0315 06:32:26.810652 53024 net.cpp:129] Top shape: 128 64 16 16 (2097152)
I0315 06:32:26.810668 53024 net.cpp:137] Memory required for data: 781714944
I0315 06:32:26.810679 53024 layer_factory.hpp:77] Creating layer group1_block3_conv1
I0315 06:32:26.810698 53024 net.cpp:84] Creating Layer group1_block3_conv1
I0315 06:32:26.810708 53024 net.cpp:406] group1_block3_conv1 <- group1_block3_conv0
I0315 06:32:26.810724 53024 net.cpp:380] group1_block3_conv1 -> group1_block3_conv1
I0315 06:32:26.813699 53024 net.cpp:122] Setting up group1_block3_conv1
I0315 06:32:26.813710 53024 net.cpp:129] Top shape: 128 64 16 16 (2097152)
I0315 06:32:26.813725 53024 net.cpp:137] Memory required for data: 790103552
I0315 06:32:26.813745 53024 layer_factory.hpp:77] Creating layer group1_block3_conv1_bn
I0315 06:32:26.813760 53024 net.cpp:84] Creating Layer group1_block3_conv1_bn
I0315 06:32:26.813771 53024 net.cpp:406] group1_block3_conv1_bn <- group1_block3_conv1
I0315 06:32:26.813786 53024 net.cpp:367] group1_block3_conv1_bn -> group1_block3_conv1 (in-place)
I0315 06:32:26.814052 53024 net.cpp:122] Setting up group1_block3_conv1_bn
I0315 06:32:26.814064 53024 net.cpp:129] Top shape: 128 64 16 16 (2097152)
I0315 06:32:26.814077 53024 net.cpp:137] Memory required for data: 798492160
I0315 06:32:26.814100 53024 layer_factory.hpp:77] Creating layer group1_block3_conv1_scale
I0315 06:32:26.814115 53024 net.cpp:84] Creating Layer group1_block3_conv1_scale
I0315 06:32:26.814126 53024 net.cpp:406] group1_block3_conv1_scale <- group1_block3_conv1
I0315 06:32:26.814141 53024 net.cpp:367] group1_block3_conv1_scale -> group1_block3_conv1 (in-place)
I0315 06:32:26.814200 53024 layer_factory.hpp:77] Creating layer group1_block3_conv1_scale
I0315 06:32:26.814359 53024 net.cpp:122] Setting up group1_block3_conv1_scale
I0315 06:32:26.814369 53024 net.cpp:129] Top shape: 128 64 16 16 (2097152)
I0315 06:32:26.814384 53024 net.cpp:137] Memory required for data: 806880768
I0315 06:32:26.814402 53024 layer_factory.hpp:77] Creating layer group1_block3_sum
I0315 06:32:26.814416 53024 net.cpp:84] Creating Layer group1_block3_sum
I0315 06:32:26.814429 53024 net.cpp:406] group1_block3_sum <- group1_block3_conv1
I0315 06:32:26.814440 53024 net.cpp:406] group1_block3_sum <- group1_block2_sum_group1_block2_sum_0_split_1
I0315 06:32:26.814455 53024 net.cpp:380] group1_block3_sum -> group1_block3_sum
I0315 06:32:26.814494 53024 net.cpp:122] Setting up group1_block3_sum
I0315 06:32:26.814505 53024 net.cpp:129] Top shape: 128 64 16 16 (2097152)
I0315 06:32:26.814520 53024 net.cpp:137] Memory required for data: 815269376
I0315 06:32:26.814532 53024 layer_factory.hpp:77] Creating layer group1_block3_sum_group1_block3_sum_0_split
I0315 06:32:26.814545 53024 net.cpp:84] Creating Layer group1_block3_sum_group1_block3_sum_0_split
I0315 06:32:26.814556 53024 net.cpp:406] group1_block3_sum_group1_block3_sum_0_split <- group1_block3_sum
I0315 06:32:26.814570 53024 net.cpp:380] group1_block3_sum_group1_block3_sum_0_split -> group1_block3_sum_group1_block3_sum_0_split_0
I0315 06:32:26.814587 53024 net.cpp:380] group1_block3_sum_group1_block3_sum_0_split -> group1_block3_sum_group1_block3_sum_0_split_1
I0315 06:32:26.814651 53024 net.cpp:122] Setting up group1_block3_sum_group1_block3_sum_0_split
I0315 06:32:26.814661 53024 net.cpp:129] Top shape: 128 64 16 16 (2097152)
I0315 06:32:26.814676 53024 net.cpp:129] Top shape: 128 64 16 16 (2097152)
I0315 06:32:26.814689 53024 net.cpp:137] Memory required for data: 832046592
I0315 06:32:26.814700 53024 layer_factory.hpp:77] Creating layer group1_block8_conv0
I0315 06:32:26.814718 53024 net.cpp:84] Creating Layer group1_block8_conv0
I0315 06:32:26.814728 53024 net.cpp:406] group1_block8_conv0 <- group1_block3_sum_group1_block3_sum_0_split_0
I0315 06:32:26.814745 53024 net.cpp:380] group1_block8_conv0 -> group1_block8_conv0
I0315 06:32:26.817262 53024 net.cpp:122] Setting up group1_block8_conv0
I0315 06:32:26.817275 53024 net.cpp:129] Top shape: 128 64 16 16 (2097152)
I0315 06:32:26.817291 53024 net.cpp:137] Memory required for data: 840435200
I0315 06:32:26.817309 53024 layer_factory.hpp:77] Creating layer group1_block8_conv0_bn
I0315 06:32:26.817323 53024 net.cpp:84] Creating Layer group1_block8_conv0_bn
I0315 06:32:26.817335 53024 net.cpp:406] group1_block8_conv0_bn <- group1_block8_conv0
I0315 06:32:26.817350 53024 net.cpp:367] group1_block8_conv0_bn -> group1_block8_conv0 (in-place)
I0315 06:32:26.817616 53024 net.cpp:122] Setting up group1_block8_conv0_bn
I0315 06:32:26.817626 53024 net.cpp:129] Top shape: 128 64 16 16 (2097152)
I0315 06:32:26.817641 53024 net.cpp:137] Memory required for data: 848823808
I0315 06:32:26.817662 53024 layer_factory.hpp:77] Creating layer group1_block8_conv0_scale
I0315 06:32:26.817678 53024 net.cpp:84] Creating Layer group1_block8_conv0_scale
I0315 06:32:26.817690 53024 net.cpp:406] group1_block8_conv0_scale <- group1_block8_conv0
I0315 06:32:26.817704 53024 net.cpp:367] group1_block8_conv0_scale -> group1_block8_conv0 (in-place)
I0315 06:32:26.817764 53024 layer_factory.hpp:77] Creating layer group1_block8_conv0_scale
I0315 06:32:26.817924 53024 net.cpp:122] Setting up group1_block8_conv0_scale
I0315 06:32:26.817934 53024 net.cpp:129] Top shape: 128 64 16 16 (2097152)
I0315 06:32:26.817948 53024 net.cpp:137] Memory required for data: 857212416
I0315 06:32:26.817966 53024 layer_factory.hpp:77] Creating layer group1_block8_conv0_relu
I0315 06:32:26.817981 53024 net.cpp:84] Creating Layer group1_block8_conv0_relu
I0315 06:32:26.817992 53024 net.cpp:406] group1_block8_conv0_relu <- group1_block8_conv0
I0315 06:32:26.818006 53024 net.cpp:367] group1_block8_conv0_relu -> group1_block8_conv0 (in-place)
I0315 06:32:26.818506 53024 net.cpp:122] Setting up group1_block8_conv0_relu
I0315 06:32:26.818516 53024 net.cpp:129] Top shape: 128 64 16 16 (2097152)
I0315 06:32:26.818531 53024 net.cpp:137] Memory required for data: 865601024
I0315 06:32:26.818542 53024 layer_factory.hpp:77] Creating layer group1_block8_conv1
I0315 06:32:26.818559 53024 net.cpp:84] Creating Layer group1_block8_conv1
I0315 06:32:26.818570 53024 net.cpp:406] group1_block8_conv1 <- group1_block8_conv0
I0315 06:32:26.818586 53024 net.cpp:380] group1_block8_conv1 -> group1_block8_conv1
I0315 06:32:26.821575 53024 net.cpp:122] Setting up group1_block8_conv1
I0315 06:32:26.821588 53024 net.cpp:129] Top shape: 128 64 16 16 (2097152)
I0315 06:32:26.821604 53024 net.cpp:137] Memory required for data: 873989632
I0315 06:32:26.821622 53024 layer_factory.hpp:77] Creating layer group1_block8_conv1_bn
I0315 06:32:26.821637 53024 net.cpp:84] Creating Layer group1_block8_conv1_bn
I0315 06:32:26.821650 53024 net.cpp:406] group1_block8_conv1_bn <- group1_block8_conv1
I0315 06:32:26.821665 53024 net.cpp:367] group1_block8_conv1_bn -> group1_block8_conv1 (in-place)
I0315 06:32:26.821938 53024 net.cpp:122] Setting up group1_block8_conv1_bn
I0315 06:32:26.821949 53024 net.cpp:129] Top shape: 128 64 16 16 (2097152)
I0315 06:32:26.821962 53024 net.cpp:137] Memory required for data: 882378240
I0315 06:32:26.821985 53024 layer_factory.hpp:77] Creating layer group1_block8_conv1_scale
I0315 06:32:26.822000 53024 net.cpp:84] Creating Layer group1_block8_conv1_scale
I0315 06:32:26.822011 53024 net.cpp:406] group1_block8_conv1_scale <- group1_block8_conv1
I0315 06:32:26.822026 53024 net.cpp:367] group1_block8_conv1_scale -> group1_block8_conv1 (in-place)
I0315 06:32:26.822095 53024 layer_factory.hpp:77] Creating layer group1_block8_conv1_scale
I0315 06:32:26.822255 53024 net.cpp:122] Setting up group1_block8_conv1_scale
I0315 06:32:26.822265 53024 net.cpp:129] Top shape: 128 64 16 16 (2097152)
I0315 06:32:26.822280 53024 net.cpp:137] Memory required for data: 890766848
I0315 06:32:26.822299 53024 layer_factory.hpp:77] Creating layer group1_block8_sum
I0315 06:32:26.822314 53024 net.cpp:84] Creating Layer group1_block8_sum
I0315 06:32:26.822324 53024 net.cpp:406] group1_block8_sum <- group1_block8_conv1
I0315 06:32:26.822337 53024 net.cpp:406] group1_block8_sum <- group1_block3_sum_group1_block3_sum_0_split_1
I0315 06:32:26.822351 53024 net.cpp:380] group1_block8_sum -> group1_block8_sum
I0315 06:32:26.822391 53024 net.cpp:122] Setting up group1_block8_sum
I0315 06:32:26.822402 53024 net.cpp:129] Top shape: 128 64 16 16 (2097152)
I0315 06:32:26.822417 53024 net.cpp:137] Memory required for data: 899155456
I0315 06:32:26.822427 53024 layer_factory.hpp:77] Creating layer group1_block8_sum_group1_block8_sum_0_split
I0315 06:32:26.822440 53024 net.cpp:84] Creating Layer group1_block8_sum_group1_block8_sum_0_split
I0315 06:32:26.822451 53024 net.cpp:406] group1_block8_sum_group1_block8_sum_0_split <- group1_block8_sum
I0315 06:32:26.822465 53024 net.cpp:380] group1_block8_sum_group1_block8_sum_0_split -> group1_block8_sum_group1_block8_sum_0_split_0
I0315 06:32:26.822484 53024 net.cpp:380] group1_block8_sum_group1_block8_sum_0_split -> group1_block8_sum_group1_block8_sum_0_split_1
I0315 06:32:26.822547 53024 net.cpp:122] Setting up group1_block8_sum_group1_block8_sum_0_split
I0315 06:32:26.822557 53024 net.cpp:129] Top shape: 128 64 16 16 (2097152)
I0315 06:32:26.822571 53024 net.cpp:129] Top shape: 128 64 16 16 (2097152)
I0315 06:32:26.822585 53024 net.cpp:137] Memory required for data: 915932672
I0315 06:32:26.822597 53024 layer_factory.hpp:77] Creating layer group2_block0_conv0
I0315 06:32:26.822614 53024 net.cpp:84] Creating Layer group2_block0_conv0
I0315 06:32:26.822625 53024 net.cpp:406] group2_block0_conv0 <- group1_block8_sum_group1_block8_sum_0_split_0
I0315 06:32:26.822641 53024 net.cpp:380] group2_block0_conv0 -> group2_block0_conv0
I0315 06:32:26.826652 53024 net.cpp:122] Setting up group2_block0_conv0
I0315 06:32:26.826668 53024 net.cpp:129] Top shape: 128 256 8 8 (2097152)
I0315 06:32:26.826683 53024 net.cpp:137] Memory required for data: 924321280
I0315 06:32:26.826702 53024 layer_factory.hpp:77] Creating layer group2_block0_conv0_bn
I0315 06:32:26.826719 53024 net.cpp:84] Creating Layer group2_block0_conv0_bn
I0315 06:32:26.826730 53024 net.cpp:406] group2_block0_conv0_bn <- group2_block0_conv0
I0315 06:32:26.826745 53024 net.cpp:367] group2_block0_conv0_bn -> group2_block0_conv0 (in-place)
I0315 06:32:26.827026 53024 net.cpp:122] Setting up group2_block0_conv0_bn
I0315 06:32:26.827038 53024 net.cpp:129] Top shape: 128 256 8 8 (2097152)
I0315 06:32:26.827052 53024 net.cpp:137] Memory required for data: 932709888
I0315 06:32:26.827073 53024 layer_factory.hpp:77] Creating layer group2_block0_conv0_scale
I0315 06:32:26.827088 53024 net.cpp:84] Creating Layer group2_block0_conv0_scale
I0315 06:32:26.827100 53024 net.cpp:406] group2_block0_conv0_scale <- group2_block0_conv0
I0315 06:32:26.827114 53024 net.cpp:367] group2_block0_conv0_scale -> group2_block0_conv0 (in-place)
I0315 06:32:26.827173 53024 layer_factory.hpp:77] Creating layer group2_block0_conv0_scale
I0315 06:32:26.827330 53024 net.cpp:122] Setting up group2_block0_conv0_scale
I0315 06:32:26.827340 53024 net.cpp:129] Top shape: 128 256 8 8 (2097152)
I0315 06:32:26.827355 53024 net.cpp:137] Memory required for data: 941098496
I0315 06:32:26.827373 53024 layer_factory.hpp:77] Creating layer group2_block0_conv0_relu
I0315 06:32:26.827389 53024 net.cpp:84] Creating Layer group2_block0_conv0_relu
I0315 06:32:26.827400 53024 net.cpp:406] group2_block0_conv0_relu <- group2_block0_conv0
I0315 06:32:26.827414 53024 net.cpp:367] group2_block0_conv0_relu -> group2_block0_conv0 (in-place)
I0315 06:32:26.827911 53024 net.cpp:122] Setting up group2_block0_conv0_relu
I0315 06:32:26.827922 53024 net.cpp:129] Top shape: 128 256 8 8 (2097152)
I0315 06:32:26.827937 53024 net.cpp:137] Memory required for data: 949487104
I0315 06:32:26.827947 53024 layer_factory.hpp:77] Creating layer group2_block0_conv1
I0315 06:32:26.827966 53024 net.cpp:84] Creating Layer group2_block0_conv1
I0315 06:32:26.827977 53024 net.cpp:406] group2_block0_conv1 <- group2_block0_conv0
I0315 06:32:26.827994 53024 net.cpp:380] group2_block0_conv1 -> group2_block0_conv1
I0315 06:32:26.834879 53024 net.cpp:122] Setting up group2_block0_conv1
I0315 06:32:26.834895 53024 net.cpp:129] Top shape: 128 256 8 8 (2097152)
I0315 06:32:26.834911 53024 net.cpp:137] Memory required for data: 957875712
I0315 06:32:26.834931 53024 layer_factory.hpp:77] Creating layer group2_block0_conv1_bn
I0315 06:32:26.834947 53024 net.cpp:84] Creating Layer group2_block0_conv1_bn
I0315 06:32:26.834960 53024 net.cpp:406] group2_block0_conv1_bn <- group2_block0_conv1
I0315 06:32:26.834975 53024 net.cpp:367] group2_block0_conv1_bn -> group2_block0_conv1 (in-place)
I0315 06:32:26.835253 53024 net.cpp:122] Setting up group2_block0_conv1_bn
I0315 06:32:26.835263 53024 net.cpp:129] Top shape: 128 256 8 8 (2097152)
I0315 06:32:26.835278 53024 net.cpp:137] Memory required for data: 966264320
I0315 06:32:26.835299 53024 layer_factory.hpp:77] Creating layer group2_block0_conv1_scale
I0315 06:32:26.835314 53024 net.cpp:84] Creating Layer group2_block0_conv1_scale
I0315 06:32:26.835326 53024 net.cpp:406] group2_block0_conv1_scale <- group2_block0_conv1
I0315 06:32:26.835340 53024 net.cpp:367] group2_block0_conv1_scale -> group2_block0_conv1 (in-place)
I0315 06:32:26.835402 53024 layer_factory.hpp:77] Creating layer group2_block0_conv1_scale
I0315 06:32:26.835559 53024 net.cpp:122] Setting up group2_block0_conv1_scale
I0315 06:32:26.835569 53024 net.cpp:129] Top shape: 128 256 8 8 (2097152)
I0315 06:32:26.835584 53024 net.cpp:137] Memory required for data: 974652928
I0315 06:32:26.835602 53024 layer_factory.hpp:77] Creating layer group2_block0_proj
I0315 06:32:26.835620 53024 net.cpp:84] Creating Layer group2_block0_proj
I0315 06:32:26.835633 53024 net.cpp:406] group2_block0_proj <- group1_block8_sum_group1_block8_sum_0_split_1
I0315 06:32:26.835649 53024 net.cpp:380] group2_block0_proj -> group2_block0_proj
I0315 06:32:26.838858 53024 net.cpp:122] Setting up group2_block0_proj
I0315 06:32:26.838871 53024 net.cpp:129] Top shape: 128 256 8 8 (2097152)
I0315 06:32:26.838886 53024 net.cpp:137] Memory required for data: 983041536
I0315 06:32:26.838907 53024 layer_factory.hpp:77] Creating layer group2_block0_proj_bn
I0315 06:32:26.838922 53024 net.cpp:84] Creating Layer group2_block0_proj_bn
I0315 06:32:26.838933 53024 net.cpp:406] group2_block0_proj_bn <- group2_block0_proj
I0315 06:32:26.838948 53024 net.cpp:367] group2_block0_proj_bn -> group2_block0_proj (in-place)
I0315 06:32:26.839223 53024 net.cpp:122] Setting up group2_block0_proj_bn
I0315 06:32:26.839233 53024 net.cpp:129] Top shape: 128 256 8 8 (2097152)
I0315 06:32:26.839248 53024 net.cpp:137] Memory required for data: 991430144
I0315 06:32:26.839269 53024 layer_factory.hpp:77] Creating layer group2_block0_proj_scale
I0315 06:32:26.839285 53024 net.cpp:84] Creating Layer group2_block0_proj_scale
I0315 06:32:26.839296 53024 net.cpp:406] group2_block0_proj_scale <- group2_block0_proj
I0315 06:32:26.839310 53024 net.cpp:367] group2_block0_proj_scale -> group2_block0_proj (in-place)
I0315 06:32:26.839370 53024 layer_factory.hpp:77] Creating layer group2_block0_proj_scale
I0315 06:32:26.839529 53024 net.cpp:122] Setting up group2_block0_proj_scale
I0315 06:32:26.839538 53024 net.cpp:129] Top shape: 128 256 8 8 (2097152)
I0315 06:32:26.839553 53024 net.cpp:137] Memory required for data: 999818752
I0315 06:32:26.839571 53024 layer_factory.hpp:77] Creating layer group2_block0_sum
I0315 06:32:26.839587 53024 net.cpp:84] Creating Layer group2_block0_sum
I0315 06:32:26.839598 53024 net.cpp:406] group2_block0_sum <- group2_block0_proj
I0315 06:32:26.839610 53024 net.cpp:406] group2_block0_sum <- group2_block0_conv1
I0315 06:32:26.839625 53024 net.cpp:380] group2_block0_sum -> group2_block0_sum
I0315 06:32:26.839666 53024 net.cpp:122] Setting up group2_block0_sum
I0315 06:32:26.839676 53024 net.cpp:129] Top shape: 128 256 8 8 (2097152)
I0315 06:32:26.839691 53024 net.cpp:137] Memory required for data: 1008207360
I0315 06:32:26.839702 53024 layer_factory.hpp:77] Creating layer group2_block0_sum_group2_block0_sum_0_split
I0315 06:32:26.839716 53024 net.cpp:84] Creating Layer group2_block0_sum_group2_block0_sum_0_split
I0315 06:32:26.839727 53024 net.cpp:406] group2_block0_sum_group2_block0_sum_0_split <- group2_block0_sum
I0315 06:32:26.839741 53024 net.cpp:380] group2_block0_sum_group2_block0_sum_0_split -> group2_block0_sum_group2_block0_sum_0_split_0
I0315 06:32:26.839758 53024 net.cpp:380] group2_block0_sum_group2_block0_sum_0_split -> group2_block0_sum_group2_block0_sum_0_split_1
I0315 06:32:26.839823 53024 net.cpp:122] Setting up group2_block0_sum_group2_block0_sum_0_split
I0315 06:32:26.839833 53024 net.cpp:129] Top shape: 128 256 8 8 (2097152)
I0315 06:32:26.839848 53024 net.cpp:129] Top shape: 128 256 8 8 (2097152)
I0315 06:32:26.839862 53024 net.cpp:137] Memory required for data: 1024984576
I0315 06:32:26.839874 53024 layer_factory.hpp:77] Creating layer group2_block1_conv0
I0315 06:32:26.839890 53024 net.cpp:84] Creating Layer group2_block1_conv0
I0315 06:32:26.839901 53024 net.cpp:406] group2_block1_conv0 <- group2_block0_sum_group2_block0_sum_0_split_0
I0315 06:32:26.839918 53024 net.cpp:380] group2_block1_conv0 -> group2_block1_conv0
I0315 06:32:26.846678 53024 net.cpp:122] Setting up group2_block1_conv0
I0315 06:32:26.846698 53024 net.cpp:129] Top shape: 128 256 8 8 (2097152)
I0315 06:32:26.846714 53024 net.cpp:137] Memory required for data: 1033373184
I0315 06:32:26.846735 53024 layer_factory.hpp:77] Creating layer group2_block1_conv0_bn
I0315 06:32:26.846752 53024 net.cpp:84] Creating Layer group2_block1_conv0_bn
I0315 06:32:26.846765 53024 net.cpp:406] group2_block1_conv0_bn <- group2_block1_conv0
I0315 06:32:26.846782 53024 net.cpp:367] group2_block1_conv0_bn -> group2_block1_conv0 (in-place)
I0315 06:32:26.847061 53024 net.cpp:122] Setting up group2_block1_conv0_bn
I0315 06:32:26.847071 53024 net.cpp:129] Top shape: 128 256 8 8 (2097152)
I0315 06:32:26.847086 53024 net.cpp:137] Memory required for data: 1041761792
I0315 06:32:26.847108 53024 layer_factory.hpp:77] Creating layer group2_block1_conv0_scale
I0315 06:32:26.847124 53024 net.cpp:84] Creating Layer group2_block1_conv0_scale
I0315 06:32:26.847136 53024 net.cpp:406] group2_block1_conv0_scale <- group2_block1_conv0
I0315 06:32:26.847151 53024 net.cpp:367] group2_block1_conv0_scale -> group2_block1_conv0 (in-place)
I0315 06:32:26.847211 53024 layer_factory.hpp:77] Creating layer group2_block1_conv0_scale
I0315 06:32:26.847370 53024 net.cpp:122] Setting up group2_block1_conv0_scale
I0315 06:32:26.847380 53024 net.cpp:129] Top shape: 128 256 8 8 (2097152)
I0315 06:32:26.847395 53024 net.cpp:137] Memory required for data: 1050150400
I0315 06:32:26.847414 53024 layer_factory.hpp:77] Creating layer group2_block1_conv0_relu
I0315 06:32:26.847429 53024 net.cpp:84] Creating Layer group2_block1_conv0_relu
I0315 06:32:26.847440 53024 net.cpp:406] group2_block1_conv0_relu <- group2_block1_conv0
I0315 06:32:26.847453 53024 net.cpp:367] group2_block1_conv0_relu -> group2_block1_conv0 (in-place)
I0315 06:32:26.848409 53024 net.cpp:122] Setting up group2_block1_conv0_relu
I0315 06:32:26.848420 53024 net.cpp:129] Top shape: 128 256 8 8 (2097152)
I0315 06:32:26.848435 53024 net.cpp:137] Memory required for data: 1058539008
I0315 06:32:26.848448 53024 layer_factory.hpp:77] Creating layer group2_block1_conv1
I0315 06:32:26.848466 53024 net.cpp:84] Creating Layer group2_block1_conv1
I0315 06:32:26.848479 53024 net.cpp:406] group2_block1_conv1 <- group2_block1_conv0
I0315 06:32:26.848495 53024 net.cpp:380] group2_block1_conv1 -> group2_block1_conv1
I0315 06:32:26.855217 53024 net.cpp:122] Setting up group2_block1_conv1
I0315 06:32:26.855233 53024 net.cpp:129] Top shape: 128 256 8 8 (2097152)
I0315 06:32:26.855249 53024 net.cpp:137] Memory required for data: 1066927616
I0315 06:32:26.855268 53024 layer_factory.hpp:77] Creating layer group2_block1_conv1_bn
I0315 06:32:26.855285 53024 net.cpp:84] Creating Layer group2_block1_conv1_bn
I0315 06:32:26.855298 53024 net.cpp:406] group2_block1_conv1_bn <- group2_block1_conv1
I0315 06:32:26.855314 53024 net.cpp:367] group2_block1_conv1_bn -> group2_block1_conv1 (in-place)
I0315 06:32:26.855602 53024 net.cpp:122] Setting up group2_block1_conv1_bn
I0315 06:32:26.855612 53024 net.cpp:129] Top shape: 128 256 8 8 (2097152)
I0315 06:32:26.855626 53024 net.cpp:137] Memory required for data: 1075316224
I0315 06:32:26.855648 53024 layer_factory.hpp:77] Creating layer group2_block1_conv1_scale
I0315 06:32:26.855664 53024 net.cpp:84] Creating Layer group2_block1_conv1_scale
I0315 06:32:26.855674 53024 net.cpp:406] group2_block1_conv1_scale <- group2_block1_conv1
I0315 06:32:26.855689 53024 net.cpp:367] group2_block1_conv1_scale -> group2_block1_conv1 (in-place)
I0315 06:32:26.855748 53024 layer_factory.hpp:77] Creating layer group2_block1_conv1_scale
I0315 06:32:26.855907 53024 net.cpp:122] Setting up group2_block1_conv1_scale
I0315 06:32:26.855918 53024 net.cpp:129] Top shape: 128 256 8 8 (2097152)
I0315 06:32:26.855933 53024 net.cpp:137] Memory required for data: 1083704832
I0315 06:32:26.855952 53024 layer_factory.hpp:77] Creating layer group2_block1_sum
I0315 06:32:26.855967 53024 net.cpp:84] Creating Layer group2_block1_sum
I0315 06:32:26.855978 53024 net.cpp:406] group2_block1_sum <- group2_block1_conv1
I0315 06:32:26.855990 53024 net.cpp:406] group2_block1_sum <- group2_block0_sum_group2_block0_sum_0_split_1
I0315 06:32:26.856005 53024 net.cpp:380] group2_block1_sum -> group2_block1_sum
I0315 06:32:26.856047 53024 net.cpp:122] Setting up group2_block1_sum
I0315 06:32:26.856057 53024 net.cpp:129] Top shape: 128 256 8 8 (2097152)
I0315 06:32:26.856072 53024 net.cpp:137] Memory required for data: 1092093440
I0315 06:32:26.856082 53024 layer_factory.hpp:77] Creating layer group2_block1_sum_group2_block1_sum_0_split
I0315 06:32:26.856097 53024 net.cpp:84] Creating Layer group2_block1_sum_group2_block1_sum_0_split
I0315 06:32:26.856108 53024 net.cpp:406] group2_block1_sum_group2_block1_sum_0_split <- group2_block1_sum
I0315 06:32:26.856122 53024 net.cpp:380] group2_block1_sum_group2_block1_sum_0_split -> group2_block1_sum_group2_block1_sum_0_split_0
I0315 06:32:26.856139 53024 net.cpp:380] group2_block1_sum_group2_block1_sum_0_split -> group2_block1_sum_group2_block1_sum_0_split_1
I0315 06:32:26.856204 53024 net.cpp:122] Setting up group2_block1_sum_group2_block1_sum_0_split
I0315 06:32:26.856215 53024 net.cpp:129] Top shape: 128 256 8 8 (2097152)
I0315 06:32:26.856230 53024 net.cpp:129] Top shape: 128 256 8 8 (2097152)
I0315 06:32:26.856243 53024 net.cpp:137] Memory required for data: 1108870656
I0315 06:32:26.856253 53024 layer_factory.hpp:77] Creating layer group2_block2_conv0
I0315 06:32:26.856271 53024 net.cpp:84] Creating Layer group2_block2_conv0
I0315 06:32:26.856282 53024 net.cpp:406] group2_block2_conv0 <- group2_block1_sum_group2_block1_sum_0_split_0
I0315 06:32:26.856299 53024 net.cpp:380] group2_block2_conv0 -> group2_block2_conv0
I0315 06:32:26.863024 53024 net.cpp:122] Setting up group2_block2_conv0
I0315 06:32:26.863041 53024 net.cpp:129] Top shape: 128 256 8 8 (2097152)
I0315 06:32:26.863059 53024 net.cpp:137] Memory required for data: 1117259264
I0315 06:32:26.863078 53024 layer_factory.hpp:77] Creating layer group2_block2_conv0_bn
I0315 06:32:26.863095 53024 net.cpp:84] Creating Layer group2_block2_conv0_bn
I0315 06:32:26.863107 53024 net.cpp:406] group2_block2_conv0_bn <- group2_block2_conv0
I0315 06:32:26.863123 53024 net.cpp:367] group2_block2_conv0_bn -> group2_block2_conv0 (in-place)
I0315 06:32:26.863407 53024 net.cpp:122] Setting up group2_block2_conv0_bn
I0315 06:32:26.863417 53024 net.cpp:129] Top shape: 128 256 8 8 (2097152)
I0315 06:32:26.863432 53024 net.cpp:137] Memory required for data: 1125647872
I0315 06:32:26.863454 53024 layer_factory.hpp:77] Creating layer group2_block2_conv0_scale
I0315 06:32:26.863471 53024 net.cpp:84] Creating Layer group2_block2_conv0_scale
I0315 06:32:26.863482 53024 net.cpp:406] group2_block2_conv0_scale <- group2_block2_conv0
I0315 06:32:26.863497 53024 net.cpp:367] group2_block2_conv0_scale -> group2_block2_conv0 (in-place)
I0315 06:32:26.863557 53024 layer_factory.hpp:77] Creating layer group2_block2_conv0_scale
I0315 06:32:26.863718 53024 net.cpp:122] Setting up group2_block2_conv0_scale
I0315 06:32:26.863729 53024 net.cpp:129] Top shape: 128 256 8 8 (2097152)
I0315 06:32:26.863742 53024 net.cpp:137] Memory required for data: 1134036480
I0315 06:32:26.863761 53024 layer_factory.hpp:77] Creating layer group2_block2_conv0_relu
I0315 06:32:26.863776 53024 net.cpp:84] Creating Layer group2_block2_conv0_relu
I0315 06:32:26.863787 53024 net.cpp:406] group2_block2_conv0_relu <- group2_block2_conv0
I0315 06:32:26.863801 53024 net.cpp:367] group2_block2_conv0_relu -> group2_block2_conv0 (in-place)
I0315 06:32:26.864311 53024 net.cpp:122] Setting up group2_block2_conv0_relu
I0315 06:32:26.864321 53024 net.cpp:129] Top shape: 128 256 8 8 (2097152)
I0315 06:32:26.864336 53024 net.cpp:137] Memory required for data: 1142425088
I0315 06:32:26.864347 53024 layer_factory.hpp:77] Creating layer group2_block2_conv1
I0315 06:32:26.864372 53024 net.cpp:84] Creating Layer group2_block2_conv1
I0315 06:32:26.864384 53024 net.cpp:406] group2_block2_conv1 <- group2_block2_conv0
I0315 06:32:26.864401 53024 net.cpp:380] group2_block2_conv1 -> group2_block2_conv1
I0315 06:32:26.871137 53024 net.cpp:122] Setting up group2_block2_conv1
I0315 06:32:26.871153 53024 net.cpp:129] Top shape: 128 256 8 8 (2097152)
I0315 06:32:26.871170 53024 net.cpp:137] Memory required for data: 1150813696
I0315 06:32:26.871191 53024 layer_factory.hpp:77] Creating layer group2_block2_conv1_bn
I0315 06:32:26.871206 53024 net.cpp:84] Creating Layer group2_block2_conv1_bn
I0315 06:32:26.871217 53024 net.cpp:406] group2_block2_conv1_bn <- group2_block2_conv1
I0315 06:32:26.871234 53024 net.cpp:367] group2_block2_conv1_bn -> group2_block2_conv1 (in-place)
I0315 06:32:26.871520 53024 net.cpp:122] Setting up group2_block2_conv1_bn
I0315 06:32:26.871529 53024 net.cpp:129] Top shape: 128 256 8 8 (2097152)
I0315 06:32:26.871544 53024 net.cpp:137] Memory required for data: 1159202304
I0315 06:32:26.871567 53024 layer_factory.hpp:77] Creating layer group2_block2_conv1_scale
I0315 06:32:26.871582 53024 net.cpp:84] Creating Layer group2_block2_conv1_scale
I0315 06:32:26.871593 53024 net.cpp:406] group2_block2_conv1_scale <- group2_block2_conv1
I0315 06:32:26.871608 53024 net.cpp:367] group2_block2_conv1_scale -> group2_block2_conv1 (in-place)
I0315 06:32:26.871670 53024 layer_factory.hpp:77] Creating layer group2_block2_conv1_scale
I0315 06:32:26.871834 53024 net.cpp:122] Setting up group2_block2_conv1_scale
I0315 06:32:26.871843 53024 net.cpp:129] Top shape: 128 256 8 8 (2097152)
I0315 06:32:26.871858 53024 net.cpp:137] Memory required for data: 1167590912
I0315 06:32:26.871876 53024 layer_factory.hpp:77] Creating layer group2_block2_sum
I0315 06:32:26.871925 53024 net.cpp:84] Creating Layer group2_block2_sum
I0315 06:32:26.871937 53024 net.cpp:406] group2_block2_sum <- group2_block2_conv1
I0315 06:32:26.871949 53024 net.cpp:406] group2_block2_sum <- group2_block1_sum_group2_block1_sum_0_split_1
I0315 06:32:26.871965 53024 net.cpp:380] group2_block2_sum -> group2_block2_sum
I0315 06:32:26.872005 53024 net.cpp:122] Setting up group2_block2_sum
I0315 06:32:26.872015 53024 net.cpp:129] Top shape: 128 256 8 8 (2097152)
I0315 06:32:26.872030 53024 net.cpp:137] Memory required for data: 1175979520
I0315 06:32:26.872041 53024 layer_factory.hpp:77] Creating layer group2_block2_sum_group2_block2_sum_0_split
I0315 06:32:26.872056 53024 net.cpp:84] Creating Layer group2_block2_sum_group2_block2_sum_0_split
I0315 06:32:26.872067 53024 net.cpp:406] group2_block2_sum_group2_block2_sum_0_split <- group2_block2_sum
I0315 06:32:26.872081 53024 net.cpp:380] group2_block2_sum_group2_block2_sum_0_split -> group2_block2_sum_group2_block2_sum_0_split_0
I0315 06:32:26.872098 53024 net.cpp:380] group2_block2_sum_group2_block2_sum_0_split -> group2_block2_sum_group2_block2_sum_0_split_1
I0315 06:32:26.872162 53024 net.cpp:122] Setting up group2_block2_sum_group2_block2_sum_0_split
I0315 06:32:26.872172 53024 net.cpp:129] Top shape: 128 256 8 8 (2097152)
I0315 06:32:26.872189 53024 net.cpp:129] Top shape: 128 256 8 8 (2097152)
I0315 06:32:26.872202 53024 net.cpp:137] Memory required for data: 1192756736
I0315 06:32:26.872212 53024 layer_factory.hpp:77] Creating layer group2_block3_conv0
I0315 06:32:26.872231 53024 net.cpp:84] Creating Layer group2_block3_conv0
I0315 06:32:26.872242 53024 net.cpp:406] group2_block3_conv0 <- group2_block2_sum_group2_block2_sum_0_split_0
I0315 06:32:26.872258 53024 net.cpp:380] group2_block3_conv0 -> group2_block3_conv0
I0315 06:32:26.879880 53024 net.cpp:122] Setting up group2_block3_conv0
I0315 06:32:26.879896 53024 net.cpp:129] Top shape: 128 256 8 8 (2097152)
I0315 06:32:26.879914 53024 net.cpp:137] Memory required for data: 1201145344
I0315 06:32:26.879933 53024 layer_factory.hpp:77] Creating layer group2_block3_conv0_bn
I0315 06:32:26.879951 53024 net.cpp:84] Creating Layer group2_block3_conv0_bn
I0315 06:32:26.879963 53024 net.cpp:406] group2_block3_conv0_bn <- group2_block3_conv0
I0315 06:32:26.879979 53024 net.cpp:367] group2_block3_conv0_bn -> group2_block3_conv0 (in-place)
I0315 06:32:26.880270 53024 net.cpp:122] Setting up group2_block3_conv0_bn
I0315 06:32:26.880280 53024 net.cpp:129] Top shape: 128 256 8 8 (2097152)
I0315 06:32:26.880295 53024 net.cpp:137] Memory required for data: 1209533952
I0315 06:32:26.880317 53024 layer_factory.hpp:77] Creating layer group2_block3_conv0_scale
I0315 06:32:26.880332 53024 net.cpp:84] Creating Layer group2_block3_conv0_scale
I0315 06:32:26.880344 53024 net.cpp:406] group2_block3_conv0_scale <- group2_block3_conv0
I0315 06:32:26.880358 53024 net.cpp:367] group2_block3_conv0_scale -> group2_block3_conv0 (in-place)
I0315 06:32:26.880419 53024 layer_factory.hpp:77] Creating layer group2_block3_conv0_scale
I0315 06:32:26.880583 53024 net.cpp:122] Setting up group2_block3_conv0_scale
I0315 06:32:26.880592 53024 net.cpp:129] Top shape: 128 256 8 8 (2097152)
I0315 06:32:26.880607 53024 net.cpp:137] Memory required for data: 1217922560
I0315 06:32:26.880625 53024 layer_factory.hpp:77] Creating layer group2_block3_conv0_relu
I0315 06:32:26.880640 53024 net.cpp:84] Creating Layer group2_block3_conv0_relu
I0315 06:32:26.880651 53024 net.cpp:406] group2_block3_conv0_relu <- group2_block3_conv0
I0315 06:32:26.880666 53024 net.cpp:367] group2_block3_conv0_relu -> group2_block3_conv0 (in-place)
I0315 06:32:26.881170 53024 net.cpp:122] Setting up group2_block3_conv0_relu
I0315 06:32:26.881181 53024 net.cpp:129] Top shape: 128 256 8 8 (2097152)
I0315 06:32:26.881196 53024 net.cpp:137] Memory required for data: 1226311168
I0315 06:32:26.881206 53024 layer_factory.hpp:77] Creating layer group2_block3_conv1
I0315 06:32:26.881225 53024 net.cpp:84] Creating Layer group2_block3_conv1
I0315 06:32:26.881237 53024 net.cpp:406] group2_block3_conv1 <- group2_block3_conv0
I0315 06:32:26.881253 53024 net.cpp:380] group2_block3_conv1 -> group2_block3_conv1
I0315 06:32:26.888023 53024 net.cpp:122] Setting up group2_block3_conv1
I0315 06:32:26.888041 53024 net.cpp:129] Top shape: 128 256 8 8 (2097152)
I0315 06:32:26.888058 53024 net.cpp:137] Memory required for data: 1234699776
I0315 06:32:26.888078 53024 layer_factory.hpp:77] Creating layer group2_block3_conv1_bn
I0315 06:32:26.888098 53024 net.cpp:84] Creating Layer group2_block3_conv1_bn
I0315 06:32:26.888109 53024 net.cpp:406] group2_block3_conv1_bn <- group2_block3_conv1
I0315 06:32:26.888126 53024 net.cpp:367] group2_block3_conv1_bn -> group2_block3_conv1 (in-place)
I0315 06:32:26.888413 53024 net.cpp:122] Setting up group2_block3_conv1_bn
I0315 06:32:26.888423 53024 net.cpp:129] Top shape: 128 256 8 8 (2097152)
I0315 06:32:26.888438 53024 net.cpp:137] Memory required for data: 1243088384
I0315 06:32:26.888460 53024 layer_factory.hpp:77] Creating layer group2_block3_conv1_scale
I0315 06:32:26.888476 53024 net.cpp:84] Creating Layer group2_block3_conv1_scale
I0315 06:32:26.888489 53024 net.cpp:406] group2_block3_conv1_scale <- group2_block3_conv1
I0315 06:32:26.888502 53024 net.cpp:367] group2_block3_conv1_scale -> group2_block3_conv1 (in-place)
I0315 06:32:26.888564 53024 layer_factory.hpp:77] Creating layer group2_block3_conv1_scale
I0315 06:32:26.888739 53024 net.cpp:122] Setting up group2_block3_conv1_scale
I0315 06:32:26.888751 53024 net.cpp:129] Top shape: 128 256 8 8 (2097152)
I0315 06:32:26.888766 53024 net.cpp:137] Memory required for data: 1251476992
I0315 06:32:26.888783 53024 layer_factory.hpp:77] Creating layer group2_block3_sum
I0315 06:32:26.888798 53024 net.cpp:84] Creating Layer group2_block3_sum
I0315 06:32:26.888810 53024 net.cpp:406] group2_block3_sum <- group2_block3_conv1
I0315 06:32:26.888823 53024 net.cpp:406] group2_block3_sum <- group2_block2_sum_group2_block2_sum_0_split_1
I0315 06:32:26.888839 53024 net.cpp:380] group2_block3_sum -> group2_block3_sum
I0315 06:32:26.888880 53024 net.cpp:122] Setting up group2_block3_sum
I0315 06:32:26.888890 53024 net.cpp:129] Top shape: 128 256 8 8 (2097152)
I0315 06:32:26.888906 53024 net.cpp:137] Memory required for data: 1259865600
I0315 06:32:26.888916 53024 layer_factory.hpp:77] Creating layer group2_block3_sum_group2_block3_sum_0_split
I0315 06:32:26.888931 53024 net.cpp:84] Creating Layer group2_block3_sum_group2_block3_sum_0_split
I0315 06:32:26.888942 53024 net.cpp:406] group2_block3_sum_group2_block3_sum_0_split <- group2_block3_sum
I0315 06:32:26.888955 53024 net.cpp:380] group2_block3_sum_group2_block3_sum_0_split -> group2_block3_sum_group2_block3_sum_0_split_0
I0315 06:32:26.888972 53024 net.cpp:380] group2_block3_sum_group2_block3_sum_0_split -> group2_block3_sum_group2_block3_sum_0_split_1
I0315 06:32:26.889039 53024 net.cpp:122] Setting up group2_block3_sum_group2_block3_sum_0_split
I0315 06:32:26.889048 53024 net.cpp:129] Top shape: 128 256 8 8 (2097152)
I0315 06:32:26.889063 53024 net.cpp:129] Top shape: 128 256 8 8 (2097152)
I0315 06:32:26.889077 53024 net.cpp:137] Memory required for data: 1276642816
I0315 06:32:26.889088 53024 layer_factory.hpp:77] Creating layer group2_block8_conv0
I0315 06:32:26.889107 53024 net.cpp:84] Creating Layer group2_block8_conv0
I0315 06:32:26.889118 53024 net.cpp:406] group2_block8_conv0 <- group2_block3_sum_group2_block3_sum_0_split_0
I0315 06:32:26.889134 53024 net.cpp:380] group2_block8_conv0 -> group2_block8_conv0
I0315 06:32:26.895884 53024 net.cpp:122] Setting up group2_block8_conv0
I0315 06:32:26.895901 53024 net.cpp:129] Top shape: 128 256 8 8 (2097152)
I0315 06:32:26.895918 53024 net.cpp:137] Memory required for data: 1285031424
I0315 06:32:26.895937 53024 layer_factory.hpp:77] Creating layer group2_block8_conv0_bn
I0315 06:32:26.895954 53024 net.cpp:84] Creating Layer group2_block8_conv0_bn
I0315 06:32:26.895967 53024 net.cpp:406] group2_block8_conv0_bn <- group2_block8_conv0
I0315 06:32:26.895983 53024 net.cpp:367] group2_block8_conv0_bn -> group2_block8_conv0 (in-place)
I0315 06:32:26.896271 53024 net.cpp:122] Setting up group2_block8_conv0_bn
I0315 06:32:26.896282 53024 net.cpp:129] Top shape: 128 256 8 8 (2097152)
I0315 06:32:26.896297 53024 net.cpp:137] Memory required for data: 1293420032
I0315 06:32:26.896318 53024 layer_factory.hpp:77] Creating layer group2_block8_conv0_scale
I0315 06:32:26.896335 53024 net.cpp:84] Creating Layer group2_block8_conv0_scale
I0315 06:32:26.896347 53024 net.cpp:406] group2_block8_conv0_scale <- group2_block8_conv0
I0315 06:32:26.896361 53024 net.cpp:367] group2_block8_conv0_scale -> group2_block8_conv0 (in-place)
I0315 06:32:26.896423 53024 layer_factory.hpp:77] Creating layer group2_block8_conv0_scale
I0315 06:32:26.896592 53024 net.cpp:122] Setting up group2_block8_conv0_scale
I0315 06:32:26.896602 53024 net.cpp:129] Top shape: 128 256 8 8 (2097152)
I0315 06:32:26.896617 53024 net.cpp:137] Memory required for data: 1301808640
I0315 06:32:26.896636 53024 layer_factory.hpp:77] Creating layer group2_block8_conv0_relu
I0315 06:32:26.896651 53024 net.cpp:84] Creating Layer group2_block8_conv0_relu
I0315 06:32:26.896661 53024 net.cpp:406] group2_block8_conv0_relu <- group2_block8_conv0
I0315 06:32:26.896674 53024 net.cpp:367] group2_block8_conv0_relu -> group2_block8_conv0 (in-place)
I0315 06:32:26.897651 53024 net.cpp:122] Setting up group2_block8_conv0_relu
I0315 06:32:26.897662 53024 net.cpp:129] Top shape: 128 256 8 8 (2097152)
I0315 06:32:26.897678 53024 net.cpp:137] Memory required for data: 1310197248
I0315 06:32:26.897689 53024 layer_factory.hpp:77] Creating layer group2_block8_conv1
I0315 06:32:26.897708 53024 net.cpp:84] Creating Layer group2_block8_conv1
I0315 06:32:26.897720 53024 net.cpp:406] group2_block8_conv1 <- group2_block8_conv0
I0315 06:32:26.897737 53024 net.cpp:380] group2_block8_conv1 -> group2_block8_conv1
I0315 06:32:26.904531 53024 net.cpp:122] Setting up group2_block8_conv1
I0315 06:32:26.904551 53024 net.cpp:129] Top shape: 128 256 8 8 (2097152)
I0315 06:32:26.904567 53024 net.cpp:137] Memory required for data: 1318585856
I0315 06:32:26.904587 53024 layer_factory.hpp:77] Creating layer group2_block8_conv1_bn
I0315 06:32:26.904604 53024 net.cpp:84] Creating Layer group2_block8_conv1_bn
I0315 06:32:26.904618 53024 net.cpp:406] group2_block8_conv1_bn <- group2_block8_conv1
I0315 06:32:26.904634 53024 net.cpp:367] group2_block8_conv1_bn -> group2_block8_conv1 (in-place)
I0315 06:32:26.904927 53024 net.cpp:122] Setting up group2_block8_conv1_bn
I0315 06:32:26.904937 53024 net.cpp:129] Top shape: 128 256 8 8 (2097152)
I0315 06:32:26.904952 53024 net.cpp:137] Memory required for data: 1326974464
I0315 06:32:26.904973 53024 layer_factory.hpp:77] Creating layer group2_block8_conv1_scale
I0315 06:32:26.904987 53024 net.cpp:84] Creating Layer group2_block8_conv1_scale
I0315 06:32:26.904999 53024 net.cpp:406] group2_block8_conv1_scale <- group2_block8_conv1
I0315 06:32:26.905014 53024 net.cpp:367] group2_block8_conv1_scale -> group2_block8_conv1 (in-place)
I0315 06:32:26.905076 53024 layer_factory.hpp:77] Creating layer group2_block8_conv1_scale
I0315 06:32:26.905241 53024 net.cpp:122] Setting up group2_block8_conv1_scale
I0315 06:32:26.905252 53024 net.cpp:129] Top shape: 128 256 8 8 (2097152)
I0315 06:32:26.905267 53024 net.cpp:137] Memory required for data: 1335363072
I0315 06:32:26.905285 53024 layer_factory.hpp:77] Creating layer group2_block8_sum
I0315 06:32:26.905300 53024 net.cpp:84] Creating Layer group2_block8_sum
I0315 06:32:26.905311 53024 net.cpp:406] group2_block8_sum <- group2_block8_conv1
I0315 06:32:26.905324 53024 net.cpp:406] group2_block8_sum <- group2_block3_sum_group2_block3_sum_0_split_1
I0315 06:32:26.905339 53024 net.cpp:380] group2_block8_sum -> group2_block8_sum
I0315 06:32:26.905381 53024 net.cpp:122] Setting up group2_block8_sum
I0315 06:32:26.905391 53024 net.cpp:129] Top shape: 128 256 8 8 (2097152)
I0315 06:32:26.905406 53024 net.cpp:137] Memory required for data: 1343751680
I0315 06:32:26.905416 53024 layer_factory.hpp:77] Creating layer global_avg_pool
I0315 06:32:26.905432 53024 net.cpp:84] Creating Layer global_avg_pool
I0315 06:32:26.905444 53024 net.cpp:406] global_avg_pool <- group2_block8_sum
I0315 06:32:26.905458 53024 net.cpp:380] global_avg_pool -> global_avg_pool
I0315 06:32:26.906044 53024 net.cpp:122] Setting up global_avg_pool
I0315 06:32:26.906055 53024 net.cpp:129] Top shape: 128 256 1 1 (32768)
I0315 06:32:26.906070 53024 net.cpp:137] Memory required for data: 1343882752
I0315 06:32:26.906081 53024 layer_factory.hpp:77] Creating layer fc
I0315 06:32:26.906100 53024 net.cpp:84] Creating Layer fc
I0315 06:32:26.906112 53024 net.cpp:406] fc <- global_avg_pool
I0315 06:32:26.906128 53024 net.cpp:380] fc -> fc
I0315 06:32:26.906311 53024 net.cpp:122] Setting up fc
I0315 06:32:26.906321 53024 net.cpp:129] Top shape: 128 10 (1280)
I0315 06:32:26.906335 53024 net.cpp:137] Memory required for data: 1343887872
I0315 06:32:26.906353 53024 layer_factory.hpp:77] Creating layer fc_fc_0_split
I0315 06:32:26.906368 53024 net.cpp:84] Creating Layer fc_fc_0_split
I0315 06:32:26.906378 53024 net.cpp:406] fc_fc_0_split <- fc
I0315 06:32:26.906394 53024 net.cpp:380] fc_fc_0_split -> fc_fc_0_split_0
I0315 06:32:26.906409 53024 net.cpp:380] fc_fc_0_split -> fc_fc_0_split_1
I0315 06:32:26.906469 53024 net.cpp:122] Setting up fc_fc_0_split
I0315 06:32:26.906481 53024 net.cpp:129] Top shape: 128 10 (1280)
I0315 06:32:26.906494 53024 net.cpp:129] Top shape: 128 10 (1280)
I0315 06:32:26.906507 53024 net.cpp:137] Memory required for data: 1343898112
I0315 06:32:26.906518 53024 layer_factory.hpp:77] Creating layer loss
I0315 06:32:26.906536 53024 net.cpp:84] Creating Layer loss
I0315 06:32:26.906548 53024 net.cpp:406] loss <- fc_fc_0_split_0
I0315 06:32:26.906560 53024 net.cpp:406] loss <- label_dataLayer_1_split_0
I0315 06:32:26.906574 53024 net.cpp:380] loss -> loss
I0315 06:32:26.906601 53024 layer_factory.hpp:77] Creating layer loss
I0315 06:32:26.907240 53024 net.cpp:122] Setting up loss
I0315 06:32:26.907251 53024 net.cpp:129] Top shape: (1)
I0315 06:32:26.907265 53024 net.cpp:132]     with loss weight 1
I0315 06:32:26.907326 53024 net.cpp:137] Memory required for data: 1343898116
I0315 06:32:26.907337 53024 layer_factory.hpp:77] Creating layer softmax
I0315 06:32:26.907351 53024 net.cpp:84] Creating Layer softmax
I0315 06:32:26.907362 53024 net.cpp:406] softmax <- fc_fc_0_split_1
I0315 06:32:26.907377 53024 net.cpp:380] softmax -> softmax
I0315 06:32:26.907968 53024 net.cpp:122] Setting up softmax
I0315 06:32:26.907977 53024 net.cpp:129] Top shape: 128 10 (1280)
I0315 06:32:26.907992 53024 net.cpp:137] Memory required for data: 1343903236
I0315 06:32:26.908004 53024 layer_factory.hpp:77] Creating layer Accuracy
I0315 06:32:26.908020 53024 net.cpp:84] Creating Layer Accuracy
I0315 06:32:26.908031 53024 net.cpp:406] Accuracy <- softmax
I0315 06:32:26.908043 53024 net.cpp:406] Accuracy <- label_dataLayer_1_split_1
I0315 06:32:26.908058 53024 net.cpp:380] Accuracy -> Accuracy
…
I0315 06:32:26.915376 53024 net.cpp:294] The NetState phase (1) differed from the phase (0) specified by a rule in layer dataLayer
I0315 06:32:26.915521 53024 net.cpp:51] Initializing net from parameters: 
name: "widenet32 with k=4-cifar10"
state {
  phase: TEST
}
layer {
  name: "dataLayer"
  type: "Data"
  top: "data"
  top: "label"
  include {
    phase: TEST
  }
  transform_param {
    mirror: true
    crop_size: 32
    mean_file: "examples/cifar10/mean.binaryproto"
  }
  data_param {
    source: "examples/cifar10/cifar10_test_lmdb"
    batch_size: 32
    backend: LMDB
  }
  image_data_param {
    shuffle: false
  }
}
layer {
  name: "first_conv"
  type: "Convolution"
  bottom: "data"
  top: "first_conv"
  param {
    lr_mult: 1
    decay_mult: 1
  }
  convolution_param {
    num_output: 16
    pad: 1
    kernel_size: 3
    stride: 1
    weight_filler {
      type: "xavier"
    }
  }
}
layer {
  name: "first_conv_bn"
  type: "BatchNorm"
  bottom: "first_conv"
  top: "first_conv"
  param {
    lr_mult: 0
    decay_mult: 0
  }
  param {
    lr_mult: 0
    decay_mult: 0
  }
  param {
    lr_mult: 0
    decay_mult: 0
  }
  batch_norm_param {
    moving_average_fraction: 0.9
  }
}
layer {
  name: "first_conv_scale"
  type: "Scale"
  bottom: "first_conv"
  top: "first_conv"
  scale_param {
    bias_term: true
  }
}
layer {
  name: "first_conv_relu"
  type: "ReLU"
  bottom: "first_conv"
  top: "first_conv"
}
layer {
  name: "group0_block0_conv0"
  type: "Convolution"
  bottom: "first_conv"
  top: "group0_block0_conv0"
  param {
    lr_mult: 1
    decay_mult: 1
  }
  convolution_param {
    num_output: 16
    pad: 1
    kernel_size: 3
    stride: 1
    weight_filler {
      type: "xavier"
    }
  }
}
layer {
  name: "group0_block0_conv0_bn"
  type: "BatchNorm"
  bottom: "group0_block0_conv0"
  top: "group0_block0_conv0"
  param {
    lr_mult: 0
    decay_mult: 0
  }
  param {
    lr_mult: 0
    decay_mult: 0
  }
  param {
    lr_mult: 0
    decay_mult: 0
  }
  batch_norm_param {
    moving_average_fraction: 0.9
  }
}
layer {
  name: "group0_block0_conv0_scale"
  type: "Scale"
  bottom: "group0_block0_conv0"
  top: "group0_block0_conv0"
  scale_param {
    bias_term: true
  }
}
layer {
  name: "group0_block0_conv0_relu"
  type: "ReLU"
  bottom: "group0_block0_conv0"
  top: "group0_block0_conv0"
}
layer {
  name: "group0_block0_conv1"
  type: "Convolution"
  bottom: "group0_block0_conv0"
  top: "group0_block0_conv1"
  param {
    lr_mult: 1
    decay_mult: 1
  }
  convolution_param {
    num_output: 16
    pad: 1
    kernel_size: 3
    stride: 1
    weight_filler {
      type: "xavier"
    }
  }
}
layer {
  name: "group0_block0_conv1_bn"
  type: "BatchNorm"
  bottom: "group0_block0_conv1"
  top: "group0_block0_conv1"
  param {
    lr_mult: 0
    decay_mult: 0
  }
  param {
    lr_mult: 0
    decay_mult: 0
  }
  param {
    lr_mult: 0
    decay_mult: 0
  }
  batch_norm_param {
    moving_average_fraction: 0.9
  }
}
layer {
  name: "group0_block0_conv1_scale"
  type: "Scale"
  bottom: "group0_block0_conv1"
  top: "group0_block0_conv1"
  scale_param {
    bias_term: true
  }
}
layer {
  name: "group0_block0_sum"
  type: "Eltwise"
  bottom: "group0_block0_conv1"
  bottom: "first_conv"
  top: "group0_block0_sum"
  eltwise_param {
    operation: SUM
  }
}
layer {
  name: "group0_block1_conv0"
  type: "Convolution"
  bottom: "group0_block0_sum"
  top: "group0_block1_conv0"
  param {
    lr_mult: 1
    decay_mult: 1
  }
  convolution_param {
    num_output: 16
    pad: 1
    kernel_size: 3
    stride: 1
    weight_filler {
      type: "xavier"
    }
  }
}
layer {
  name: "group0_block1_conv0_bn"
  type: "BatchNorm"
  bottom: "group0_block1_conv0"
  top: "group0_block1_conv0"
  param {
    lr_mult: 0
    decay_mult: 0
  }
  param {
    lr_mult: 0
    decay_mult: 0
  }
  param {
    lr_mult: 0
    decay_mult: 0
  }
  batch_norm_param {
    moving_average_fraction: 0.9
  }
}
layer {
  name: "group0_block1_conv0_scale"
  type: "Scale"
  bottom: "group0_block1_conv0"
  top: "group0_block1_conv0"
  scale_param {
    bias_term: true
  }
}
layer {
  name: "group0_block1_conv0_relu"
  type: "ReLU"
  bottom: "group0_block1_conv0"
  top: "group0_block1_conv0"
}
layer {
  name: "group0_block1_conv1"
  type: "Convolution"
  bottom: "group0_block1_conv0"
  top: "group0_block1_conv1"
  param {
    lr_mult: 1
    decay_mult: 1
  }
  convolution_param {
    num_output: 16
    pad: 1
    kernel_size: 3
    stride: 1
    weight_filler {
      type: "xavier"
    }
  }
}
layer {
  name: "group0_block1_conv1_bn"
  type: "BatchNorm"
  bottom: "group0_block1_conv1"
  top: "group0_block1_conv1"
  param {
    lr_mult: 0
    decay_mult: 0
  }
  param {
    lr_mult: 0
    decay_mult: 0
  }
  param {
    lr_mult: 0
    decay_mult: 0
  }
  batch_norm_param {
    moving_average_fraction: 0.9
  }
}
layer {
  name: "group0_block1_conv1_scale"
  type: "Scale"
  bottom: "group0_block1_conv1"
  top: "group0_block1_conv1"
  scale_param {
    bias_term: true
  }
}
layer {
  name: "group0_block1_sum"
  type: "Eltwise"
  bottom: "group0_block1_conv1"
  bottom: "group0_block0_sum"
  top: "group0_block1_sum"
  eltwise_param {
    operation: SUM
  }
}
layer {
  name: "group0_block2_conv0"
  type: "Convolution"
  bottom: "group0_block1_sum"
  top: "group0_block2_conv0"
  param {
    lr_mult: 1
    decay_mult: 1
  }
  convolution_param {
    num_output: 16
    pad: 1
    kernel_size: 3
    stride: 1
    weight_filler {
      type: "xavier"
    }
  }
}
layer {
  name: "group0_block2_conv0_bn"
  type: "BatchNorm"
  bottom: "group0_block2_conv0"
  top: "group0_block2_conv0"
  param {
    lr_mult: 0
    decay_mult: 0
  }
  param {
    lr_mult: 0
    decay_mult: 0
  }
  param {
    lr_mult: 0
    decay_mult: 0
  }
  batch_norm_param {
    moving_average_fraction: 0.9
  }
}
layer {
  name: "group0_block2_conv0_scale"
  type: "Scale"
  bottom: "group0_block2_conv0"
  top: "group0_block2_conv0"
  scale_param {
    bias_term: true
  }
}
layer {
  name: "group0_block2_conv0_relu"
  type: "ReLU"
  bottom: "group0_block2_conv0"
  top: "group0_block2_conv0"
}
layer {
  name: "group0_block2_conv1"
  type: "Convolution"
  bottom: "group0_block2_conv0"
  top: "group0_block2_conv1"
  param {
    lr_mult: 1
    decay_mult: 1
  }
  convolution_param {
    num_output: 16
    pad: 1
    kernel_size: 3
    stride: 1
    weight_filler {
      type: "xavier"
    }
  }
}
layer {
  name: "group0_block2_conv1_bn"
  type: "BatchNorm"
  bottom: "group0_block2_conv1"
  top: "group0_block2_conv1"
  param {
    lr_mult: 0
    decay_mult: 0
  }
  param {
    lr_mult: 0
    decay_mult: 0
  }
  param {
    lr_mult: 0
    decay_mult: 0
  }
  batch_norm_param {
    moving_average_fraction: 0.9
  }
}
layer {
  name: "group0_block2_conv1_scale"
  type: "Scale"
  bottom: "group0_block2_conv1"
  top: "group0_block2_conv1"
  scale_param {
    bias_term: true
  }
}
layer {
  name: "group0_block2_sum"
  type: "Eltwise"
  bottom: "group0_block2_conv1"
  bottom: "group0_block1_sum"
  top: "group0_block2_sum"
  eltwise_param {
    operation: SUM
  }
}
layer {
  name: "group0_block3_conv0"
  type: "Convolution"
  bottom: "group0_block2_sum"
  top: "group0_block3_conv0"
  param {
    lr_mult: 1
    decay_mult: 1
  }
  convolution_param {
    num_output: 16
    pad: 1
    kernel_size: 3
    stride: 1
    weight_filler {
      type: "xavier"
    }
  }
}
layer {
  name: "group0_block3_conv0_bn"
  type: "BatchNorm"
  bottom: "group0_block3_conv0"
  top: "group0_block3_conv0"
  param {
    lr_mult: 0
    decay_mult: 0
  }
  param {
    lr_mult: 0
    decay_mult: 0
  }
  param {
    lr_mult: 0
    decay_mult: 0
  }
  batch_norm_param {
    moving_average_fraction: 0.9
  }
}
layer {
  name: "group0_block3_conv0_scale"
  type: "Scale"
  bottom: "group0_block3_conv0"
  top: "group0_block3_conv0"
  scale_param {
    bias_term: true
  }
}
layer {
  name: "group0_block3_conv0_relu"
  type: "ReLU"
  bottom: "group0_block3_conv0"
  top: "group0_block3_conv0"
}
layer {
  name: "group0_block3_conv1"
  type: "Convolution"
  bottom: "group0_block3_conv0"
  top: "group0_block3_conv1"
  param {
    lr_mult: 1
    decay_mult: 1
  }
  convolution_param {
    num_output: 16
    pad: 1
    kernel_size: 3
    stride: 1
    weight_filler {
      type: "xavier"
    }
  }
}
layer {
  name: "group0_block3_conv1_bn"
  type: "BatchNorm"
  bottom: "group0_block3_conv1"
  top: "group0_block3_conv1"
  param {
    lr_mult: 0
    decay_mult: 0
  }
  param {
    lr_mult: 0
    decay_mult: 0
  }
  param {
    lr_mult: 0
    decay_mult: 0
  }
  batch_norm_param {
    moving_average_fraction: 0.9
  }
}
layer {
  name: "group0_block3_conv1_scale"
  type: "Scale"
  bottom: "group0_block3_conv1"
  top: "group0_block3_conv1"
  scale_param {
    bias_term: true
  }
}
layer {
  name: "group0_block3_sum"
  type: "Eltwise"
  bottom: "group0_block3_conv1"
  bottom: "group0_block2_sum"
  top: "group0_block3_sum"
  eltwise_param {
    operation: SUM
  }
}
layer {
  name: "group0_block8_conv0"
  type: "Convolution"
  bottom: "group0_block3_sum"
  top: "group0_block8_conv0"
  param {
    lr_mult: 1
    decay_mult: 1
  }
  convolution_param {
    num_output: 16
    pad: 1
    kernel_size: 3
    stride: 1
    weight_filler {
      type: "xavier"
    }
  }
}
layer {
  name: "group0_block8_conv0_bn"
  type: "BatchNorm"
  bottom: "group0_block8_conv0"
  top: "group0_block8_conv0"
  param {
    lr_mult: 0
    decay_mult: 0
  }
  param {
    lr_mult: 0
    decay_mult: 0
  }
  param {
    lr_mult: 0
    decay_mult: 0
  }
  batch_norm_param {
    moving_average_fraction: 0.9
  }
}
layer {
  name: "group0_block8_conv0_scale"
  type: "Scale"
  bottom: "group0_block8_conv0"
  top: "group0_block8_conv0"
  scale_param {
    bias_term: true
  }
}
layer {
  name: "group0_block8_conv0_relu"
  type: "ReLU"
  bottom: "group0_block8_conv0"
  top: "group0_block8_conv0"
}
layer {
  name: "group0_block8_conv1"
  type: "Convolution"
  bottom: "group0_block8_conv0"
  top: "group0_block8_conv1"
  param {
    lr_mult: 1
    decay_mult: 1
  }
  convolution_param {
    num_output: 16
    pad: 1
    kernel_size: 3
    stride: 1
    weight_filler {
      type: "xavier"
    }
  }
}
layer {
  name: "group0_block8_conv1_bn"
  type: "BatchNorm"
  bottom: "group0_block8_conv1"
  top: "group0_block8_conv1"
  param {
    lr_mult: 0
    decay_mult: 0
  }
  param {
    lr_mult: 0
    decay_mult: 0
  }
  param {
    lr_mult: 0
    decay_mult: 0
  }
  batch_norm_param {
    moving_average_fraction: 0.9
  }
}
layer {
  name: "group0_block8_conv1_scale"
  type: "Scale"
  bottom: "group0_block8_conv1"
  top: "group0_block8_conv1"
  scale_param {
    bias_term: true
  }
}
layer {
  name: "group0_block8_sum"
  type: "Eltwise"
  bottom: "group0_block8_conv1"
  bottom: "group0_block3_sum"
  top: "group0_block8_sum"
  eltwise_param {
    operation: SUM
  }
}
layer {
  name: "group1_block0_conv0"
  type: "Convolution"
  bottom: "group0_block8_sum"
  top: "group1_block0_conv0"
  param {
    lr_mult: 1
    decay_mult: 1
  }
  convolution_param {
    num_output: 64
    pad: 1
    kernel_size: 3
    stride: 2
    weight_filler {
      type: "xavier"
    }
  }
}
layer {
  name: "group1_block0_conv0_bn"
  type: "BatchNorm"
  bottom: "group1_block0_conv0"
  top: "group1_block0_conv0"
  param {
    lr_mult: 0
    decay_mult: 0
  }
  param {
    lr_mult: 0
    decay_mult: 0
  }
  param {
    lr_mult: 0
    decay_mult: 0
  }
  batch_norm_param {
    moving_average_fraction: 0.9
  }
}
layer {
  name: "group1_block0_conv0_scale"
  type: "Scale"
  bottom: "group1_block0_conv0"
  top: "group1_block0_conv0"
  scale_param {
    bias_term: true
  }
}
layer {
  name: "group1_block0_conv0_relu"
  type: "ReLU"
  bottom: "group1_block0_conv0"
  top: "group1_block0_conv0"
}
layer {
  name: "group1_block0_conv1"
  type: "Convolution"
  bottom: "group1_block0_conv0"
  top: "group1_block0_conv1"
  param {
    lr_mult: 1
    decay_mult: 1
  }
  convolution_param {
    num_output: 64
    pad: 1
    kernel_size: 3
    stride: 1
    weight_filler {
      type: "xavier"
    }
  }
}
layer {
  name: "group1_block0_conv1_bn"
  type: "BatchNorm"
  bottom: "group1_block0_conv1"
  top: "group1_block0_conv1"
  param {
    lr_mult: 0
    decay_mult: 0
  }
  param {
    lr_mult: 0
    decay_mult: 0
  }
  param {
    lr_mult: 0
    decay_mult: 0
  }
  batch_norm_param {
    moving_average_fraction: 0.9
  }
}
layer {
  name: "group1_block0_conv1_scale"
  type: "Scale"
  bottom: "group1_block0_conv1"
  top: "group1_block0_conv1"
  scale_param {
    bias_term: true
  }
}
layer {
  name: "group1_block0_proj"
  type: "Convolution"
  bottom: "group0_block8_sum"
  top: "group1_block0_proj"
  param {
    lr_mult: 1
    decay_mult: 1
  }
  convolution_param {
    num_output: 64
    pad: 0
    kernel_size: 2
    stride: 2
    weight_filler {
      type: "xavier"
    }
  }
}
layer {
  name: "group1_block0_proj_bn"
  type: "BatchNorm"
  bottom: "group1_block0_proj"
  top: "group1_block0_proj"
  param {
    lr_mult: 0
    decay_mult: 0
  }
  param {
    lr_mult: 0
    decay_mult: 0
  }
  param {
    lr_mult: 0
    decay_mult: 0
  }
  batch_norm_param {
    moving_average_fraction: 0.9
  }
}
layer {
  name: "group1_block0_proj_scale"
  type: "Scale"
  bottom: "group1_block0_proj"
  top: "group1_block0_proj"
  scale_param {
    bias_term: true
  }
}
layer {
  name: "group1_block0_sum"
  type: "Eltwise"
  bottom: "group1_block0_proj"
  bottom: "group1_block0_conv1"
  top: "group1_block0_sum"
  eltwise_param {
    operation: SUM
  }
}
layer {
  name: "group1_block1_conv0"
  type: "Convolution"
  bottom: "group1_block0_sum"
  top: "group1_block1_conv0"
  param {
    lr_mult: 1
    decay_mult: 1
  }
  convolution_param {
    num_output: 64
    pad: 1
    kernel_size: 3
    stride: 1
    weight_filler {
      type: "xavier"
    }
  }
}
layer {
  name: "group1_block1_conv0_bn"
  type: "BatchNorm"
  bottom: "group1_block1_conv0"
  top: "group1_block1_conv0"
  param {
    lr_mult: 0
    decay_mult: 0
  }
  param {
    lr_mult: 0
    decay_mult: 0
  }
  param {
    lr_mult: 0
    decay_mult: 0
  }
  batch_norm_param {
    moving_average_fraction: 0.9
  }
}
layer {
  name: "group1_block1_conv0_scale"
  type: "Scale"
  bottom: "group1_block1_conv0"
  top: "group1_block1_conv0"
  scale_param {
    bias_term: true
  }
}
layer {
  name: "group1_block1_conv0_relu"
  type: "ReLU"
  bottom: "group1_block1_conv0"
  top: "group1_block1_conv0"
}
layer {
  name: "group1_block1_conv1"
  type: "Convolution"
  bottom: "group1_block1_conv0"
  top: "group1_block1_conv1"
  param {
    lr_mult: 1
    decay_mult: 1
  }
  convolution_param {
    num_output: 64
    pad: 1
    kernel_size: 3
    stride: 1
    weight_filler {
      type: "xavier"
    }
  }
}
layer {
  name: "group1_block1_conv1_bn"
  type: "BatchNorm"
  bottom: "group1_block1_conv1"
  top: "group1_block1_conv1"
  param {
    lr_mult: 0
    decay_mult: 0
  }
  param {
    lr_mult: 0
    decay_mult: 0
  }
  param {
    lr_mult: 0
    decay_mult: 0
  }
  batch_norm_param {
    moving_average_fraction: 0.9
  }
}
layer {
  name: "group1_block1_conv1_scale"
  type: "Scale"
  bottom: "group1_block1_conv1"
  top: "group1_block1_conv1"
  scale_param {
    bias_term: true
  }
}
layer {
  name: "group1_block1_sum"
  type: "Eltwise"
  bottom: "group1_block1_conv1"
  bottom: "group1_block0_sum"
  top: "group1_block1_sum"
  eltwise_param {
    operation: SUM
  }
}
layer {
  name: "group1_block2_conv0"
  type: "Convolution"
  bottom: "group1_block1_sum"
  top: "group1_block2_conv0"
  param {
    lr_mult: 1
    decay_mult: 1
  }
  convolution_param {
    num_output: 64
    pad: 1
    kernel_size: 3
    stride: 1
    weight_filler {
      type: "xavier"
    }
  }
}
layer {
  name: "group1_block2_conv0_bn"
  type: "BatchNorm"
  bottom: "group1_block2_conv0"
  top: "group1_block2_conv0"
  param {
    lr_mult: 0
    decay_mult: 0
  }
  param {
    lr_mult: 0
    decay_mult: 0
  }
  param {
    lr_mult: 0
    decay_mult: 0
  }
  batch_norm_param {
    moving_average_fraction: 0.9
  }
}
layer {
  name: "group1_block2_conv0_scale"
  type: "Scale"
  bottom: "group1_block2_conv0"
  top: "group1_block2_conv0"
  scale_param {
    bias_term: true
  }
}
layer {
  name: "group1_block2_conv0_relu"
  type: "ReLU"
  bottom: "group1_block2_conv0"
  top: "group1_block2_conv0"
}
layer {
  name: "group1_block2_conv1"
  type: "Convolution"
  bottom: "group1_block2_conv0"
  top: "group1_block2_conv1"
  param {
    lr_mult: 1
    decay_mult: 1
  }
  convolution_param {
    num_output: 64
    pad: 1
    kernel_size: 3
    stride: 1
    weight_filler {
      type: "xavier"
    }
  }
}
layer {
  name: "group1_block2_conv1_bn"
  type: "BatchNorm"
  bottom: "group1_block2_conv1"
  top: "group1_block2_conv1"
  param {
    lr_mult: 0
    decay_mult: 0
  }
  param {
    lr_mult: 0
    decay_mult: 0
  }
  param {
    lr_mult: 0
    decay_mult: 0
  }
  batch_norm_param {
    moving_average_fraction: 0.9
  }
}
layer {
  name: "group1_block2_conv1_scale"
  type: "Scale"
  bottom: "group1_block2_conv1"
  top: "group1_block2_conv1"
  scale_param {
    bias_term: true
  }
}
layer {
  name: "group1_block2_sum"
  type: "Eltwise"
  bottom: "group1_block2_conv1"
  bottom: "group1_block1_sum"
  top: "group1_block2_sum"
  eltwise_param {
    operation: SUM
  }
}
layer {
  name: "group1_block3_conv0"
  type: "Convolution"
  bottom: "group1_block2_sum"
  top: "group1_block3_conv0"
  param {
    lr_mult: 1
    decay_mult: 1
  }
  convolution_param {
    num_output: 64
    pad: 1
    kernel_size: 3
    stride: 1
    weight_filler {
      type: "xavier"
    }
  }
}
layer {
  name: "group1_block3_conv0_bn"
  type: "BatchNorm"
  bottom: "group1_block3_conv0"
  top: "group1_block3_conv0"
  param {
    lr_mult: 0
    decay_mult: 0
  }
  param {
    lr_mult: 0
    decay_mult: 0
  }
  param {
    lr_mult: 0
    decay_mult: 0
  }
  batch_norm_param {
    moving_average_fraction: 0.9
  }
}
layer {
  name: "group1_block3_conv0_scale"
  type: "Scale"
  bottom: "group1_block3_conv0"
  top: "group1_block3_conv0"
  scale_param {
    bias_term: true
  }
}
layer {
  name: "group1_block3_conv0_relu"
  type: "ReLU"
  bottom: "group1_block3_conv0"
  top: "group1_block3_conv0"
}
layer {
  name: "group1_block3_conv1"
  type: "Convolution"
  bottom: "group1_block3_conv0"
  top: "group1_block3_conv1"
  param {
    lr_mult: 1
    decay_mult: 1
  }
  convolution_param {
    num_output: 64
    pad: 1
    kernel_size: 3
    stride: 1
    weight_filler {
      type: "xavier"
    }
  }
}
layer {
  name: "group1_block3_conv1_bn"
  type: "BatchNorm"
  bottom: "group1_block3_conv1"
  top: "group1_block3_conv1"
  param {
    lr_mult: 0
    decay_mult: 0
  }
  param {
    lr_mult: 0
    decay_mult: 0
  }
  param {
    lr_mult: 0
    decay_mult: 0
  }
  batch_norm_param {
    moving_average_fraction: 0.9
  }
}
layer {
  name: "group1_block3_conv1_scale"
  type: "Scale"
  bottom: "group1_block3_conv1"
  top: "group1_block3_conv1"
  scale_param {
    bias_term: true
  }
}
layer {
  name: "group1_block3_sum"
  type: "Eltwise"
  bottom: "group1_block3_conv1"
  bottom: "group1_block2_sum"
  top: "group1_block3_sum"
  eltwise_param {
    operation: SUM
  }
}
layer {
  name: "group1_block8_conv0"
  type: "Convolution"
  bottom: "group1_block3_sum"
  top: "group1_block8_conv0"
  param {
    lr_mult: 1
    decay_mult: 1
  }
  convolution_param {
    num_output: 64
    pad: 1
    kernel_size: 3
    stride: 1
    weight_filler {
      type: "xavier"
    }
  }
}
layer {
  name: "group1_block8_conv0_bn"
  type: "BatchNorm"
  bottom: "group1_block8_conv0"
  top: "group1_block8_conv0"
  param {
    lr_mult: 0
    decay_mult: 0
  }
  param {
    lr_mult: 0
    decay_mult: 0
  }
  param {
    lr_mult: 0
    decay_mult: 0
  }
  batch_norm_param {
    moving_average_fraction: 0.9
  }
}
layer {
  name: "group1_block8_conv0_scale"
  type: "Scale"
  bottom: "group1_block8_conv0"
  top: "group1_block8_conv0"
  scale_param {
    bias_term: true
  }
}
layer {
  name: "group1_block8_conv0_relu"
  type: "ReLU"
  bottom: "group1_block8_conv0"
  top: "group1_block8_conv0"
}
layer {
  name: "group1_block8_conv1"
  type: "Convolution"
  bottom: "group1_block8_conv0"
  top: "group1_block8_conv1"
  param {
    lr_mult: 1
    decay_mult: 1
  }
  convolution_param {
    num_output: 64
    pad: 1
    kernel_size: 3
    stride: 1
    weight_filler {
      type: "xavier"
    }
  }
}
layer {
  name: "group1_block8_conv1_bn"
  type: "BatchNorm"
  bottom: "group1_block8_conv1"
  top: "group1_block8_conv1"
  param {
    lr_mult: 0
    decay_mult: 0
  }
  param {
    lr_mult: 0
    decay_mult: 0
  }
  param {
    lr_mult: 0
    decay_mult: 0
  }
  batch_norm_param {
    moving_average_fraction: 0.9
  }
}
layer {
  name: "group1_block8_conv1_scale"
  type: "Scale"
  bottom: "group1_block8_conv1"
  top: "group1_block8_conv1"
  scale_param {
    bias_term: true
  }
}
layer {
  name: "group1_block8_sum"
  type: "Eltwise"
  bottom: "group1_block8_conv1"
  bottom: "group1_block3_sum"
  top: "group1_block8_sum"
  eltwise_param {
    operation: SUM
  }
}
layer {
  name: "group2_block0_conv0"
  type: "Convolution"
  bottom: "group1_block8_sum"
  top: "group2_block0_conv0"
  param {
    lr_mult: 1
    decay_mult: 1
  }
  convolution_param {
    num_output: 256
    pad: 1
    kernel_size: 3
    stride: 2
    weight_filler {
      type: "xavier"
    }
  }
}
layer {
  name: "group2_block0_conv0_bn"
  type: "BatchNorm"
  bottom: "group2_block0_conv0"
  top: "group2_block0_conv0"
  param {
    lr_mult: 0
    decay_mult: 0
  }
  param {
    lr_mult: 0
    decay_mult: 0
  }
  param {
    lr_mult: 0
    decay_mult: 0
  }
  batch_norm_param {
    moving_average_fraction: 0.9
  }
}
layer {
  name: "group2_block0_conv0_scale"
  type: "Scale"
  bottom: "group2_block0_conv0"
  top: "group2_block0_conv0"
  scale_param {
    bias_term: true
  }
}
layer {
  name: "group2_block0_conv0_relu"
  type: "ReLU"
  bottom: "group2_block0_conv0"
  top: "group2_block0_conv0"
}
layer {
  name: "group2_block0_conv1"
  type: "Convolution"
  bottom: "group2_block0_conv0"
  top: "group2_block0_conv1"
  param {
    lr_mult: 1
    decay_mult: 1
  }
  convolution_param {
    num_output: 256
    pad: 1
    kernel_size: 3
    stride: 1
    weight_filler {
      type: "xavier"
    }
  }
}
layer {
  name: "group2_block0_conv1_bn"
  type: "BatchNorm"
  bottom: "group2_block0_conv1"
  top: "group2_block0_conv1"
  param {
    lr_mult: 0
    decay_mult: 0
  }
  param {
    lr_mult: 0
    decay_mult: 0
  }
  param {
    lr_mult: 0
    decay_mult: 0
  }
  batch_norm_param {
    moving_average_fraction: 0.9
  }
}
layer {
  name: "group2_block0_conv1_scale"
  type: "Scale"
  bottom: "group2_block0_conv1"
  top: "group2_block0_conv1"
  scale_param {
…
I0315 06:32:27.000536 53024 layer_factory.hpp:77] Creating layer group1_block2_conv0
I0315 06:32:27.000555 53024 net.cpp:84] Creating Layer group1_block2_conv0
I0315 06:32:27.000566 53024 net.cpp:406] group1_block2_conv0 <- group1_block1_sum_group1_block1_sum_0_split_0
I0315 06:32:27.000582 53024 net.cpp:380] group1_block2_conv0 -> group1_block2_conv0
I0315 06:32:27.004063 53024 net.cpp:122] Setting up group1_block2_conv0
I0315 06:32:27.004078 53024 net.cpp:129] Top shape: 32 64 16 16 (524288)
I0315 06:32:27.004096 53024 net.cpp:137] Memory required for data: 168165760
I0315 06:32:27.004114 53024 layer_factory.hpp:77] Creating layer group1_block2_conv0_bn
I0315 06:32:27.004132 53024 net.cpp:84] Creating Layer group1_block2_conv0_bn
I0315 06:32:27.004143 53024 net.cpp:406] group1_block2_conv0_bn <- group1_block2_conv0
I0315 06:32:27.004159 53024 net.cpp:367] group1_block2_conv0_bn -> group1_block2_conv0 (in-place)
I0315 06:32:27.004472 53024 net.cpp:122] Setting up group1_block2_conv0_bn
I0315 06:32:27.004482 53024 net.cpp:129] Top shape: 32 64 16 16 (524288)
I0315 06:32:27.004498 53024 net.cpp:137] Memory required for data: 170262912
I0315 06:32:27.004519 53024 layer_factory.hpp:77] Creating layer group1_block2_conv0_scale
I0315 06:32:27.004535 53024 net.cpp:84] Creating Layer group1_block2_conv0_scale
I0315 06:32:27.004547 53024 net.cpp:406] group1_block2_conv0_scale <- group1_block2_conv0
I0315 06:32:27.004561 53024 net.cpp:367] group1_block2_conv0_scale -> group1_block2_conv0 (in-place)
I0315 06:32:27.004633 53024 layer_factory.hpp:77] Creating layer group1_block2_conv0_scale
I0315 06:32:27.004822 53024 net.cpp:122] Setting up group1_block2_conv0_scale
I0315 06:32:27.004832 53024 net.cpp:129] Top shape: 32 64 16 16 (524288)
I0315 06:32:27.004848 53024 net.cpp:137] Memory required for data: 172360064
I0315 06:32:27.004865 53024 layer_factory.hpp:77] Creating layer group1_block2_conv0_relu
I0315 06:32:27.004879 53024 net.cpp:84] Creating Layer group1_block2_conv0_relu
I0315 06:32:27.004891 53024 net.cpp:406] group1_block2_conv0_relu <- group1_block2_conv0
I0315 06:32:27.004904 53024 net.cpp:367] group1_block2_conv0_relu -> group1_block2_conv0 (in-place)
I0315 06:32:27.005412 53024 net.cpp:122] Setting up group1_block2_conv0_relu
I0315 06:32:27.005422 53024 net.cpp:129] Top shape: 32 64 16 16 (524288)
I0315 06:32:27.005439 53024 net.cpp:137] Memory required for data: 174457216
I0315 06:32:27.005450 53024 layer_factory.hpp:77] Creating layer group1_block2_conv1
I0315 06:32:27.005467 53024 net.cpp:84] Creating Layer group1_block2_conv1
I0315 06:32:27.005479 53024 net.cpp:406] group1_block2_conv1 <- group1_block2_conv0
I0315 06:32:27.005496 53024 net.cpp:380] group1_block2_conv1 -> group1_block2_conv1
I0315 06:32:27.008630 53024 net.cpp:122] Setting up group1_block2_conv1
I0315 06:32:27.008641 53024 net.cpp:129] Top shape: 32 64 16 16 (524288)
I0315 06:32:27.008657 53024 net.cpp:137] Memory required for data: 176554368
I0315 06:32:27.008677 53024 layer_factory.hpp:77] Creating layer group1_block2_conv1_bn
I0315 06:32:27.008692 53024 net.cpp:84] Creating Layer group1_block2_conv1_bn
I0315 06:32:27.008715 53024 net.cpp:406] group1_block2_conv1_bn <- group1_block2_conv1
I0315 06:32:27.008730 53024 net.cpp:367] group1_block2_conv1_bn -> group1_block2_conv1 (in-place)
I0315 06:32:27.009054 53024 net.cpp:122] Setting up group1_block2_conv1_bn
I0315 06:32:27.009064 53024 net.cpp:129] Top shape: 32 64 16 16 (524288)
I0315 06:32:27.009080 53024 net.cpp:137] Memory required for data: 178651520
I0315 06:32:27.009101 53024 layer_factory.hpp:77] Creating layer group1_block2_conv1_scale
I0315 06:32:27.009117 53024 net.cpp:84] Creating Layer group1_block2_conv1_scale
I0315 06:32:27.009129 53024 net.cpp:406] group1_block2_conv1_scale <- group1_block2_conv1
I0315 06:32:27.009142 53024 net.cpp:367] group1_block2_conv1_scale -> group1_block2_conv1 (in-place)
I0315 06:32:27.009213 53024 layer_factory.hpp:77] Creating layer group1_block2_conv1_scale
I0315 06:32:27.009394 53024 net.cpp:122] Setting up group1_block2_conv1_scale
I0315 06:32:27.009404 53024 net.cpp:129] Top shape: 32 64 16 16 (524288)
I0315 06:32:27.009419 53024 net.cpp:137] Memory required for data: 180748672
I0315 06:32:27.009438 53024 layer_factory.hpp:77] Creating layer group1_block2_sum
I0315 06:32:27.009452 53024 net.cpp:84] Creating Layer group1_block2_sum
I0315 06:32:27.009464 53024 net.cpp:406] group1_block2_sum <- group1_block2_conv1
I0315 06:32:27.009476 53024 net.cpp:406] group1_block2_sum <- group1_block1_sum_group1_block1_sum_0_split_1
I0315 06:32:27.009490 53024 net.cpp:380] group1_block2_sum -> group1_block2_sum
I0315 06:32:27.009534 53024 net.cpp:122] Setting up group1_block2_sum
I0315 06:32:27.009544 53024 net.cpp:129] Top shape: 32 64 16 16 (524288)
I0315 06:32:27.009559 53024 net.cpp:137] Memory required for data: 182845824
I0315 06:32:27.009570 53024 layer_factory.hpp:77] Creating layer group1_block2_sum_group1_block2_sum_0_split
I0315 06:32:27.009584 53024 net.cpp:84] Creating Layer group1_block2_sum_group1_block2_sum_0_split
I0315 06:32:27.009595 53024 net.cpp:406] group1_block2_sum_group1_block2_sum_0_split <- group1_block2_sum
I0315 06:32:27.009609 53024 net.cpp:380] group1_block2_sum_group1_block2_sum_0_split -> group1_block2_sum_group1_block2_sum_0_split_0
I0315 06:32:27.009626 53024 net.cpp:380] group1_block2_sum_group1_block2_sum_0_split -> group1_block2_sum_group1_block2_sum_0_split_1
I0315 06:32:27.009696 53024 net.cpp:122] Setting up group1_block2_sum_group1_block2_sum_0_split
I0315 06:32:27.009706 53024 net.cpp:129] Top shape: 32 64 16 16 (524288)
I0315 06:32:27.009721 53024 net.cpp:129] Top shape: 32 64 16 16 (524288)
I0315 06:32:27.009734 53024 net.cpp:137] Memory required for data: 187040128
I0315 06:32:27.009745 53024 layer_factory.hpp:77] Creating layer group1_block3_conv0
I0315 06:32:27.009763 53024 net.cpp:84] Creating Layer group1_block3_conv0
I0315 06:32:27.009773 53024 net.cpp:406] group1_block3_conv0 <- group1_block2_sum_group1_block2_sum_0_split_0
I0315 06:32:27.009790 53024 net.cpp:380] group1_block3_conv0 -> group1_block3_conv0
I0315 06:32:27.012439 53024 net.cpp:122] Setting up group1_block3_conv0
I0315 06:32:27.012450 53024 net.cpp:129] Top shape: 32 64 16 16 (524288)
I0315 06:32:27.012466 53024 net.cpp:137] Memory required for data: 189137280
I0315 06:32:27.012485 53024 layer_factory.hpp:77] Creating layer group1_block3_conv0_bn
I0315 06:32:27.012500 53024 net.cpp:84] Creating Layer group1_block3_conv0_bn
I0315 06:32:27.012511 53024 net.cpp:406] group1_block3_conv0_bn <- group1_block3_conv0
I0315 06:32:27.012526 53024 net.cpp:367] group1_block3_conv0_bn -> group1_block3_conv0 (in-place)
I0315 06:32:27.012831 53024 net.cpp:122] Setting up group1_block3_conv0_bn
I0315 06:32:27.012842 53024 net.cpp:129] Top shape: 32 64 16 16 (524288)
I0315 06:32:27.012861 53024 net.cpp:137] Memory required for data: 191234432
I0315 06:32:27.012924 53024 layer_factory.hpp:77] Creating layer group1_block3_conv0_scale
I0315 06:32:27.012938 53024 net.cpp:84] Creating Layer group1_block3_conv0_scale
I0315 06:32:27.012949 53024 net.cpp:406] group1_block3_conv0_scale <- group1_block3_conv0
I0315 06:32:27.012964 53024 net.cpp:367] group1_block3_conv0_scale -> group1_block3_conv0 (in-place)
I0315 06:32:27.013036 53024 layer_factory.hpp:77] Creating layer group1_block3_conv0_scale
I0315 06:32:27.013213 53024 net.cpp:122] Setting up group1_block3_conv0_scale
I0315 06:32:27.013223 53024 net.cpp:129] Top shape: 32 64 16 16 (524288)
I0315 06:32:27.013238 53024 net.cpp:137] Memory required for data: 193331584
I0315 06:32:27.013257 53024 layer_factory.hpp:77] Creating layer group1_block3_conv0_relu
I0315 06:32:27.013270 53024 net.cpp:84] Creating Layer group1_block3_conv0_relu
I0315 06:32:27.013281 53024 net.cpp:406] group1_block3_conv0_relu <- group1_block3_conv0
I0315 06:32:27.013295 53024 net.cpp:367] group1_block3_conv0_relu -> group1_block3_conv0 (in-place)
I0315 06:32:27.014310 53024 net.cpp:122] Setting up group1_block3_conv0_relu
I0315 06:32:27.014322 53024 net.cpp:129] Top shape: 32 64 16 16 (524288)
I0315 06:32:27.014338 53024 net.cpp:137] Memory required for data: 195428736
I0315 06:32:27.014348 53024 layer_factory.hpp:77] Creating layer group1_block3_conv1
I0315 06:32:27.014367 53024 net.cpp:84] Creating Layer group1_block3_conv1
I0315 06:32:27.014379 53024 net.cpp:406] group1_block3_conv1 <- group1_block3_conv0
I0315 06:32:27.014396 53024 net.cpp:380] group1_block3_conv1 -> group1_block3_conv1
I0315 06:32:27.018012 53024 net.cpp:122] Setting up group1_block3_conv1
I0315 06:32:27.018023 53024 net.cpp:129] Top shape: 32 64 16 16 (524288)
I0315 06:32:27.018039 53024 net.cpp:137] Memory required for data: 197525888
I0315 06:32:27.018059 53024 layer_factory.hpp:77] Creating layer group1_block3_conv1_bn
I0315 06:32:27.018075 53024 net.cpp:84] Creating Layer group1_block3_conv1_bn
I0315 06:32:27.018086 53024 net.cpp:406] group1_block3_conv1_bn <- group1_block3_conv1
I0315 06:32:27.018102 53024 net.cpp:367] group1_block3_conv1_bn -> group1_block3_conv1 (in-place)
I0315 06:32:27.018414 53024 net.cpp:122] Setting up group1_block3_conv1_bn
I0315 06:32:27.018424 53024 net.cpp:129] Top shape: 32 64 16 16 (524288)
I0315 06:32:27.018440 53024 net.cpp:137] Memory required for data: 199623040
I0315 06:32:27.018460 53024 layer_factory.hpp:77] Creating layer group1_block3_conv1_scale
I0315 06:32:27.018476 53024 net.cpp:84] Creating Layer group1_block3_conv1_scale
I0315 06:32:27.018488 53024 net.cpp:406] group1_block3_conv1_scale <- group1_block3_conv1
I0315 06:32:27.018502 53024 net.cpp:367] group1_block3_conv1_scale -> group1_block3_conv1 (in-place)
I0315 06:32:27.018573 53024 layer_factory.hpp:77] Creating layer group1_block3_conv1_scale
I0315 06:32:27.018759 53024 net.cpp:122] Setting up group1_block3_conv1_scale
I0315 06:32:27.018770 53024 net.cpp:129] Top shape: 32 64 16 16 (524288)
I0315 06:32:27.018785 53024 net.cpp:137] Memory required for data: 201720192
I0315 06:32:27.018803 53024 layer_factory.hpp:77] Creating layer group1_block3_sum
I0315 06:32:27.018817 53024 net.cpp:84] Creating Layer group1_block3_sum
I0315 06:32:27.018829 53024 net.cpp:406] group1_block3_sum <- group1_block3_conv1
I0315 06:32:27.018841 53024 net.cpp:406] group1_block3_sum <- group1_block2_sum_group1_block2_sum_0_split_1
I0315 06:32:27.018857 53024 net.cpp:380] group1_block3_sum -> group1_block3_sum
I0315 06:32:27.018899 53024 net.cpp:122] Setting up group1_block3_sum
I0315 06:32:27.018909 53024 net.cpp:129] Top shape: 32 64 16 16 (524288)
I0315 06:32:27.018924 53024 net.cpp:137] Memory required for data: 203817344
I0315 06:32:27.018935 53024 layer_factory.hpp:77] Creating layer group1_block3_sum_group1_block3_sum_0_split
I0315 06:32:27.018949 53024 net.cpp:84] Creating Layer group1_block3_sum_group1_block3_sum_0_split
I0315 06:32:27.018959 53024 net.cpp:406] group1_block3_sum_group1_block3_sum_0_split <- group1_block3_sum
I0315 06:32:27.018973 53024 net.cpp:380] group1_block3_sum_group1_block3_sum_0_split -> group1_block3_sum_group1_block3_sum_0_split_0
I0315 06:32:27.018991 53024 net.cpp:380] group1_block3_sum_group1_block3_sum_0_split -> group1_block3_sum_group1_block3_sum_0_split_1
I0315 06:32:27.019060 53024 net.cpp:122] Setting up group1_block3_sum_group1_block3_sum_0_split
I0315 06:32:27.019070 53024 net.cpp:129] Top shape: 32 64 16 16 (524288)
I0315 06:32:27.019085 53024 net.cpp:129] Top shape: 32 64 16 16 (524288)
I0315 06:32:27.019099 53024 net.cpp:137] Memory required for data: 208011648
I0315 06:32:27.019110 53024 layer_factory.hpp:77] Creating layer group1_block8_conv0
I0315 06:32:27.019129 53024 net.cpp:84] Creating Layer group1_block8_conv0
I0315 06:32:27.019140 53024 net.cpp:406] group1_block8_conv0 <- group1_block3_sum_group1_block3_sum_0_split_0
I0315 06:32:27.019155 53024 net.cpp:380] group1_block8_conv0 -> group1_block8_conv0
I0315 06:32:27.021766 53024 net.cpp:122] Setting up group1_block8_conv0
I0315 06:32:27.021778 53024 net.cpp:129] Top shape: 32 64 16 16 (524288)
I0315 06:32:27.021795 53024 net.cpp:137] Memory required for data: 210108800
I0315 06:32:27.021814 53024 layer_factory.hpp:77] Creating layer group1_block8_conv0_bn
I0315 06:32:27.021828 53024 net.cpp:84] Creating Layer group1_block8_conv0_bn
I0315 06:32:27.021841 53024 net.cpp:406] group1_block8_conv0_bn <- group1_block8_conv0
I0315 06:32:27.021855 53024 net.cpp:367] group1_block8_conv0_bn -> group1_block8_conv0 (in-place)
I0315 06:32:27.022166 53024 net.cpp:122] Setting up group1_block8_conv0_bn
I0315 06:32:27.022176 53024 net.cpp:129] Top shape: 32 64 16 16 (524288)
I0315 06:32:27.022191 53024 net.cpp:137] Memory required for data: 212205952
I0315 06:32:27.022212 53024 layer_factory.hpp:77] Creating layer group1_block8_conv0_scale
I0315 06:32:27.022228 53024 net.cpp:84] Creating Layer group1_block8_conv0_scale
I0315 06:32:27.022238 53024 net.cpp:406] group1_block8_conv0_scale <- group1_block8_conv0
I0315 06:32:27.022253 53024 net.cpp:367] group1_block8_conv0_scale -> group1_block8_conv0 (in-place)
I0315 06:32:27.022322 53024 layer_factory.hpp:77] Creating layer group1_block8_conv0_scale
I0315 06:32:27.022501 53024 net.cpp:122] Setting up group1_block8_conv0_scale
I0315 06:32:27.022511 53024 net.cpp:129] Top shape: 32 64 16 16 (524288)
I0315 06:32:27.022526 53024 net.cpp:137] Memory required for data: 214303104
I0315 06:32:27.022544 53024 layer_factory.hpp:77] Creating layer group1_block8_conv0_relu
I0315 06:32:27.022558 53024 net.cpp:84] Creating Layer group1_block8_conv0_relu
I0315 06:32:27.022570 53024 net.cpp:406] group1_block8_conv0_relu <- group1_block8_conv0
I0315 06:32:27.022583 53024 net.cpp:367] group1_block8_conv0_relu -> group1_block8_conv0 (in-place)
I0315 06:32:27.023555 53024 net.cpp:122] Setting up group1_block8_conv0_relu
I0315 06:32:27.023566 53024 net.cpp:129] Top shape: 32 64 16 16 (524288)
I0315 06:32:27.023581 53024 net.cpp:137] Memory required for data: 216400256
I0315 06:32:27.023592 53024 layer_factory.hpp:77] Creating layer group1_block8_conv1
I0315 06:32:27.023612 53024 net.cpp:84] Creating Layer group1_block8_conv1
I0315 06:32:27.023622 53024 net.cpp:406] group1_block8_conv1 <- group1_block8_conv0
I0315 06:32:27.023638 53024 net.cpp:380] group1_block8_conv1 -> group1_block8_conv1
I0315 06:32:27.026764 53024 net.cpp:122] Setting up group1_block8_conv1
I0315 06:32:27.026775 53024 net.cpp:129] Top shape: 32 64 16 16 (524288)
I0315 06:32:27.026792 53024 net.cpp:137] Memory required for data: 218497408
I0315 06:32:27.026810 53024 layer_factory.hpp:77] Creating layer group1_block8_conv1_bn
I0315 06:32:27.026826 53024 net.cpp:84] Creating Layer group1_block8_conv1_bn
I0315 06:32:27.026839 53024 net.cpp:406] group1_block8_conv1_bn <- group1_block8_conv1
I0315 06:32:27.026854 53024 net.cpp:367] group1_block8_conv1_bn -> group1_block8_conv1 (in-place)
I0315 06:32:27.027160 53024 net.cpp:122] Setting up group1_block8_conv1_bn
I0315 06:32:27.027171 53024 net.cpp:129] Top shape: 32 64 16 16 (524288)
I0315 06:32:27.027186 53024 net.cpp:137] Memory required for data: 220594560
I0315 06:32:27.027209 53024 layer_factory.hpp:77] Creating layer group1_block8_conv1_scale
I0315 06:32:27.027221 53024 net.cpp:84] Creating Layer group1_block8_conv1_scale
I0315 06:32:27.027233 53024 net.cpp:406] group1_block8_conv1_scale <- group1_block8_conv1
I0315 06:32:27.027247 53024 net.cpp:367] group1_block8_conv1_scale -> group1_block8_conv1 (in-place)
I0315 06:32:27.027318 53024 layer_factory.hpp:77] Creating layer group1_block8_conv1_scale
I0315 06:32:27.027500 53024 net.cpp:122] Setting up group1_block8_conv1_scale
I0315 06:32:27.027510 53024 net.cpp:129] Top shape: 32 64 16 16 (524288)
I0315 06:32:27.027525 53024 net.cpp:137] Memory required for data: 222691712
I0315 06:32:27.027544 53024 layer_factory.hpp:77] Creating layer group1_block8_sum
I0315 06:32:27.027565 53024 net.cpp:84] Creating Layer group1_block8_sum
I0315 06:32:27.027575 53024 net.cpp:406] group1_block8_sum <- group1_block8_conv1
I0315 06:32:27.027588 53024 net.cpp:406] group1_block8_sum <- group1_block3_sum_group1_block3_sum_0_split_1
I0315 06:32:27.027603 53024 net.cpp:380] group1_block8_sum -> group1_block8_sum
I0315 06:32:27.027647 53024 net.cpp:122] Setting up group1_block8_sum
I0315 06:32:27.027657 53024 net.cpp:129] Top shape: 32 64 16 16 (524288)
I0315 06:32:27.027673 53024 net.cpp:137] Memory required for data: 224788864
I0315 06:32:27.027683 53024 layer_factory.hpp:77] Creating layer group1_block8_sum_group1_block8_sum_0_split
I0315 06:32:27.027696 53024 net.cpp:84] Creating Layer group1_block8_sum_group1_block8_sum_0_split
I0315 06:32:27.027707 53024 net.cpp:406] group1_block8_sum_group1_block8_sum_0_split <- group1_block8_sum
I0315 06:32:27.027721 53024 net.cpp:380] group1_block8_sum_group1_block8_sum_0_split -> group1_block8_sum_group1_block8_sum_0_split_0
I0315 06:32:27.027739 53024 net.cpp:380] group1_block8_sum_group1_block8_sum_0_split -> group1_block8_sum_group1_block8_sum_0_split_1
I0315 06:32:27.027808 53024 net.cpp:122] Setting up group1_block8_sum_group1_block8_sum_0_split
I0315 06:32:27.027818 53024 net.cpp:129] Top shape: 32 64 16 16 (524288)
I0315 06:32:27.027832 53024 net.cpp:129] Top shape: 32 64 16 16 (524288)
I0315 06:32:27.027846 53024 net.cpp:137] Memory required for data: 228983168
I0315 06:32:27.027858 53024 layer_factory.hpp:77] Creating layer group2_block0_conv0
I0315 06:32:27.027875 53024 net.cpp:84] Creating Layer group2_block0_conv0
I0315 06:32:27.027886 53024 net.cpp:406] group2_block0_conv0 <- group1_block8_sum_group1_block8_sum_0_split_0
I0315 06:32:27.027904 53024 net.cpp:380] group2_block0_conv0 -> group2_block0_conv0
I0315 06:32:27.032660 53024 net.cpp:122] Setting up group2_block0_conv0
I0315 06:32:27.032677 53024 net.cpp:129] Top shape: 32 256 8 8 (524288)
I0315 06:32:27.032694 53024 net.cpp:137] Memory required for data: 231080320
I0315 06:32:27.032714 53024 layer_factory.hpp:77] Creating layer group2_block0_conv0_bn
I0315 06:32:27.032732 53024 net.cpp:84] Creating Layer group2_block0_conv0_bn
I0315 06:32:27.032744 53024 net.cpp:406] group2_block0_conv0_bn <- group2_block0_conv0
I0315 06:32:27.032760 53024 net.cpp:367] group2_block0_conv0_bn -> group2_block0_conv0 (in-place)
I0315 06:32:27.033077 53024 net.cpp:122] Setting up group2_block0_conv0_bn
I0315 06:32:27.033087 53024 net.cpp:129] Top shape: 32 256 8 8 (524288)
I0315 06:32:27.033102 53024 net.cpp:137] Memory required for data: 233177472
I0315 06:32:27.033124 53024 layer_factory.hpp:77] Creating layer group2_block0_conv0_scale
I0315 06:32:27.033141 53024 net.cpp:84] Creating Layer group2_block0_conv0_scale
I0315 06:32:27.033152 53024 net.cpp:406] group2_block0_conv0_scale <- group2_block0_conv0
I0315 06:32:27.033172 53024 net.cpp:367] group2_block0_conv0_scale -> group2_block0_conv0 (in-place)
I0315 06:32:27.033251 53024 layer_factory.hpp:77] Creating layer group2_block0_conv0_scale
I0315 06:32:27.033430 53024 net.cpp:122] Setting up group2_block0_conv0_scale
I0315 06:32:27.033440 53024 net.cpp:129] Top shape: 32 256 8 8 (524288)
I0315 06:32:27.033455 53024 net.cpp:137] Memory required for data: 235274624
I0315 06:32:27.033474 53024 layer_factory.hpp:77] Creating layer group2_block0_conv0_relu
I0315 06:32:27.033488 53024 net.cpp:84] Creating Layer group2_block0_conv0_relu
I0315 06:32:27.033499 53024 net.cpp:406] group2_block0_conv0_relu <- group2_block0_conv0
I0315 06:32:27.033514 53024 net.cpp:367] group2_block0_conv0_relu -> group2_block0_conv0 (in-place)
I0315 06:32:27.034039 53024 net.cpp:122] Setting up group2_block0_conv0_relu
I0315 06:32:27.034050 53024 net.cpp:129] Top shape: 32 256 8 8 (524288)
I0315 06:32:27.034065 53024 net.cpp:137] Memory required for data: 237371776
I0315 06:32:27.034076 53024 layer_factory.hpp:77] Creating layer group2_block0_conv1
I0315 06:32:27.034096 53024 net.cpp:84] Creating Layer group2_block0_conv1
I0315 06:32:27.034106 53024 net.cpp:406] group2_block0_conv1 <- group2_block0_conv0
I0315 06:32:27.034123 53024 net.cpp:380] group2_block0_conv1 -> group2_block0_conv1
I0315 06:32:27.041486 53024 net.cpp:122] Setting up group2_block0_conv1
I0315 06:32:27.041502 53024 net.cpp:129] Top shape: 32 256 8 8 (524288)
I0315 06:32:27.041519 53024 net.cpp:137] Memory required for data: 239468928
I0315 06:32:27.041538 53024 layer_factory.hpp:77] Creating layer group2_block0_conv1_bn
I0315 06:32:27.041555 53024 net.cpp:84] Creating Layer group2_block0_conv1_bn
I0315 06:32:27.041568 53024 net.cpp:406] group2_block0_conv1_bn <- group2_block0_conv1
I0315 06:32:27.041584 53024 net.cpp:367] group2_block0_conv1_bn -> group2_block0_conv1 (in-place)
I0315 06:32:27.041904 53024 net.cpp:122] Setting up group2_block0_conv1_bn
I0315 06:32:27.041914 53024 net.cpp:129] Top shape: 32 256 8 8 (524288)
I0315 06:32:27.041929 53024 net.cpp:137] Memory required for data: 241566080
I0315 06:32:27.041952 53024 layer_factory.hpp:77] Creating layer group2_block0_conv1_scale
I0315 06:32:27.041968 53024 net.cpp:84] Creating Layer group2_block0_conv1_scale
I0315 06:32:27.041980 53024 net.cpp:406] group2_block0_conv1_scale <- group2_block0_conv1
I0315 06:32:27.041995 53024 net.cpp:367] group2_block0_conv1_scale -> group2_block0_conv1 (in-place)
I0315 06:32:27.042068 53024 layer_factory.hpp:77] Creating layer group2_block0_conv1_scale
I0315 06:32:27.042248 53024 net.cpp:122] Setting up group2_block0_conv1_scale
I0315 06:32:27.042258 53024 net.cpp:129] Top shape: 32 256 8 8 (524288)
I0315 06:32:27.042273 53024 net.cpp:137] Memory required for data: 243663232
I0315 06:32:27.042291 53024 layer_factory.hpp:77] Creating layer group2_block0_proj
I0315 06:32:27.042310 53024 net.cpp:84] Creating Layer group2_block0_proj
I0315 06:32:27.042321 53024 net.cpp:406] group2_block0_proj <- group1_block8_sum_group1_block8_sum_0_split_1
I0315 06:32:27.042338 53024 net.cpp:380] group2_block0_proj -> group2_block0_proj
I0315 06:32:27.045164 53024 net.cpp:122] Setting up group2_block0_proj
I0315 06:32:27.045177 53024 net.cpp:129] Top shape: 32 256 8 8 (524288)
I0315 06:32:27.045193 53024 net.cpp:137] Memory required for data: 245760384
I0315 06:32:27.045212 53024 layer_factory.hpp:77] Creating layer group2_block0_proj_bn
I0315 06:32:27.045228 53024 net.cpp:84] Creating Layer group2_block0_proj_bn
I0315 06:32:27.045239 53024 net.cpp:406] group2_block0_proj_bn <- group2_block0_proj
I0315 06:32:27.045261 53024 net.cpp:367] group2_block0_proj_bn -> group2_block0_proj (in-place)
I0315 06:32:27.045577 53024 net.cpp:122] Setting up group2_block0_proj_bn
I0315 06:32:27.045588 53024 net.cpp:129] Top shape: 32 256 8 8 (524288)
I0315 06:32:27.045601 53024 net.cpp:137] Memory required for data: 247857536
I0315 06:32:27.045624 53024 layer_factory.hpp:77] Creating layer group2_block0_proj_scale
I0315 06:32:27.045637 53024 net.cpp:84] Creating Layer group2_block0_proj_scale
I0315 06:32:27.045650 53024 net.cpp:406] group2_block0_proj_scale <- group2_block0_proj
I0315 06:32:27.045663 53024 net.cpp:367] group2_block0_proj_scale -> group2_block0_proj (in-place)
I0315 06:32:27.045733 53024 layer_factory.hpp:77] Creating layer group2_block0_proj_scale
I0315 06:32:27.045912 53024 net.cpp:122] Setting up group2_block0_proj_scale
I0315 06:32:27.045922 53024 net.cpp:129] Top shape: 32 256 8 8 (524288)
I0315 06:32:27.045938 53024 net.cpp:137] Memory required for data: 249954688
I0315 06:32:27.045955 53024 layer_factory.hpp:77] Creating layer group2_block0_sum
I0315 06:32:27.045971 53024 net.cpp:84] Creating Layer group2_block0_sum
I0315 06:32:27.045982 53024 net.cpp:406] group2_block0_sum <- group2_block0_proj
I0315 06:32:27.045994 53024 net.cpp:406] group2_block0_sum <- group2_block0_conv1
I0315 06:32:27.046010 53024 net.cpp:380] group2_block0_sum -> group2_block0_sum
I0315 06:32:27.046058 53024 net.cpp:122] Setting up group2_block0_sum
I0315 06:32:27.046068 53024 net.cpp:129] Top shape: 32 256 8 8 (524288)
I0315 06:32:27.046083 53024 net.cpp:137] Memory required for data: 252051840
I0315 06:32:27.046094 53024 layer_factory.hpp:77] Creating layer group2_block0_sum_group2_block0_sum_0_split
I0315 06:32:27.046108 53024 net.cpp:84] Creating Layer group2_block0_sum_group2_block0_sum_0_split
I0315 06:32:27.046119 53024 net.cpp:406] group2_block0_sum_group2_block0_sum_0_split <- group2_block0_sum
I0315 06:32:27.046133 53024 net.cpp:380] group2_block0_sum_group2_block0_sum_0_split -> group2_block0_sum_group2_block0_sum_0_split_0
I0315 06:32:27.046150 53024 net.cpp:380] group2_block0_sum_group2_block0_sum_0_split -> group2_block0_sum_group2_block0_sum_0_split_1
I0315 06:32:27.046221 53024 net.cpp:122] Setting up group2_block0_sum_group2_block0_sum_0_split
I0315 06:32:27.046231 53024 net.cpp:129] Top shape: 32 256 8 8 (524288)
I0315 06:32:27.046247 53024 net.cpp:129] Top shape: 32 256 8 8 (524288)
I0315 06:32:27.046260 53024 net.cpp:137] Memory required for data: 256246144
I0315 06:32:27.046272 53024 layer_factory.hpp:77] Creating layer group2_block1_conv0
I0315 06:32:27.046288 53024 net.cpp:84] Creating Layer group2_block1_conv0
I0315 06:32:27.046299 53024 net.cpp:406] group2_block1_conv0 <- group2_block0_sum_group2_block0_sum_0_split_0
I0315 06:32:27.046316 53024 net.cpp:380] group2_block1_conv0 -> group2_block1_conv0
I0315 06:32:27.053937 53024 net.cpp:122] Setting up group2_block1_conv0
I0315 06:32:27.053954 53024 net.cpp:129] Top shape: 32 256 8 8 (524288)
I0315 06:32:27.053972 53024 net.cpp:137] Memory required for data: 258343296
I0315 06:32:27.053990 53024 layer_factory.hpp:77] Creating layer group2_block1_conv0_bn
I0315 06:32:27.054008 53024 net.cpp:84] Creating Layer group2_block1_conv0_bn
I0315 06:32:27.054020 53024 net.cpp:406] group2_block1_conv0_bn <- group2_block1_conv0
I0315 06:32:27.054036 53024 net.cpp:367] group2_block1_conv0_bn -> group2_block1_conv0 (in-place)
I0315 06:32:27.054352 53024 net.cpp:122] Setting up group2_block1_conv0_bn
I0315 06:32:27.054363 53024 net.cpp:129] Top shape: 32 256 8 8 (524288)
I0315 06:32:27.054378 53024 net.cpp:137] Memory required for data: 260440448
I0315 06:32:27.054400 53024 layer_factory.hpp:77] Creating layer group2_block1_conv0_scale
I0315 06:32:27.054415 53024 net.cpp:84] Creating Layer group2_block1_conv0_scale
I0315 06:32:27.054426 53024 net.cpp:406] group2_block1_conv0_scale <- group2_block1_conv0
I0315 06:32:27.054440 53024 net.cpp:367] group2_block1_conv0_scale -> group2_block1_conv0 (in-place)
I0315 06:32:27.054513 53024 layer_factory.hpp:77] Creating layer group2_block1_conv0_scale
I0315 06:32:27.054693 53024 net.cpp:122] Setting up group2_block1_conv0_scale
I0315 06:32:27.054703 53024 net.cpp:129] Top shape: 32 256 8 8 (524288)
I0315 06:32:27.054718 53024 net.cpp:137] Memory required for data: 262537600
I0315 06:32:27.054736 53024 layer_factory.hpp:77] Creating layer group2_block1_conv0_relu
I0315 06:32:27.054751 53024 net.cpp:84] Creating Layer group2_block1_conv0_relu
I0315 06:32:27.054762 53024 net.cpp:406] group2_block1_conv0_relu <- group2_block1_conv0
I0315 06:32:27.054776 53024 net.cpp:367] group2_block1_conv0_relu -> group2_block1_conv0 (in-place)
I0315 06:32:27.055295 53024 net.cpp:122] Setting up group2_block1_conv0_relu
I0315 06:32:27.055305 53024 net.cpp:129] Top shape: 32 256 8 8 (524288)
I0315 06:32:27.055320 53024 net.cpp:137] Memory required for data: 264634752
I0315 06:32:27.055332 53024 layer_factory.hpp:77] Creating layer group2_block1_conv1
I0315 06:32:27.055351 53024 net.cpp:84] Creating Layer group2_block1_conv1
I0315 06:32:27.055361 53024 net.cpp:406] group2_block1_conv1 <- group2_block1_conv0
I0315 06:32:27.055378 53024 net.cpp:380] group2_block1_conv1 -> group2_block1_conv1
I0315 06:32:27.062786 53024 net.cpp:122] Setting up group2_block1_conv1
I0315 06:32:27.062803 53024 net.cpp:129] Top shape: 32 256 8 8 (524288)
I0315 06:32:27.062821 53024 net.cpp:137] Memory required for data: 266731904
I0315 06:32:27.062841 53024 layer_factory.hpp:77] Creating layer group2_block1_conv1_bn
I0315 06:32:27.062860 53024 net.cpp:84] Creating Layer group2_block1_conv1_bn
I0315 06:32:27.062871 53024 net.cpp:406] group2_block1_conv1_bn <- group2_block1_conv1
I0315 06:32:27.062888 53024 net.cpp:367] group2_block1_conv1_bn -> group2_block1_conv1 (in-place)
I0315 06:32:27.063230 53024 net.cpp:122] Setting up group2_block1_conv1_bn
I0315 06:32:27.063241 53024 net.cpp:129] Top shape: 32 256 8 8 (524288)
I0315 06:32:27.063257 53024 net.cpp:137] Memory required for data: 268829056
I0315 06:32:27.063279 53024 layer_factory.hpp:77] Creating layer group2_block1_conv1_scale
I0315 06:32:27.063294 53024 net.cpp:84] Creating Layer group2_block1_conv1_scale
I0315 06:32:27.063307 53024 net.cpp:406] group2_block1_conv1_scale <- group2_block1_conv1
I0315 06:32:27.063320 53024 net.cpp:367] group2_block1_conv1_scale -> group2_block1_conv1 (in-place)
I0315 06:32:27.063396 53024 layer_factory.hpp:77] Creating layer group2_block1_conv1_scale
I0315 06:32:27.063580 53024 net.cpp:122] Setting up group2_block1_conv1_scale
I0315 06:32:27.063591 53024 net.cpp:129] Top shape: 32 256 8 8 (524288)
I0315 06:32:27.063606 53024 net.cpp:137] Memory required for data: 270926208
I0315 06:32:27.063623 53024 layer_factory.hpp:77] Creating layer group2_block1_sum
I0315 06:32:27.063639 53024 net.cpp:84] Creating Layer group2_block1_sum
I0315 06:32:27.063650 53024 net.cpp:406] group2_block1_sum <- group2_block1_conv1
I0315 06:32:27.063663 53024 net.cpp:406] group2_block1_sum <- group2_block0_sum_group2_block0_sum_0_split_1
I0315 06:32:27.063678 53024 net.cpp:380] group2_block1_sum -> group2_block1_sum
I0315 06:32:27.063727 53024 net.cpp:122] Setting up group2_block1_sum
I0315 06:32:27.063736 53024 net.cpp:129] Top shape: 32 256 8 8 (524288)
I0315 06:32:27.063752 53024 net.cpp:137] Memory required for data: 273023360
I0315 06:32:27.063762 53024 layer_factory.hpp:77] Creating layer group2_block1_sum_group2_block1_sum_0_split
I0315 06:32:27.063776 53024 net.cpp:84] Creating Layer group2_block1_sum_group2_block1_sum_0_split
I0315 06:32:27.063787 53024 net.cpp:406] group2_block1_sum_group2_block1_sum_0_split <- group2_block1_sum
I0315 06:32:27.063802 53024 net.cpp:380] group2_block1_sum_group2_block1_sum_0_split -> group2_block1_sum_group2_block1_sum_0_split_0
I0315 06:32:27.063819 53024 net.cpp:380] group2_block1_sum_group2_block1_sum_0_split -> group2_block1_sum_group2_block1_sum_0_split_1
I0315 06:32:27.063890 53024 net.cpp:122] Setting up group2_block1_sum_group2_block1_sum_0_split
I0315 06:32:27.063900 53024 net.cpp:129] Top shape: 32 256 8 8 (524288)
I0315 06:32:27.063915 53024 net.cpp:129] Top shape: 32 256 8 8 (524288)
I0315 06:32:27.063930 53024 net.cpp:137] Memory required for data: 277217664
I0315 06:32:27.063941 53024 layer_factory.hpp:77] Creating layer group2_block2_conv0
I0315 06:32:27.063958 53024 net.cpp:84] Creating Layer group2_block2_conv0
I0315 06:32:27.063969 53024 net.cpp:406] group2_block2_conv0 <- group2_block1_sum_group2_block1_sum_0_split_0
I0315 06:32:27.063985 53024 net.cpp:380] group2_block2_conv0 -> group2_block2_conv0
I0315 06:32:27.071403 53024 net.cpp:122] Setting up group2_block2_conv0
I0315 06:32:27.071420 53024 net.cpp:129] Top shape: 32 256 8 8 (524288)
I0315 06:32:27.071436 53024 net.cpp:137] Memory required for data: 279314816
I0315 06:32:27.071456 53024 layer_factory.hpp:77] Creating layer group2_block2_conv0_bn
I0315 06:32:27.071472 53024 net.cpp:84] Creating Layer group2_block2_conv0_bn
I0315 06:32:27.071485 53024 net.cpp:406] group2_block2_conv0_bn <- group2_block2_conv0
I0315 06:32:27.071501 53024 net.cpp:367] group2_block2_conv0_bn -> group2_block2_conv0 (in-place)
I0315 06:32:27.071827 53024 net.cpp:122] Setting up group2_block2_conv0_bn
I0315 06:32:27.071838 53024 net.cpp:129] Top shape: 32 256 8 8 (524288)
I0315 06:32:27.071853 53024 net.cpp:137] Memory required for data: 281411968
I0315 06:32:27.071876 53024 layer_factory.hpp:77] Creating layer group2_block2_conv0_scale
I0315 06:32:27.071892 53024 net.cpp:84] Creating Layer group2_block2_conv0_scale
I0315 06:32:27.071904 53024 net.cpp:406] group2_block2_conv0_scale <- group2_block2_conv0
I0315 06:32:27.071918 53024 net.cpp:367] group2_block2_conv0_scale -> group2_block2_conv0 (in-place)
I0315 06:32:27.071992 53024 layer_factory.hpp:77] Creating layer group2_block2_conv0_scale
I0315 06:32:27.072177 53024 net.cpp:122] Setting up group2_block2_conv0_scale
I0315 06:32:27.072187 53024 net.cpp:129] Top shape: 32 256 8 8 (524288)
I0315 06:32:27.072202 53024 net.cpp:137] Memory required for data: 283509120
I0315 06:32:27.072221 53024 layer_factory.hpp:77] Creating layer group2_block2_conv0_relu
I0315 06:32:27.072235 53024 net.cpp:84] Creating Layer group2_block2_conv0_relu
I0315 06:32:27.072247 53024 net.cpp:406] group2_block2_conv0_relu <- group2_block2_conv0
I0315 06:32:27.072260 53024 net.cpp:367] group2_block2_conv0_relu -> group2_block2_conv0 (in-place)
I0315 06:32:27.073261 53024 net.cpp:122] Setting up group2_block2_conv0_relu
I0315 06:32:27.073272 53024 net.cpp:129] Top shape: 32 256 8 8 (524288)
I0315 06:32:27.073288 53024 net.cpp:137] Memory required for data: 285606272
I0315 06:32:27.073299 53024 layer_factory.hpp:77] Creating layer group2_block2_conv1
I0315 06:32:27.073318 53024 net.cpp:84] Creating Layer group2_block2_conv1
I0315 06:32:27.073329 53024 net.cpp:406] group2_block2_conv1 <- group2_block2_conv0
I0315 06:32:27.073346 53024 net.cpp:380] group2_block2_conv1 -> group2_block2_conv1
I0315 06:32:27.080780 53024 net.cpp:122] Setting up group2_block2_conv1
I0315 06:32:27.080799 53024 net.cpp:129] Top shape: 32 256 8 8 (524288)
I0315 06:32:27.080816 53024 net.cpp:137] Memory required for data: 287703424
I0315 06:32:27.080837 53024 layer_factory.hpp:77] Creating layer group2_block2_conv1_bn
I0315 06:32:27.080853 53024 net.cpp:84] Creating Layer group2_block2_conv1_bn
I0315 06:32:27.080865 53024 net.cpp:406] group2_block2_conv1_bn <- group2_block2_conv1
I0315 06:32:27.080881 53024 net.cpp:367] group2_block2_conv1_bn -> group2_block2_conv1 (in-place)
I0315 06:32:27.081208 53024 net.cpp:122] Setting up group2_block2_conv1_bn
I0315 06:32:27.081219 53024 net.cpp:129] Top shape: 32 256 8 8 (524288)
I0315 06:32:27.081234 53024 net.cpp:137] Memory required for data: 289800576
I0315 06:32:27.081255 53024 layer_factory.hpp:77] Creating layer group2_block2_conv1_scale
I0315 06:32:27.081272 53024 net.cpp:84] Creating Layer group2_block2_conv1_scale
I0315 06:32:27.081284 53024 net.cpp:406] group2_block2_conv1_scale <- group2_block2_conv1
I0315 06:32:27.081298 53024 net.cpp:367] group2_block2_conv1_scale -> group2_block2_conv1 (in-place)
I0315 06:32:27.081373 53024 layer_factory.hpp:77] Creating layer group2_block2_conv1_scale
I0315 06:32:27.081557 53024 net.cpp:122] Setting up group2_block2_conv1_scale
I0315 06:32:27.081568 53024 net.cpp:129] Top shape: 32 256 8 8 (524288)
I0315 06:32:27.081583 53024 net.cpp:137] Memory required for data: 291897728
I0315 06:32:27.081601 53024 layer_factory.hpp:77] Creating layer group2_block2_sum
I0315 06:32:27.081651 53024 net.cpp:84] Creating Layer group2_block2_sum
I0315 06:32:27.081661 53024 net.cpp:406] group2_block2_sum <- group2_block2_conv1
I0315 06:32:27.081676 53024 net.cpp:406] group2_block2_sum <- group2_block1_sum_group2_block1_sum_0_split_1
I0315 06:32:27.081691 53024 net.cpp:380] group2_block2_sum -> group2_block2_sum
I0315 06:32:27.081740 53024 net.cpp:122] Setting up group2_block2_sum
I0315 06:32:27.081750 53024 net.cpp:129] Top shape: 32 256 8 8 (524288)
I0315 06:32:27.081765 53024 net.cpp:137] Memory required for data: 293994880
I0315 06:32:27.081778 53024 layer_factory.hpp:77] Creating layer group2_block2_sum_group2_block2_sum_0_split
I0315 06:32:27.081791 53024 net.cpp:84] Creating Layer group2_block2_sum_group2_block2_sum_0_split
I0315 06:32:27.081804 53024 net.cpp:406] group2_block2_sum_group2_block2_sum_0_split <- group2_block2_sum
I0315 06:32:27.081817 53024 net.cpp:380] group2_block2_sum_group2_block2_sum_0_split -> group2_block2_sum_group2_block2_sum_0_split_0
I0315 06:32:27.081835 53024 net.cpp:380] group2_block2_sum_group2_block2_sum_0_split -> group2_block2_sum_group2_block2_sum_0_split_1
I0315 06:32:27.081905 53024 net.cpp:122] Setting up group2_block2_sum_group2_block2_sum_0_split
I0315 06:32:27.081915 53024 net.cpp:129] Top shape: 32 256 8 8 (524288)
I0315 06:32:27.081930 53024 net.cpp:129] Top shape: 32 256 8 8 (524288)
I0315 06:32:27.081944 53024 net.cpp:137] Memory required for data: 298189184
I0315 06:32:27.081955 53024 layer_factory.hpp:77] Creating layer group2_block3_conv0
I0315 06:32:27.081974 53024 net.cpp:84] Creating Layer group2_block3_conv0
I0315 06:32:27.081984 53024 net.cpp:406] group2_block3_conv0 <- group2_block2_sum_group2_block2_sum_0_split_0
I0315 06:32:27.082000 53024 net.cpp:380] group2_block3_conv0 -> group2_block3_conv0
I0315 06:32:27.091156 53024 net.cpp:122] Setting up group2_block3_conv0
I0315 06:32:27.091176 53024 net.cpp:129] Top shape: 32 256 8 8 (524288)
I0315 06:32:27.091193 53024 net.cpp:137] Memory required for data: 300286336
I0315 06:32:27.091217 53024 layer_factory.hpp:77] Creating layer group2_block3_conv0_bn
I0315 06:32:27.091234 53024 net.cpp:84] Creating Layer group2_block3_conv0_bn
I0315 06:32:27.091249 53024 net.cpp:406] group2_block3_conv0_bn <- group2_block3_conv0
I0315 06:32:27.091266 53024 net.cpp:367] group2_block3_conv0_bn -> group2_block3_conv0 (in-place)
I0315 06:32:27.091593 53024 net.cpp:122] Setting up group2_block3_conv0_bn
I0315 06:32:27.091604 53024 net.cpp:129] Top shape: 32 256 8 8 (524288)
I0315 06:32:27.091619 53024 net.cpp:137] Memory required for data: 302383488
I0315 06:32:27.091641 53024 layer_factory.hpp:77] Creating layer group2_block3_conv0_scale
I0315 06:32:27.091657 53024 net.cpp:84] Creating Layer group2_block3_conv0_scale
I0315 06:32:27.091670 53024 net.cpp:406] group2_block3_conv0_scale <- group2_block3_conv0
I0315 06:32:27.091683 53024 net.cpp:367] group2_block3_conv0_scale -> group2_block3_conv0 (in-place)
I0315 06:32:27.091775 53024 layer_factory.hpp:77] Creating layer group2_block3_conv0_scale
I0315 06:32:27.091967 53024 net.cpp:122] Setting up group2_block3_conv0_scale
I0315 06:32:27.091977 53024 net.cpp:129] Top shape: 32 256 8 8 (524288)
I0315 06:32:27.091992 53024 net.cpp:137] Memory required for data: 304480640
I0315 06:32:27.092010 53024 layer_factory.hpp:77] Creating layer group2_block3_conv0_relu
I0315 06:32:27.092025 53024 net.cpp:84] Creating Layer group2_block3_conv0_relu
I0315 06:32:27.092036 53024 net.cpp:406] group2_block3_conv0_relu <- group2_block3_conv0
I0315 06:32:27.092051 53024 net.cpp:367] group2_block3_conv0_relu -> group2_block3_conv0 (in-place)
I0315 06:32:27.092721 53024 net.cpp:122] Setting up group2_block3_conv0_relu
I0315 06:32:27.092732 53024 net.cpp:129] Top shape: 32 256 8 8 (524288)
I0315 06:32:27.092747 53024 net.cpp:137] Memory required for data: 306577792
I0315 06:32:27.092759 53024 layer_factory.hpp:77] Creating layer group2_block3_conv1
I0315 06:32:27.092778 53024 net.cpp:84] Creating Layer group2_block3_conv1
I0315 06:32:27.092789 53024 net.cpp:406] group2_block3_conv1 <- group2_block3_conv0
I0315 06:32:27.092806 53024 net.cpp:380] group2_block3_conv1 -> group2_block3_conv1
I0315 06:32:27.100308 53024 net.cpp:122] Setting up group2_block3_conv1
I0315 06:32:27.100324 53024 net.cpp:129] Top shape: 32 256 8 8 (524288)
I0315 06:32:27.100342 53024 net.cpp:137] Memory required for data: 308674944
I0315 06:32:27.100360 53024 layer_factory.hpp:77] Creating layer group2_block3_conv1_bn
I0315 06:32:27.100378 53024 net.cpp:84] Creating Layer group2_block3_conv1_bn
I0315 06:32:27.100389 53024 net.cpp:406] group2_block3_conv1_bn <- group2_block3_conv1
I0315 06:32:27.100405 53024 net.cpp:367] group2_block3_conv1_bn -> group2_block3_conv1 (in-place)
I0315 06:32:27.100734 53024 net.cpp:122] Setting up group2_block3_conv1_bn
I0315 06:32:27.100744 53024 net.cpp:129] Top shape: 32 256 8 8 (524288)
I0315 06:32:27.100759 53024 net.cpp:137] Memory required for data: 310772096
I0315 06:32:27.100781 53024 layer_factory.hpp:77] Creating layer group2_block3_conv1_scale
I0315 06:32:27.100795 53024 net.cpp:84] Creating Layer group2_block3_conv1_scale
I0315 06:32:27.100806 53024 net.cpp:406] group2_block3_conv1_scale <- group2_block3_conv1
I0315 06:32:27.100821 53024 net.cpp:367] group2_block3_conv1_scale -> group2_block3_conv1 (in-place)
I0315 06:32:27.100895 53024 layer_factory.hpp:77] Creating layer group2_block3_conv1_scale
I0315 06:32:27.101080 53024 net.cpp:122] Setting up group2_block3_conv1_scale
I0315 06:32:27.101091 53024 net.cpp:129] Top shape: 32 256 8 8 (524288)
I0315 06:32:27.101105 53024 net.cpp:137] Memory required for data: 312869248
I0315 06:32:27.101125 53024 layer_factory.hpp:77] Creating layer group2_block3_sum
I0315 06:32:27.101140 53024 net.cpp:84] Creating Layer group2_block3_sum
I0315 06:32:27.101150 53024 net.cpp:406] group2_block3_sum <- group2_block3_conv1
I0315 06:32:27.101163 53024 net.cpp:406] group2_block3_sum <- group2_block2_sum_group2_block2_sum_0_split_1
I0315 06:32:27.101177 53024 net.cpp:380] group2_block3_sum -> group2_block3_sum
I0315 06:32:27.101228 53024 net.cpp:122] Setting up group2_block3_sum
I0315 06:32:27.101238 53024 net.cpp:129] Top shape: 32 256 8 8 (524288)
I0315 06:32:27.101253 53024 net.cpp:137] Memory required for data: 314966400
I0315 06:32:27.101263 53024 layer_factory.hpp:77] Creating layer group2_block3_sum_group2_block3_sum_0_split
I0315 06:32:27.101279 53024 net.cpp:84] Creating Layer group2_block3_sum_group2_block3_sum_0_split
I0315 06:32:27.101289 53024 net.cpp:406] group2_block3_sum_group2_block3_sum_0_split <- group2_block3_sum
I0315 06:32:27.101303 53024 net.cpp:380] group2_block3_sum_group2_block3_sum_0_split -> group2_block3_sum_group2_block3_sum_0_split_0
I0315 06:32:27.101320 53024 net.cpp:380] group2_block3_sum_group2_block3_sum_0_split -> group2_block3_sum_group2_block3_sum_0_split_1
I0315 06:32:27.101393 53024 net.cpp:122] Setting up group2_block3_sum_group2_block3_sum_0_split
I0315 06:32:27.101418 53024 net.cpp:129] Top shape: 32 256 8 8 (524288)
I0315 06:32:27.101434 53024 net.cpp:129] Top shape: 32 256 8 8 (524288)
I0315 06:32:27.101447 53024 net.cpp:137] Memory required for data: 319160704
I0315 06:32:27.101459 53024 layer_factory.hpp:77] Creating layer group2_block8_conv0
I0315 06:32:27.101475 53024 net.cpp:84] Creating Layer group2_block8_conv0
I0315 06:32:27.101487 53024 net.cpp:406] group2_block8_conv0 <- group2_block3_sum_group2_block3_sum_0_split_0
I0315 06:32:27.101505 53024 net.cpp:380] group2_block8_conv0 -> group2_block8_conv0
I0315 06:32:27.109171 53024 net.cpp:122] Setting up group2_block8_conv0
I0315 06:32:27.109187 53024 net.cpp:129] Top shape: 32 256 8 8 (524288)
I0315 06:32:27.109208 53024 net.cpp:137] Memory required for data: 321257856
I0315 06:32:27.109228 53024 layer_factory.hpp:77] Creating layer group2_block8_conv0_bn
I0315 06:32:27.109246 53024 net.cpp:84] Creating Layer group2_block8_conv0_bn
I0315 06:32:27.109257 53024 net.cpp:406] group2_block8_conv0_bn <- group2_block8_conv0
I0315 06:32:27.109274 53024 net.cpp:367] group2_block8_conv0_bn -> group2_block8_conv0 (in-place)
I0315 06:32:27.109603 53024 net.cpp:122] Setting up group2_block8_conv0_bn
I0315 06:32:27.109614 53024 net.cpp:129] Top shape: 32 256 8 8 (524288)
I0315 06:32:27.109629 53024 net.cpp:137] Memory required for data: 323355008
I0315 06:32:27.109650 53024 layer_factory.hpp:77] Creating layer group2_block8_conv0_scale
I0315 06:32:27.109665 53024 net.cpp:84] Creating Layer group2_block8_conv0_scale
I0315 06:32:27.109678 53024 net.cpp:406] group2_block8_conv0_scale <- group2_block8_conv0
I0315 06:32:27.109691 53024 net.cpp:367] group2_block8_conv0_scale -> group2_block8_conv0 (in-place)
I0315 06:32:27.109766 53024 layer_factory.hpp:77] Creating layer group2_block8_conv0_scale
I0315 06:32:27.109956 53024 net.cpp:122] Setting up group2_block8_conv0_scale
I0315 06:32:27.109966 53024 net.cpp:129] Top shape: 32 256 8 8 (524288)
I0315 06:32:27.109980 53024 net.cpp:137] Memory required for data: 325452160
I0315 06:32:27.109999 53024 layer_factory.hpp:77] Creating layer group2_block8_conv0_relu
I0315 06:32:27.110013 53024 net.cpp:84] Creating Layer group2_block8_conv0_relu
I0315 06:32:27.110025 53024 net.cpp:406] group2_block8_conv0_relu <- group2_block8_conv0
I0315 06:32:27.110038 53024 net.cpp:367] group2_block8_conv0_relu -> group2_block8_conv0 (in-place)
I0315 06:32:27.110574 53024 net.cpp:122] Setting up group2_block8_conv0_relu
I0315 06:32:27.110584 53024 net.cpp:129] Top shape: 32 256 8 8 (524288)
I0315 06:32:27.110599 53024 net.cpp:137] Memory required for data: 327549312
I0315 06:32:27.110610 53024 layer_factory.hpp:77] Creating layer group2_block8_conv1
I0315 06:32:27.110630 53024 net.cpp:84] Creating Layer group2_block8_conv1
I0315 06:32:27.110641 53024 net.cpp:406] group2_block8_conv1 <- group2_block8_conv0
I0315 06:32:27.110658 53024 net.cpp:380] group2_block8_conv1 -> group2_block8_conv1
I0315 06:32:27.118167 53024 net.cpp:122] Setting up group2_block8_conv1
I0315 06:32:27.118185 53024 net.cpp:129] Top shape: 32 256 8 8 (524288)
I0315 06:32:27.118201 53024 net.cpp:137] Memory required for data: 329646464
I0315 06:32:27.118221 53024 layer_factory.hpp:77] Creating layer group2_block8_conv1_bn
I0315 06:32:27.118239 53024 net.cpp:84] Creating Layer group2_block8_conv1_bn
I0315 06:32:27.118252 53024 net.cpp:406] group2_block8_conv1_bn <- group2_block8_conv1
I0315 06:32:27.118268 53024 net.cpp:367] group2_block8_conv1_bn -> group2_block8_conv1 (in-place)
I0315 06:32:27.118605 53024 net.cpp:122] Setting up group2_block8_conv1_bn
I0315 06:32:27.118615 53024 net.cpp:129] Top shape: 32 256 8 8 (524288)
I0315 06:32:27.118631 53024 net.cpp:137] Memory required for data: 331743616
I0315 06:32:27.118652 53024 layer_factory.hpp:77] Creating layer group2_block8_conv1_scale
I0315 06:32:27.118669 53024 net.cpp:84] Creating Layer group2_block8_conv1_scale
I0315 06:32:27.118681 53024 net.cpp:406] group2_block8_conv1_scale <- group2_block8_conv1
I0315 06:32:27.118706 53024 net.cpp:367] group2_block8_conv1_scale -> group2_block8_conv1 (in-place)
I0315 06:32:27.118789 53024 layer_factory.hpp:77] Creating layer group2_block8_conv1_scale
I0315 06:32:27.118984 53024 net.cpp:122] Setting up group2_block8_conv1_scale
I0315 06:32:27.118994 53024 net.cpp:129] Top shape: 32 256 8 8 (524288)
I0315 06:32:27.119009 53024 net.cpp:137] Memory required for data: 333840768
I0315 06:32:27.119029 53024 layer_factory.hpp:77] Creating layer group2_block8_sum
I0315 06:32:27.119043 53024 net.cpp:84] Creating Layer group2_block8_sum
I0315 06:32:27.119055 53024 net.cpp:406] group2_block8_sum <- group2_block8_conv1
I0315 06:32:27.119067 53024 net.cpp:406] group2_block8_sum <- group2_block3_sum_group2_block3_sum_0_split_1
I0315 06:32:27.119082 53024 net.cpp:380] group2_block8_sum -> group2_block8_sum
I0315 06:32:27.119133 53024 net.cpp:122] Setting up group2_block8_sum
I0315 06:32:27.119143 53024 net.cpp:129] Top shape: 32 256 8 8 (524288)
I0315 06:32:27.119158 53024 net.cpp:137] Memory required for data: 335937920
I0315 06:32:27.119168 53024 layer_factory.hpp:77] Creating layer global_avg_pool
I0315 06:32:27.119184 53024 net.cpp:84] Creating Layer global_avg_pool
I0315 06:32:27.119195 53024 net.cpp:406] global_avg_pool <- group2_block8_sum
I0315 06:32:27.119213 53024 net.cpp:380] global_avg_pool -> global_avg_pool
I0315 06:32:27.120283 53024 net.cpp:122] Setting up global_avg_pool
I0315 06:32:27.120295 53024 net.cpp:129] Top shape: 32 256 1 1 (8192)
I0315 06:32:27.120311 53024 net.cpp:137] Memory required for data: 335970688
I0315 06:32:27.120321 53024 layer_factory.hpp:77] Creating layer fc
I0315 06:32:27.120337 53024 net.cpp:84] Creating Layer fc
I0315 06:32:27.120348 53024 net.cpp:406] fc <- global_avg_pool
I0315 06:32:27.120364 53024 net.cpp:380] fc -> fc
I0315 06:32:27.120606 53024 net.cpp:122] Setting up fc
I0315 06:32:27.120617 53024 net.cpp:129] Top shape: 32 10 (320)
I0315 06:32:27.120632 53024 net.cpp:137] Memory required for data: 335971968
I0315 06:32:27.120651 53024 layer_factory.hpp:77] Creating layer fc_fc_0_split
I0315 06:32:27.120664 53024 net.cpp:84] Creating Layer fc_fc_0_split
I0315 06:32:27.120676 53024 net.cpp:406] fc_fc_0_split <- fc
I0315 06:32:27.120690 53024 net.cpp:380] fc_fc_0_split -> fc_fc_0_split_0
I0315 06:32:27.120707 53024 net.cpp:380] fc_fc_0_split -> fc_fc_0_split_1
I0315 06:32:27.120780 53024 net.cpp:122] Setting up fc_fc_0_split
I0315 06:32:27.120790 53024 net.cpp:129] Top shape: 32 10 (320)
I0315 06:32:27.120805 53024 net.cpp:129] Top shape: 32 10 (320)
I0315 06:32:27.120820 53024 net.cpp:137] Memory required for data: 335974528
I0315 06:32:27.120831 53024 layer_factory.hpp:77] Creating layer loss
I0315 06:32:27.120844 53024 net.cpp:84] Creating Layer loss
I0315 06:32:27.120856 53024 net.cpp:406] loss <- fc_fc_0_split_0
I0315 06:32:27.120868 53024 net.cpp:406] loss <- label_dataLayer_1_split_0
I0315 06:32:27.120882 53024 net.cpp:380] loss -> loss
I0315 06:32:27.120901 53024 layer_factory.hpp:77] Creating layer loss
I0315 06:32:27.121569 53024 net.cpp:122] Setting up loss
I0315 06:32:27.121579 53024 net.cpp:129] Top shape: (1)
I0315 06:32:27.121594 53024 net.cpp:132]     with loss weight 1
I0315 06:32:27.121610 53024 net.cpp:137] Memory required for data: 335974532
I0315 06:32:27.121623 53024 layer_factory.hpp:77] Creating layer softmax
I0315 06:32:27.121635 53024 net.cpp:84] Creating Layer softmax
I0315 06:32:27.121646 53024 net.cpp:406] softmax <- fc_fc_0_split_1
I0315 06:32:27.121660 53024 net.cpp:380] softmax -> softmax
I0315 06:32:27.122270 53024 net.cpp:122] Setting up softmax
I0315 06:32:27.122282 53024 net.cpp:129] Top shape: 32 10 (320)
I0315 06:32:27.122297 53024 net.cpp:137] Memory required for data: 335975812
I0315 06:32:27.122306 53024 layer_factory.hpp:77] Creating layer Accuracy
I0315 06:32:27.122321 53024 net.cpp:84] Creating Layer Accuracy
I0315 06:32:27.122333 53024 net.cpp:406] Accuracy <- softmax
I0315 06:32:27.122345 53024 net.cpp:406] Accuracy <- label_dataLayer_1_split_1
I0315 06:32:27.122359 53024 net.cpp:380] Accuracy -> Accuracy
…
