…
I0321 00:34:45.386226 128215 net.cpp:294] The NetState phase (0) differed from the phase (1) specified by a rule in layer dataLayer
I0321 00:34:45.386386 128215 net.cpp:51] Initializing net from parameters: 
name: "widenet32 with k=4-cifar10"
state {
  phase: TRAIN
  level: 0
  stage: ""
}
layer {
  name: "dataLayer"
  type: "Data"
  top: "data"
  top: "label"
  include {
    phase: TRAIN
  }
  transform_param {
    mirror: true
    crop_size: 32
    mean_file: "examples/cifar10/mean.binaryproto"
  }
  data_param {
    source: "examples/cifar10/cifar10_train_lmdb"
    batch_size: 128
    backend: LMDB
  }
  image_data_param {
    shuffle: true
  }
}
layer {
  name: "first_conv"
  type: "Convolution"
  bottom: "data"
  top: "first_conv"
  param {
    lr_mult: 1
    decay_mult: 1
  }
  convolution_param {
    num_output: 16
    pad: 1
    kernel_size: 3
    stride: 1
    weight_filler {
      type: "msra"
    }
  }
}
layer {
  name: "first_conv_bn"
  type: "BatchNorm"
  bottom: "first_conv"
  top: "first_conv"
  param {
    lr_mult: 0
    decay_mult: 0
  }
  param {
    lr_mult: 0
    decay_mult: 0
  }
  param {
    lr_mult: 0
    decay_mult: 0
  }
  batch_norm_param {
    moving_average_fraction: 0.9
  }
}
layer {
  name: "first_conv_scale"
  type: "Scale"
  bottom: "first_conv"
  top: "first_conv"
  scale_param {
    bias_term: true
  }
}
layer {
  name: "first_conv_relu"
  type: "ReLU"
  bottom: "first_conv"
  top: "first_conv"
}
layer {
  name: "group0_block0_conv0"
  type: "Convolution"
  bottom: "first_conv"
  top: "group0_block0_conv0"
  param {
    lr_mult: 1
    decay_mult: 1
  }
  convolution_param {
    num_output: 16
    pad: 1
    kernel_size: 3
    stride: 1
    weight_filler {
      type: "msra"
    }
  }
}
layer {
  name: "group0_block0_conv0_bn"
  type: "BatchNorm"
  bottom: "group0_block0_conv0"
  top: "group0_block0_conv0"
  param {
    lr_mult: 0
    decay_mult: 0
  }
  param {
    lr_mult: 0
    decay_mult: 0
  }
  param {
    lr_mult: 0
    decay_mult: 0
  }
  batch_norm_param {
    moving_average_fraction: 0.9
  }
}
layer {
  name: "group0_block0_conv0_scale"
  type: "Scale"
  bottom: "group0_block0_conv0"
  top: "group0_block0_conv0"
  scale_param {
    bias_term: true
  }
}
layer {
  name: "group0_block0_conv0_relu"
  type: "ReLU"
  bottom: "group0_block0_conv0"
  top: "group0_block0_conv0"
}
layer {
  name: "group0_block0_conv1"
  type: "Convolution"
  bottom: "group0_block0_conv0"
  top: "group0_block0_conv1"
  param {
    lr_mult: 1
    decay_mult: 1
  }
  convolution_param {
    num_output: 16
    pad: 1
    kernel_size: 3
    stride: 1
    weight_filler {
      type: "msra"
    }
  }
}
layer {
  name: "group0_block0_conv1_bn"
  type: "BatchNorm"
  bottom: "group0_block0_conv1"
  top: "group0_block0_conv1"
  param {
    lr_mult: 0
    decay_mult: 0
  }
  param {
    lr_mult: 0
    decay_mult: 0
  }
  param {
    lr_mult: 0
    decay_mult: 0
  }
  batch_norm_param {
    moving_average_fraction: 0.9
  }
}
layer {
  name: "group0_block0_conv1_scale"
  type: "Scale"
  bottom: "group0_block0_conv1"
  top: "group0_block0_conv1"
  scale_param {
    bias_term: true
  }
}
layer {
  name: "group0_block0_sum"
  type: "Eltwise"
  bottom: "group0_block0_conv1"
  bottom: "first_conv"
  top: "group0_block0_sum"
  eltwise_param {
    operation: SUM
  }
}
layer {
  name: "group0_block1_conv0"
  type: "Convolution"
  bottom: "group0_block0_sum"
  top: "group0_block1_conv0"
  param {
    lr_mult: 1
    decay_mult: 1
  }
  convolution_param {
    num_output: 16
    pad: 1
    kernel_size: 3
    stride: 1
    weight_filler {
      type: "msra"
    }
  }
}
layer {
  name: "group0_block1_conv0_bn"
  type: "BatchNorm"
  bottom: "group0_block1_conv0"
  top: "group0_block1_conv0"
  param {
    lr_mult: 0
    decay_mult: 0
  }
  param {
    lr_mult: 0
    decay_mult: 0
  }
  param {
    lr_mult: 0
    decay_mult: 0
  }
  batch_norm_param {
    moving_average_fraction: 0.9
  }
}
layer {
  name: "group0_block1_conv0_scale"
  type: "Scale"
  bottom: "group0_block1_conv0"
  top: "group0_block1_conv0"
  scale_param {
    bias_term: true
  }
}
layer {
  name: "group0_block1_conv0_relu"
  type: "ReLU"
  bottom: "group0_block1_conv0"
  top: "group0_block1_conv0"
}
layer {
  name: "group0_block1_conv1"
  type: "Convolution"
  bottom: "group0_block1_conv0"
  top: "group0_block1_conv1"
  param {
    lr_mult: 1
    decay_mult: 1
  }
  convolution_param {
    num_output: 16
    pad: 1
    kernel_size: 3
    stride: 1
    weight_filler {
      type: "msra"
    }
  }
}
layer {
  name: "group0_block1_conv1_bn"
  type: "BatchNorm"
  bottom: "group0_block1_conv1"
  top: "group0_block1_conv1"
  param {
    lr_mult: 0
    decay_mult: 0
  }
  param {
    lr_mult: 0
    decay_mult: 0
  }
  param {
    lr_mult: 0
    decay_mult: 0
  }
  batch_norm_param {
    moving_average_fraction: 0.9
  }
}
layer {
  name: "group0_block1_conv1_scale"
  type: "Scale"
  bottom: "group0_block1_conv1"
  top: "group0_block1_conv1"
  scale_param {
    bias_term: true
  }
}
layer {
  name: "group0_block1_sum"
  type: "Eltwise"
  bottom: "group0_block1_conv1"
  bottom: "group0_block0_sum"
  top: "group0_block1_sum"
  eltwise_param {
    operation: SUM
  }
}
layer {
  name: "group0_block2_conv0"
  type: "Convolution"
  bottom: "group0_block1_sum"
  top: "group0_block2_conv0"
  param {
    lr_mult: 1
    decay_mult: 1
  }
  convolution_param {
    num_output: 16
    pad: 1
    kernel_size: 3
    stride: 1
    weight_filler {
      type: "msra"
    }
  }
}
layer {
  name: "group0_block2_conv0_bn"
  type: "BatchNorm"
  bottom: "group0_block2_conv0"
  top: "group0_block2_conv0"
  param {
    lr_mult: 0
    decay_mult: 0
  }
  param {
    lr_mult: 0
    decay_mult: 0
  }
  param {
    lr_mult: 0
    decay_mult: 0
  }
  batch_norm_param {
    moving_average_fraction: 0.9
  }
}
layer {
  name: "group0_block2_conv0_scale"
  type: "Scale"
  bottom: "group0_block2_conv0"
  top: "group0_block2_conv0"
  scale_param {
    bias_term: true
  }
}
layer {
  name: "group0_block2_conv0_relu"
  type: "ReLU"
  bottom: "group0_block2_conv0"
  top: "group0_block2_conv0"
}
layer {
  name: "group0_block2_conv1"
  type: "Convolution"
  bottom: "group0_block2_conv0"
  top: "group0_block2_conv1"
  param {
    lr_mult: 1
    decay_mult: 1
  }
  convolution_param {
    num_output: 16
    pad: 1
    kernel_size: 3
    stride: 1
    weight_filler {
      type: "msra"
    }
  }
}
layer {
  name: "group0_block2_conv1_bn"
  type: "BatchNorm"
  bottom: "group0_block2_conv1"
  top: "group0_block2_conv1"
  param {
    lr_mult: 0
    decay_mult: 0
  }
  param {
    lr_mult: 0
    decay_mult: 0
  }
  param {
    lr_mult: 0
    decay_mult: 0
  }
  batch_norm_param {
    moving_average_fraction: 0.9
  }
}
layer {
  name: "group0_block2_conv1_scale"
  type: "Scale"
  bottom: "group0_block2_conv1"
  top: "group0_block2_conv1"
  scale_param {
    bias_term: true
  }
}
layer {
  name: "group0_block2_sum"
  type: "Eltwise"
  bottom: "group0_block2_conv1"
  bottom: "group0_block1_sum"
  top: "group0_block2_sum"
  eltwise_param {
    operation: SUM
  }
}
layer {
  name: "group0_block3_conv0"
  type: "Convolution"
  bottom: "group0_block2_sum"
  top: "group0_block3_conv0"
  param {
    lr_mult: 1
    decay_mult: 1
  }
  convolution_param {
    num_output: 16
    pad: 1
    kernel_size: 3
    stride: 1
    weight_filler {
      type: "msra"
    }
  }
}
layer {
  name: "group0_block3_conv0_bn"
  type: "BatchNorm"
  bottom: "group0_block3_conv0"
  top: "group0_block3_conv0"
  param {
    lr_mult: 0
    decay_mult: 0
  }
  param {
    lr_mult: 0
    decay_mult: 0
  }
  param {
    lr_mult: 0
    decay_mult: 0
  }
  batch_norm_param {
    moving_average_fraction: 0.9
  }
}
layer {
  name: "group0_block3_conv0_scale"
  type: "Scale"
  bottom: "group0_block3_conv0"
  top: "group0_block3_conv0"
  scale_param {
    bias_term: true
  }
}
layer {
  name: "group0_block3_conv0_relu"
  type: "ReLU"
  bottom: "group0_block3_conv0"
  top: "group0_block3_conv0"
}
layer {
  name: "group0_block3_conv1"
  type: "Convolution"
  bottom: "group0_block3_conv0"
  top: "group0_block3_conv1"
  param {
    lr_mult: 1
    decay_mult: 1
  }
  convolution_param {
    num_output: 16
    pad: 1
    kernel_size: 3
    stride: 1
    weight_filler {
      type: "msra"
    }
  }
}
layer {
  name: "group0_block3_conv1_bn"
  type: "BatchNorm"
  bottom: "group0_block3_conv1"
  top: "group0_block3_conv1"
  param {
    lr_mult: 0
    decay_mult: 0
  }
  param {
    lr_mult: 0
    decay_mult: 0
  }
  param {
    lr_mult: 0
    decay_mult: 0
  }
  batch_norm_param {
    moving_average_fraction: 0.9
  }
}
layer {
  name: "group0_block3_conv1_scale"
  type: "Scale"
  bottom: "group0_block3_conv1"
  top: "group0_block3_conv1"
  scale_param {
    bias_term: true
  }
}
layer {
  name: "group0_block3_sum"
  type: "Eltwise"
  bottom: "group0_block3_conv1"
  bottom: "group0_block2_sum"
  top: "group0_block3_sum"
  eltwise_param {
    operation: SUM
  }
}
layer {
  name: "group0_block8_conv0"
  type: "Convolution"
  bottom: "group0_block3_sum"
  top: "group0_block8_conv0"
  param {
    lr_mult: 1
    decay_mult: 1
  }
  convolution_param {
    num_output: 16
    pad: 1
    kernel_size: 3
    stride: 1
    weight_filler {
      type: "msra"
    }
  }
}
layer {
  name: "group0_block8_conv0_bn"
  type: "BatchNorm"
  bottom: "group0_block8_conv0"
  top: "group0_block8_conv0"
  param {
    lr_mult: 0
    decay_mult: 0
  }
  param {
    lr_mult: 0
    decay_mult: 0
  }
  param {
    lr_mult: 0
    decay_mult: 0
  }
  batch_norm_param {
    moving_average_fraction: 0.9
  }
}
layer {
  name: "group0_block8_conv0_scale"
  type: "Scale"
  bottom: "group0_block8_conv0"
  top: "group0_block8_conv0"
  scale_param {
    bias_term: true
  }
}
layer {
  name: "group0_block8_conv0_relu"
  type: "ReLU"
  bottom: "group0_block8_conv0"
  top: "group0_block8_conv0"
}
layer {
  name: "group0_block8_conv1"
  type: "Convolution"
  bottom: "group0_block8_conv0"
  top: "group0_block8_conv1"
  param {
    lr_mult: 1
    decay_mult: 1
  }
  convolution_param {
    num_output: 16
    pad: 1
    kernel_size: 3
    stride: 1
    weight_filler {
      type: "msra"
    }
  }
}
layer {
  name: "group0_block8_conv1_bn"
  type: "BatchNorm"
  bottom: "group0_block8_conv1"
  top: "group0_block8_conv1"
  param {
    lr_mult: 0
    decay_mult: 0
  }
  param {
    lr_mult: 0
    decay_mult: 0
  }
  param {
    lr_mult: 0
    decay_mult: 0
  }
  batch_norm_param {
    moving_average_fraction: 0.9
  }
}
layer {
  name: "group0_block8_conv1_scale"
  type: "Scale"
  bottom: "group0_block8_conv1"
  top: "group0_block8_conv1"
  scale_param {
    bias_term: true
  }
}
layer {
  name: "group0_block8_sum"
  type: "Eltwise"
  bottom: "group0_block8_conv1"
  bottom: "group0_block3_sum"
  top: "group0_block8_sum"
  eltwise_param {
    operation: SUM
  }
}
layer {
  name: "group1_block0_conv0"
  type: "Convolution"
  bottom: "group0_block8_sum"
  top: "group1_block0_conv0"
  param {
    lr_mult: 1
    decay_mult: 1
  }
  convolution_param {
    num_output: 64
    pad: 1
    kernel_size: 3
    stride: 2
    weight_filler {
      type: "msra"
    }
  }
}
layer {
  name: "group1_block0_conv0_bn"
  type: "BatchNorm"
  bottom: "group1_block0_conv0"
  top: "group1_block0_conv0"
  param {
    lr_mult: 0
    decay_mult: 0
  }
  param {
    lr_mult: 0
    decay_mult: 0
  }
  param {
    lr_mult: 0
    decay_mult: 0
  }
  batch_norm_param {
    moving_average_fraction: 0.9
  }
}
layer {
  name: "group1_block0_conv0_scale"
  type: "Scale"
  bottom: "group1_block0_conv0"
  top: "group1_block0_conv0"
  scale_param {
    bias_term: true
  }
}
layer {
  name: "group1_block0_conv0_relu"
  type: "ReLU"
  bottom: "group1_block0_conv0"
  top: "group1_block0_conv0"
}
layer {
  name: "group1_block0_conv1"
  type: "Convolution"
  bottom: "group1_block0_conv0"
  top: "group1_block0_conv1"
  param {
    lr_mult: 1
    decay_mult: 1
  }
  convolution_param {
    num_output: 64
    pad: 1
    kernel_size: 3
    stride: 1
    weight_filler {
      type: "msra"
    }
  }
}
layer {
  name: "group1_block0_conv1_bn"
  type: "BatchNorm"
  bottom: "group1_block0_conv1"
  top: "group1_block0_conv1"
  param {
    lr_mult: 0
    decay_mult: 0
  }
  param {
    lr_mult: 0
    decay_mult: 0
  }
  param {
    lr_mult: 0
    decay_mult: 0
  }
  batch_norm_param {
    moving_average_fraction: 0.9
  }
}
layer {
  name: "group1_block0_conv1_scale"
  type: "Scale"
  bottom: "group1_block0_conv1"
  top: "group1_block0_conv1"
  scale_param {
    bias_term: true
  }
}
layer {
  name: "group1_block0_proj"
  type: "Convolution"
  bottom: "group0_block8_sum"
  top: "group1_block0_proj"
  param {
    lr_mult: 1
    decay_mult: 1
  }
  convolution_param {
    num_output: 64
    pad: 0
    kernel_size: 2
    stride: 2
    weight_filler {
      type: "msra"
    }
  }
}
layer {
  name: "group1_block0_proj_bn"
  type: "BatchNorm"
  bottom: "group1_block0_proj"
  top: "group1_block0_proj"
  param {
    lr_mult: 0
    decay_mult: 0
  }
  param {
    lr_mult: 0
    decay_mult: 0
  }
  param {
    lr_mult: 0
    decay_mult: 0
  }
  batch_norm_param {
    moving_average_fraction: 0.9
  }
}
layer {
  name: "group1_block0_proj_scale"
  type: "Scale"
  bottom: "group1_block0_proj"
  top: "group1_block0_proj"
  scale_param {
    bias_term: true
  }
}
layer {
  name: "group1_block0_sum"
  type: "Eltwise"
  bottom: "group1_block0_proj"
  bottom: "group1_block0_conv1"
  top: "group1_block0_sum"
  eltwise_param {
    operation: SUM
  }
}
layer {
  name: "group1_block1_conv0"
  type: "Convolution"
  bottom: "group1_block0_sum"
  top: "group1_block1_conv0"
  param {
    lr_mult: 1
    decay_mult: 1
  }
  convolution_param {
    num_output: 64
    pad: 1
    kernel_size: 3
    stride: 1
    weight_filler {
      type: "msra"
    }
  }
}
layer {
  name: "group1_block1_conv0_bn"
  type: "BatchNorm"
  bottom: "group1_block1_conv0"
  top: "group1_block1_conv0"
  param {
    lr_mult: 0
    decay_mult: 0
  }
  param {
    lr_mult: 0
    decay_mult: 0
  }
  param {
    lr_mult: 0
    decay_mult: 0
  }
  batch_norm_param {
    moving_average_fraction: 0.9
  }
}
layer {
  name: "group1_block1_conv0_scale"
  type: "Scale"
  bottom: "group1_block1_conv0"
  top: "group1_block1_conv0"
  scale_param {
    bias_term: true
  }
}
layer {
  name: "group1_block1_conv0_relu"
  type: "ReLU"
  bottom: "group1_block1_conv0"
  top: "group1_block1_conv0"
}
layer {
  name: "group1_block1_conv1"
  type: "Convolution"
  bottom: "group1_block1_conv0"
  top: "group1_block1_conv1"
  param {
    lr_mult: 1
    decay_mult: 1
  }
  convolution_param {
    num_output: 64
    pad: 1
    kernel_size: 3
    stride: 1
    weight_filler {
      type: "msra"
    }
  }
}
layer {
  name: "group1_block1_conv1_bn"
  type: "BatchNorm"
  bottom: "group1_block1_conv1"
  top: "group1_block1_conv1"
  param {
    lr_mult: 0
    decay_mult: 0
  }
  param {
    lr_mult: 0
    decay_mult: 0
  }
  param {
    lr_mult: 0
    decay_mult: 0
  }
  batch_norm_param {
    moving_average_fraction: 0.9
  }
}
layer {
  name: "group1_block1_conv1_scale"
  type: "Scale"
  bottom: "group1_block1_conv1"
  top: "group1_block1_conv1"
  scale_param {
    bias_term: true
  }
}
layer {
  name: "group1_block1_sum"
  type: "Eltwise"
  bottom: "group1_block1_conv1"
  bottom: "group1_block0_sum"
  top: "group1_block1_sum"
  eltwise_param {
    operation: SUM
  }
}
layer {
  name: "group1_block2_conv0"
  type: "Convolution"
  bottom: "group1_block1_sum"
  top: "group1_block2_conv0"
  param {
    lr_mult: 1
    decay_mult: 1
  }
  convolution_param {
    num_output: 64
    pad: 1
    kernel_size: 3
    stride: 1
    weight_filler {
      type: "msra"
    }
  }
}
layer {
  name: "group1_block2_conv0_bn"
  type: "BatchNorm"
  bottom: "group1_block2_conv0"
  top: "group1_block2_conv0"
  param {
    lr_mult: 0
    decay_mult: 0
  }
  param {
    lr_mult: 0
    decay_mult: 0
  }
  param {
    lr_mult: 0
    decay_mult: 0
  }
  batch_norm_param {
    moving_average_fraction: 0.9
  }
}
layer {
  name: "group1_block2_conv0_scale"
  type: "Scale"
  bottom: "group1_block2_conv0"
  top: "group1_block2_conv0"
  scale_param {
    bias_term: true
  }
}
layer {
  name: "group1_block2_conv0_relu"
  type: "ReLU"
  bottom: "group1_block2_conv0"
  top: "group1_block2_conv0"
}
layer {
  name: "group1_block2_conv1"
  type: "Convolution"
  bottom: "group1_block2_conv0"
  top: "group1_block2_conv1"
  param {
    lr_mult: 1
    decay_mult: 1
  }
  convolution_param {
    num_output: 64
    pad: 1
    kernel_size: 3
    stride: 1
    weight_filler {
      type: "msra"
    }
  }
}
layer {
  name: "group1_block2_conv1_bn"
  type: "BatchNorm"
  bottom: "group1_block2_conv1"
  top: "group1_block2_conv1"
  param {
    lr_mult: 0
    decay_mult: 0
  }
  param {
    lr_mult: 0
    decay_mult: 0
  }
  param {
    lr_mult: 0
    decay_mult: 0
  }
  batch_norm_param {
    moving_average_fraction: 0.9
  }
}
layer {
  name: "group1_block2_conv1_scale"
  type: "Scale"
  bottom: "group1_block2_conv1"
  top: "group1_block2_conv1"
  scale_param {
    bias_term: true
  }
}
layer {
  name: "group1_block2_sum"
  type: "Eltwise"
  bottom: "group1_block2_conv1"
  bottom: "group1_block1_sum"
  top: "group1_block2_sum"
  eltwise_param {
    operation: SUM
  }
}
layer {
  name: "group1_block3_conv0"
  type: "Convolution"
  bottom: "group1_block2_sum"
  top: "group1_block3_conv0"
  param {
    lr_mult: 1
    decay_mult: 1
  }
  convolution_param {
    num_output: 64
    pad: 1
    kernel_size: 3
    stride: 1
    weight_filler {
      type: "msra"
    }
  }
}
layer {
  name: "group1_block3_conv0_bn"
  type: "BatchNorm"
  bottom: "group1_block3_conv0"
  top: "group1_block3_conv0"
  param {
    lr_mult: 0
    decay_mult: 0
  }
  param {
    lr_mult: 0
    decay_mult: 0
  }
  param {
    lr_mult: 0
    decay_mult: 0
  }
  batch_norm_param {
    moving_average_fraction: 0.9
  }
}
layer {
  name: "group1_block3_conv0_scale"
  type: "Scale"
  bottom: "group1_block3_conv0"
  top: "group1_block3_conv0"
  scale_param {
    bias_term: true
  }
}
layer {
  name: "group1_block3_conv0_relu"
  type: "ReLU"
  bottom: "group1_block3_conv0"
  top: "group1_block3_conv0"
}
layer {
  name: "group1_block3_conv1"
  type: "Convolution"
  bottom: "group1_block3_conv0"
  top: "group1_block3_conv1"
  param {
    lr_mult: 1
    decay_mult: 1
  }
  convolution_param {
    num_output: 64
    pad: 1
    kernel_size: 3
    stride: 1
    weight_filler {
      type: "msra"
    }
  }
}
layer {
  name: "group1_block3_conv1_bn"
  type: "BatchNorm"
  bottom: "group1_block3_conv1"
  top: "group1_block3_conv1"
  param {
    lr_mult: 0
    decay_mult: 0
  }
  param {
    lr_mult: 0
    decay_mult: 0
  }
  param {
    lr_mult: 0
    decay_mult: 0
  }
  batch_norm_param {
    moving_average_fraction: 0.9
  }
}
layer {
  name: "group1_block3_conv1_scale"
  type: "Scale"
  bottom: "group1_block3_conv1"
  top: "group1_block3_conv1"
  scale_param {
    bias_term: true
  }
}
layer {
  name: "group1_block3_sum"
  type: "Eltwise"
  bottom: "group1_block3_conv1"
  bottom: "group1_block2_sum"
  top: "group1_block3_sum"
  eltwise_param {
    operation: SUM
  }
}
layer {
  name: "group1_block8_conv0"
  type: "Convolution"
  bottom: "group1_block3_sum"
  top: "group1_block8_conv0"
  param {
    lr_mult: 1
    decay_mult: 1
  }
  convolution_param {
    num_output: 64
    pad: 1
    kernel_size: 3
    stride: 1
    weight_filler {
      type: "msra"
    }
  }
}
layer {
  name: "group1_block8_conv0_bn"
  type: "BatchNorm"
  bottom: "group1_block8_conv0"
  top: "group1_block8_conv0"
  param {
    lr_mult: 0
    decay_mult: 0
  }
  param {
    lr_mult: 0
    decay_mult: 0
  }
  param {
    lr_mult: 0
    decay_mult: 0
  }
  batch_norm_param {
    moving_average_fraction: 0.9
  }
}
layer {
  name: "group1_block8_conv0_scale"
  type: "Scale"
  bottom: "group1_block8_conv0"
  top: "group1_block8_conv0"
  scale_param {
    bias_term: true
  }
}
layer {
  name: "group1_block8_conv0_relu"
  type: "ReLU"
  bottom: "group1_block8_conv0"
  top: "group1_block8_conv0"
}
layer {
  name: "group1_block8_conv1"
  type: "Convolution"
  bottom: "group1_block8_conv0"
  top: "group1_block8_conv1"
  param {
    lr_mult: 1
    decay_mult: 1
  }
  convolution_param {
    num_output: 64
    pad: 1
    kernel_size: 3
    stride: 1
    weight_filler {
      type: "msra"
    }
  }
}
layer {
  name: "group1_block8_conv1_bn"
  type: "BatchNorm"
  bottom: "group1_block8_conv1"
  top: "group1_block8_conv1"
  param {
    lr_mult: 0
    decay_mult: 0
  }
  param {
    lr_mult: 0
    decay_mult: 0
  }
  param {
    lr_mult: 0
    decay_mult: 0
  }
  batch_norm_param {
    moving_average_fraction: 0.9
  }
}
layer {
  name: "group1_block8_conv1_scale"
  type: "Scale"
  bottom: "group1_block8_conv1"
  top: "group1_block8_conv1"
  scale_param {
    bias_term: true
  }
}
layer {
  name: "group1_block8_sum"
  type: "Eltwise"
  bottom: "group1_block8_conv1"
  bottom: "group1_block3_sum"
  top: "group1_block8_sum"
  eltwise_param {
    operation: SUM
  }
}
layer {
  name: "group2_block0_conv0"
  type: "Convolution"
  bottom: "group1_block8_sum"
  top: "group2_block0_conv0"
  param {
    lr_mult: 1
    decay_mult: 1
  }
  convolution_param {
    num_output: 256
    pad: 1
    kernel_size: 3
    stride: 2
    weight_filler {
      type: "msra"
    }
  }
}
layer {
  name: "group2_block0_conv0_bn"
  type: "BatchNorm"
  bottom: "group2_block0_conv0"
  top: "group2_block0_conv0"
  param {
    lr_mult: 0
    decay_mult: 0
  }
  param {
    lr_mult: 0
    decay_mult: 0
  }
  param {
    lr_mult: 0
    decay_mult: 0
  }
  batch_norm_param {
    moving_average_fraction: 0.9
  }
}
layer {
  name: "group2_block0_conv0_scale"
  type: "Scale"
  bottom: "group2_block0_conv0"
  top: "group2_block0_conv0"
  scale_param {
    bias_term: true
  }
}
layer {
  name: "group2_block0_conv0_relu"
  type: "ReLU"
  bottom: "group2_block0_conv0"
  top: "group2_block0_conv0"
}
layer {
  name: "group2_block0_conv1"
  type: "Convolution"
  bottom: "group2_block0_conv0"
  top: "group2_block0_conv1"
  param {
    lr_mult: 1
    decay_mult: 1
  }
  convolution_param {
    num_output: 256
    pad: 1
    kernel_size: 3
    stride: 1
    weight_filler {
      type: "msra"
    }
  }
}
layer {
  name: "group2_block0_conv1_bn"
  type: "BatchNorm"
  bottom: "group2_block0_conv1"
  top: "group2_block0_conv1"
  param {
    lr_mult: 0
    decay_mult: 0
  }
  param {
    lr_mult: 0
    decay_mult: 0
  }
  param {
    lr_mult: 0
    decay_mult: 0
  }
  batch_norm_param {
    moving_average_fraction: 0.9
  }
}
layer {
  name: "group2_block0_conv1_scale"
  type: "Scale"
  bottom: "group2_block0_conv1"
  top: "group2_block0_conv1"
  scale_param {
    bias_term: true
  }
}
layer {
  name: "group2_block0_proj"
  type: "Convolution"
  bottom: "group1_block8_sum"
  top: "group2_block0_proj"
  param {
    lr_mult: 1
    decay_mult: 1
  }
  convolution_param {
    num_output: 256
    pad: 0
    kernel_size: 2
    stride: 2
    weight_filler {
      type: "msra"
    }
  }
}
layer {
  name: "group2_block0_proj_bn"
  type: "BatchNorm"
  bottom: "group2_block0_proj"
  top: "group2_block0_proj"
  param {
    lr_mult: 0
    decay_mult: 0
  }
  param {
    lr_mult: 0
    decay_mult: 0
  }
  param {
    lr_mult: 0
    decay_mult: 0
  }
  batch_norm_param {
    moving_average_fraction: 0.9
  }
}
layer {
  name: "group2_block0_proj_scale"
  type: "Scale"
  bottom: "group2_block0_proj"
  top: "group2_block0_proj"
  scale_param {
    bias_term: true
  }
}
layer {
  name: "group2_block0_sum"
  type: "Eltwise"
  bottom: "group2_block0_proj"
  bottom: "group2_block0_conv1"
  top: "group2_block0_sum"
  eltwise_param {
    operation: SUM
  }
}
layer {
  name: "group2_block1_conv0"
  type: "Convolution"
  bottom: "group2_block0_sum"
  top: "group2_block1_conv0"
  param {
    lr_mult: 1
    decay_mult: 1
  }
  convolution_param {
    num_output: 256
    pad: 1
    kernel_size: 3
    stride: 1
    weight_filler {
      type: "msra"
    }
  }
}
layer {
  name: "group2_block1_conv0_bn"
  type: "BatchNorm"
  bottom: "group2_block1_conv0"
  top: "group2_block1_conv0"
  param {
    lr_mult: 0
    decay_mult: 0
  }
  param {
    lr_mult: 0
    decay_mult: 0
  }
  param {
    lr_mult: 0
    decay_mult: 0
  }
  batch_norm_param {
    moving_average_fraction: 0.9
  }
}
layer {
  name: "group2_block1_conv0_scale"
  type: "Scale"
  bottom: "group2_block1_conv0"
  top: "group2_block1_conv0"
  scale_param {
    bias_term: true
  }
}
layer {
  name: "group2_block1_conv0_relu"
  type: "ReLU"
  bottom: "group2_block1_conv0"
  top: "group2_block1_conv0"
}
layer {
  name: "group2_block1_conv1"
  type: "Convolution"
  bottom: "group2_block1_conv0"
  top: "group2_block1_conv1"
  param {
    lr_mult: 1
    decay_mult: 1
  }
  convolution_param {
    num_output: 256
    pad: 1
    kernel_size: 3
    stride: 1
    weight_filler {
      type: "msra"
    }
  }
}
layer {
  name: "group2_block1_conv1_bn"
  type: "BatchNorm"
  bottom: "group2_block1_conv1"
  top: "group2_block1_conv1"
  param {
    lr_mult: 0
    decay_mult: 0
  }
  param {
    lr_mult: 0
    decay_mult: 0
  }
  param {
    lr_mult: 0
    decay_mult: 0
  }
  batch_norm_param {
    moving_average_fraction: 0.9
  }
}
layer {
  name: "group2_block1_conv1_scale"
  type: "Scale"
  bottom: "group2_block1_conv1"
  top: "group2_block1_conv1"
  scale_param {
    bias_term: true
  }
}
layer {
  name: "group2_block1_sum"
  type: "Eltwise"
  bottom: "group2_block1_conv1"
  bottom: "group2_block0_sum"
  top: "group2_block1_sum"
  eltwise_param {
    operation: SUM
  }
}
layer {
  name: "group2_block2_conv0"
  type: "Convolution"
  bottom: "group2_block1_sum"
  top: "group2_block2_conv0"
  param {
    lr_mult: 1
    decay_mult: 1
  }
  convolution_param {
    num_output: 256
    pad: 1
    kernel_size: 3
    stride: 1
    weight_filler {
      type: "msra"
    }
  }
}
layer {
  name: "group2_block2_conv0_bn"
  type: "BatchNorm"
  bottom: "group2_block2_conv0"
  top: "group2_block2_conv0"
  param {
    lr_mult: 0
    decay_mult: 0
  }
  param {
    lr_mult: 0
    decay_mult: 0
  }
  param {
    lr_mult: 0
    decay_mult: 0
  }
  batch_norm_param {
    moving_average_fraction: 0.9
  }
}
layer {
  name: "group2_block2_conv0_scale"
  type: "Scale"
  bottom: "group2_block2_conv0"
  top: "group2_block2_conv0"
  scale_param {
    bias_term: true
  }
}
layer {
  name: "group2_block2_conv0_relu"
  type: "ReLU"
  bottom: "group2_block2_conv0"
  top: "group2_block2_conv0"
}
layer {
  name: "group2_block2_conv1"
  type: "Convolution"
  bottom: "group2_block2_conv0"
  top: "group2_block2_conv1"
  param {
    lr_mult: 1
    decay_mult: 1
  }
  convolution_param {
    num_output: 256
    pad: 1
    kernel_size: 3
    stride: 1
    weight_filler {
      type: "msra"
    }
  }
}
layer {
  name: "group2_block2_conv1_bn"
  type: "BatchNorm"
  bottom: "group2_block2_conv1"
  top: "group2_block2_conv1"
  param {
    lr_mult: 0
    decay_mult: 0
  }
  param {
    lr_mult: 0
    decay_mult: 0
  }
  param {
    lr_mult: 0
    decay_mult: 0
  }
  batch_norm_param {
    moving_average_fraction: 0.9
  }
}
layer {
  name: "group2_block2_conv1_scale"
  type: "Scale"
  bottom: "group2_block2_conv1"
  top: "group2_block2_conv1"
  scale_param {
    bias_term: true
  }
}
layer {
  name: "group2_block2_sum"
  type: "Eltwise"
  bottom: "group2_block2_conv1"
  bottom: "group2_block1_sum"
  top: "group2_block2_sum"
  eltwise_param {
    operation: SUM
  }
}
layer {
  name: "group2_block3_conv0"
  type: "Convolution"
  bottom: "group2_block2_sum"
  top: "group2_block3_conv0"
  param {
    lr_mult: 1
    decay_mult: 1
  }
  convolution_param {
    num_output: 256
    pad: 1
    kernel_size: 3
    stride: 1
    weight_filler {
      type: "msra"
    }
  }
}
layer {
  name: "group2_block3_conv0_bn"
  type: "BatchNorm"
  bottom: "group2_block3_conv0"
  top: "group2_block3_conv0"
  param {
    lr_mult: 0
    decay_mult: 0
  }
  param {
    lr_mult: 0
    decay_mult: 0
  }
  param {
    lr_mult: 0
    decay_mult: 0
  }
  batch_norm_param {
    moving_average_fraction: 0.9
  }
}
layer {
  name: "group2_block3_conv0_scale"
  type: "Scale"
  bottom: "group2_block3_conv0"
  top: "group2_block3_conv0"
  scale_param {
    bias_term: true
  }
}
layer {
  name: "group2_block3_conv0_relu"
  type: "ReLU"
  bottom: "group2_block3_conv0"
  top: "group2_block3_conv0"
}
layer {
  name: "group2_block3_conv1"
  type: "Convolution"
  bottom: "group2_block3_conv0"
  top: "group2_block3_conv1"
  param {
    lr_mult: 1
    decay_mult: 1
  }
  convolution_param {
    num_output: 256
    pad: 1
    kernel_size: 3
    stride: 1
    weight_filler {
      type: "msra"
    }
  }
}
layer {
  name: "group2_block3_conv1_bn"
  type: "BatchNorm"
  bottom: "group2_block3_conv1"
  top: "group2_block3_conv1"
  param {
    lr_mult: 0
    decay_mult: 0
  }
  param {
    lr_mult: 0
    decay_mult: 0
  }
  param {
    lr_mult: 0
    decay_mult: 0
  }
  batch_norm_param {
    moving_average_fraction: 0.9
  }
}
layer {
  name: "group2_block3_conv1_scale"
  type: "Scale"
  bottom: "group2_block3_conv1"
  top: "group2_block3_conv1"
  scale_param {
    bias_term: true
  }
}
layer {
  name: "group2_block3_sum"
  type: "Eltwise"
  bottom: "group2_block3_conv1"
  bottom: "group2_block2_sum"
  top: "group2_block3_sum"
  eltwise_param {
    operation: SUM
  }
}
layer {
  name: "group2_block8_conv0"
  type: "Convolution"
  bottom: "group2_block3_sum"
  top: "group2_block8_conv0"
  param {
    lr_mult: 1
    decay_mult: 1
  }
  convolution_param {
    num_output: 256
    pad: 1
    kernel_size: 3
    stride: 1
    weight_filler {
      type: "msra"
    }
  }
}
layer {
  name: "group2_block8_conv0_bn"
  type: "BatchNorm"
  bottom: "group2_block8_conv0"
  top: "group2_block8_conv0"
  param {
    lr_mult: 0
    decay_mult: 0
  }
  param {
    lr_mult: 0
    decay_mult: 0
  }
  param {
    lr_mult: 0
    decay_mult: 0
  }
  batch_norm_param {
    moving_average_fraction: 0.9
  }
}
layer {
  name: "group2_block8_conv0_scale"
  type: "Scale"
  bottom: "group2_block8_conv0"
  top: "gr
I0321 00:34:45.388347 128215 layer_factory.hpp:77] Creating layer dataLayer
I0321 00:34:45.431143 128215 db_lmdb.cpp:35] Opened lmdb examples/cifar10/cifar10_train_lmdb
I0321 00:34:45.444864 128215 net.cpp:84] Creating Layer dataLayer
I0321 00:34:45.444888 128215 net.cpp:380] dataLayer -> data
I0321 00:34:45.444943 128215 net.cpp:380] dataLayer -> label
I0321 00:34:45.444984 128215 data_transformer.cpp:25] Loading mean file from: examples/cifar10/mean.binaryproto
I0321 00:34:45.474088 128215 data_layer.cpp:45] output data size: 128,3,32,32
I0321 00:34:45.479621 128215 net.cpp:122] Setting up dataLayer
I0321 00:34:45.479651 128215 net.cpp:129] Top shape: 128 3 32 32 (393216)
I0321 00:34:45.479676 128215 net.cpp:129] Top shape: 128 (128)
I0321 00:34:45.479689 128215 net.cpp:137] Memory required for data: 1573376
I0321 00:34:45.479714 128215 layer_factory.hpp:77] Creating layer label_dataLayer_1_split
I0321 00:34:45.479740 128215 net.cpp:84] Creating Layer label_dataLayer_1_split
I0321 00:34:45.479756 128215 net.cpp:406] label_dataLayer_1_split <- label
I0321 00:34:45.479804 128215 net.cpp:380] label_dataLayer_1_split -> label_dataLayer_1_split_0
I0321 00:34:45.479827 128215 net.cpp:380] label_dataLayer_1_split -> label_dataLayer_1_split_1
I0321 00:34:45.479892 128215 net.cpp:122] Setting up label_dataLayer_1_split
I0321 00:34:45.479902 128215 net.cpp:129] Top shape: 128 (128)
I0321 00:34:45.479919 128215 net.cpp:129] Top shape: 128 (128)
I0321 00:34:45.479933 128215 net.cpp:137] Memory required for data: 1574400
I0321 00:34:45.479943 128215 layer_factory.hpp:77] Creating layer first_conv
I0321 00:34:45.479980 128215 net.cpp:84] Creating Layer first_conv
I0321 00:34:45.479991 128215 net.cpp:406] first_conv <- data
I0321 00:34:45.480007 128215 net.cpp:380] first_conv -> first_conv
I0321 00:34:52.685389 128215 net.cpp:122] Setting up first_conv
I0321 00:34:52.685415 128215 net.cpp:129] Top shape: 128 16 32 32 (2097152)
I0321 00:34:52.685437 128215 net.cpp:137] Memory required for data: 9963008
I0321 00:34:52.685504 128215 layer_factory.hpp:77] Creating layer first_conv_bn
I0321 00:34:52.685531 128215 net.cpp:84] Creating Layer first_conv_bn
I0321 00:34:52.685546 128215 net.cpp:406] first_conv_bn <- first_conv
I0321 00:34:52.685564 128215 net.cpp:367] first_conv_bn -> first_conv (in-place)
I0321 00:34:52.685829 128215 net.cpp:122] Setting up first_conv_bn
I0321 00:34:52.685840 128215 net.cpp:129] Top shape: 128 16 32 32 (2097152)
I0321 00:34:52.685855 128215 net.cpp:137] Memory required for data: 18351616
I0321 00:34:52.685884 128215 layer_factory.hpp:77] Creating layer first_conv_scale
I0321 00:34:52.685907 128215 net.cpp:84] Creating Layer first_conv_scale
I0321 00:34:52.685920 128215 net.cpp:406] first_conv_scale <- first_conv
I0321 00:34:52.685932 128215 net.cpp:367] first_conv_scale -> first_conv (in-place)
I0321 00:34:52.686000 128215 layer_factory.hpp:77] Creating layer first_conv_scale
I0321 00:34:52.686162 128215 net.cpp:122] Setting up first_conv_scale
I0321 00:34:52.686172 128215 net.cpp:129] Top shape: 128 16 32 32 (2097152)
I0321 00:34:52.686187 128215 net.cpp:137] Memory required for data: 26740224
I0321 00:34:52.686205 128215 layer_factory.hpp:77] Creating layer first_conv_relu
I0321 00:34:52.686223 128215 net.cpp:84] Creating Layer first_conv_relu
I0321 00:34:52.686233 128215 net.cpp:406] first_conv_relu <- first_conv
I0321 00:34:52.686246 128215 net.cpp:367] first_conv_relu -> first_conv (in-place)
I0321 00:34:52.686777 128215 net.cpp:122] Setting up first_conv_relu
I0321 00:34:52.686789 128215 net.cpp:129] Top shape: 128 16 32 32 (2097152)
I0321 00:34:52.686805 128215 net.cpp:137] Memory required for data: 35128832
I0321 00:34:52.686815 128215 layer_factory.hpp:77] Creating layer first_conv_first_conv_relu_0_split
I0321 00:34:52.686830 128215 net.cpp:84] Creating Layer first_conv_first_conv_relu_0_split
I0321 00:34:52.686841 128215 net.cpp:406] first_conv_first_conv_relu_0_split <- first_conv
I0321 00:34:52.686856 128215 net.cpp:380] first_conv_first_conv_relu_0_split -> first_conv_first_conv_relu_0_split_0
I0321 00:34:52.686874 128215 net.cpp:380] first_conv_first_conv_relu_0_split -> first_conv_first_conv_relu_0_split_1
I0321 00:34:52.686933 128215 net.cpp:122] Setting up first_conv_first_conv_relu_0_split
I0321 00:34:52.686944 128215 net.cpp:129] Top shape: 128 16 32 32 (2097152)
I0321 00:34:52.686959 128215 net.cpp:129] Top shape: 128 16 32 32 (2097152)
I0321 00:34:52.686972 128215 net.cpp:137] Memory required for data: 51906048
I0321 00:34:52.686983 128215 layer_factory.hpp:77] Creating layer group0_block0_conv0
I0321 00:34:52.687005 128215 net.cpp:84] Creating Layer group0_block0_conv0
I0321 00:34:52.687016 128215 net.cpp:406] group0_block0_conv0 <- first_conv_first_conv_relu_0_split_0
I0321 00:34:52.687031 128215 net.cpp:380] group0_block0_conv0 -> group0_block0_conv0
I0321 00:34:52.689833 128215 net.cpp:122] Setting up group0_block0_conv0
I0321 00:34:52.689846 128215 net.cpp:129] Top shape: 128 16 32 32 (2097152)
I0321 00:34:52.689860 128215 net.cpp:137] Memory required for data: 60294656
I0321 00:34:52.689884 128215 layer_factory.hpp:77] Creating layer group0_block0_conv0_bn
I0321 00:34:52.689903 128215 net.cpp:84] Creating Layer group0_block0_conv0_bn
I0321 00:34:52.689915 128215 net.cpp:406] group0_block0_conv0_bn <- group0_block0_conv0
I0321 00:34:52.689930 128215 net.cpp:367] group0_block0_conv0_bn -> group0_block0_conv0 (in-place)
I0321 00:34:52.690184 128215 net.cpp:122] Setting up group0_block0_conv0_bn
I0321 00:34:52.690196 128215 net.cpp:129] Top shape: 128 16 32 32 (2097152)
I0321 00:34:52.690212 128215 net.cpp:137] Memory required for data: 68683264
I0321 00:34:52.690233 128215 layer_factory.hpp:77] Creating layer group0_block0_conv0_scale
I0321 00:34:52.690248 128215 net.cpp:84] Creating Layer group0_block0_conv0_scale
I0321 00:34:52.690258 128215 net.cpp:406] group0_block0_conv0_scale <- group0_block0_conv0
I0321 00:34:52.690273 128215 net.cpp:367] group0_block0_conv0_scale -> group0_block0_conv0 (in-place)
I0321 00:34:52.690333 128215 layer_factory.hpp:77] Creating layer group0_block0_conv0_scale
I0321 00:34:52.690476 128215 net.cpp:122] Setting up group0_block0_conv0_scale
I0321 00:34:52.690486 128215 net.cpp:129] Top shape: 128 16 32 32 (2097152)
I0321 00:34:52.690501 128215 net.cpp:137] Memory required for data: 77071872
I0321 00:34:52.690520 128215 layer_factory.hpp:77] Creating layer group0_block0_conv0_relu
I0321 00:34:52.690533 128215 net.cpp:84] Creating Layer group0_block0_conv0_relu
I0321 00:34:52.690544 128215 net.cpp:406] group0_block0_conv0_relu <- group0_block0_conv0
I0321 00:34:52.690558 128215 net.cpp:367] group0_block0_conv0_relu -> group0_block0_conv0 (in-place)
I0321 00:34:52.691058 128215 net.cpp:122] Setting up group0_block0_conv0_relu
I0321 00:34:52.691069 128215 net.cpp:129] Top shape: 128 16 32 32 (2097152)
I0321 00:34:52.691084 128215 net.cpp:137] Memory required for data: 85460480
I0321 00:34:52.691095 128215 layer_factory.hpp:77] Creating layer group0_block0_conv1
I0321 00:34:52.691112 128215 net.cpp:84] Creating Layer group0_block0_conv1
I0321 00:34:52.691124 128215 net.cpp:406] group0_block0_conv1 <- group0_block0_conv0
I0321 00:34:52.691140 128215 net.cpp:380] group0_block0_conv1 -> group0_block0_conv1
I0321 00:34:52.693486 128215 net.cpp:122] Setting up group0_block0_conv1
I0321 00:34:52.693500 128215 net.cpp:129] Top shape: 128 16 32 32 (2097152)
I0321 00:34:52.693514 128215 net.cpp:137] Memory required for data: 93849088
I0321 00:34:52.693532 128215 layer_factory.hpp:77] Creating layer group0_block0_conv1_bn
I0321 00:34:52.693547 128215 net.cpp:84] Creating Layer group0_block0_conv1_bn
I0321 00:34:52.693559 128215 net.cpp:406] group0_block0_conv1_bn <- group0_block0_conv1
I0321 00:34:52.693573 128215 net.cpp:367] group0_block0_conv1_bn -> group0_block0_conv1 (in-place)
I0321 00:34:52.693825 128215 net.cpp:122] Setting up group0_block0_conv1_bn
I0321 00:34:52.693835 128215 net.cpp:129] Top shape: 128 16 32 32 (2097152)
I0321 00:34:52.693850 128215 net.cpp:137] Memory required for data: 102237696
I0321 00:34:52.693877 128215 layer_factory.hpp:77] Creating layer group0_block0_conv1_scale
I0321 00:34:52.693892 128215 net.cpp:84] Creating Layer group0_block0_conv1_scale
I0321 00:34:52.693902 128215 net.cpp:406] group0_block0_conv1_scale <- group0_block0_conv1
I0321 00:34:52.693917 128215 net.cpp:367] group0_block0_conv1_scale -> group0_block0_conv1 (in-place)
I0321 00:34:52.693975 128215 layer_factory.hpp:77] Creating layer group0_block0_conv1_scale
I0321 00:34:52.694120 128215 net.cpp:122] Setting up group0_block0_conv1_scale
I0321 00:34:52.694130 128215 net.cpp:129] Top shape: 128 16 32 32 (2097152)
I0321 00:34:52.694145 128215 net.cpp:137] Memory required for data: 110626304
I0321 00:34:52.694164 128215 layer_factory.hpp:77] Creating layer group0_block0_sum
I0321 00:34:52.694190 128215 net.cpp:84] Creating Layer group0_block0_sum
I0321 00:34:52.694202 128215 net.cpp:406] group0_block0_sum <- group0_block0_conv1
I0321 00:34:52.694216 128215 net.cpp:406] group0_block0_sum <- first_conv_first_conv_relu_0_split_1
I0321 00:34:52.694231 128215 net.cpp:380] group0_block0_sum -> group0_block0_sum
I0321 00:34:52.694281 128215 net.cpp:122] Setting up group0_block0_sum
I0321 00:34:52.694291 128215 net.cpp:129] Top shape: 128 16 32 32 (2097152)
I0321 00:34:52.694306 128215 net.cpp:137] Memory required for data: 119014912
I0321 00:34:52.694317 128215 layer_factory.hpp:77] Creating layer group0_block0_sum_group0_block0_sum_0_split
I0321 00:34:52.694331 128215 net.cpp:84] Creating Layer group0_block0_sum_group0_block0_sum_0_split
I0321 00:34:52.694344 128215 net.cpp:406] group0_block0_sum_group0_block0_sum_0_split <- group0_block0_sum
I0321 00:34:52.694357 128215 net.cpp:380] group0_block0_sum_group0_block0_sum_0_split -> group0_block0_sum_group0_block0_sum_0_split_0
I0321 00:34:52.694375 128215 net.cpp:380] group0_block0_sum_group0_block0_sum_0_split -> group0_block0_sum_group0_block0_sum_0_split_1
I0321 00:34:52.694432 128215 net.cpp:122] Setting up group0_block0_sum_group0_block0_sum_0_split
I0321 00:34:52.694442 128215 net.cpp:129] Top shape: 128 16 32 32 (2097152)
I0321 00:34:52.694458 128215 net.cpp:129] Top shape: 128 16 32 32 (2097152)
I0321 00:34:52.694470 128215 net.cpp:137] Memory required for data: 135792128
I0321 00:34:52.694481 128215 layer_factory.hpp:77] Creating layer group0_block1_conv0
I0321 00:34:52.694502 128215 net.cpp:84] Creating Layer group0_block1_conv0
I0321 00:34:52.694514 128215 net.cpp:406] group0_block1_conv0 <- group0_block0_sum_group0_block0_sum_0_split_0
I0321 00:34:52.694530 128215 net.cpp:380] group0_block1_conv0 -> group0_block1_conv0
I0321 00:34:52.696877 128215 net.cpp:122] Setting up group0_block1_conv0
I0321 00:34:52.696889 128215 net.cpp:129] Top shape: 128 16 32 32 (2097152)
I0321 00:34:52.696904 128215 net.cpp:137] Memory required for data: 144180736
I0321 00:34:52.696923 128215 layer_factory.hpp:77] Creating layer group0_block1_conv0_bn
I0321 00:34:52.696938 128215 net.cpp:84] Creating Layer group0_block1_conv0_bn
I0321 00:34:52.696949 128215 net.cpp:406] group0_block1_conv0_bn <- group0_block1_conv0
I0321 00:34:52.696964 128215 net.cpp:367] group0_block1_conv0_bn -> group0_block1_conv0 (in-place)
I0321 00:34:52.697214 128215 net.cpp:122] Setting up group0_block1_conv0_bn
I0321 00:34:52.697226 128215 net.cpp:129] Top shape: 128 16 32 32 (2097152)
I0321 00:34:52.697240 128215 net.cpp:137] Memory required for data: 152569344
I0321 00:34:52.697262 128215 layer_factory.hpp:77] Creating layer group0_block1_conv0_scale
I0321 00:34:52.697275 128215 net.cpp:84] Creating Layer group0_block1_conv0_scale
I0321 00:34:52.697286 128215 net.cpp:406] group0_block1_conv0_scale <- group0_block1_conv0
I0321 00:34:52.697300 128215 net.cpp:367] group0_block1_conv0_scale -> group0_block1_conv0 (in-place)
I0321 00:34:52.697361 128215 layer_factory.hpp:77] Creating layer group0_block1_conv0_scale
I0321 00:34:52.697515 128215 net.cpp:122] Setting up group0_block1_conv0_scale
I0321 00:34:52.697525 128215 net.cpp:129] Top shape: 128 16 32 32 (2097152)
I0321 00:34:52.697540 128215 net.cpp:137] Memory required for data: 160957952
I0321 00:34:52.697558 128215 layer_factory.hpp:77] Creating layer group0_block1_conv0_relu
I0321 00:34:52.697571 128215 net.cpp:84] Creating Layer group0_block1_conv0_relu
I0321 00:34:52.697582 128215 net.cpp:406] group0_block1_conv0_relu <- group0_block1_conv0
I0321 00:34:52.697597 128215 net.cpp:367] group0_block1_conv0_relu -> group0_block1_conv0 (in-place)
I0321 00:34:52.698514 128215 net.cpp:122] Setting up group0_block1_conv0_relu
I0321 00:34:52.698526 128215 net.cpp:129] Top shape: 128 16 32 32 (2097152)
I0321 00:34:52.698541 128215 net.cpp:137] Memory required for data: 169346560
I0321 00:34:52.698552 128215 layer_factory.hpp:77] Creating layer group0_block1_conv1
I0321 00:34:52.698570 128215 net.cpp:84] Creating Layer group0_block1_conv1
I0321 00:34:52.698582 128215 net.cpp:406] group0_block1_conv1 <- group0_block1_conv0
I0321 00:34:52.698598 128215 net.cpp:380] group0_block1_conv1 -> group0_block1_conv1
I0321 00:34:52.700954 128215 net.cpp:122] Setting up group0_block1_conv1
I0321 00:34:52.700966 128215 net.cpp:129] Top shape: 128 16 32 32 (2097152)
I0321 00:34:52.700983 128215 net.cpp:137] Memory required for data: 177735168
I0321 00:34:52.701000 128215 layer_factory.hpp:77] Creating layer group0_block1_conv1_bn
I0321 00:34:52.701015 128215 net.cpp:84] Creating Layer group0_block1_conv1_bn
I0321 00:34:52.701027 128215 net.cpp:406] group0_block1_conv1_bn <- group0_block1_conv1
I0321 00:34:52.701042 128215 net.cpp:367] group0_block1_conv1_bn -> group0_block1_conv1 (in-place)
I0321 00:34:52.701313 128215 net.cpp:122] Setting up group0_block1_conv1_bn
I0321 00:34:52.701323 128215 net.cpp:129] Top shape: 128 16 32 32 (2097152)
I0321 00:34:52.701337 128215 net.cpp:137] Memory required for data: 186123776
I0321 00:34:52.701367 128215 layer_factory.hpp:77] Creating layer group0_block1_conv1_scale
I0321 00:34:52.701381 128215 net.cpp:84] Creating Layer group0_block1_conv1_scale
I0321 00:34:52.701392 128215 net.cpp:406] group0_block1_conv1_scale <- group0_block1_conv1
I0321 00:34:52.701406 128215 net.cpp:367] group0_block1_conv1_scale -> group0_block1_conv1 (in-place)
I0321 00:34:52.701465 128215 layer_factory.hpp:77] Creating layer group0_block1_conv1_scale
I0321 00:34:52.701611 128215 net.cpp:122] Setting up group0_block1_conv1_scale
I0321 00:34:52.701622 128215 net.cpp:129] Top shape: 128 16 32 32 (2097152)
I0321 00:34:52.701637 128215 net.cpp:137] Memory required for data: 194512384
I0321 00:34:52.701655 128215 layer_factory.hpp:77] Creating layer group0_block1_sum
I0321 00:34:52.701669 128215 net.cpp:84] Creating Layer group0_block1_sum
I0321 00:34:52.701681 128215 net.cpp:406] group0_block1_sum <- group0_block1_conv1
I0321 00:34:52.701694 128215 net.cpp:406] group0_block1_sum <- group0_block0_sum_group0_block0_sum_0_split_1
I0321 00:34:52.701707 128215 net.cpp:380] group0_block1_sum -> group0_block1_sum
I0321 00:34:52.701750 128215 net.cpp:122] Setting up group0_block1_sum
I0321 00:34:52.701761 128215 net.cpp:129] Top shape: 128 16 32 32 (2097152)
I0321 00:34:52.701776 128215 net.cpp:137] Memory required for data: 202900992
I0321 00:34:52.701786 128215 layer_factory.hpp:77] Creating layer group0_block1_sum_group0_block1_sum_0_split
I0321 00:34:52.701798 128215 net.cpp:84] Creating Layer group0_block1_sum_group0_block1_sum_0_split
I0321 00:34:52.701809 128215 net.cpp:406] group0_block1_sum_group0_block1_sum_0_split <- group0_block1_sum
I0321 00:34:52.701823 128215 net.cpp:380] group0_block1_sum_group0_block1_sum_0_split -> group0_block1_sum_group0_block1_sum_0_split_0
I0321 00:34:52.701839 128215 net.cpp:380] group0_block1_sum_group0_block1_sum_0_split -> group0_block1_sum_group0_block1_sum_0_split_1
I0321 00:34:52.701902 128215 net.cpp:122] Setting up group0_block1_sum_group0_block1_sum_0_split
I0321 00:34:52.701912 128215 net.cpp:129] Top shape: 128 16 32 32 (2097152)
I0321 00:34:52.701927 128215 net.cpp:129] Top shape: 128 16 32 32 (2097152)
I0321 00:34:52.701941 128215 net.cpp:137] Memory required for data: 219678208
I0321 00:34:52.701952 128215 layer_factory.hpp:77] Creating layer group0_block2_conv0
I0321 00:34:52.701969 128215 net.cpp:84] Creating Layer group0_block2_conv0
I0321 00:34:52.701979 128215 net.cpp:406] group0_block2_conv0 <- group0_block1_sum_group0_block1_sum_0_split_0
I0321 00:34:52.701995 128215 net.cpp:380] group0_block2_conv0 -> group0_block2_conv0
I0321 00:34:52.704367 128215 net.cpp:122] Setting up group0_block2_conv0
I0321 00:34:52.704380 128215 net.cpp:129] Top shape: 128 16 32 32 (2097152)
I0321 00:34:52.704394 128215 net.cpp:137] Memory required for data: 228066816
I0321 00:34:52.704413 128215 layer_factory.hpp:77] Creating layer group0_block2_conv0_bn
I0321 00:34:52.704428 128215 net.cpp:84] Creating Layer group0_block2_conv0_bn
I0321 00:34:52.704439 128215 net.cpp:406] group0_block2_conv0_bn <- group0_block2_conv0
I0321 00:34:52.704454 128215 net.cpp:367] group0_block2_conv0_bn -> group0_block2_conv0 (in-place)
I0321 00:34:52.704720 128215 net.cpp:122] Setting up group0_block2_conv0_bn
I0321 00:34:52.704730 128215 net.cpp:129] Top shape: 128 16 32 32 (2097152)
I0321 00:34:52.704746 128215 net.cpp:137] Memory required for data: 236455424
I0321 00:34:52.704766 128215 layer_factory.hpp:77] Creating layer group0_block2_conv0_scale
I0321 00:34:52.704782 128215 net.cpp:84] Creating Layer group0_block2_conv0_scale
I0321 00:34:52.704792 128215 net.cpp:406] group0_block2_conv0_scale <- group0_block2_conv0
I0321 00:34:52.704807 128215 net.cpp:367] group0_block2_conv0_scale -> group0_block2_conv0 (in-place)
I0321 00:34:52.704864 128215 layer_factory.hpp:77] Creating layer group0_block2_conv0_scale
I0321 00:34:52.705013 128215 net.cpp:122] Setting up group0_block2_conv0_scale
I0321 00:34:52.705024 128215 net.cpp:129] Top shape: 128 16 32 32 (2097152)
I0321 00:34:52.705039 128215 net.cpp:137] Memory required for data: 244844032
I0321 00:34:52.705056 128215 layer_factory.hpp:77] Creating layer group0_block2_conv0_relu
I0321 00:34:52.705070 128215 net.cpp:84] Creating Layer group0_block2_conv0_relu
I0321 00:34:52.705080 128215 net.cpp:406] group0_block2_conv0_relu <- group0_block2_conv0
I0321 00:34:52.705094 128215 net.cpp:367] group0_block2_conv0_relu -> group0_block2_conv0 (in-place)
I0321 00:34:52.705601 128215 net.cpp:122] Setting up group0_block2_conv0_relu
I0321 00:34:52.705612 128215 net.cpp:129] Top shape: 128 16 32 32 (2097152)
I0321 00:34:52.705627 128215 net.cpp:137] Memory required for data: 253232640
I0321 00:34:52.705637 128215 layer_factory.hpp:77] Creating layer group0_block2_conv1
I0321 00:34:52.705655 128215 net.cpp:84] Creating Layer group0_block2_conv1
I0321 00:34:52.705667 128215 net.cpp:406] group0_block2_conv1 <- group0_block2_conv0
I0321 00:34:52.705682 128215 net.cpp:380] group0_block2_conv1 -> group0_block2_conv1
I0321 00:34:52.708063 128215 net.cpp:122] Setting up group0_block2_conv1
I0321 00:34:52.708076 128215 net.cpp:129] Top shape: 128 16 32 32 (2097152)
I0321 00:34:52.708091 128215 net.cpp:137] Memory required for data: 261621248
I0321 00:34:52.708109 128215 layer_factory.hpp:77] Creating layer group0_block2_conv1_bn
I0321 00:34:52.708124 128215 net.cpp:84] Creating Layer group0_block2_conv1_bn
I0321 00:34:52.708135 128215 net.cpp:406] group0_block2_conv1_bn <- group0_block2_conv1
I0321 00:34:52.708150 128215 net.cpp:367] group0_block2_conv1_bn -> group0_block2_conv1 (in-place)
I0321 00:34:52.708406 128215 net.cpp:122] Setting up group0_block2_conv1_bn
I0321 00:34:52.708416 128215 net.cpp:129] Top shape: 128 16 32 32 (2097152)
I0321 00:34:52.708431 128215 net.cpp:137] Memory required for data: 270009856
I0321 00:34:52.708452 128215 layer_factory.hpp:77] Creating layer group0_block2_conv1_scale
I0321 00:34:52.708465 128215 net.cpp:84] Creating Layer group0_block2_conv1_scale
I0321 00:34:52.708477 128215 net.cpp:406] group0_block2_conv1_scale <- group0_block2_conv1
I0321 00:34:52.708492 128215 net.cpp:367] group0_block2_conv1_scale -> group0_block2_conv1 (in-place)
I0321 00:34:52.708552 128215 layer_factory.hpp:77] Creating layer group0_block2_conv1_scale
I0321 00:34:52.708706 128215 net.cpp:122] Setting up group0_block2_conv1_scale
I0321 00:34:52.708716 128215 net.cpp:129] Top shape: 128 16 32 32 (2097152)
I0321 00:34:52.708732 128215 net.cpp:137] Memory required for data: 278398464
I0321 00:34:52.708750 128215 layer_factory.hpp:77] Creating layer group0_block2_sum
I0321 00:34:52.708771 128215 net.cpp:84] Creating Layer group0_block2_sum
I0321 00:34:52.708782 128215 net.cpp:406] group0_block2_sum <- group0_block2_conv1
I0321 00:34:52.708796 128215 net.cpp:406] group0_block2_sum <- group0_block1_sum_group0_block1_sum_0_split_1
I0321 00:34:52.708811 128215 net.cpp:380] group0_block2_sum -> group0_block2_sum
I0321 00:34:52.708850 128215 net.cpp:122] Setting up group0_block2_sum
I0321 00:34:52.708860 128215 net.cpp:129] Top shape: 128 16 32 32 (2097152)
I0321 00:34:52.708875 128215 net.cpp:137] Memory required for data: 286787072
I0321 00:34:52.708885 128215 layer_factory.hpp:77] Creating layer group0_block2_sum_group0_block2_sum_0_split
I0321 00:34:52.708899 128215 net.cpp:84] Creating Layer group0_block2_sum_group0_block2_sum_0_split
I0321 00:34:52.708909 128215 net.cpp:406] group0_block2_sum_group0_block2_sum_0_split <- group0_block2_sum
I0321 00:34:52.708923 128215 net.cpp:380] group0_block2_sum_group0_block2_sum_0_split -> group0_block2_sum_group0_block2_sum_0_split_0
I0321 00:34:52.708940 128215 net.cpp:380] group0_block2_sum_group0_block2_sum_0_split -> group0_block2_sum_group0_block2_sum_0_split_1
I0321 00:34:52.709002 128215 net.cpp:122] Setting up group0_block2_sum_group0_block2_sum_0_split
I0321 00:34:52.709012 128215 net.cpp:129] Top shape: 128 16 32 32 (2097152)
I0321 00:34:52.709028 128215 net.cpp:129] Top shape: 128 16 32 32 (2097152)
I0321 00:34:52.709041 128215 net.cpp:137] Memory required for data: 303564288
I0321 00:34:52.709051 128215 layer_factory.hpp:77] Creating layer group0_block3_conv0
I0321 00:34:52.709069 128215 net.cpp:84] Creating Layer group0_block3_conv0
I0321 00:34:52.709079 128215 net.cpp:406] group0_block3_conv0 <- group0_block2_sum_group0_block2_sum_0_split_0
I0321 00:34:52.709095 128215 net.cpp:380] group0_block3_conv0 -> group0_block3_conv0
I0321 00:34:52.711483 128215 net.cpp:122] Setting up group0_block3_conv0
I0321 00:34:52.711494 128215 net.cpp:129] Top shape: 128 16 32 32 (2097152)
I0321 00:34:52.711509 128215 net.cpp:137] Memory required for data: 311952896
I0321 00:34:52.711529 128215 layer_factory.hpp:77] Creating layer group0_block3_conv0_bn
I0321 00:34:52.711544 128215 net.cpp:84] Creating Layer group0_block3_conv0_bn
I0321 00:34:52.711555 128215 net.cpp:406] group0_block3_conv0_bn <- group0_block3_conv0
I0321 00:34:52.711570 128215 net.cpp:367] group0_block3_conv0_bn -> group0_block3_conv0 (in-place)
I0321 00:34:52.711823 128215 net.cpp:122] Setting up group0_block3_conv0_bn
I0321 00:34:52.711833 128215 net.cpp:129] Top shape: 128 16 32 32 (2097152)
I0321 00:34:52.711848 128215 net.cpp:137] Memory required for data: 320341504
I0321 00:34:52.711869 128215 layer_factory.hpp:77] Creating layer group0_block3_conv0_scale
I0321 00:34:52.711890 128215 net.cpp:84] Creating Layer group0_block3_conv0_scale
I0321 00:34:52.711902 128215 net.cpp:406] group0_block3_conv0_scale <- group0_block3_conv0
I0321 00:34:52.711917 128215 net.cpp:367] group0_block3_conv0_scale -> group0_block3_conv0 (in-place)
I0321 00:34:52.711977 128215 layer_factory.hpp:77] Creating layer group0_block3_conv0_scale
I0321 00:34:52.712126 128215 net.cpp:122] Setting up group0_block3_conv0_scale
I0321 00:34:52.712136 128215 net.cpp:129] Top shape: 128 16 32 32 (2097152)
I0321 00:34:52.712152 128215 net.cpp:137] Memory required for data: 328730112
I0321 00:34:52.712168 128215 layer_factory.hpp:77] Creating layer group0_block3_conv0_relu
I0321 00:34:52.712182 128215 net.cpp:84] Creating Layer group0_block3_conv0_relu
I0321 00:34:52.712193 128215 net.cpp:406] group0_block3_conv0_relu <- group0_block3_conv0
I0321 00:34:52.712206 128215 net.cpp:367] group0_block3_conv0_relu -> group0_block3_conv0 (in-place)
I0321 00:34:52.712703 128215 net.cpp:122] Setting up group0_block3_conv0_relu
I0321 00:34:52.712714 128215 net.cpp:129] Top shape: 128 16 32 32 (2097152)
I0321 00:34:52.712729 128215 net.cpp:137] Memory required for data: 337118720
I0321 00:34:52.712740 128215 layer_factory.hpp:77] Creating layer group0_block3_conv1
I0321 00:34:52.712757 128215 net.cpp:84] Creating Layer group0_block3_conv1
I0321 00:34:52.712769 128215 net.cpp:406] group0_block3_conv1 <- group0_block3_conv0
I0321 00:34:52.712785 128215 net.cpp:380] group0_block3_conv1 -> group0_block3_conv1
I0321 00:34:52.715149 128215 net.cpp:122] Setting up group0_block3_conv1
I0321 00:34:52.715162 128215 net.cpp:129] Top shape: 128 16 32 32 (2097152)
I0321 00:34:52.715176 128215 net.cpp:137] Memory required for data: 345507328
I0321 00:34:52.715195 128215 layer_factory.hpp:77] Creating layer group0_block3_conv1_bn
I0321 00:34:52.715219 128215 net.cpp:84] Creating Layer group0_block3_conv1_bn
I0321 00:34:52.715229 128215 net.cpp:406] group0_block3_conv1_bn <- group0_block3_conv1
I0321 00:34:52.715245 128215 net.cpp:367] group0_block3_conv1_bn -> group0_block3_conv1 (in-place)
I0321 00:34:52.715502 128215 net.cpp:122] Setting up group0_block3_conv1_bn
I0321 00:34:52.715512 128215 net.cpp:129] Top shape: 128 16 32 32 (2097152)
I0321 00:34:52.715526 128215 net.cpp:137] Memory required for data: 353895936
I0321 00:34:52.715548 128215 layer_factory.hpp:77] Creating layer group0_block3_conv1_scale
I0321 00:34:52.715561 128215 net.cpp:84] Creating Layer group0_block3_conv1_scale
I0321 00:34:52.715572 128215 net.cpp:406] group0_block3_conv1_scale <- group0_block3_conv1
I0321 00:34:52.715590 128215 net.cpp:367] group0_block3_conv1_scale -> group0_block3_conv1 (in-place)
I0321 00:34:52.715651 128215 layer_factory.hpp:77] Creating layer group0_block3_conv1_scale
I0321 00:34:52.715800 128215 net.cpp:122] Setting up group0_block3_conv1_scale
I0321 00:34:52.715809 128215 net.cpp:129] Top shape: 128 16 32 32 (2097152)
I0321 00:34:52.715826 128215 net.cpp:137] Memory required for data: 362284544
I0321 00:34:52.715843 128215 layer_factory.hpp:77] Creating layer group0_block3_sum
I0321 00:34:52.715857 128215 net.cpp:84] Creating Layer group0_block3_sum
I0321 00:34:52.715868 128215 net.cpp:406] group0_block3_sum <- group0_block3_conv1
I0321 00:34:52.715880 128215 net.cpp:406] group0_block3_sum <- group0_block2_sum_group0_block2_sum_0_split_1
I0321 00:34:52.715895 128215 net.cpp:380] group0_block3_sum -> group0_block3_sum
I0321 00:34:52.715937 128215 net.cpp:122] Setting up group0_block3_sum
I0321 00:34:52.715947 128215 net.cpp:129] Top shape: 128 16 32 32 (2097152)
I0321 00:34:52.715961 128215 net.cpp:137] Memory required for data: 370673152
I0321 00:34:52.715972 128215 layer_factory.hpp:77] Creating layer group0_block3_sum_group0_block3_sum_0_split
I0321 00:34:52.715986 128215 net.cpp:84] Creating Layer group0_block3_sum_group0_block3_sum_0_split
I0321 00:34:52.715996 128215 net.cpp:406] group0_block3_sum_group0_block3_sum_0_split <- group0_block3_sum
I0321 00:34:52.716011 128215 net.cpp:380] group0_block3_sum_group0_block3_sum_0_split -> group0_block3_sum_group0_block3_sum_0_split_0
I0321 00:34:52.716027 128215 net.cpp:380] group0_block3_sum_group0_block3_sum_0_split -> group0_block3_sum_group0_block3_sum_0_split_1
I0321 00:34:52.716089 128215 net.cpp:122] Setting up group0_block3_sum_group0_block3_sum_0_split
I0321 00:34:52.716099 128215 net.cpp:129] Top shape: 128 16 32 32 (2097152)
I0321 00:34:52.716114 128215 net.cpp:129] Top shape: 128 16 32 32 (2097152)
I0321 00:34:52.716126 128215 net.cpp:137] Memory required for data: 387450368
I0321 00:34:52.716137 128215 layer_factory.hpp:77] Creating layer group0_block8_conv0
I0321 00:34:52.716154 128215 net.cpp:84] Creating Layer group0_block8_conv0
I0321 00:34:52.716166 128215 net.cpp:406] group0_block8_conv0 <- group0_block3_sum_group0_block3_sum_0_split_0
I0321 00:34:52.716181 128215 net.cpp:380] group0_block8_conv0 -> group0_block8_conv0
I0321 00:34:52.718569 128215 net.cpp:122] Setting up group0_block8_conv0
I0321 00:34:52.718580 128215 net.cpp:129] Top shape: 128 16 32 32 (2097152)
I0321 00:34:52.718595 128215 net.cpp:137] Memory required for data: 395838976
I0321 00:34:52.718631 128215 layer_factory.hpp:77] Creating layer group0_block8_conv0_bn
I0321 00:34:52.718647 128215 net.cpp:84] Creating Layer group0_block8_conv0_bn
I0321 00:34:52.718657 128215 net.cpp:406] group0_block8_conv0_bn <- group0_block8_conv0
I0321 00:34:52.718672 128215 net.cpp:367] group0_block8_conv0_bn -> group0_block8_conv0 (in-place)
I0321 00:34:52.718931 128215 net.cpp:122] Setting up group0_block8_conv0_bn
I0321 00:34:52.718942 128215 net.cpp:129] Top shape: 128 16 32 32 (2097152)
I0321 00:34:52.718957 128215 net.cpp:137] Memory required for data: 404227584
I0321 00:34:52.718978 128215 layer_factory.hpp:77] Creating layer group0_block8_conv0_scale
I0321 00:34:52.718991 128215 net.cpp:84] Creating Layer group0_block8_conv0_scale
I0321 00:34:52.719002 128215 net.cpp:406] group0_block8_conv0_scale <- group0_block8_conv0
I0321 00:34:52.719017 128215 net.cpp:367] group0_block8_conv0_scale -> group0_block8_conv0 (in-place)
I0321 00:34:52.719079 128215 layer_factory.hpp:77] Creating layer group0_block8_conv0_scale
I0321 00:34:52.719229 128215 net.cpp:122] Setting up group0_block8_conv0_scale
I0321 00:34:52.719239 128215 net.cpp:129] Top shape: 128 16 32 32 (2097152)
I0321 00:34:52.719254 128215 net.cpp:137] Memory required for data: 412616192
I0321 00:34:52.719272 128215 layer_factory.hpp:77] Creating layer group0_block8_conv0_relu
I0321 00:34:52.719286 128215 net.cpp:84] Creating Layer group0_block8_conv0_relu
I0321 00:34:52.719297 128215 net.cpp:406] group0_block8_conv0_relu <- group0_block8_conv0
I0321 00:34:52.719313 128215 net.cpp:367] group0_block8_conv0_relu -> group0_block8_conv0 (in-place)
I0321 00:34:52.720232 128215 net.cpp:122] Setting up group0_block8_conv0_relu
I0321 00:34:52.720243 128215 net.cpp:129] Top shape: 128 16 32 32 (2097152)
I0321 00:34:52.720258 128215 net.cpp:137] Memory required for data: 421004800
I0321 00:34:52.720269 128215 layer_factory.hpp:77] Creating layer group0_block8_conv1
I0321 00:34:52.720288 128215 net.cpp:84] Creating Layer group0_block8_conv1
I0321 00:34:52.720299 128215 net.cpp:406] group0_block8_conv1 <- group0_block8_conv0
I0321 00:34:52.720314 128215 net.cpp:380] group0_block8_conv1 -> group0_block8_conv1
I0321 00:34:52.722700 128215 net.cpp:122] Setting up group0_block8_conv1
I0321 00:34:52.722712 128215 net.cpp:129] Top shape: 128 16 32 32 (2097152)
I0321 00:34:52.722728 128215 net.cpp:137] Memory required for data: 429393408
I0321 00:34:52.722748 128215 layer_factory.hpp:77] Creating layer group0_block8_conv1_bn
I0321 00:34:52.722761 128215 net.cpp:84] Creating Layer group0_block8_conv1_bn
I0321 00:34:52.722774 128215 net.cpp:406] group0_block8_conv1_bn <- group0_block8_conv1
I0321 00:34:52.722789 128215 net.cpp:367] group0_block8_conv1_bn -> group0_block8_conv1 (in-place)
I0321 00:34:52.723048 128215 net.cpp:122] Setting up group0_block8_conv1_bn
I0321 00:34:52.723058 128215 net.cpp:129] Top shape: 128 16 32 32 (2097152)
I0321 00:34:52.723073 128215 net.cpp:137] Memory required for data: 437782016
I0321 00:34:52.723095 128215 layer_factory.hpp:77] Creating layer group0_block8_conv1_scale
I0321 00:34:52.723109 128215 net.cpp:84] Creating Layer group0_block8_conv1_scale
I0321 00:34:52.723121 128215 net.cpp:406] group0_block8_conv1_scale <- group0_block8_conv1
I0321 00:34:52.723143 128215 net.cpp:367] group0_block8_conv1_scale -> group0_block8_conv1 (in-place)
I0321 00:34:52.723204 128215 layer_factory.hpp:77] Creating layer group0_block8_conv1_scale
I0321 00:34:52.723354 128215 net.cpp:122] Setting up group0_block8_conv1_scale
I0321 00:34:52.723364 128215 net.cpp:129] Top shape: 128 16 32 32 (2097152)
I0321 00:34:52.723379 128215 net.cpp:137] Memory required for data: 446170624
I0321 00:34:52.723397 128215 layer_factory.hpp:77] Creating layer group0_block8_sum
I0321 00:34:52.723410 128215 net.cpp:84] Creating Layer group0_block8_sum
I0321 00:34:52.723421 128215 net.cpp:406] group0_block8_sum <- group0_block8_conv1
I0321 00:34:52.723433 128215 net.cpp:406] group0_block8_sum <- group0_block3_sum_group0_block3_sum_0_split_1
I0321 00:34:52.723448 128215 net.cpp:380] group0_block8_sum -> group0_block8_sum
I0321 00:34:52.723491 128215 net.cpp:122] Setting up group0_block8_sum
I0321 00:34:52.723501 128215 net.cpp:129] Top shape: 128 16 32 32 (2097152)
I0321 00:34:52.723515 128215 net.cpp:137] Memory required for data: 454559232
I0321 00:34:52.723526 128215 layer_factory.hpp:77] Creating layer group0_block8_sum_group0_block8_sum_0_split
I0321 00:34:52.723539 128215 net.cpp:84] Creating Layer group0_block8_sum_group0_block8_sum_0_split
I0321 00:34:52.723551 128215 net.cpp:406] group0_block8_sum_group0_block8_sum_0_split <- group0_block8_sum
I0321 00:34:52.723564 128215 net.cpp:380] group0_block8_sum_group0_block8_sum_0_split -> group0_block8_sum_group0_block8_sum_0_split_0
I0321 00:34:52.723582 128215 net.cpp:380] group0_block8_sum_group0_block8_sum_0_split -> group0_block8_sum_group0_block8_sum_0_split_1
I0321 00:34:52.723642 128215 net.cpp:122] Setting up group0_block8_sum_group0_block8_sum_0_split
I0321 00:34:52.723652 128215 net.cpp:129] Top shape: 128 16 32 32 (2097152)
I0321 00:34:52.723667 128215 net.cpp:129] Top shape: 128 16 32 32 (2097152)
I0321 00:34:52.723681 128215 net.cpp:137] Memory required for data: 471336448
I0321 00:34:52.723692 128215 layer_factory.hpp:77] Creating layer group1_block0_conv0
I0321 00:34:52.723709 128215 net.cpp:84] Creating Layer group1_block0_conv0
I0321 00:34:52.723721 128215 net.cpp:406] group1_block0_conv0 <- group0_block8_sum_group0_block8_sum_0_split_0
I0321 00:34:52.723737 128215 net.cpp:380] group1_block0_conv0 -> group1_block0_conv0
I0321 00:34:52.727471 128215 net.cpp:122] Setting up group1_block0_conv0
I0321 00:34:52.727489 128215 net.cpp:129] Top shape: 128 64 16 16 (2097152)
I0321 00:34:52.727504 128215 net.cpp:137] Memory required for data: 479725056
I0321 00:34:52.727524 128215 layer_factory.hpp:77] Creating layer group1_block0_conv0_bn
I0321 00:34:52.727540 128215 net.cpp:84] Creating Layer group1_block0_conv0_bn
I0321 00:34:52.727552 128215 net.cpp:406] group1_block0_conv0_bn <- group1_block0_conv0
I0321 00:34:52.727567 128215 net.cpp:367] group1_block0_conv0_bn -> group1_block0_conv0 (in-place)
I0321 00:34:52.727836 128215 net.cpp:122] Setting up group1_block0_conv0_bn
I0321 00:34:52.727846 128215 net.cpp:129] Top shape: 128 64 16 16 (2097152)
I0321 00:34:52.727861 128215 net.cpp:137] Memory required for data: 488113664
I0321 00:34:52.727883 128215 layer_factory.hpp:77] Creating layer group1_block0_conv0_scale
I0321 00:34:52.727898 128215 net.cpp:84] Creating Layer group1_block0_conv0_scale
I0321 00:34:52.727910 128215 net.cpp:406] group1_block0_conv0_scale <- group1_block0_conv0
I0321 00:34:52.727924 128215 net.cpp:367] group1_block0_conv0_scale -> group1_block0_conv0 (in-place)
I0321 00:34:52.727982 128215 layer_factory.hpp:77] Creating layer group1_block0_conv0_scale
I0321 00:34:52.728137 128215 net.cpp:122] Setting up group1_block0_conv0_scale
I0321 00:34:52.728147 128215 net.cpp:129] Top shape: 128 64 16 16 (2097152)
I0321 00:34:52.728162 128215 net.cpp:137] Memory required for data: 496502272
I0321 00:34:52.728179 128215 layer_factory.hpp:77] Creating layer group1_block0_conv0_relu
I0321 00:34:52.728193 128215 net.cpp:84] Creating Layer group1_block0_conv0_relu
I0321 00:34:52.728204 128215 net.cpp:406] group1_block0_conv0_relu <- group1_block0_conv0
I0321 00:34:52.728217 128215 net.cpp:367] group1_block0_conv0_relu -> group1_block0_conv0 (in-place)
I0321 00:34:52.728711 128215 net.cpp:122] Setting up group1_block0_conv0_relu
I0321 00:34:52.728721 128215 net.cpp:129] Top shape: 128 64 16 16 (2097152)
I0321 00:34:52.728736 128215 net.cpp:137] Memory required for data: 504890880
I0321 00:34:52.728747 128215 layer_factory.hpp:77] Creating layer group1_block0_conv1
I0321 00:34:52.728765 128215 net.cpp:84] Creating Layer group1_block0_conv1
I0321 00:34:52.728776 128215 net.cpp:406] group1_block0_conv1 <- group1_block0_conv0
I0321 00:34:52.728792 128215 net.cpp:380] group1_block0_conv1 -> group1_block0_conv1
I0321 00:34:52.734529 128215 net.cpp:122] Setting up group1_block0_conv1
I0321 00:34:52.734545 128215 net.cpp:129] Top shape: 128 64 16 16 (2097152)
I0321 00:34:52.734561 128215 net.cpp:137] Memory required for data: 513279488
I0321 00:34:52.734580 128215 layer_factory.hpp:77] Creating layer group1_block0_conv1_bn
I0321 00:34:52.734596 128215 net.cpp:84] Creating Layer group1_block0_conv1_bn
I0321 00:34:52.734609 128215 net.cpp:406] group1_block0_conv1_bn <- group1_block0_conv1
I0321 00:34:52.734624 128215 net.cpp:367] group1_block0_conv1_bn -> group1_block0_conv1 (in-place)
I0321 00:34:52.734889 128215 net.cpp:122] Setting up group1_block0_conv1_bn
I0321 00:34:52.734899 128215 net.cpp:129] Top shape: 128 64 16 16 (2097152)
I0321 00:34:52.734915 128215 net.cpp:137] Memory required for data: 521668096
I0321 00:34:52.734935 128215 layer_factory.hpp:77] Creating layer group1_block0_conv1_scale
I0321 00:34:52.734949 128215 net.cpp:84] Creating Layer group1_block0_conv1_scale
I0321 00:34:52.734961 128215 net.cpp:406] group1_block0_conv1_scale <- group1_block0_conv1
I0321 00:34:52.734974 128215 net.cpp:367] group1_block0_conv1_scale -> group1_block0_conv1 (in-place)
I0321 00:34:52.735031 128215 layer_factory.hpp:77] Creating layer group1_block0_conv1_scale
I0321 00:34:52.735186 128215 net.cpp:122] Setting up group1_block0_conv1_scale
I0321 00:34:52.735196 128215 net.cpp:129] Top shape: 128 64 16 16 (2097152)
I0321 00:34:52.735211 128215 net.cpp:137] Memory required for data: 530056704
I0321 00:34:52.735229 128215 layer_factory.hpp:77] Creating layer group1_block0_proj
I0321 00:34:52.735247 128215 net.cpp:84] Creating Layer group1_block0_proj
I0321 00:34:52.735258 128215 net.cpp:406] group1_block0_proj <- group0_block8_sum_group0_block8_sum_0_split_1
I0321 00:34:52.735275 128215 net.cpp:380] group1_block0_proj -> group1_block0_proj
I0321 00:34:52.737803 128215 net.cpp:122] Setting up group1_block0_proj
I0321 00:34:52.737815 128215 net.cpp:129] Top shape: 128 64 16 16 (2097152)
I0321 00:34:52.737831 128215 net.cpp:137] Memory required for data: 538445312
I0321 00:34:52.737850 128215 layer_factory.hpp:77] Creating layer group1_block0_proj_bn
I0321 00:34:52.737864 128215 net.cpp:84] Creating Layer group1_block0_proj_bn
I0321 00:34:52.737876 128215 net.cpp:406] group1_block0_proj_bn <- group1_block0_proj
I0321 00:34:52.737890 128215 net.cpp:367] group1_block0_proj_bn -> group1_block0_proj (in-place)
I0321 00:34:52.738147 128215 net.cpp:122] Setting up group1_block0_proj_bn
I0321 00:34:52.738157 128215 net.cpp:129] Top shape: 128 64 16 16 (2097152)
I0321 00:34:52.738171 128215 net.cpp:137] Memory required for data: 546833920
I0321 00:34:52.738193 128215 layer_factory.hpp:77] Creating layer group1_block0_proj_scale
I0321 00:34:52.738205 128215 net.cpp:84] Creating Layer group1_block0_proj_scale
I0321 00:34:52.738217 128215 net.cpp:406] group1_block0_proj_scale <- group1_block0_proj
I0321 00:34:52.738231 128215 net.cpp:367] group1_block0_proj_scale -> group1_block0_proj (in-place)
I0321 00:34:52.738293 128215 layer_factory.hpp:77] Creating layer group1_block0_proj_scale
I0321 00:34:52.738447 128215 net.cpp:122] Setting up group1_block0_proj_scale
I0321 00:34:52.738457 128215 net.cpp:129] Top shape: 128 64 16 16 (2097152)
I0321 00:34:52.738473 128215 net.cpp:137] Memory required for data: 555222528
I0321 00:34:52.738492 128215 layer_factory.hpp:77] Creating layer group1_block0_sum
I0321 00:34:52.738507 128215 net.cpp:84] Creating Layer group1_block0_sum
I0321 00:34:52.738517 128215 net.cpp:406] group1_block0_sum <- group1_block0_proj
I0321 00:34:52.738530 128215 net.cpp:406] group1_block0_sum <- group1_block0_conv1
I0321 00:34:52.738544 128215 net.cpp:380] group1_block0_sum -> group1_block0_sum
I0321 00:34:52.738584 128215 net.cpp:122] Setting up group1_block0_sum
I0321 00:34:52.738595 128215 net.cpp:129] Top shape: 128 64 16 16 (2097152)
I0321 00:34:52.738608 128215 net.cpp:137] Memory required for data: 563611136
I0321 00:34:52.738620 128215 layer_factory.hpp:77] Creating layer group1_block0_sum_group1_block0_sum_0_split
I0321 00:34:52.738633 128215 net.cpp:84] Creating Layer group1_block0_sum_group1_block0_sum_0_split
I0321 00:34:52.738644 128215 net.cpp:406] group1_block0_sum_group1_block0_sum_0_split <- group1_block0_sum
I0321 00:34:52.738658 128215 net.cpp:380] group1_block0_sum_group1_block0_sum_0_split -> group1_block0_sum_group1_block0_sum_0_split_0
I0321 00:34:52.738675 128215 net.cpp:380] group1_block0_sum_group1_block0_sum_0_split -> group1_block0_sum_group1_block0_sum_0_split_1
I0321 00:34:52.738736 128215 net.cpp:122] Setting up group1_block0_sum_group1_block0_sum_0_split
I0321 00:34:52.738746 128215 net.cpp:129] Top shape: 128 64 16 16 (2097152)
I0321 00:34:52.738761 128215 net.cpp:129] Top shape: 128 64 16 16 (2097152)
I0321 00:34:52.738775 128215 net.cpp:137] Memory required for data: 580388352
I0321 00:34:52.738785 128215 layer_factory.hpp:77] Creating layer group1_block1_conv0
I0321 00:34:52.738831 128215 net.cpp:84] Creating Layer group1_block1_conv0
I0321 00:34:52.738842 128215 net.cpp:406] group1_block1_conv0 <- group1_block0_sum_group1_block0_sum_0_split_0
I0321 00:34:52.738859 128215 net.cpp:380] group1_block1_conv0 -> group1_block1_conv0
I0321 00:34:52.743280 128215 net.cpp:122] Setting up group1_block1_conv0
I0321 00:34:52.743291 128215 net.cpp:129] Top shape: 128 64 16 16 (2097152)
I0321 00:34:52.743307 128215 net.cpp:137] Memory required for data: 588776960
I0321 00:34:52.743326 128215 layer_factory.hpp:77] Creating layer group1_block1_conv0_bn
I0321 00:34:52.743341 128215 net.cpp:84] Creating Layer group1_block1_conv0_bn
I0321 00:34:52.743353 128215 net.cpp:406] group1_block1_conv0_bn <- group1_block1_conv0
I0321 00:34:52.743367 128215 net.cpp:367] group1_block1_conv0_bn -> group1_block1_conv0 (in-place)
I0321 00:34:52.743625 128215 net.cpp:122] Setting up group1_block1_conv0_bn
I0321 00:34:52.743635 128215 net.cpp:129] Top shape: 128 64 16 16 (2097152)
I0321 00:34:52.743650 128215 net.cpp:137] Memory required for data: 597165568
I0321 00:34:52.743672 128215 layer_factory.hpp:77] Creating layer group1_block1_conv0_scale
I0321 00:34:52.743687 128215 net.cpp:84] Creating Layer group1_block1_conv0_scale
I0321 00:34:52.743698 128215 net.cpp:406] group1_block1_conv0_scale <- group1_block1_conv0
I0321 00:34:52.743712 128215 net.cpp:367] group1_block1_conv0_scale -> group1_block1_conv0 (in-place)
I0321 00:34:52.743770 128215 layer_factory.hpp:77] Creating layer group1_block1_conv0_scale
I0321 00:34:52.743932 128215 net.cpp:122] Setting up group1_block1_conv0_scale
I0321 00:34:52.743942 128215 net.cpp:129] Top shape: 128 64 16 16 (2097152)
I0321 00:34:52.743957 128215 net.cpp:137] Memory required for data: 605554176
I0321 00:34:52.743975 128215 layer_factory.hpp:77] Creating layer group1_block1_conv0_relu
I0321 00:34:52.743989 128215 net.cpp:84] Creating Layer group1_block1_conv0_relu
I0321 00:34:52.744001 128215 net.cpp:406] group1_block1_conv0_relu <- group1_block1_conv0
I0321 00:34:52.744014 128215 net.cpp:367] group1_block1_conv0_relu -> group1_block1_conv0 (in-place)
I0321 00:34:52.744509 128215 net.cpp:122] Setting up group1_block1_conv0_relu
I0321 00:34:52.744519 128215 net.cpp:129] Top shape: 128 64 16 16 (2097152)
I0321 00:34:52.744534 128215 net.cpp:137] Memory required for data: 613942784
I0321 00:34:52.744545 128215 layer_factory.hpp:77] Creating layer group1_block1_conv1
I0321 00:34:52.744563 128215 net.cpp:84] Creating Layer group1_block1_conv1
I0321 00:34:52.744575 128215 net.cpp:406] group1_block1_conv1 <- group1_block1_conv0
I0321 00:34:52.744590 128215 net.cpp:380] group1_block1_conv1 -> group1_block1_conv1
I0321 00:34:52.749658 128215 net.cpp:122] Setting up group1_block1_conv1
I0321 00:34:52.749671 128215 net.cpp:129] Top shape: 128 64 16 16 (2097152)
I0321 00:34:52.749687 128215 net.cpp:137] Memory required for data: 622331392
I0321 00:34:52.749706 128215 layer_factory.hpp:77] Creating layer group1_block1_conv1_bn
I0321 00:34:52.749722 128215 net.cpp:84] Creating Layer group1_block1_conv1_bn
I0321 00:34:52.749733 128215 net.cpp:406] group1_block1_conv1_bn <- group1_block1_conv1
I0321 00:34:52.749748 128215 net.cpp:367] group1_block1_conv1_bn -> group1_block1_conv1 (in-place)
I0321 00:34:52.750012 128215 net.cpp:122] Setting up group1_block1_conv1_bn
I0321 00:34:52.750022 128215 net.cpp:129] Top shape: 128 64 16 16 (2097152)
I0321 00:34:52.750037 128215 net.cpp:137] Memory required for data: 630720000
I0321 00:34:52.750059 128215 layer_factory.hpp:77] Creating layer group1_block1_conv1_scale
I0321 00:34:52.750073 128215 net.cpp:84] Creating Layer group1_block1_conv1_scale
I0321 00:34:52.750085 128215 net.cpp:406] group1_block1_conv1_scale <- group1_block1_conv1
I0321 00:34:52.750099 128215 net.cpp:367] group1_block1_conv1_scale -> group1_block1_conv1 (in-place)
I0321 00:34:52.750157 128215 layer_factory.hpp:77] Creating layer group1_block1_conv1_scale
I0321 00:34:52.750313 128215 net.cpp:122] Setting up group1_block1_conv1_scale
I0321 00:34:52.750322 128215 net.cpp:129] Top shape: 128 64 16 16 (2097152)
I0321 00:34:52.750337 128215 net.cpp:137] Memory required for data: 639108608
I0321 00:34:52.750355 128215 layer_factory.hpp:77] Creating layer group1_block1_sum
I0321 00:34:52.750370 128215 net.cpp:84] Creating Layer group1_block1_sum
I0321 00:34:52.750380 128215 net.cpp:406] group1_block1_sum <- group1_block1_conv1
I0321 00:34:52.750392 128215 net.cpp:406] group1_block1_sum <- group1_block0_sum_group1_block0_sum_0_split_1
I0321 00:34:52.750407 128215 net.cpp:380] group1_block1_sum -> group1_block1_sum
I0321 00:34:52.750445 128215 net.cpp:122] Setting up group1_block1_sum
I0321 00:34:52.750455 128215 net.cpp:129] Top shape: 128 64 16 16 (2097152)
I0321 00:34:52.750469 128215 net.cpp:137] Memory required for data: 647497216
I0321 00:34:52.750480 128215 layer_factory.hpp:77] Creating layer group1_block1_sum_group1_block1_sum_0_split
I0321 00:34:52.750494 128215 net.cpp:84] Creating Layer group1_block1_sum_group1_block1_sum_0_split
I0321 00:34:52.750505 128215 net.cpp:406] group1_block1_sum_group1_block1_sum_0_split <- group1_block1_sum
I0321 00:34:52.750519 128215 net.cpp:380] group1_block1_sum_group1_block1_sum_0_split -> group1_block1_sum_group1_block1_sum_0_split_0
I0321 00:34:52.750535 128215 net.cpp:380] group1_block1_sum_group1_block1_sum_0_split -> group1_block1_sum_group1_block1_sum_0_split_1
I0321 00:34:52.750597 128215 net.cpp:122] Setting up group1_block1_sum_group1_block1_sum_0_split
I0321 00:34:52.750607 128215 net.cpp:129] Top shape: 128 64 16 16 (2097152)
I0321 00:34:52.750622 128215 net.cpp:129] Top shape: 128 64 16 16 (2097152)
I0321 00:34:52.750636 128215 net.cpp:137] Memory required for data: 664274432
I0321 00:34:52.750648 128215 layer_factory.hpp:77] Creating layer group1_block2_conv0
I0321 00:34:52.750664 128215 net.cpp:84] Creating Layer group1_block2_conv0
I0321 00:34:52.750675 128215 net.cpp:406] group1_block2_conv0 <- group1_block1_sum_group1_block1_sum_0_split_0
I0321 00:34:52.750691 128215 net.cpp:380] group1_block2_conv0 -> group1_block2_conv0
I0321 00:34:52.755136 128215 net.cpp:122] Setting up group1_block2_conv0
I0321 00:34:52.755149 128215 net.cpp:129] Top shape: 128 64 16 16 (2097152)
I0321 00:34:52.755164 128215 net.cpp:137] Memory required for data: 672663040
I0321 00:34:52.755183 128215 layer_factory.hpp:77] Creating layer group1_block2_conv0_bn
I0321 00:34:52.755198 128215 net.cpp:84] Creating Layer group1_block2_conv0_bn
I0321 00:34:52.755209 128215 net.cpp:406] group1_block2_conv0_bn <- group1_block2_conv0
I0321 00:34:52.755233 128215 net.cpp:367] group1_block2_conv0_bn -> group1_block2_conv0 (in-place)
I0321 00:34:52.755492 128215 net.cpp:122] Setting up group1_block2_conv0_bn
I0321 00:34:52.755502 128215 net.cpp:129] Top shape: 128 64 16 16 (2097152)
I0321 00:34:52.755517 128215 net.cpp:137] Memory required for data: 681051648
I0321 00:34:52.755538 128215 layer_factory.hpp:77] Creating layer group1_block2_conv0_scale
I0321 00:34:52.755551 128215 net.cpp:84] Creating Layer group1_block2_conv0_scale
I0321 00:34:52.755563 128215 net.cpp:406] group1_block2_conv0_scale <- group1_block2_conv0
I0321 00:34:52.755576 128215 net.cpp:367] group1_block2_conv0_scale -> group1_block2_conv0 (in-place)
I0321 00:34:52.755640 128215 layer_factory.hpp:77] Creating layer group1_block2_conv0_scale
I0321 00:34:52.755792 128215 net.cpp:122] Setting up group1_block2_conv0_scale
I0321 00:34:52.755802 128215 net.cpp:129] Top shape: 128 64 16 16 (2097152)
I0321 00:34:52.755817 128215 net.cpp:137] Memory required for data: 689440256
I0321 00:34:52.755836 128215 layer_factory.hpp:77] Creating layer group1_block2_conv0_relu
I0321 00:34:52.755849 128215 net.cpp:84] Creating Layer group1_block2_conv0_relu
I0321 00:34:52.755861 128215 net.cpp:406] group1_block2_conv0_relu <- group1_block2_conv0
I0321 00:34:52.755873 128215 net.cpp:367] group1_block2_conv0_relu -> group1_block2_conv0 (in-place)
I0321 00:34:52.756371 128215 net.cpp:122] Setting up group1_block2_conv0_relu
I0321 00:34:52.756382 128215 net.cpp:129] Top shape: 128 64 16 16 (2097152)
I0321 00:34:52.756397 128215 net.cpp:137] Memory required for data: 697828864
I0321 00:34:52.756408 128215 layer_factory.hpp:77] Creating layer group1_block2_conv1
I0321 00:34:52.756425 128215 net.cpp:84] Creating Layer group1_block2_conv1
I0321 00:34:52.756438 128215 net.cpp:406] group1_block2_conv1 <- group1_block2_conv0
I0321 00:34:52.756453 128215 net.cpp:380] group1_block2_conv1 -> group1_block2_conv1
I0321 00:34:52.761808 128215 net.cpp:122] Setting up group1_block2_conv1
I0321 00:34:52.761821 128215 net.cpp:129] Top shape: 128 64 16 16 (2097152)
I0321 00:34:52.761837 128215 net.cpp:137] Memory required for data: 706217472
I0321 00:34:52.761855 128215 layer_factory.hpp:77] Creating layer group1_block2_conv1_bn
I0321 00:34:52.761870 128215 net.cpp:84] Creating Layer group1_block2_conv1_bn
I0321 00:34:52.761883 128215 net.cpp:406] group1_block2_conv1_bn <- group1_block2_conv1
I0321 00:34:52.761898 128215 net.cpp:367] group1_block2_conv1_bn -> group1_block2_conv1 (in-place)
I0321 00:34:52.762156 128215 net.cpp:122] Setting up group1_block2_conv1_bn
I0321 00:34:52.762167 128215 net.cpp:129] Top shape: 128 64 16 16 (2097152)
I0321 00:34:52.762182 128215 net.cpp:137] Memory required for data: 714606080
I0321 00:34:52.762203 128215 layer_factory.hpp:77] Creating layer group1_block2_conv1_scale
I0321 00:34:52.762218 128215 net.cpp:84] Creating Layer group1_block2_conv1_scale
I0321 00:34:52.762230 128215 net.cpp:406] group1_block2_conv1_scale <- group1_block2_conv1
I0321 00:34:52.762244 128215 net.cpp:367] group1_block2_conv1_scale -> group1_block2_conv1 (in-place)
I0321 00:34:52.762302 128215 layer_factory.hpp:77] Creating layer group1_block2_conv1_scale
I0321 00:34:52.762465 128215 net.cpp:122] Setting up group1_block2_conv1_scale
I0321 00:34:52.762475 128215 net.cpp:129] Top shape: 128 64 16 16 (2097152)
I0321 00:34:52.762490 128215 net.cpp:137] Memory required for data: 722994688
I0321 00:34:52.762507 128215 layer_factory.hpp:77] Creating layer group1_block2_sum
I0321 00:34:52.762521 128215 net.cpp:84] Creating Layer group1_block2_sum
I0321 00:34:52.762532 128215 net.cpp:406] group1_block2_sum <- group1_block2_conv1
I0321 00:34:52.762545 128215 net.cpp:406] group1_block2_sum <- group1_block1_sum_group1_block1_sum_0_split_1
I0321 00:34:52.762559 128215 net.cpp:380] group1_block2_sum -> group1_block2_sum
I0321 00:34:52.762598 128215 net.cpp:122] Setting up group1_block2_sum
I0321 00:34:52.762609 128215 net.cpp:129] Top shape: 128 64 16 16 (2097152)
I0321 00:34:52.762624 128215 net.cpp:137] Memory required for data: 731383296
I0321 00:34:52.762634 128215 layer_factory.hpp:77] Creating layer group1_block2_sum_group1_block2_sum_0_split
I0321 00:34:52.762647 128215 net.cpp:84] Creating Layer group1_block2_sum_group1_block2_sum_0_split
I0321 00:34:52.762658 128215 net.cpp:406] group1_block2_sum_group1_block2_sum_0_split <- group1_block2_sum
I0321 00:34:52.762673 128215 net.cpp:380] group1_block2_sum_group1_block2_sum_0_split -> group1_block2_sum_group1_block2_sum_0_split_0
I0321 00:34:52.762691 128215 net.cpp:380] group1_block2_sum_group1_block2_sum_0_split -> group1_block2_sum_group1_block2_sum_0_split_1
I0321 00:34:52.762751 128215 net.cpp:122] Setting up group1_block2_sum_group1_block2_sum_0_split
I0321 00:34:52.762761 128215 net.cpp:129] Top shape: 128 64 16 16 (2097152)
I0321 00:34:52.762776 128215 net.cpp:129] Top shape: 128 64 16 16 (2097152)
I0321 00:34:52.762790 128215 net.cpp:137] Memory required for data: 748160512
I0321 00:34:52.762801 128215 layer_factory.hpp:77] Creating layer group1_block3_conv0
I0321 00:34:52.762820 128215 net.cpp:84] Creating Layer group1_block3_conv0
I0321 00:34:52.762830 128215 net.cpp:406] group1_block3_conv0 <- group1_block2_sum_group1_block2_sum_0_split_0
I0321 00:34:52.762845 128215 net.cpp:380] group1_block3_conv0 -> group1_block3_conv0
I0321 00:34:52.767264 128215 net.cpp:122] Setting up group1_block3_conv0
I0321 00:34:52.767277 128215 net.cpp:129] Top shape: 128 64 16 16 (2097152)
I0321 00:34:52.767292 128215 net.cpp:137] Memory required for data: 756549120
I0321 00:34:52.767310 128215 layer_factory.hpp:77] Creating layer group1_block3_conv0_bn
I0321 00:34:52.767325 128215 net.cpp:84] Creating Layer group1_block3_conv0_bn
I0321 00:34:52.767336 128215 net.cpp:406] group1_block3_conv0_bn <- group1_block3_conv0
I0321 00:34:52.767351 128215 net.cpp:367] group1_block3_conv0_bn -> group1_block3_conv0 (in-place)
I0321 00:34:52.767614 128215 net.cpp:122] Setting up group1_block3_conv0_bn
I0321 00:34:52.767626 128215 net.cpp:129] Top shape: 128 64 16 16 (2097152)
I0321 00:34:52.767639 128215 net.cpp:137] Memory required for data: 764937728
I0321 00:34:52.767710 128215 layer_factory.hpp:77] Creating layer group1_block3_conv0_scale
I0321 00:34:52.767724 128215 net.cpp:84] Creating Layer group1_block3_conv0_scale
I0321 00:34:52.767735 128215 net.cpp:406] group1_block3_conv0_scale <- group1_block3_conv0
I0321 00:34:52.767750 128215 net.cpp:367] group1_block3_conv0_scale -> group1_block3_conv0 (in-place)
I0321 00:34:52.767810 128215 layer_factory.hpp:77] Creating layer group1_block3_conv0_scale
I0321 00:34:52.767967 128215 net.cpp:122] Setting up group1_block3_conv0_scale
I0321 00:34:52.767977 128215 net.cpp:129] Top shape: 128 64 16 16 (2097152)
I0321 00:34:52.767992 128215 net.cpp:137] Memory required for data: 773326336
I0321 00:34:52.768010 128215 layer_factory.hpp:77] Creating layer group1_block3_conv0_relu
I0321 00:34:52.768024 128215 net.cpp:84] Creating Layer group1_block3_conv0_relu
I0321 00:34:52.768035 128215 net.cpp:406] group1_block3_conv0_relu <- group1_block3_conv0
I0321 00:34:52.768049 128215 net.cpp:367] group1_block3_conv0_relu -> group1_block3_conv0 (in-place)
I0321 00:34:52.768976 128215 net.cpp:122] Setting up group1_block3_conv0_relu
I0321 00:34:52.768987 128215 net.cpp:129] Top shape: 128 64 16 16 (2097152)
I0321 00:34:52.769002 128215 net.cpp:137] Memory required for data: 781714944
I0321 00:34:52.769014 128215 layer_factory.hpp:77] Creating layer group1_block3_conv1
I0321 00:34:52.769032 128215 net.cpp:84] Creating Layer group1_block3_conv1
I0321 00:34:52.769043 128215 net.cpp:406] group1_block3_conv1 <- group1_block3_conv0
I0321 00:34:52.769059 128215 net.cpp:380] group1_block3_conv1 -> group1_block3_conv1
I0321 00:34:52.773952 128215 net.cpp:122] Setting up group1_block3_conv1
I0321 00:34:52.773964 128215 net.cpp:129] Top shape: 128 64 16 16 (2097152)
I0321 00:34:52.773979 128215 net.cpp:137] Memory required for data: 790103552
I0321 00:34:52.773998 128215 layer_factory.hpp:77] Creating layer group1_block3_conv1_bn
I0321 00:34:52.774013 128215 net.cpp:84] Creating Layer group1_block3_conv1_bn
I0321 00:34:52.774024 128215 net.cpp:406] group1_block3_conv1_bn <- group1_block3_conv1
I0321 00:34:52.774039 128215 net.cpp:367] group1_block3_conv1_bn -> group1_block3_conv1 (in-place)
I0321 00:34:52.774307 128215 net.cpp:122] Setting up group1_block3_conv1_bn
I0321 00:34:52.774317 128215 net.cpp:129] Top shape: 128 64 16 16 (2097152)
I0321 00:34:52.774332 128215 net.cpp:137] Memory required for data: 798492160
I0321 00:34:52.774353 128215 layer_factory.hpp:77] Creating layer group1_block3_conv1_scale
I0321 00:34:52.774369 128215 net.cpp:84] Creating Layer group1_block3_conv1_scale
I0321 00:34:52.774379 128215 net.cpp:406] group1_block3_conv1_scale <- group1_block3_conv1
I0321 00:34:52.774394 128215 net.cpp:367] group1_block3_conv1_scale -> group1_block3_conv1 (in-place)
I0321 00:34:52.774452 128215 layer_factory.hpp:77] Creating layer group1_block3_conv1_scale
I0321 00:34:52.774611 128215 net.cpp:122] Setting up group1_block3_conv1_scale
I0321 00:34:52.774622 128215 net.cpp:129] Top shape: 128 64 16 16 (2097152)
I0321 00:34:52.774637 128215 net.cpp:137] Memory required for data: 806880768
I0321 00:34:52.774655 128215 layer_factory.hpp:77] Creating layer group1_block3_sum
I0321 00:34:52.774669 128215 net.cpp:84] Creating Layer group1_block3_sum
I0321 00:34:52.774680 128215 net.cpp:406] group1_block3_sum <- group1_block3_conv1
I0321 00:34:52.774693 128215 net.cpp:406] group1_block3_sum <- group1_block2_sum_group1_block2_sum_0_split_1
I0321 00:34:52.774708 128215 net.cpp:380] group1_block3_sum -> group1_block3_sum
I0321 00:34:52.774746 128215 net.cpp:122] Setting up group1_block3_sum
I0321 00:34:52.774756 128215 net.cpp:129] Top shape: 128 64 16 16 (2097152)
I0321 00:34:52.774771 128215 net.cpp:137] Memory required for data: 815269376
I0321 00:34:52.774781 128215 layer_factory.hpp:77] Creating layer group1_block3_sum_group1_block3_sum_0_split
I0321 00:34:52.774796 128215 net.cpp:84] Creating Layer group1_block3_sum_group1_block3_sum_0_split
I0321 00:34:52.774806 128215 net.cpp:406] group1_block3_sum_group1_block3_sum_0_split <- group1_block3_sum
I0321 00:34:52.774821 128215 net.cpp:380] group1_block3_sum_group1_block3_sum_0_split -> group1_block3_sum_group1_block3_sum_0_split_0
I0321 00:34:52.774837 128215 net.cpp:380] group1_block3_sum_group1_block3_sum_0_split -> group1_block3_sum_group1_block3_sum_0_split_1
I0321 00:34:52.774900 128215 net.cpp:122] Setting up group1_block3_sum_group1_block3_sum_0_split
I0321 00:34:52.774909 128215 net.cpp:129] Top shape: 128 64 16 16 (2097152)
I0321 00:34:52.774924 128215 net.cpp:129] Top shape: 128 64 16 16 (2097152)
I0321 00:34:52.774938 128215 net.cpp:137] Memory required for data: 832046592
I0321 00:34:52.774950 128215 layer_factory.hpp:77] Creating layer group1_block8_conv0
I0321 00:34:52.774981 128215 net.cpp:84] Creating Layer group1_block8_conv0
I0321 00:34:52.774993 128215 net.cpp:406] group1_block8_conv0 <- group1_block3_sum_group1_block3_sum_0_split_0
I0321 00:34:52.775010 128215 net.cpp:380] group1_block8_conv0 -> group1_block8_conv0
I0321 00:34:52.779450 128215 net.cpp:122] Setting up group1_block8_conv0
I0321 00:34:52.779462 128215 net.cpp:129] Top shape: 128 64 16 16 (2097152)
I0321 00:34:52.779479 128215 net.cpp:137] Memory required for data: 840435200
I0321 00:34:52.779497 128215 layer_factory.hpp:77] Creating layer group1_block8_conv0_bn
I0321 00:34:52.779511 128215 net.cpp:84] Creating Layer group1_block8_conv0_bn
I0321 00:34:52.779523 128215 net.cpp:406] group1_block8_conv0_bn <- group1_block8_conv0
I0321 00:34:52.779537 128215 net.cpp:367] group1_block8_conv0_bn -> group1_block8_conv0 (in-place)
I0321 00:34:52.779803 128215 net.cpp:122] Setting up group1_block8_conv0_bn
I0321 00:34:52.779814 128215 net.cpp:129] Top shape: 128 64 16 16 (2097152)
I0321 00:34:52.779829 128215 net.cpp:137] Memory required for data: 848823808
I0321 00:34:52.779850 128215 layer_factory.hpp:77] Creating layer group1_block8_conv0_scale
I0321 00:34:52.779865 128215 net.cpp:84] Creating Layer group1_block8_conv0_scale
I0321 00:34:52.779877 128215 net.cpp:406] group1_block8_conv0_scale <- group1_block8_conv0
I0321 00:34:52.779891 128215 net.cpp:367] group1_block8_conv0_scale -> group1_block8_conv0 (in-place)
I0321 00:34:52.779950 128215 layer_factory.hpp:77] Creating layer group1_block8_conv0_scale
I0321 00:34:52.780108 128215 net.cpp:122] Setting up group1_block8_conv0_scale
I0321 00:34:52.780118 128215 net.cpp:129] Top shape: 128 64 16 16 (2097152)
I0321 00:34:52.780133 128215 net.cpp:137] Memory required for data: 857212416
I0321 00:34:52.780151 128215 layer_factory.hpp:77] Creating layer group1_block8_conv0_relu
I0321 00:34:52.780164 128215 net.cpp:84] Creating Layer group1_block8_conv0_relu
I0321 00:34:52.780175 128215 net.cpp:406] group1_block8_conv0_relu <- group1_block8_conv0
I0321 00:34:52.780189 128215 net.cpp:367] group1_block8_conv0_relu -> group1_block8_conv0 (in-place)
I0321 00:34:52.780695 128215 net.cpp:122] Setting up group1_block8_conv0_relu
I0321 00:34:52.780705 128215 net.cpp:129] Top shape: 128 64 16 16 (2097152)
I0321 00:34:52.780720 128215 net.cpp:137] Memory required for data: 865601024
I0321 00:34:52.780731 128215 layer_factory.hpp:77] Creating layer group1_block8_conv1
I0321 00:34:52.780750 128215 net.cpp:84] Creating Layer group1_block8_conv1
I0321 00:34:52.780761 128215 net.cpp:406] group1_block8_conv1 <- group1_block8_conv0
I0321 00:34:52.780776 128215 net.cpp:380] group1_block8_conv1 -> group1_block8_conv1
I0321 00:34:52.785676 128215 net.cpp:122] Setting up group1_block8_conv1
I0321 00:34:52.785688 128215 net.cpp:129] Top shape: 128 64 16 16 (2097152)
I0321 00:34:52.785704 128215 net.cpp:137] Memory required for data: 873989632
I0321 00:34:52.785722 128215 layer_factory.hpp:77] Creating layer group1_block8_conv1_bn
I0321 00:34:52.785737 128215 net.cpp:84] Creating Layer group1_block8_conv1_bn
I0321 00:34:52.785749 128215 net.cpp:406] group1_block8_conv1_bn <- group1_block8_conv1
I0321 00:34:52.785764 128215 net.cpp:367] group1_block8_conv1_bn -> group1_block8_conv1 (in-place)
I0321 00:34:52.786041 128215 net.cpp:122] Setting up group1_block8_conv1_bn
I0321 00:34:52.786051 128215 net.cpp:129] Top shape: 128 64 16 16 (2097152)
I0321 00:34:52.786065 128215 net.cpp:137] Memory required for data: 882378240
I0321 00:34:52.786087 128215 layer_factory.hpp:77] Creating layer group1_block8_conv1_scale
I0321 00:34:52.786100 128215 net.cpp:84] Creating Layer group1_block8_conv1_scale
I0321 00:34:52.786113 128215 net.cpp:406] group1_block8_conv1_scale <- group1_block8_conv1
I0321 00:34:52.786125 128215 net.cpp:367] group1_block8_conv1_scale -> group1_block8_conv1 (in-place)
I0321 00:34:52.786190 128215 layer_factory.hpp:77] Creating layer group1_block8_conv1_scale
I0321 00:34:52.786350 128215 net.cpp:122] Setting up group1_block8_conv1_scale
I0321 00:34:52.786360 128215 net.cpp:129] Top shape: 128 64 16 16 (2097152)
I0321 00:34:52.786375 128215 net.cpp:137] Memory required for data: 890766848
I0321 00:34:52.786393 128215 layer_factory.hpp:77] Creating layer group1_block8_sum
I0321 00:34:52.786407 128215 net.cpp:84] Creating Layer group1_block8_sum
I0321 00:34:52.786418 128215 net.cpp:406] group1_block8_sum <- group1_block8_conv1
I0321 00:34:52.786430 128215 net.cpp:406] group1_block8_sum <- group1_block3_sum_group1_block3_sum_0_split_1
I0321 00:34:52.786445 128215 net.cpp:380] group1_block8_sum -> group1_block8_sum
I0321 00:34:52.786484 128215 net.cpp:122] Setting up group1_block8_sum
I0321 00:34:52.786494 128215 net.cpp:129] Top shape: 128 64 16 16 (2097152)
I0321 00:34:52.786509 128215 net.cpp:137] Memory required for data: 899155456
I0321 00:34:52.786520 128215 layer_factory.hpp:77] Creating layer group1_block8_sum_group1_block8_sum_0_split
I0321 00:34:52.786533 128215 net.cpp:84] Creating Layer group1_block8_sum_group1_block8_sum_0_split
I0321 00:34:52.786543 128215 net.cpp:406] group1_block8_sum_group1_block8_sum_0_split <- group1_block8_sum
I0321 00:34:52.786557 128215 net.cpp:380] group1_block8_sum_group1_block8_sum_0_split -> group1_block8_sum_group1_block8_sum_0_split_0
I0321 00:34:52.786574 128215 net.cpp:380] group1_block8_sum_group1_block8_sum_0_split -> group1_block8_sum_group1_block8_sum_0_split_1
I0321 00:34:52.786638 128215 net.cpp:122] Setting up group1_block8_sum_group1_block8_sum_0_split
I0321 00:34:52.786648 128215 net.cpp:129] Top shape: 128 64 16 16 (2097152)
I0321 00:34:52.786661 128215 net.cpp:129] Top shape: 128 64 16 16 (2097152)
I0321 00:34:52.786675 128215 net.cpp:137] Memory required for data: 915932672
I0321 00:34:52.786686 128215 layer_factory.hpp:77] Creating layer group2_block0_conv0
I0321 00:34:52.786703 128215 net.cpp:84] Creating Layer group2_block0_conv0
I0321 00:34:52.786715 128215 net.cpp:406] group2_block0_conv0 <- group1_block8_sum_group1_block8_sum_0_split_0
I0321 00:34:52.786729 128215 net.cpp:380] group2_block0_conv0 -> group2_block0_conv0
I0321 00:34:52.798454 128215 net.cpp:122] Setting up group2_block0_conv0
I0321 00:34:52.798468 128215 net.cpp:129] Top shape: 128 256 8 8 (2097152)
I0321 00:34:52.798485 128215 net.cpp:137] Memory required for data: 924321280
I0321 00:34:52.798504 128215 layer_factory.hpp:77] Creating layer group2_block0_conv0_bn
I0321 00:34:52.798521 128215 net.cpp:84] Creating Layer group2_block0_conv0_bn
I0321 00:34:52.798533 128215 net.cpp:406] group2_block0_conv0_bn <- group2_block0_conv0
I0321 00:34:52.798549 128215 net.cpp:367] group2_block0_conv0_bn -> group2_block0_conv0 (in-place)
I0321 00:34:52.798823 128215 net.cpp:122] Setting up group2_block0_conv0_bn
I0321 00:34:52.798835 128215 net.cpp:129] Top shape: 128 256 8 8 (2097152)
I0321 00:34:52.798849 128215 net.cpp:137] Memory required for data: 932709888
I0321 00:34:52.798871 128215 layer_factory.hpp:77] Creating layer group2_block0_conv0_scale
I0321 00:34:52.798887 128215 net.cpp:84] Creating Layer group2_block0_conv0_scale
I0321 00:34:52.798897 128215 net.cpp:406] group2_block0_conv0_scale <- group2_block0_conv0
I0321 00:34:52.798913 128215 net.cpp:367] group2_block0_conv0_scale -> group2_block0_conv0 (in-place)
I0321 00:34:52.798972 128215 layer_factory.hpp:77] Creating layer group2_block0_conv0_scale
I0321 00:34:52.799129 128215 net.cpp:122] Setting up group2_block0_conv0_scale
I0321 00:34:52.799139 128215 net.cpp:129] Top shape: 128 256 8 8 (2097152)
I0321 00:34:52.799154 128215 net.cpp:137] Memory required for data: 941098496
I0321 00:34:52.799171 128215 layer_factory.hpp:77] Creating layer group2_block0_conv0_relu
I0321 00:34:52.799185 128215 net.cpp:84] Creating Layer group2_block0_conv0_relu
I0321 00:34:52.799196 128215 net.cpp:406] group2_block0_conv0_relu <- group2_block0_conv0
I0321 00:34:52.799211 128215 net.cpp:367] group2_block0_conv0_relu -> group2_block0_conv0 (in-place)
I0321 00:34:52.799713 128215 net.cpp:122] Setting up group2_block0_conv0_relu
I0321 00:34:52.799724 128215 net.cpp:129] Top shape: 128 256 8 8 (2097152)
I0321 00:34:52.799739 128215 net.cpp:137] Memory required for data: 949487104
I0321 00:34:52.799751 128215 layer_factory.hpp:77] Creating layer group2_block0_conv1
I0321 00:34:52.799769 128215 net.cpp:84] Creating Layer group2_block0_conv1
I0321 00:34:52.799780 128215 net.cpp:406] group2_block0_conv1 <- group2_block0_conv0
I0321 00:34:52.799796 128215 net.cpp:380] group2_block0_conv1 -> group2_block0_conv1
I0321 00:34:52.837051 128215 net.cpp:122] Setting up group2_block0_conv1
I0321 00:34:52.837067 128215 net.cpp:129] Top shape: 128 256 8 8 (2097152)
I0321 00:34:52.837082 128215 net.cpp:137] Memory required for data: 957875712
I0321 00:34:52.837101 128215 layer_factory.hpp:77] Creating layer group2_block0_conv1_bn
I0321 00:34:52.837118 128215 net.cpp:84] Creating Layer group2_block0_conv1_bn
I0321 00:34:52.837131 128215 net.cpp:406] group2_block0_conv1_bn <- group2_block0_conv1
I0321 00:34:52.837146 128215 net.cpp:367] group2_block0_conv1_bn -> group2_block0_conv1 (in-place)
I0321 00:34:52.837422 128215 net.cpp:122] Setting up group2_block0_conv1_bn
I0321 00:34:52.837432 128215 net.cpp:129] Top shape: 128 256 8 8 (2097152)
I0321 00:34:52.837447 128215 net.cpp:137] Memory required for data: 966264320
I0321 00:34:52.837469 128215 layer_factory.hpp:77] Creating layer group2_block0_conv1_scale
I0321 00:34:52.837486 128215 net.cpp:84] Creating Layer group2_block0_conv1_scale
I0321 00:34:52.837496 128215 net.cpp:406] group2_block0_conv1_scale <- group2_block0_conv1
I0321 00:34:52.837510 128215 net.cpp:367] group2_block0_conv1_scale -> group2_block0_conv1 (in-place)
I0321 00:34:52.837571 128215 layer_factory.hpp:77] Creating layer group2_block0_conv1_scale
I0321 00:34:52.837730 128215 net.cpp:122] Setting up group2_block0_conv1_scale
I0321 00:34:52.837740 128215 net.cpp:129] Top shape: 128 256 8 8 (2097152)
I0321 00:34:52.837755 128215 net.cpp:137] Memory required for data: 974652928
I0321 00:34:52.837774 128215 layer_factory.hpp:77] Creating layer group2_block0_proj
I0321 00:34:52.837791 128215 net.cpp:84] Creating Layer group2_block0_proj
I0321 00:34:52.837802 128215 net.cpp:406] group2_block0_proj <- group1_block8_sum_group1_block8_sum_0_split_1
I0321 00:34:52.837818 128215 net.cpp:380] group2_block0_proj -> group2_block0_proj
I0321 00:34:52.844416 128215 net.cpp:122] Setting up group2_block0_proj
I0321 00:34:52.844429 128215 net.cpp:129] Top shape: 128 256 8 8 (2097152)
I0321 00:34:52.844444 128215 net.cpp:137] Memory required for data: 983041536
I0321 00:34:52.844463 128215 layer_factory.hpp:77] Creating layer group2_block0_proj_bn
I0321 00:34:52.844478 128215 net.cpp:84] Creating Layer group2_block0_proj_bn
I0321 00:34:52.844491 128215 net.cpp:406] group2_block0_proj_bn <- group2_block0_proj
I0321 00:34:52.844504 128215 net.cpp:367] group2_block0_proj_bn -> group2_block0_proj (in-place)
I0321 00:34:52.844776 128215 net.cpp:122] Setting up group2_block0_proj_bn
I0321 00:34:52.844786 128215 net.cpp:129] Top shape: 128 256 8 8 (2097152)
I0321 00:34:52.844801 128215 net.cpp:137] Memory required for data: 991430144
I0321 00:34:52.844822 128215 layer_factory.hpp:77] Creating layer group2_block0_proj_scale
I0321 00:34:52.844836 128215 net.cpp:84] Creating Layer group2_block0_proj_scale
I0321 00:34:52.844847 128215 net.cpp:406] group2_block0_proj_scale <- group2_block0_proj
I0321 00:34:52.844861 128215 net.cpp:367] group2_block0_proj_scale -> group2_block0_proj (in-place)
I0321 00:34:52.844925 128215 layer_factory.hpp:77] Creating layer group2_block0_proj_scale
I0321 00:34:52.845082 128215 net.cpp:122] Setting up group2_block0_proj_scale
I0321 00:34:52.845093 128215 net.cpp:129] Top shape: 128 256 8 8 (2097152)
I0321 00:34:52.845108 128215 net.cpp:137] Memory required for data: 999818752
I0321 00:34:52.845125 128215 layer_factory.hpp:77] Creating layer group2_block0_sum
I0321 00:34:52.845140 128215 net.cpp:84] Creating Layer group2_block0_sum
I0321 00:34:52.845151 128215 net.cpp:406] group2_block0_sum <- group2_block0_proj
I0321 00:34:52.845165 128215 net.cpp:406] group2_block0_sum <- group2_block0_conv1
I0321 00:34:52.845178 128215 net.cpp:380] group2_block0_sum -> group2_block0_sum
I0321 00:34:52.845217 128215 net.cpp:122] Setting up group2_block0_sum
I0321 00:34:52.845227 128215 net.cpp:129] Top shape: 128 256 8 8 (2097152)
I0321 00:34:52.845242 128215 net.cpp:137] Memory required for data: 1008207360
I0321 00:34:52.845252 128215 layer_factory.hpp:77] Creating layer group2_block0_sum_group2_block0_sum_0_split
I0321 00:34:52.845268 128215 net.cpp:84] Creating Layer group2_block0_sum_group2_block0_sum_0_split
I0321 00:34:52.845278 128215 net.cpp:406] group2_block0_sum_group2_block0_sum_0_split <- group2_block0_sum
I0321 00:34:52.845291 128215 net.cpp:380] group2_block0_sum_group2_block0_sum_0_split -> group2_block0_sum_group2_block0_sum_0_split_0
I0321 00:34:52.845309 128215 net.cpp:380] group2_block0_sum_group2_block0_sum_0_split -> group2_block0_sum_group2_block0_sum_0_split_1
I0321 00:34:52.845372 128215 net.cpp:122] Setting up group2_block0_sum_group2_block0_sum_0_split
I0321 00:34:52.845382 128215 net.cpp:129] Top shape: 128 256 8 8 (2097152)
I0321 00:34:52.845397 128215 net.cpp:129] Top shape: 128 256 8 8 (2097152)
I0321 00:34:52.845412 128215 net.cpp:137] Memory required for data: 1024984576
I0321 00:34:52.845422 128215 layer_factory.hpp:77] Creating layer group2_block1_conv0
I0321 00:34:52.845439 128215 net.cpp:84] Creating Layer group2_block1_conv0
I0321 00:34:52.845450 128215 net.cpp:406] group2_block1_conv0 <- group2_block0_sum_group2_block0_sum_0_split_0
I0321 00:34:52.845474 128215 net.cpp:380] group2_block1_conv0 -> group2_block1_conv0
I0321 00:34:52.882776 128215 net.cpp:122] Setting up group2_block1_conv0
I0321 00:34:52.882796 128215 net.cpp:129] Top shape: 128 256 8 8 (2097152)
I0321 00:34:52.882812 128215 net.cpp:137] Memory required for data: 1033373184
I0321 00:34:52.882830 128215 layer_factory.hpp:77] Creating layer group2_block1_conv0_bn
I0321 00:34:52.882846 128215 net.cpp:84] Creating Layer group2_block1_conv0_bn
I0321 00:34:52.882859 128215 net.cpp:406] group2_block1_conv0_bn <- group2_block1_conv0
I0321 00:34:52.882875 128215 net.cpp:367] group2_block1_conv0_bn -> group2_block1_conv0 (in-place)
I0321 00:34:52.883154 128215 net.cpp:122] Setting up group2_block1_conv0_bn
I0321 00:34:52.883164 128215 net.cpp:129] Top shape: 128 256 8 8 (2097152)
I0321 00:34:52.883180 128215 net.cpp:137] Memory required for data: 1041761792
I0321 00:34:52.883201 128215 layer_factory.hpp:77] Creating layer group2_block1_conv0_scale
I0321 00:34:52.883215 128215 net.cpp:84] Creating Layer group2_block1_conv0_scale
I0321 00:34:52.883226 128215 net.cpp:406] group2_block1_conv0_scale <- group2_block1_conv0
I0321 00:34:52.883241 128215 net.cpp:367] group2_block1_conv0_scale -> group2_block1_conv0 (in-place)
I0321 00:34:52.883306 128215 layer_factory.hpp:77] Creating layer group2_block1_conv0_scale
I0321 00:34:52.883466 128215 net.cpp:122] Setting up group2_block1_conv0_scale
I0321 00:34:52.883476 128215 net.cpp:129] Top shape: 128 256 8 8 (2097152)
I0321 00:34:52.883491 128215 net.cpp:137] Memory required for data: 1050150400
I0321 00:34:52.883509 128215 layer_factory.hpp:77] Creating layer group2_block1_conv0_relu
I0321 00:34:52.883523 128215 net.cpp:84] Creating Layer group2_block1_conv0_relu
I0321 00:34:52.883534 128215 net.cpp:406] group2_block1_conv0_relu <- group2_block1_conv0
I0321 00:34:52.883548 128215 net.cpp:367] group2_block1_conv0_relu -> group2_block1_conv0 (in-place)
I0321 00:34:52.884518 128215 net.cpp:122] Setting up group2_block1_conv0_relu
I0321 00:34:52.884531 128215 net.cpp:129] Top shape: 128 256 8 8 (2097152)
I0321 00:34:52.884546 128215 net.cpp:137] Memory required for data: 1058539008
I0321 00:34:52.884557 128215 layer_factory.hpp:77] Creating layer group2_block1_conv1
I0321 00:34:52.884577 128215 net.cpp:84] Creating Layer group2_block1_conv1
I0321 00:34:52.884588 128215 net.cpp:406] group2_block1_conv1 <- group2_block1_conv0
I0321 00:34:52.884603 128215 net.cpp:380] group2_block1_conv1 -> group2_block1_conv1
I0321 00:34:52.921900 128215 net.cpp:122] Setting up group2_block1_conv1
I0321 00:34:52.921916 128215 net.cpp:129] Top shape: 128 256 8 8 (2097152)
I0321 00:34:52.921932 128215 net.cpp:137] Memory required for data: 1066927616
I0321 00:34:52.921952 128215 layer_factory.hpp:77] Creating layer group2_block1_conv1_bn
I0321 00:34:52.921967 128215 net.cpp:84] Creating Layer group2_block1_conv1_bn
I0321 00:34:52.921979 128215 net.cpp:406] group2_block1_conv1_bn <- group2_block1_conv1
I0321 00:34:52.921995 128215 net.cpp:367] group2_block1_conv1_bn -> group2_block1_conv1 (in-place)
I0321 00:34:52.922281 128215 net.cpp:122] Setting up group2_block1_conv1_bn
I0321 00:34:52.922291 128215 net.cpp:129] Top shape: 128 256 8 8 (2097152)
I0321 00:34:52.922307 128215 net.cpp:137] Memory required for data: 1075316224
I0321 00:34:52.922327 128215 layer_factory.hpp:77] Creating layer group2_block1_conv1_scale
I0321 00:34:52.922341 128215 net.cpp:84] Creating Layer group2_block1_conv1_scale
I0321 00:34:52.922353 128215 net.cpp:406] group2_block1_conv1_scale <- group2_block1_conv1
I0321 00:34:52.922368 128215 net.cpp:367] group2_block1_conv1_scale -> group2_block1_conv1 (in-place)
I0321 00:34:52.922432 128215 layer_factory.hpp:77] Creating layer group2_block1_conv1_scale
I0321 00:34:52.922590 128215 net.cpp:122] Setting up group2_block1_conv1_scale
I0321 00:34:52.922600 128215 net.cpp:129] Top shape: 128 256 8 8 (2097152)
I0321 00:34:52.922616 128215 net.cpp:137] Memory required for data: 1083704832
I0321 00:34:52.922633 128215 layer_factory.hpp:77] Creating layer group2_block1_sum
I0321 00:34:52.922647 128215 net.cpp:84] Creating Layer group2_block1_sum
I0321 00:34:52.922659 128215 net.cpp:406] group2_block1_sum <- group2_block1_conv1
I0321 00:34:52.922672 128215 net.cpp:406] group2_block1_sum <- group2_block0_sum_group2_block0_sum_0_split_1
I0321 00:34:52.922686 128215 net.cpp:380] group2_block1_sum -> group2_block1_sum
I0321 00:34:52.922726 128215 net.cpp:122] Setting up group2_block1_sum
I0321 00:34:52.922736 128215 net.cpp:129] Top shape: 128 256 8 8 (2097152)
I0321 00:34:52.922751 128215 net.cpp:137] Memory required for data: 1092093440
I0321 00:34:52.922761 128215 layer_factory.hpp:77] Creating layer group2_block1_sum_group2_block1_sum_0_split
I0321 00:34:52.922776 128215 net.cpp:84] Creating Layer group2_block1_sum_group2_block1_sum_0_split
I0321 00:34:52.922787 128215 net.cpp:406] group2_block1_sum_group2_block1_sum_0_split <- group2_block1_sum
I0321 00:34:52.922802 128215 net.cpp:380] group2_block1_sum_group2_block1_sum_0_split -> group2_block1_sum_group2_block1_sum_0_split_0
I0321 00:34:52.922819 128215 net.cpp:380] group2_block1_sum_group2_block1_sum_0_split -> group2_block1_sum_group2_block1_sum_0_split_1
I0321 00:34:52.922883 128215 net.cpp:122] Setting up group2_block1_sum_group2_block1_sum_0_split
I0321 00:34:52.922893 128215 net.cpp:129] Top shape: 128 256 8 8 (2097152)
I0321 00:34:52.922907 128215 net.cpp:129] Top shape: 128 256 8 8 (2097152)
I0321 00:34:52.922921 128215 net.cpp:137] Memory required for data: 1108870656
I0321 00:34:52.922932 128215 layer_factory.hpp:77] Creating layer group2_block2_conv0
I0321 00:34:52.922950 128215 net.cpp:84] Creating Layer group2_block2_conv0
I0321 00:34:52.922961 128215 net.cpp:406] group2_block2_conv0 <- group2_block1_sum_group2_block1_sum_0_split_0
I0321 00:34:52.922977 128215 net.cpp:380] group2_block2_conv0 -> group2_block2_conv0
I0321 00:34:52.961992 128215 net.cpp:122] Setting up group2_block2_conv0
I0321 00:34:52.962015 128215 net.cpp:129] Top shape: 128 256 8 8 (2097152)
I0321 00:34:52.962030 128215 net.cpp:137] Memory required for data: 1117259264
I0321 00:34:52.962049 128215 layer_factory.hpp:77] Creating layer group2_block2_conv0_bn
I0321 00:34:52.962066 128215 net.cpp:84] Creating Layer group2_block2_conv0_bn
I0321 00:34:52.962080 128215 net.cpp:406] group2_block2_conv0_bn <- group2_block2_conv0
I0321 00:34:52.962096 128215 net.cpp:367] group2_block2_conv0_bn -> group2_block2_conv0 (in-place)
I0321 00:34:52.962383 128215 net.cpp:122] Setting up group2_block2_conv0_bn
I0321 00:34:52.962393 128215 net.cpp:129] Top shape: 128 256 8 8 (2097152)
I0321 00:34:52.962409 128215 net.cpp:137] Memory required for data: 1125647872
I0321 00:34:52.962430 128215 layer_factory.hpp:77] Creating layer group2_block2_conv0_scale
I0321 00:34:52.962445 128215 net.cpp:84] Creating Layer group2_block2_conv0_scale
I0321 00:34:52.962456 128215 net.cpp:406] group2_block2_conv0_scale <- group2_block2_conv0
I0321 00:34:52.962471 128215 net.cpp:367] group2_block2_conv0_scale -> group2_block2_conv0 (in-place)
I0321 00:34:52.962535 128215 layer_factory.hpp:77] Creating layer group2_block2_conv0_scale
I0321 00:34:52.962694 128215 net.cpp:122] Setting up group2_block2_conv0_scale
I0321 00:34:52.962705 128215 net.cpp:129] Top shape: 128 256 8 8 (2097152)
I0321 00:34:52.962720 128215 net.cpp:137] Memory required for data: 1134036480
I0321 00:34:52.962738 128215 layer_factory.hpp:77] Creating layer group2_block2_conv0_relu
I0321 00:34:52.962754 128215 net.cpp:84] Creating Layer group2_block2_conv0_relu
I0321 00:34:52.962764 128215 net.cpp:406] group2_block2_conv0_relu <- group2_block2_conv0
I0321 00:34:52.962779 128215 net.cpp:367] group2_block2_conv0_relu -> group2_block2_conv0 (in-place)
I0321 00:34:52.963290 128215 net.cpp:122] Setting up group2_block2_conv0_relu
I0321 00:34:52.963301 128215 net.cpp:129] Top shape: 128 256 8 8 (2097152)
I0321 00:34:52.963316 128215 net.cpp:137] Memory required for data: 1142425088
I0321 00:34:52.963327 128215 layer_factory.hpp:77] Creating layer group2_block2_conv1
I0321 00:34:52.963349 128215 net.cpp:84] Creating Layer group2_block2_conv1
I0321 00:34:52.963361 128215 net.cpp:406] group2_block2_conv1 <- group2_block2_conv0
I0321 00:34:52.963376 128215 net.cpp:380] group2_block2_conv1 -> group2_block2_conv1
I0321 00:34:53.000676 128215 net.cpp:122] Setting up group2_block2_conv1
I0321 00:34:53.000694 128215 net.cpp:129] Top shape: 128 256 8 8 (2097152)
I0321 00:34:53.000708 128215 net.cpp:137] Memory required for data: 1150813696
I0321 00:34:53.000727 128215 layer_factory.hpp:77] Creating layer group2_block2_conv1_bn
I0321 00:34:53.000743 128215 net.cpp:84] Creating Layer group2_block2_conv1_bn
I0321 00:34:53.000756 128215 net.cpp:406] group2_block2_conv1_bn <- group2_block2_conv1
I0321 00:34:53.000771 128215 net.cpp:367] group2_block2_conv1_bn -> group2_block2_conv1 (in-place)
I0321 00:34:53.001054 128215 net.cpp:122] Setting up group2_block2_conv1_bn
I0321 00:34:53.001065 128215 net.cpp:129] Top shape: 128 256 8 8 (2097152)
I0321 00:34:53.001078 128215 net.cpp:137] Memory required for data: 1159202304
I0321 00:34:53.001101 128215 layer_factory.hpp:77] Creating layer group2_block2_conv1_scale
I0321 00:34:53.001116 128215 net.cpp:84] Creating Layer group2_block2_conv1_scale
I0321 00:34:53.001128 128215 net.cpp:406] group2_block2_conv1_scale <- group2_block2_conv1
I0321 00:34:53.001142 128215 net.cpp:367] group2_block2_conv1_scale -> group2_block2_conv1 (in-place)
I0321 00:34:53.001204 128215 layer_factory.hpp:77] Creating layer group2_block2_conv1_scale
I0321 00:34:53.001366 128215 net.cpp:122] Setting up group2_block2_conv1_scale
I0321 00:34:53.001377 128215 net.cpp:129] Top shape: 128 256 8 8 (2097152)
I0321 00:34:53.001400 128215 net.cpp:137] Memory required for data: 1167590912
I0321 00:34:53.001418 128215 layer_factory.hpp:77] Creating layer group2_block2_sum
I0321 00:34:53.001469 128215 net.cpp:84] Creating Layer group2_block2_sum
I0321 00:34:53.001480 128215 net.cpp:406] group2_block2_sum <- group2_block2_conv1
I0321 00:34:53.001494 128215 net.cpp:406] group2_block2_sum <- group2_block1_sum_group2_block1_sum_0_split_1
I0321 00:34:53.001509 128215 net.cpp:380] group2_block2_sum -> group2_block2_sum
I0321 00:34:53.001549 128215 net.cpp:122] Setting up group2_block2_sum
I0321 00:34:53.001559 128215 net.cpp:129] Top shape: 128 256 8 8 (2097152)
I0321 00:34:53.001574 128215 net.cpp:137] Memory required for data: 1175979520
I0321 00:34:53.001585 128215 layer_factory.hpp:77] Creating layer group2_block2_sum_group2_block2_sum_0_split
I0321 00:34:53.001600 128215 net.cpp:84] Creating Layer group2_block2_sum_group2_block2_sum_0_split
I0321 00:34:53.001611 128215 net.cpp:406] group2_block2_sum_group2_block2_sum_0_split <- group2_block2_sum
I0321 00:34:53.001626 128215 net.cpp:380] group2_block2_sum_group2_block2_sum_0_split -> group2_block2_sum_group2_block2_sum_0_split_0
I0321 00:34:53.001642 128215 net.cpp:380] group2_block2_sum_group2_block2_sum_0_split -> group2_block2_sum_group2_block2_sum_0_split_1
I0321 00:34:53.001706 128215 net.cpp:122] Setting up group2_block2_sum_group2_block2_sum_0_split
I0321 00:34:53.001716 128215 net.cpp:129] Top shape: 128 256 8 8 (2097152)
I0321 00:34:53.001731 128215 net.cpp:129] Top shape: 128 256 8 8 (2097152)
I0321 00:34:53.001745 128215 net.cpp:137] Memory required for data: 1192756736
I0321 00:34:53.001756 128215 layer_factory.hpp:77] Creating layer group2_block3_conv0
I0321 00:34:53.001775 128215 net.cpp:84] Creating Layer group2_block3_conv0
I0321 00:34:53.001785 128215 net.cpp:406] group2_block3_conv0 <- group2_block2_sum_group2_block2_sum_0_split_0
I0321 00:34:53.001801 128215 net.cpp:380] group2_block3_conv0 -> group2_block3_conv0
I0321 00:34:53.039155 128215 net.cpp:122] Setting up group2_block3_conv0
I0321 00:34:53.039173 128215 net.cpp:129] Top shape: 128 256 8 8 (2097152)
I0321 00:34:53.039189 128215 net.cpp:137] Memory required for data: 1201145344
I0321 00:34:53.039209 128215 layer_factory.hpp:77] Creating layer group2_block3_conv0_bn
I0321 00:34:53.039225 128215 net.cpp:84] Creating Layer group2_block3_conv0_bn
I0321 00:34:53.039237 128215 net.cpp:406] group2_block3_conv0_bn <- group2_block3_conv0
I0321 00:34:53.039253 128215 net.cpp:367] group2_block3_conv0_bn -> group2_block3_conv0 (in-place)
I0321 00:34:53.039551 128215 net.cpp:122] Setting up group2_block3_conv0_bn
I0321 00:34:53.039561 128215 net.cpp:129] Top shape: 128 256 8 8 (2097152)
I0321 00:34:53.039577 128215 net.cpp:137] Memory required for data: 1209533952
I0321 00:34:53.039598 128215 layer_factory.hpp:77] Creating layer group2_block3_conv0_scale
I0321 00:34:53.039611 128215 net.cpp:84] Creating Layer group2_block3_conv0_scale
I0321 00:34:53.039623 128215 net.cpp:406] group2_block3_conv0_scale <- group2_block3_conv0
I0321 00:34:53.039638 128215 net.cpp:367] group2_block3_conv0_scale -> group2_block3_conv0 (in-place)
I0321 00:34:53.039705 128215 layer_factory.hpp:77] Creating layer group2_block3_conv0_scale
I0321 00:34:53.039867 128215 net.cpp:122] Setting up group2_block3_conv0_scale
I0321 00:34:53.039877 128215 net.cpp:129] Top shape: 128 256 8 8 (2097152)
I0321 00:34:53.039893 128215 net.cpp:137] Memory required for data: 1217922560
I0321 00:34:53.039911 128215 layer_factory.hpp:77] Creating layer group2_block3_conv0_relu
I0321 00:34:53.039925 128215 net.cpp:84] Creating Layer group2_block3_conv0_relu
I0321 00:34:53.039937 128215 net.cpp:406] group2_block3_conv0_relu <- group2_block3_conv0
I0321 00:34:53.039950 128215 net.cpp:367] group2_block3_conv0_relu -> group2_block3_conv0 (in-place)
I0321 00:34:53.040463 128215 net.cpp:122] Setting up group2_block3_conv0_relu
I0321 00:34:53.040473 128215 net.cpp:129] Top shape: 128 256 8 8 (2097152)
I0321 00:34:53.040489 128215 net.cpp:137] Memory required for data: 1226311168
I0321 00:34:53.040500 128215 layer_factory.hpp:77] Creating layer group2_block3_conv1
I0321 00:34:53.040518 128215 net.cpp:84] Creating Layer group2_block3_conv1
I0321 00:34:53.040530 128215 net.cpp:406] group2_block3_conv1 <- group2_block3_conv0
I0321 00:34:53.040546 128215 net.cpp:380] group2_block3_conv1 -> group2_block3_conv1
I0321 00:34:53.077860 128215 net.cpp:122] Setting up group2_block3_conv1
I0321 00:34:53.077878 128215 net.cpp:129] Top shape: 128 256 8 8 (2097152)
I0321 00:34:53.077894 128215 net.cpp:137] Memory required for data: 1234699776
I0321 00:34:53.077913 128215 layer_factory.hpp:77] Creating layer group2_block3_conv1_bn
I0321 00:34:53.077930 128215 net.cpp:84] Creating Layer group2_block3_conv1_bn
I0321 00:34:53.077941 128215 net.cpp:406] group2_block3_conv1_bn <- group2_block3_conv1
I0321 00:34:53.077957 128215 net.cpp:367] group2_block3_conv1_bn -> group2_block3_conv1 (in-place)
I0321 00:34:53.078248 128215 net.cpp:122] Setting up group2_block3_conv1_bn
I0321 00:34:53.078258 128215 net.cpp:129] Top shape: 128 256 8 8 (2097152)
I0321 00:34:53.078274 128215 net.cpp:137] Memory required for data: 1243088384
I0321 00:34:53.078299 128215 layer_factory.hpp:77] Creating layer group2_block3_conv1_scale
I0321 00:34:53.078315 128215 net.cpp:84] Creating Layer group2_block3_conv1_scale
I0321 00:34:53.078325 128215 net.cpp:406] group2_block3_conv1_scale <- group2_block3_conv1
I0321 00:34:53.078339 128215 net.cpp:367] group2_block3_conv1_scale -> group2_block3_conv1 (in-place)
I0321 00:34:53.078404 128215 layer_factory.hpp:77] Creating layer group2_block3_conv1_scale
I0321 00:34:53.078573 128215 net.cpp:122] Setting up group2_block3_conv1_scale
I0321 00:34:53.078583 128215 net.cpp:129] Top shape: 128 256 8 8 (2097152)
I0321 00:34:53.078599 128215 net.cpp:137] Memory required for data: 1251476992
I0321 00:34:53.078616 128215 layer_factory.hpp:77] Creating layer group2_block3_sum
I0321 00:34:53.078632 128215 net.cpp:84] Creating Layer group2_block3_sum
I0321 00:34:53.078644 128215 net.cpp:406] group2_block3_sum <- group2_block3_conv1
I0321 00:34:53.078656 128215 net.cpp:406] group2_block3_sum <- group2_block2_sum_group2_block2_sum_0_split_1
I0321 00:34:53.078671 128215 net.cpp:380] group2_block3_sum -> group2_block3_sum
I0321 00:34:53.078711 128215 net.cpp:122] Setting up group2_block3_sum
I0321 00:34:53.078722 128215 net.cpp:129] Top shape: 128 256 8 8 (2097152)
I0321 00:34:53.078737 128215 net.cpp:137] Memory required for data: 1259865600
I0321 00:34:53.078747 128215 layer_factory.hpp:77] Creating layer group2_block3_sum_group2_block3_sum_0_split
I0321 00:34:53.078761 128215 net.cpp:84] Creating Layer group2_block3_sum_group2_block3_sum_0_split
I0321 00:34:53.078773 128215 net.cpp:406] group2_block3_sum_group2_block3_sum_0_split <- group2_block3_sum
I0321 00:34:53.078786 128215 net.cpp:380] group2_block3_sum_group2_block3_sum_0_split -> group2_block3_sum_group2_block3_sum_0_split_0
I0321 00:34:53.078804 128215 net.cpp:380] group2_block3_sum_group2_block3_sum_0_split -> group2_block3_sum_group2_block3_sum_0_split_1
I0321 00:34:53.078868 128215 net.cpp:122] Setting up group2_block3_sum_group2_block3_sum_0_split
I0321 00:34:53.078878 128215 net.cpp:129] Top shape: 128 256 8 8 (2097152)
I0321 00:34:53.078893 128215 net.cpp:129] Top shape: 128 256 8 8 (2097152)
I0321 00:34:53.078907 128215 net.cpp:137] Memory required for data: 1276642816
I0321 00:34:53.078917 128215 layer_factory.hpp:77] Creating layer group2_block8_conv0
I0321 00:34:53.078935 128215 net.cpp:84] Creating Layer group2_block8_conv0
I0321 00:34:53.078946 128215 net.cpp:406] group2_block8_conv0 <- group2_block3_sum_group2_block3_sum_0_split_0
I0321 00:34:53.078963 128215 net.cpp:380] group2_block8_conv0 -> group2_block8_conv0
I0321 00:34:53.116302 128215 net.cpp:122] Setting up group2_block8_conv0
I0321 00:34:53.116317 128215 net.cpp:129] Top shape: 128 256 8 8 (2097152)
I0321 00:34:53.116333 128215 net.cpp:137] Memory required for data: 1285031424
I0321 00:34:53.116353 128215 layer_factory.hpp:77] Creating layer group2_block8_conv0_bn
I0321 00:34:53.116370 128215 net.cpp:84] Creating Layer group2_block8_conv0_bn
I0321 00:34:53.116382 128215 net.cpp:406] group2_block8_conv0_bn <- group2_block8_conv0
I0321 00:34:53.116399 128215 net.cpp:367] group2_block8_conv0_bn -> group2_block8_conv0 (in-place)
I0321 00:34:53.116684 128215 net.cpp:122] Setting up group2_block8_conv0_bn
I0321 00:34:53.116694 128215 net.cpp:129] Top shape: 128 256 8 8 (2097152)
I0321 00:34:53.116709 128215 net.cpp:137] Memory required for data: 1293420032
I0321 00:34:53.116730 128215 layer_factory.hpp:77] Creating layer group2_block8_conv0_scale
I0321 00:34:53.116746 128215 net.cpp:84] Creating Layer group2_block8_conv0_scale
I0321 00:34:53.116763 128215 net.cpp:406] group2_block8_conv0_scale <- group2_block8_conv0
I0321 00:34:53.116778 128215 net.cpp:367] group2_block8_conv0_scale -> group2_block8_conv0 (in-place)
I0321 00:34:53.116844 128215 layer_factory.hpp:77] Creating layer group2_block8_conv0_scale
I0321 00:34:53.117015 128215 net.cpp:122] Setting up group2_block8_conv0_scale
I0321 00:34:53.117027 128215 net.cpp:129] Top shape: 128 256 8 8 (2097152)
I0321 00:34:53.117041 128215 net.cpp:137] Memory required for data: 1301808640
I0321 00:34:53.117059 128215 layer_factory.hpp:77] Creating layer group2_block8_conv0_relu
I0321 00:34:53.117074 128215 net.cpp:84] Creating Layer group2_block8_conv0_relu
I0321 00:34:53.117085 128215 net.cpp:406] group2_block8_conv0_relu <- group2_block8_conv0
I0321 00:34:53.117099 128215 net.cpp:367] group2_block8_conv0_relu -> group2_block8_conv0 (in-place)
I0321 00:34:53.118080 128215 net.cpp:122] Setting up group2_block8_conv0_relu
I0321 00:34:53.118093 128215 net.cpp:129] Top shape: 128 256 8 8 (2097152)
I0321 00:34:53.118108 128215 net.cpp:137] Memory required for data: 1310197248
I0321 00:34:53.118119 128215 layer_factory.hpp:77] Creating layer group2_block8_conv1
I0321 00:34:53.118139 128215 net.cpp:84] Creating Layer group2_block8_conv1
I0321 00:34:53.118149 128215 net.cpp:406] group2_block8_conv1 <- group2_block8_conv0
I0321 00:34:53.118166 128215 net.cpp:380] group2_block8_conv1 -> group2_block8_conv1
I0321 00:34:53.155493 128215 net.cpp:122] Setting up group2_block8_conv1
I0321 00:34:53.155508 128215 net.cpp:129] Top shape: 128 256 8 8 (2097152)
I0321 00:34:53.155524 128215 net.cpp:137] Memory required for data: 1318585856
I0321 00:34:53.155542 128215 layer_factory.hpp:77] Creating layer group2_block8_conv1_bn
I0321 00:34:53.155560 128215 net.cpp:84] Creating Layer group2_block8_conv1_bn
I0321 00:34:53.155572 128215 net.cpp:406] group2_block8_conv1_bn <- group2_block8_conv1
I0321 00:34:53.155588 128215 net.cpp:367] group2_block8_conv1_bn -> group2_block8_conv1 (in-place)
I0321 00:34:53.155884 128215 net.cpp:122] Setting up group2_block8_conv1_bn
I0321 00:34:53.155894 128215 net.cpp:129] Top shape: 128 256 8 8 (2097152)
I0321 00:34:53.155910 128215 net.cpp:137] Memory required for data: 1326974464
I0321 00:34:53.155931 128215 layer_factory.hpp:77] Creating layer group2_block8_conv1_scale
I0321 00:34:53.155946 128215 net.cpp:84] Creating Layer group2_block8_conv1_scale
I0321 00:34:53.155956 128215 net.cpp:406] group2_block8_conv1_scale <- group2_block8_conv1
I0321 00:34:53.155972 128215 net.cpp:367] group2_block8_conv1_scale -> group2_block8_conv1 (in-place)
I0321 00:34:53.156038 128215 layer_factory.hpp:77] Creating layer group2_block8_conv1_scale
I0321 00:34:53.156203 128215 net.cpp:122] Setting up group2_block8_conv1_scale
I0321 00:34:53.156213 128215 net.cpp:129] Top shape: 128 256 8 8 (2097152)
I0321 00:34:53.156227 128215 net.cpp:137] Memory required for data: 1335363072
I0321 00:34:53.156245 128215 layer_factory.hpp:77] Creating layer group2_block8_sum
I0321 00:34:53.156260 128215 net.cpp:84] Creating Layer group2_block8_sum
I0321 00:34:53.156272 128215 net.cpp:406] group2_block8_sum <- group2_block8_conv1
I0321 00:34:53.156285 128215 net.cpp:406] group2_block8_sum <- group2_block3_sum_group2_block3_sum_0_split_1
I0321 00:34:53.156301 128215 net.cpp:380] group2_block8_sum -> group2_block8_sum
I0321 00:34:53.156342 128215 net.cpp:122] Setting up group2_block8_sum
I0321 00:34:53.156352 128215 net.cpp:129] Top shape: 128 256 8 8 (2097152)
I0321 00:34:53.156365 128215 net.cpp:137] Memory required for data: 1343751680
I0321 00:34:53.156376 128215 layer_factory.hpp:77] Creating layer global_avg_pool
I0321 00:34:53.156391 128215 net.cpp:84] Creating Layer global_avg_pool
I0321 00:34:53.156404 128215 net.cpp:406] global_avg_pool <- group2_block8_sum
I0321 00:34:53.156419 128215 net.cpp:380] global_avg_pool -> global_avg_pool
I0321 00:34:53.157025 128215 net.cpp:122] Setting up global_avg_pool
I0321 00:34:53.157037 128215 net.cpp:129] Top shape: 128 256 1 1 (32768)
I0321 00:34:53.157052 128215 net.cpp:137] Memory required for data: 1343882752
I0321 00:34:53.157061 128215 layer_factory.hpp:77] Creating layer fc
I0321 00:34:53.157080 128215 net.cpp:84] Creating Layer fc
I0321 00:34:53.157091 128215 net.cpp:406] fc <- global_avg_pool
I0321 00:34:53.157107 128215 net.cpp:380] fc -> fc
I0321 00:34:53.157436 128215 net.cpp:122] Setting up fc
I0321 00:34:53.157447 128215 net.cpp:129] Top shape: 128 10 (1280)
I0321 00:34:53.157461 128215 net.cpp:137] Memory required for data: 1343887872
I0321 00:34:53.157480 128215 layer_factory.hpp:77] Creating layer fc_fc_0_split
I0321 00:34:53.157495 128215 net.cpp:84] Creating Layer fc_fc_0_split
I0321 00:34:53.157505 128215 net.cpp:406] fc_fc_0_split <- fc
I0321 00:34:53.157519 128215 net.cpp:380] fc_fc_0_split -> fc_fc_0_split_0
I0321 00:34:53.157536 128215 net.cpp:380] fc_fc_0_split -> fc_fc_0_split_1
I0321 00:34:53.157594 128215 net.cpp:122] Setting up fc_fc_0_split
I0321 00:34:53.157604 128215 net.cpp:129] Top shape: 128 10 (1280)
I0321 00:34:53.157618 128215 net.cpp:129] Top shape: 128 10 (1280)
I0321 00:34:53.157632 128215 net.cpp:137] Memory required for data: 1343898112
I0321 00:34:53.157642 128215 layer_factory.hpp:77] Creating layer loss
I0321 00:34:53.157660 128215 net.cpp:84] Creating Layer loss
I0321 00:34:53.157671 128215 net.cpp:406] loss <- fc_fc_0_split_0
I0321 00:34:53.157685 128215 net.cpp:406] loss <- label_dataLayer_1_split_0
I0321 00:34:53.157698 128215 net.cpp:380] loss -> loss
I0321 00:34:53.157724 128215 layer_factory.hpp:77] Creating layer loss
I0321 00:34:53.158368 128215 net.cpp:122] Setting up loss
I0321 00:34:53.158380 128215 net.cpp:129] Top shape: (1)
I0321 00:34:53.158393 128215 net.cpp:132]     with loss weight 1
I0321 00:34:53.158458 128215 net.cpp:137] Memory required for data: 1343898116
I0321 00:34:53.158469 128215 layer_factory.hpp:77] Creating layer softmax
I0321 00:34:53.158483 128215 net.cpp:84] Creating Layer softmax
I0321 00:34:53.158494 128215 net.cpp:406] softmax <- fc_fc_0_split_1
I0321 00:34:53.158507 128215 net.cpp:380] softmax -> softmax
I0321 00:34:53.159096 128215 net.cpp:122] Setting up softmax
I0321 00:34:53.159106 128215 net.cpp:129] Top shape: 128 10 (1280)
I0321 00:34:53.159121 128215 net.cpp:137] Memory required for data: 1343903236
I0321 00:34:53.159132 128215 layer_factory.hpp:77] Creating layer Accuracy
I0321 00:34:53.159148 128215 net.cpp:84] Creating Layer Accuracy
I0321 00:34:53.159158 128215 net.cpp:406] Accuracy <- softmax
I0321 00:34:53.159171 128215 net.cpp:406] Accuracy <- label_dataLayer_1_split_1
I0321 00:34:53.159186 128215 net.cpp:380] Accuracy -> Accuracy
…
I0321 00:34:53.166422 128215 net.cpp:294] The NetState phase (1) differed from the phase (0) specified by a rule in layer dataLayer
I0321 00:34:53.166566 128215 net.cpp:51] Initializing net from parameters: 
name: "widenet32 with k=4-cifar10"
state {
  phase: TEST
}
layer {
  name: "dataLayer"
  type: "Data"
  top: "data"
  top: "label"
  include {
    phase: TEST
  }
  transform_param {
    mirror: true
    crop_size: 32
    mean_file: "examples/cifar10/mean.binaryproto"
  }
  data_param {
    source: "examples/cifar10/cifar10_test_lmdb"
    batch_size: 32
    backend: LMDB
  }
  image_data_param {
    shuffle: false
  }
}
layer {
  name: "first_conv"
  type: "Convolution"
  bottom: "data"
  top: "first_conv"
  param {
    lr_mult: 1
    decay_mult: 1
  }
  convolution_param {
    num_output: 16
    pad: 1
    kernel_size: 3
    stride: 1
    weight_filler {
      type: "msra"
    }
  }
}
layer {
  name: "first_conv_bn"
  type: "BatchNorm"
  bottom: "first_conv"
  top: "first_conv"
  param {
    lr_mult: 0
    decay_mult: 0
  }
  param {
    lr_mult: 0
    decay_mult: 0
  }
  param {
    lr_mult: 0
    decay_mult: 0
  }
  batch_norm_param {
    moving_average_fraction: 0.9
  }
}
layer {
  name: "first_conv_scale"
  type: "Scale"
  bottom: "first_conv"
  top: "first_conv"
  scale_param {
    bias_term: true
  }
}
layer {
  name: "first_conv_relu"
  type: "ReLU"
  bottom: "first_conv"
  top: "first_conv"
}
layer {
  name: "group0_block0_conv0"
  type: "Convolution"
  bottom: "first_conv"
  top: "group0_block0_conv0"
  param {
    lr_mult: 1
    decay_mult: 1
  }
  convolution_param {
    num_output: 16
    pad: 1
    kernel_size: 3
    stride: 1
    weight_filler {
      type: "msra"
    }
  }
}
layer {
  name: "group0_block0_conv0_bn"
  type: "BatchNorm"
  bottom: "group0_block0_conv0"
  top: "group0_block0_conv0"
  param {
    lr_mult: 0
    decay_mult: 0
  }
  param {
    lr_mult: 0
    decay_mult: 0
  }
  param {
    lr_mult: 0
    decay_mult: 0
  }
  batch_norm_param {
    moving_average_fraction: 0.9
  }
}
layer {
  name: "group0_block0_conv0_scale"
  type: "Scale"
  bottom: "group0_block0_conv0"
  top: "group0_block0_conv0"
  scale_param {
    bias_term: true
  }
}
layer {
  name: "group0_block0_conv0_relu"
  type: "ReLU"
  bottom: "group0_block0_conv0"
  top: "group0_block0_conv0"
}
layer {
  name: "group0_block0_conv1"
  type: "Convolution"
  bottom: "group0_block0_conv0"
  top: "group0_block0_conv1"
  param {
    lr_mult: 1
    decay_mult: 1
  }
  convolution_param {
    num_output: 16
    pad: 1
    kernel_size: 3
    stride: 1
    weight_filler {
      type: "msra"
    }
  }
}
layer {
  name: "group0_block0_conv1_bn"
  type: "BatchNorm"
  bottom: "group0_block0_conv1"
  top: "group0_block0_conv1"
  param {
    lr_mult: 0
    decay_mult: 0
  }
  param {
    lr_mult: 0
    decay_mult: 0
  }
  param {
    lr_mult: 0
    decay_mult: 0
  }
  batch_norm_param {
    moving_average_fraction: 0.9
  }
}
layer {
  name: "group0_block0_conv1_scale"
  type: "Scale"
  bottom: "group0_block0_conv1"
  top: "group0_block0_conv1"
  scale_param {
    bias_term: true
  }
}
layer {
  name: "group0_block0_sum"
  type: "Eltwise"
  bottom: "group0_block0_conv1"
  bottom: "first_conv"
  top: "group0_block0_sum"
  eltwise_param {
    operation: SUM
  }
}
layer {
  name: "group0_block1_conv0"
  type: "Convolution"
  bottom: "group0_block0_sum"
  top: "group0_block1_conv0"
  param {
    lr_mult: 1
    decay_mult: 1
  }
  convolution_param {
    num_output: 16
    pad: 1
    kernel_size: 3
    stride: 1
    weight_filler {
      type: "msra"
    }
  }
}
layer {
  name: "group0_block1_conv0_bn"
  type: "BatchNorm"
  bottom: "group0_block1_conv0"
  top: "group0_block1_conv0"
  param {
    lr_mult: 0
    decay_mult: 0
  }
  param {
    lr_mult: 0
    decay_mult: 0
  }
  param {
    lr_mult: 0
    decay_mult: 0
  }
  batch_norm_param {
    moving_average_fraction: 0.9
  }
}
layer {
  name: "group0_block1_conv0_scale"
  type: "Scale"
  bottom: "group0_block1_conv0"
  top: "group0_block1_conv0"
  scale_param {
    bias_term: true
  }
}
layer {
  name: "group0_block1_conv0_relu"
  type: "ReLU"
  bottom: "group0_block1_conv0"
  top: "group0_block1_conv0"
}
layer {
  name: "group0_block1_conv1"
  type: "Convolution"
  bottom: "group0_block1_conv0"
  top: "group0_block1_conv1"
  param {
    lr_mult: 1
    decay_mult: 1
  }
  convolution_param {
    num_output: 16
    pad: 1
    kernel_size: 3
    stride: 1
    weight_filler {
      type: "msra"
    }
  }
}
layer {
  name: "group0_block1_conv1_bn"
  type: "BatchNorm"
  bottom: "group0_block1_conv1"
  top: "group0_block1_conv1"
  param {
    lr_mult: 0
    decay_mult: 0
  }
  param {
    lr_mult: 0
    decay_mult: 0
  }
  param {
    lr_mult: 0
    decay_mult: 0
  }
  batch_norm_param {
    moving_average_fraction: 0.9
  }
}
layer {
  name: "group0_block1_conv1_scale"
  type: "Scale"
  bottom: "group0_block1_conv1"
  top: "group0_block1_conv1"
  scale_param {
    bias_term: true
  }
}
layer {
  name: "group0_block1_sum"
  type: "Eltwise"
  bottom: "group0_block1_conv1"
  bottom: "group0_block0_sum"
  top: "group0_block1_sum"
  eltwise_param {
    operation: SUM
  }
}
layer {
  name: "group0_block2_conv0"
  type: "Convolution"
  bottom: "group0_block1_sum"
  top: "group0_block2_conv0"
  param {
    lr_mult: 1
    decay_mult: 1
  }
  convolution_param {
    num_output: 16
    pad: 1
    kernel_size: 3
    stride: 1
    weight_filler {
      type: "msra"
    }
  }
}
layer {
  name: "group0_block2_conv0_bn"
  type: "BatchNorm"
  bottom: "group0_block2_conv0"
  top: "group0_block2_conv0"
  param {
    lr_mult: 0
    decay_mult: 0
  }
  param {
    lr_mult: 0
    decay_mult: 0
  }
  param {
    lr_mult: 0
    decay_mult: 0
  }
  batch_norm_param {
    moving_average_fraction: 0.9
  }
}
layer {
  name: "group0_block2_conv0_scale"
  type: "Scale"
  bottom: "group0_block2_conv0"
  top: "group0_block2_conv0"
  scale_param {
    bias_term: true
  }
}
layer {
  name: "group0_block2_conv0_relu"
  type: "ReLU"
  bottom: "group0_block2_conv0"
  top: "group0_block2_conv0"
}
layer {
  name: "group0_block2_conv1"
  type: "Convolution"
  bottom: "group0_block2_conv0"
  top: "group0_block2_conv1"
  param {
    lr_mult: 1
    decay_mult: 1
  }
  convolution_param {
    num_output: 16
    pad: 1
    kernel_size: 3
    stride: 1
    weight_filler {
      type: "msra"
    }
  }
}
layer {
  name: "group0_block2_conv1_bn"
  type: "BatchNorm"
  bottom: "group0_block2_conv1"
  top: "group0_block2_conv1"
  param {
    lr_mult: 0
    decay_mult: 0
  }
  param {
    lr_mult: 0
    decay_mult: 0
  }
  param {
    lr_mult: 0
    decay_mult: 0
  }
  batch_norm_param {
    moving_average_fraction: 0.9
  }
}
layer {
  name: "group0_block2_conv1_scale"
  type: "Scale"
  bottom: "group0_block2_conv1"
  top: "group0_block2_conv1"
  scale_param {
    bias_term: true
  }
}
layer {
  name: "group0_block2_sum"
  type: "Eltwise"
  bottom: "group0_block2_conv1"
  bottom: "group0_block1_sum"
  top: "group0_block2_sum"
  eltwise_param {
    operation: SUM
  }
}
layer {
  name: "group0_block3_conv0"
  type: "Convolution"
  bottom: "group0_block2_sum"
  top: "group0_block3_conv0"
  param {
    lr_mult: 1
    decay_mult: 1
  }
  convolution_param {
    num_output: 16
    pad: 1
    kernel_size: 3
    stride: 1
    weight_filler {
      type: "msra"
    }
  }
}
layer {
  name: "group0_block3_conv0_bn"
  type: "BatchNorm"
  bottom: "group0_block3_conv0"
  top: "group0_block3_conv0"
  param {
    lr_mult: 0
    decay_mult: 0
  }
  param {
    lr_mult: 0
    decay_mult: 0
  }
  param {
    lr_mult: 0
    decay_mult: 0
  }
  batch_norm_param {
    moving_average_fraction: 0.9
  }
}
layer {
  name: "group0_block3_conv0_scale"
  type: "Scale"
  bottom: "group0_block3_conv0"
  top: "group0_block3_conv0"
  scale_param {
    bias_term: true
  }
}
layer {
  name: "group0_block3_conv0_relu"
  type: "ReLU"
  bottom: "group0_block3_conv0"
  top: "group0_block3_conv0"
}
layer {
  name: "group0_block3_conv1"
  type: "Convolution"
  bottom: "group0_block3_conv0"
  top: "group0_block3_conv1"
  param {
    lr_mult: 1
    decay_mult: 1
  }
  convolution_param {
    num_output: 16
    pad: 1
    kernel_size: 3
    stride: 1
    weight_filler {
      type: "msra"
    }
  }
}
layer {
  name: "group0_block3_conv1_bn"
  type: "BatchNorm"
  bottom: "group0_block3_conv1"
  top: "group0_block3_conv1"
  param {
    lr_mult: 0
    decay_mult: 0
  }
  param {
    lr_mult: 0
    decay_mult: 0
  }
  param {
    lr_mult: 0
    decay_mult: 0
  }
  batch_norm_param {
    moving_average_fraction: 0.9
  }
}
layer {
  name: "group0_block3_conv1_scale"
  type: "Scale"
  bottom: "group0_block3_conv1"
  top: "group0_block3_conv1"
  scale_param {
    bias_term: true
  }
}
layer {
  name: "group0_block3_sum"
  type: "Eltwise"
  bottom: "group0_block3_conv1"
  bottom: "group0_block2_sum"
  top: "group0_block3_sum"
  eltwise_param {
    operation: SUM
  }
}
layer {
  name: "group0_block8_conv0"
  type: "Convolution"
  bottom: "group0_block3_sum"
  top: "group0_block8_conv0"
  param {
    lr_mult: 1
    decay_mult: 1
  }
  convolution_param {
    num_output: 16
    pad: 1
    kernel_size: 3
    stride: 1
    weight_filler {
      type: "msra"
    }
  }
}
layer {
  name: "group0_block8_conv0_bn"
  type: "BatchNorm"
  bottom: "group0_block8_conv0"
  top: "group0_block8_conv0"
  param {
    lr_mult: 0
    decay_mult: 0
  }
  param {
    lr_mult: 0
    decay_mult: 0
  }
  param {
    lr_mult: 0
    decay_mult: 0
  }
  batch_norm_param {
    moving_average_fraction: 0.9
  }
}
layer {
  name: "group0_block8_conv0_scale"
  type: "Scale"
  bottom: "group0_block8_conv0"
  top: "group0_block8_conv0"
  scale_param {
    bias_term: true
  }
}
layer {
  name: "group0_block8_conv0_relu"
  type: "ReLU"
  bottom: "group0_block8_conv0"
  top: "group0_block8_conv0"
}
layer {
  name: "group0_block8_conv1"
  type: "Convolution"
  bottom: "group0_block8_conv0"
  top: "group0_block8_conv1"
  param {
    lr_mult: 1
    decay_mult: 1
  }
  convolution_param {
    num_output: 16
    pad: 1
    kernel_size: 3
    stride: 1
    weight_filler {
      type: "msra"
    }
  }
}
layer {
  name: "group0_block8_conv1_bn"
  type: "BatchNorm"
  bottom: "group0_block8_conv1"
  top: "group0_block8_conv1"
  param {
    lr_mult: 0
    decay_mult: 0
  }
  param {
    lr_mult: 0
    decay_mult: 0
  }
  param {
    lr_mult: 0
    decay_mult: 0
  }
  batch_norm_param {
    moving_average_fraction: 0.9
  }
}
layer {
  name: "group0_block8_conv1_scale"
  type: "Scale"
  bottom: "group0_block8_conv1"
  top: "group0_block8_conv1"
  scale_param {
    bias_term: true
  }
}
layer {
  name: "group0_block8_sum"
  type: "Eltwise"
  bottom: "group0_block8_conv1"
  bottom: "group0_block3_sum"
  top: "group0_block8_sum"
  eltwise_param {
    operation: SUM
  }
}
layer {
  name: "group1_block0_conv0"
  type: "Convolution"
  bottom: "group0_block8_sum"
  top: "group1_block0_conv0"
  param {
    lr_mult: 1
    decay_mult: 1
  }
  convolution_param {
    num_output: 64
    pad: 1
    kernel_size: 3
    stride: 2
    weight_filler {
      type: "msra"
    }
  }
}
layer {
  name: "group1_block0_conv0_bn"
  type: "BatchNorm"
  bottom: "group1_block0_conv0"
  top: "group1_block0_conv0"
  param {
    lr_mult: 0
    decay_mult: 0
  }
  param {
    lr_mult: 0
    decay_mult: 0
  }
  param {
    lr_mult: 0
    decay_mult: 0
  }
  batch_norm_param {
    moving_average_fraction: 0.9
  }
}
layer {
  name: "group1_block0_conv0_scale"
  type: "Scale"
  bottom: "group1_block0_conv0"
  top: "group1_block0_conv0"
  scale_param {
    bias_term: true
  }
}
layer {
  name: "group1_block0_conv0_relu"
  type: "ReLU"
  bottom: "group1_block0_conv0"
  top: "group1_block0_conv0"
}
layer {
  name: "group1_block0_conv1"
  type: "Convolution"
  bottom: "group1_block0_conv0"
  top: "group1_block0_conv1"
  param {
    lr_mult: 1
    decay_mult: 1
  }
  convolution_param {
    num_output: 64
    pad: 1
    kernel_size: 3
    stride: 1
    weight_filler {
      type: "msra"
    }
  }
}
layer {
  name: "group1_block0_conv1_bn"
  type: "BatchNorm"
  bottom: "group1_block0_conv1"
  top: "group1_block0_conv1"
  param {
    lr_mult: 0
    decay_mult: 0
  }
  param {
    lr_mult: 0
    decay_mult: 0
  }
  param {
    lr_mult: 0
    decay_mult: 0
  }
  batch_norm_param {
    moving_average_fraction: 0.9
  }
}
layer {
  name: "group1_block0_conv1_scale"
  type: "Scale"
  bottom: "group1_block0_conv1"
  top: "group1_block0_conv1"
  scale_param {
    bias_term: true
  }
}
layer {
  name: "group1_block0_proj"
  type: "Convolution"
  bottom: "group0_block8_sum"
  top: "group1_block0_proj"
  param {
    lr_mult: 1
    decay_mult: 1
  }
  convolution_param {
    num_output: 64
    pad: 0
    kernel_size: 2
    stride: 2
    weight_filler {
      type: "msra"
    }
  }
}
layer {
  name: "group1_block0_proj_bn"
  type: "BatchNorm"
  bottom: "group1_block0_proj"
  top: "group1_block0_proj"
  param {
    lr_mult: 0
    decay_mult: 0
  }
  param {
    lr_mult: 0
    decay_mult: 0
  }
  param {
    lr_mult: 0
    decay_mult: 0
  }
  batch_norm_param {
    moving_average_fraction: 0.9
  }
}
layer {
  name: "group1_block0_proj_scale"
  type: "Scale"
  bottom: "group1_block0_proj"
  top: "group1_block0_proj"
  scale_param {
    bias_term: true
  }
}
layer {
  name: "group1_block0_sum"
  type: "Eltwise"
  bottom: "group1_block0_proj"
  bottom: "group1_block0_conv1"
  top: "group1_block0_sum"
  eltwise_param {
    operation: SUM
  }
}
layer {
  name: "group1_block1_conv0"
  type: "Convolution"
  bottom: "group1_block0_sum"
  top: "group1_block1_conv0"
  param {
    lr_mult: 1
    decay_mult: 1
  }
  convolution_param {
    num_output: 64
    pad: 1
    kernel_size: 3
    stride: 1
    weight_filler {
      type: "msra"
    }
  }
}
layer {
  name: "group1_block1_conv0_bn"
  type: "BatchNorm"
  bottom: "group1_block1_conv0"
  top: "group1_block1_conv0"
  param {
    lr_mult: 0
    decay_mult: 0
  }
  param {
    lr_mult: 0
    decay_mult: 0
  }
  param {
    lr_mult: 0
    decay_mult: 0
  }
  batch_norm_param {
    moving_average_fraction: 0.9
  }
}
layer {
  name: "group1_block1_conv0_scale"
  type: "Scale"
  bottom: "group1_block1_conv0"
  top: "group1_block1_conv0"
  scale_param {
    bias_term: true
  }
}
layer {
  name: "group1_block1_conv0_relu"
  type: "ReLU"
  bottom: "group1_block1_conv0"
  top: "group1_block1_conv0"
}
layer {
  name: "group1_block1_conv1"
  type: "Convolution"
  bottom: "group1_block1_conv0"
  top: "group1_block1_conv1"
  param {
    lr_mult: 1
    decay_mult: 1
  }
  convolution_param {
    num_output: 64
    pad: 1
    kernel_size: 3
    stride: 1
    weight_filler {
      type: "msra"
    }
  }
}
layer {
  name: "group1_block1_conv1_bn"
  type: "BatchNorm"
  bottom: "group1_block1_conv1"
  top: "group1_block1_conv1"
  param {
    lr_mult: 0
    decay_mult: 0
  }
  param {
    lr_mult: 0
    decay_mult: 0
  }
  param {
    lr_mult: 0
    decay_mult: 0
  }
  batch_norm_param {
    moving_average_fraction: 0.9
  }
}
layer {
  name: "group1_block1_conv1_scale"
  type: "Scale"
  bottom: "group1_block1_conv1"
  top: "group1_block1_conv1"
  scale_param {
    bias_term: true
  }
}
layer {
  name: "group1_block1_sum"
  type: "Eltwise"
  bottom: "group1_block1_conv1"
  bottom: "group1_block0_sum"
  top: "group1_block1_sum"
  eltwise_param {
    operation: SUM
  }
}
layer {
  name: "group1_block2_conv0"
  type: "Convolution"
  bottom: "group1_block1_sum"
  top: "group1_block2_conv0"
  param {
    lr_mult: 1
    decay_mult: 1
  }
  convolution_param {
    num_output: 64
    pad: 1
    kernel_size: 3
    stride: 1
    weight_filler {
      type: "msra"
    }
  }
}
layer {
  name: "group1_block2_conv0_bn"
  type: "BatchNorm"
  bottom: "group1_block2_conv0"
  top: "group1_block2_conv0"
  param {
    lr_mult: 0
    decay_mult: 0
  }
  param {
    lr_mult: 0
    decay_mult: 0
  }
  param {
    lr_mult: 0
    decay_mult: 0
  }
  batch_norm_param {
    moving_average_fraction: 0.9
  }
}
layer {
  name: "group1_block2_conv0_scale"
  type: "Scale"
  bottom: "group1_block2_conv0"
  top: "group1_block2_conv0"
  scale_param {
    bias_term: true
  }
}
layer {
  name: "group1_block2_conv0_relu"
  type: "ReLU"
  bottom: "group1_block2_conv0"
  top: "group1_block2_conv0"
}
layer {
  name: "group1_block2_conv1"
  type: "Convolution"
  bottom: "group1_block2_conv0"
  top: "group1_block2_conv1"
  param {
    lr_mult: 1
    decay_mult: 1
  }
  convolution_param {
    num_output: 64
    pad: 1
    kernel_size: 3
    stride: 1
    weight_filler {
      type: "msra"
    }
  }
}
layer {
  name: "group1_block2_conv1_bn"
  type: "BatchNorm"
  bottom: "group1_block2_conv1"
  top: "group1_block2_conv1"
  param {
    lr_mult: 0
    decay_mult: 0
  }
  param {
    lr_mult: 0
    decay_mult: 0
  }
  param {
    lr_mult: 0
    decay_mult: 0
  }
  batch_norm_param {
    moving_average_fraction: 0.9
  }
}
layer {
  name: "group1_block2_conv1_scale"
  type: "Scale"
  bottom: "group1_block2_conv1"
  top: "group1_block2_conv1"
  scale_param {
    bias_term: true
  }
}
layer {
  name: "group1_block2_sum"
  type: "Eltwise"
  bottom: "group1_block2_conv1"
  bottom: "group1_block1_sum"
  top: "group1_block2_sum"
  eltwise_param {
    operation: SUM
  }
}
layer {
  name: "group1_block3_conv0"
  type: "Convolution"
  bottom: "group1_block2_sum"
  top: "group1_block3_conv0"
  param {
    lr_mult: 1
    decay_mult: 1
  }
  convolution_param {
    num_output: 64
    pad: 1
    kernel_size: 3
    stride: 1
    weight_filler {
      type: "msra"
    }
  }
}
layer {
  name: "group1_block3_conv0_bn"
  type: "BatchNorm"
  bottom: "group1_block3_conv0"
  top: "group1_block3_conv0"
  param {
    lr_mult: 0
    decay_mult: 0
  }
  param {
    lr_mult: 0
    decay_mult: 0
  }
  param {
    lr_mult: 0
    decay_mult: 0
  }
  batch_norm_param {
    moving_average_fraction: 0.9
  }
}
layer {
  name: "group1_block3_conv0_scale"
  type: "Scale"
  bottom: "group1_block3_conv0"
  top: "group1_block3_conv0"
  scale_param {
    bias_term: true
  }
}
layer {
  name: "group1_block3_conv0_relu"
  type: "ReLU"
  bottom: "group1_block3_conv0"
  top: "group1_block3_conv0"
}
layer {
  name: "group1_block3_conv1"
  type: "Convolution"
  bottom: "group1_block3_conv0"
  top: "group1_block3_conv1"
  param {
    lr_mult: 1
    decay_mult: 1
  }
  convolution_param {
    num_output: 64
    pad: 1
    kernel_size: 3
    stride: 1
    weight_filler {
      type: "msra"
    }
  }
}
layer {
  name: "group1_block3_conv1_bn"
  type: "BatchNorm"
  bottom: "group1_block3_conv1"
  top: "group1_block3_conv1"
  param {
    lr_mult: 0
    decay_mult: 0
  }
  param {
    lr_mult: 0
    decay_mult: 0
  }
  param {
    lr_mult: 0
    decay_mult: 0
  }
  batch_norm_param {
    moving_average_fraction: 0.9
  }
}
layer {
  name: "group1_block3_conv1_scale"
  type: "Scale"
  bottom: "group1_block3_conv1"
  top: "group1_block3_conv1"
  scale_param {
    bias_term: true
  }
}
layer {
  name: "group1_block3_sum"
  type: "Eltwise"
  bottom: "group1_block3_conv1"
  bottom: "group1_block2_sum"
  top: "group1_block3_sum"
  eltwise_param {
    operation: SUM
  }
}
layer {
  name: "group1_block8_conv0"
  type: "Convolution"
  bottom: "group1_block3_sum"
  top: "group1_block8_conv0"
  param {
    lr_mult: 1
    decay_mult: 1
  }
  convolution_param {
    num_output: 64
    pad: 1
    kernel_size: 3
    stride: 1
    weight_filler {
      type: "msra"
    }
  }
}
layer {
  name: "group1_block8_conv0_bn"
  type: "BatchNorm"
  bottom: "group1_block8_conv0"
  top: "group1_block8_conv0"
  param {
    lr_mult: 0
    decay_mult: 0
  }
  param {
    lr_mult: 0
    decay_mult: 0
  }
  param {
    lr_mult: 0
    decay_mult: 0
  }
  batch_norm_param {
    moving_average_fraction: 0.9
  }
}
layer {
  name: "group1_block8_conv0_scale"
  type: "Scale"
  bottom: "group1_block8_conv0"
  top: "group1_block8_conv0"
  scale_param {
    bias_term: true
  }
}
layer {
  name: "group1_block8_conv0_relu"
  type: "ReLU"
  bottom: "group1_block8_conv0"
  top: "group1_block8_conv0"
}
layer {
  name: "group1_block8_conv1"
  type: "Convolution"
  bottom: "group1_block8_conv0"
  top: "group1_block8_conv1"
  param {
    lr_mult: 1
    decay_mult: 1
  }
  convolution_param {
    num_output: 64
    pad: 1
    kernel_size: 3
    stride: 1
    weight_filler {
      type: "msra"
    }
  }
}
layer {
  name: "group1_block8_conv1_bn"
  type: "BatchNorm"
  bottom: "group1_block8_conv1"
  top: "group1_block8_conv1"
  param {
    lr_mult: 0
    decay_mult: 0
  }
  param {
    lr_mult: 0
    decay_mult: 0
  }
  param {
    lr_mult: 0
    decay_mult: 0
  }
  batch_norm_param {
    moving_average_fraction: 0.9
  }
}
layer {
  name: "group1_block8_conv1_scale"
  type: "Scale"
  bottom: "group1_block8_conv1"
  top: "group1_block8_conv1"
  scale_param {
    bias_term: true
  }
}
layer {
  name: "group1_block8_sum"
  type: "Eltwise"
  bottom: "group1_block8_conv1"
  bottom: "group1_block3_sum"
  top: "group1_block8_sum"
  eltwise_param {
    operation: SUM
  }
}
layer {
  name: "group2_block0_conv0"
  type: "Convolution"
  bottom: "group1_block8_sum"
  top: "group2_block0_conv0"
  param {
    lr_mult: 1
    decay_mult: 1
  }
  convolution_param {
    num_output: 256
    pad: 1
    kernel_size: 3
    stride: 2
    weight_filler {
      type: "msra"
    }
  }
}
layer {
  name: "group2_block0_conv0_bn"
  type: "BatchNorm"
  bottom: "group2_block0_conv0"
  top: "group2_block0_conv0"
  param {
    lr_mult: 0
    decay_mult: 0
  }
  param {
    lr_mult: 0
    decay_mult: 0
  }
  param {
    lr_mult: 0
    decay_mult: 0
  }
…
I0321 00:34:53.289934 128215 net.cpp:84] Creating Layer group1_block2_conv0_bn
I0321 00:34:53.289943 128215 net.cpp:406] group1_block2_conv0_bn <- group1_block2_conv0
I0321 00:34:53.289954 128215 net.cpp:367] group1_block2_conv0_bn -> group1_block2_conv0 (in-place)
I0321 00:34:53.290244 128215 net.cpp:122] Setting up group1_block2_conv0_bn
I0321 00:34:53.290253 128215 net.cpp:129] Top shape: 32 64 16 16 (524288)
I0321 00:34:53.290262 128215 net.cpp:137] Memory required for data: 170262912
I0321 00:34:53.290275 128215 layer_factory.hpp:77] Creating layer group1_block2_conv0_scale
I0321 00:34:53.290285 128215 net.cpp:84] Creating Layer group1_block2_conv0_scale
I0321 00:34:53.290293 128215 net.cpp:406] group1_block2_conv0_scale <- group1_block2_conv0
I0321 00:34:53.290302 128215 net.cpp:367] group1_block2_conv0_scale -> group1_block2_conv0 (in-place)
I0321 00:34:53.290365 128215 layer_factory.hpp:77] Creating layer group1_block2_conv0_scale
I0321 00:34:53.290534 128215 net.cpp:122] Setting up group1_block2_conv0_scale
I0321 00:34:53.290544 128215 net.cpp:129] Top shape: 32 64 16 16 (524288)
I0321 00:34:53.290554 128215 net.cpp:137] Memory required for data: 172360064
I0321 00:34:53.290565 128215 layer_factory.hpp:77] Creating layer group1_block2_conv0_relu
I0321 00:34:53.290575 128215 net.cpp:84] Creating Layer group1_block2_conv0_relu
I0321 00:34:53.290581 128215 net.cpp:406] group1_block2_conv0_relu <- group1_block2_conv0
I0321 00:34:53.290591 128215 net.cpp:367] group1_block2_conv0_relu -> group1_block2_conv0 (in-place)
I0321 00:34:53.291086 128215 net.cpp:122] Setting up group1_block2_conv0_relu
I0321 00:34:53.291095 128215 net.cpp:129] Top shape: 32 64 16 16 (524288)
I0321 00:34:53.291105 128215 net.cpp:137] Memory required for data: 174457216
I0321 00:34:53.291112 128215 layer_factory.hpp:77] Creating layer group1_block2_conv1
I0321 00:34:53.291124 128215 net.cpp:84] Creating Layer group1_block2_conv1
I0321 00:34:53.291131 128215 net.cpp:406] group1_block2_conv1 <- group1_block2_conv0
I0321 00:34:53.291142 128215 net.cpp:380] group1_block2_conv1 -> group1_block2_conv1
I0321 00:34:53.296205 128215 net.cpp:122] Setting up group1_block2_conv1
I0321 00:34:53.296216 128215 net.cpp:129] Top shape: 32 64 16 16 (524288)
I0321 00:34:53.296231 128215 net.cpp:137] Memory required for data: 176554368
I0321 00:34:53.296243 128215 layer_factory.hpp:77] Creating layer group1_block2_conv1_bn
I0321 00:34:53.296253 128215 net.cpp:84] Creating Layer group1_block2_conv1_bn
I0321 00:34:53.296263 128215 net.cpp:406] group1_block2_conv1_bn <- group1_block2_conv1
I0321 00:34:53.296273 128215 net.cpp:367] group1_block2_conv1_bn -> group1_block2_conv1 (in-place)
I0321 00:34:53.296566 128215 net.cpp:122] Setting up group1_block2_conv1_bn
I0321 00:34:53.296576 128215 net.cpp:129] Top shape: 32 64 16 16 (524288)
I0321 00:34:53.296584 128215 net.cpp:137] Memory required for data: 178651520
I0321 00:34:53.296598 128215 layer_factory.hpp:77] Creating layer group1_block2_conv1_scale
I0321 00:34:53.296607 128215 net.cpp:84] Creating Layer group1_block2_conv1_scale
I0321 00:34:53.296614 128215 net.cpp:406] group1_block2_conv1_scale <- group1_block2_conv1
I0321 00:34:53.296623 128215 net.cpp:367] group1_block2_conv1_scale -> group1_block2_conv1 (in-place)
I0321 00:34:53.296680 128215 layer_factory.hpp:77] Creating layer group1_block2_conv1_scale
I0321 00:34:53.296855 128215 net.cpp:122] Setting up group1_block2_conv1_scale
I0321 00:34:53.296864 128215 net.cpp:129] Top shape: 32 64 16 16 (524288)
I0321 00:34:53.296874 128215 net.cpp:137] Memory required for data: 180748672
I0321 00:34:53.296885 128215 layer_factory.hpp:77] Creating layer group1_block2_sum
I0321 00:34:53.296895 128215 net.cpp:84] Creating Layer group1_block2_sum
I0321 00:34:53.296903 128215 net.cpp:406] group1_block2_sum <- group1_block2_conv1
I0321 00:34:53.296911 128215 net.cpp:406] group1_block2_sum <- group1_block1_sum_group1_block1_sum_0_split_1
I0321 00:34:53.296921 128215 net.cpp:380] group1_block2_sum -> group1_block2_sum
I0321 00:34:53.296948 128215 net.cpp:122] Setting up group1_block2_sum
I0321 00:34:53.296957 128215 net.cpp:129] Top shape: 32 64 16 16 (524288)
I0321 00:34:53.296967 128215 net.cpp:137] Memory required for data: 182845824
I0321 00:34:53.296973 128215 layer_factory.hpp:77] Creating layer group1_block2_sum_group1_block2_sum_0_split
I0321 00:34:53.296983 128215 net.cpp:84] Creating Layer group1_block2_sum_group1_block2_sum_0_split
I0321 00:34:53.296989 128215 net.cpp:406] group1_block2_sum_group1_block2_sum_0_split <- group1_block2_sum
I0321 00:34:53.296998 128215 net.cpp:380] group1_block2_sum_group1_block2_sum_0_split -> group1_block2_sum_group1_block2_sum_0_split_0
I0321 00:34:53.297010 128215 net.cpp:380] group1_block2_sum_group1_block2_sum_0_split -> group1_block2_sum_group1_block2_sum_0_split_1
I0321 00:34:53.297062 128215 net.cpp:122] Setting up group1_block2_sum_group1_block2_sum_0_split
I0321 00:34:53.297070 128215 net.cpp:129] Top shape: 32 64 16 16 (524288)
I0321 00:34:53.297080 128215 net.cpp:129] Top shape: 32 64 16 16 (524288)
I0321 00:34:53.297088 128215 net.cpp:137] Memory required for data: 187040128
I0321 00:34:53.297096 128215 layer_factory.hpp:77] Creating layer group1_block3_conv0
I0321 00:34:53.297107 128215 net.cpp:84] Creating Layer group1_block3_conv0
I0321 00:34:53.297114 128215 net.cpp:406] group1_block3_conv0 <- group1_block2_sum_group1_block2_sum_0_split_0
I0321 00:34:53.297124 128215 net.cpp:380] group1_block3_conv0 -> group1_block3_conv0
I0321 00:34:53.301663 128215 net.cpp:122] Setting up group1_block3_conv0
I0321 00:34:53.301673 128215 net.cpp:129] Top shape: 32 64 16 16 (524288)
I0321 00:34:53.301684 128215 net.cpp:137] Memory required for data: 189137280
I0321 00:34:53.301697 128215 layer_factory.hpp:77] Creating layer group1_block3_conv0_bn
I0321 00:34:53.301707 128215 net.cpp:84] Creating Layer group1_block3_conv0_bn
I0321 00:34:53.301714 128215 net.cpp:406] group1_block3_conv0_bn <- group1_block3_conv0
I0321 00:34:53.301724 128215 net.cpp:367] group1_block3_conv0_bn -> group1_block3_conv0 (in-place)
I0321 00:34:53.302013 128215 net.cpp:122] Setting up group1_block3_conv0_bn
I0321 00:34:53.302022 128215 net.cpp:129] Top shape: 32 64 16 16 (524288)
I0321 00:34:53.302031 128215 net.cpp:137] Memory required for data: 191234432
I0321 00:34:53.302072 128215 layer_factory.hpp:77] Creating layer group1_block3_conv0_scale
I0321 00:34:53.302083 128215 net.cpp:84] Creating Layer group1_block3_conv0_scale
I0321 00:34:53.302089 128215 net.cpp:406] group1_block3_conv0_scale <- group1_block3_conv0
I0321 00:34:53.302100 128215 net.cpp:367] group1_block3_conv0_scale -> group1_block3_conv0 (in-place)
I0321 00:34:53.302157 128215 layer_factory.hpp:77] Creating layer group1_block3_conv0_scale
I0321 00:34:53.302321 128215 net.cpp:122] Setting up group1_block3_conv0_scale
I0321 00:34:53.302330 128215 net.cpp:129] Top shape: 32 64 16 16 (524288)
I0321 00:34:53.302340 128215 net.cpp:137] Memory required for data: 193331584
I0321 00:34:53.302351 128215 layer_factory.hpp:77] Creating layer group1_block3_conv0_relu
I0321 00:34:53.302361 128215 net.cpp:84] Creating Layer group1_block3_conv0_relu
I0321 00:34:53.302367 128215 net.cpp:406] group1_block3_conv0_relu <- group1_block3_conv0
I0321 00:34:53.302377 128215 net.cpp:367] group1_block3_conv0_relu -> group1_block3_conv0 (in-place)
I0321 00:34:53.303380 128215 net.cpp:122] Setting up group1_block3_conv0_relu
I0321 00:34:53.303390 128215 net.cpp:129] Top shape: 32 64 16 16 (524288)
I0321 00:34:53.303400 128215 net.cpp:137] Memory required for data: 195428736
I0321 00:34:53.303407 128215 layer_factory.hpp:77] Creating layer group1_block3_conv1
I0321 00:34:53.303421 128215 net.cpp:84] Creating Layer group1_block3_conv1
I0321 00:34:53.303427 128215 net.cpp:406] group1_block3_conv1 <- group1_block3_conv0
I0321 00:34:53.303438 128215 net.cpp:380] group1_block3_conv1 -> group1_block3_conv1
I0321 00:34:53.308969 128215 net.cpp:122] Setting up group1_block3_conv1
I0321 00:34:53.308980 128215 net.cpp:129] Top shape: 32 64 16 16 (524288)
I0321 00:34:53.308991 128215 net.cpp:137] Memory required for data: 197525888
I0321 00:34:53.309003 128215 layer_factory.hpp:77] Creating layer group1_block3_conv1_bn
I0321 00:34:53.309013 128215 net.cpp:84] Creating Layer group1_block3_conv1_bn
I0321 00:34:53.309021 128215 net.cpp:406] group1_block3_conv1_bn <- group1_block3_conv1
I0321 00:34:53.309031 128215 net.cpp:367] group1_block3_conv1_bn -> group1_block3_conv1 (in-place)
I0321 00:34:53.309326 128215 net.cpp:122] Setting up group1_block3_conv1_bn
I0321 00:34:53.309335 128215 net.cpp:129] Top shape: 32 64 16 16 (524288)
I0321 00:34:53.309345 128215 net.cpp:137] Memory required for data: 199623040
I0321 00:34:53.309357 128215 layer_factory.hpp:77] Creating layer group1_block3_conv1_scale
I0321 00:34:53.309366 128215 net.cpp:84] Creating Layer group1_block3_conv1_scale
I0321 00:34:53.309375 128215 net.cpp:406] group1_block3_conv1_scale <- group1_block3_conv1
I0321 00:34:53.309383 128215 net.cpp:367] group1_block3_conv1_scale -> group1_block3_conv1 (in-place)
I0321 00:34:53.309440 128215 layer_factory.hpp:77] Creating layer group1_block3_conv1_scale
I0321 00:34:53.309604 128215 net.cpp:122] Setting up group1_block3_conv1_scale
I0321 00:34:53.309613 128215 net.cpp:129] Top shape: 32 64 16 16 (524288)
I0321 00:34:53.309623 128215 net.cpp:137] Memory required for data: 201720192
I0321 00:34:53.309634 128215 layer_factory.hpp:77] Creating layer group1_block3_sum
I0321 00:34:53.309644 128215 net.cpp:84] Creating Layer group1_block3_sum
I0321 00:34:53.309651 128215 net.cpp:406] group1_block3_sum <- group1_block3_conv1
I0321 00:34:53.309660 128215 net.cpp:406] group1_block3_sum <- group1_block2_sum_group1_block2_sum_0_split_1
I0321 00:34:53.309669 128215 net.cpp:380] group1_block3_sum -> group1_block3_sum
I0321 00:34:53.309698 128215 net.cpp:122] Setting up group1_block3_sum
I0321 00:34:53.309707 128215 net.cpp:129] Top shape: 32 64 16 16 (524288)
I0321 00:34:53.309716 128215 net.cpp:137] Memory required for data: 203817344
I0321 00:34:53.309723 128215 layer_factory.hpp:77] Creating layer group1_block3_sum_group1_block3_sum_0_split
I0321 00:34:53.309732 128215 net.cpp:84] Creating Layer group1_block3_sum_group1_block3_sum_0_split
I0321 00:34:53.309739 128215 net.cpp:406] group1_block3_sum_group1_block3_sum_0_split <- group1_block3_sum
I0321 00:34:53.309749 128215 net.cpp:380] group1_block3_sum_group1_block3_sum_0_split -> group1_block3_sum_group1_block3_sum_0_split_0
I0321 00:34:53.309759 128215 net.cpp:380] group1_block3_sum_group1_block3_sum_0_split -> group1_block3_sum_group1_block3_sum_0_split_1
I0321 00:34:53.309813 128215 net.cpp:122] Setting up group1_block3_sum_group1_block3_sum_0_split
I0321 00:34:53.309823 128215 net.cpp:129] Top shape: 32 64 16 16 (524288)
I0321 00:34:53.309831 128215 net.cpp:129] Top shape: 32 64 16 16 (524288)
I0321 00:34:53.309839 128215 net.cpp:137] Memory required for data: 208011648
I0321 00:34:53.309846 128215 layer_factory.hpp:77] Creating layer group1_block8_conv0
I0321 00:34:53.309859 128215 net.cpp:84] Creating Layer group1_block8_conv0
I0321 00:34:53.309865 128215 net.cpp:406] group1_block8_conv0 <- group1_block3_sum_group1_block3_sum_0_split_0
I0321 00:34:53.309876 128215 net.cpp:380] group1_block8_conv0 -> group1_block8_conv0
I0321 00:34:53.314379 128215 net.cpp:122] Setting up group1_block8_conv0
I0321 00:34:53.314390 128215 net.cpp:129] Top shape: 32 64 16 16 (524288)
I0321 00:34:53.314400 128215 net.cpp:137] Memory required for data: 210108800
I0321 00:34:53.314411 128215 layer_factory.hpp:77] Creating layer group1_block8_conv0_bn
I0321 00:34:53.314421 128215 net.cpp:84] Creating Layer group1_block8_conv0_bn
I0321 00:34:53.314429 128215 net.cpp:406] group1_block8_conv0_bn <- group1_block8_conv0
I0321 00:34:53.314440 128215 net.cpp:367] group1_block8_conv0_bn -> group1_block8_conv0 (in-place)
I0321 00:34:53.314731 128215 net.cpp:122] Setting up group1_block8_conv0_bn
I0321 00:34:53.314740 128215 net.cpp:129] Top shape: 32 64 16 16 (524288)
I0321 00:34:53.314749 128215 net.cpp:137] Memory required for data: 212205952
I0321 00:34:53.314762 128215 layer_factory.hpp:77] Creating layer group1_block8_conv0_scale
I0321 00:34:53.314771 128215 net.cpp:84] Creating Layer group1_block8_conv0_scale
I0321 00:34:53.314779 128215 net.cpp:406] group1_block8_conv0_scale <- group1_block8_conv0
I0321 00:34:53.314788 128215 net.cpp:367] group1_block8_conv0_scale -> group1_block8_conv0 (in-place)
I0321 00:34:53.314846 128215 layer_factory.hpp:77] Creating layer group1_block8_conv0_scale
I0321 00:34:53.315009 128215 net.cpp:122] Setting up group1_block8_conv0_scale
I0321 00:34:53.315018 128215 net.cpp:129] Top shape: 32 64 16 16 (524288)
I0321 00:34:53.315028 128215 net.cpp:137] Memory required for data: 214303104
I0321 00:34:53.315039 128215 layer_factory.hpp:77] Creating layer group1_block8_conv0_relu
I0321 00:34:53.315048 128215 net.cpp:84] Creating Layer group1_block8_conv0_relu
I0321 00:34:53.315055 128215 net.cpp:406] group1_block8_conv0_relu <- group1_block8_conv0
I0321 00:34:53.315064 128215 net.cpp:367] group1_block8_conv0_relu -> group1_block8_conv0 (in-place)
I0321 00:34:53.316032 128215 net.cpp:122] Setting up group1_block8_conv0_relu
I0321 00:34:53.316042 128215 net.cpp:129] Top shape: 32 64 16 16 (524288)
I0321 00:34:53.316051 128215 net.cpp:137] Memory required for data: 216400256
I0321 00:34:53.316059 128215 layer_factory.hpp:77] Creating layer group1_block8_conv1
I0321 00:34:53.316071 128215 net.cpp:84] Creating Layer group1_block8_conv1
I0321 00:34:53.316078 128215 net.cpp:406] group1_block8_conv1 <- group1_block8_conv0
I0321 00:34:53.316088 128215 net.cpp:380] group1_block8_conv1 -> group1_block8_conv1
I0321 00:34:53.321097 128215 net.cpp:122] Setting up group1_block8_conv1
I0321 00:34:53.321108 128215 net.cpp:129] Top shape: 32 64 16 16 (524288)
I0321 00:34:53.321118 128215 net.cpp:137] Memory required for data: 218497408
I0321 00:34:53.321130 128215 layer_factory.hpp:77] Creating layer group1_block8_conv1_bn
I0321 00:34:53.321141 128215 net.cpp:84] Creating Layer group1_block8_conv1_bn
I0321 00:34:53.321148 128215 net.cpp:406] group1_block8_conv1_bn <- group1_block8_conv1
I0321 00:34:53.321158 128215 net.cpp:367] group1_block8_conv1_bn -> group1_block8_conv1 (in-place)
I0321 00:34:53.321449 128215 net.cpp:122] Setting up group1_block8_conv1_bn
I0321 00:34:53.321458 128215 net.cpp:129] Top shape: 32 64 16 16 (524288)
I0321 00:34:53.321467 128215 net.cpp:137] Memory required for data: 220594560
I0321 00:34:53.321480 128215 layer_factory.hpp:77] Creating layer group1_block8_conv1_scale
I0321 00:34:53.321491 128215 net.cpp:84] Creating Layer group1_block8_conv1_scale
I0321 00:34:53.321499 128215 net.cpp:406] group1_block8_conv1_scale <- group1_block8_conv1
I0321 00:34:53.321508 128215 net.cpp:367] group1_block8_conv1_scale -> group1_block8_conv1 (in-place)
I0321 00:34:53.321565 128215 layer_factory.hpp:77] Creating layer group1_block8_conv1_scale
I0321 00:34:53.321739 128215 net.cpp:122] Setting up group1_block8_conv1_scale
I0321 00:34:53.321748 128215 net.cpp:129] Top shape: 32 64 16 16 (524288)
I0321 00:34:53.321758 128215 net.cpp:137] Memory required for data: 222691712
I0321 00:34:53.321769 128215 layer_factory.hpp:77] Creating layer group1_block8_sum
I0321 00:34:53.321779 128215 net.cpp:84] Creating Layer group1_block8_sum
I0321 00:34:53.321786 128215 net.cpp:406] group1_block8_sum <- group1_block8_conv1
I0321 00:34:53.321794 128215 net.cpp:406] group1_block8_sum <- group1_block3_sum_group1_block3_sum_0_split_1
I0321 00:34:53.321805 128215 net.cpp:380] group1_block8_sum -> group1_block8_sum
I0321 00:34:53.321835 128215 net.cpp:122] Setting up group1_block8_sum
I0321 00:34:53.321842 128215 net.cpp:129] Top shape: 32 64 16 16 (524288)
I0321 00:34:53.321851 128215 net.cpp:137] Memory required for data: 224788864
I0321 00:34:53.321858 128215 layer_factory.hpp:77] Creating layer group1_block8_sum_group1_block8_sum_0_split
I0321 00:34:53.321867 128215 net.cpp:84] Creating Layer group1_block8_sum_group1_block8_sum_0_split
I0321 00:34:53.321874 128215 net.cpp:406] group1_block8_sum_group1_block8_sum_0_split <- group1_block8_sum
I0321 00:34:53.321884 128215 net.cpp:380] group1_block8_sum_group1_block8_sum_0_split -> group1_block8_sum_group1_block8_sum_0_split_0
I0321 00:34:53.321895 128215 net.cpp:380] group1_block8_sum_group1_block8_sum_0_split -> group1_block8_sum_group1_block8_sum_0_split_1
I0321 00:34:53.321946 128215 net.cpp:122] Setting up group1_block8_sum_group1_block8_sum_0_split
I0321 00:34:53.321955 128215 net.cpp:129] Top shape: 32 64 16 16 (524288)
I0321 00:34:53.321964 128215 net.cpp:129] Top shape: 32 64 16 16 (524288)
I0321 00:34:53.321974 128215 net.cpp:137] Memory required for data: 228983168
I0321 00:34:53.321980 128215 layer_factory.hpp:77] Creating layer group2_block0_conv0
I0321 00:34:53.321991 128215 net.cpp:84] Creating Layer group2_block0_conv0
I0321 00:34:53.321998 128215 net.cpp:406] group2_block0_conv0 <- group1_block8_sum_group1_block8_sum_0_split_0
I0321 00:34:53.322010 128215 net.cpp:380] group2_block0_conv0 -> group2_block0_conv0
I0321 00:34:53.334420 128215 net.cpp:122] Setting up group2_block0_conv0
I0321 00:34:53.334435 128215 net.cpp:129] Top shape: 32 256 8 8 (524288)
I0321 00:34:53.334447 128215 net.cpp:137] Memory required for data: 231080320
I0321 00:34:53.334460 128215 layer_factory.hpp:77] Creating layer group2_block0_conv0_bn
I0321 00:34:53.334475 128215 net.cpp:84] Creating Layer group2_block0_conv0_bn
I0321 00:34:53.334482 128215 net.cpp:406] group2_block0_conv0_bn <- group2_block0_conv0
I0321 00:34:53.334493 128215 net.cpp:367] group2_block0_conv0_bn -> group2_block0_conv0 (in-place)
I0321 00:34:53.334794 128215 net.cpp:122] Setting up group2_block0_conv0_bn
I0321 00:34:53.334803 128215 net.cpp:129] Top shape: 32 256 8 8 (524288)
I0321 00:34:53.334812 128215 net.cpp:137] Memory required for data: 233177472
I0321 00:34:53.334826 128215 layer_factory.hpp:77] Creating layer group2_block0_conv0_scale
I0321 00:34:53.334836 128215 net.cpp:84] Creating Layer group2_block0_conv0_scale
I0321 00:34:53.334843 128215 net.cpp:406] group2_block0_conv0_scale <- group2_block0_conv0
I0321 00:34:53.334852 128215 net.cpp:367] group2_block0_conv0_scale -> group2_block0_conv0 (in-place)
I0321 00:34:53.334911 128215 layer_factory.hpp:77] Creating layer group2_block0_conv0_scale
I0321 00:34:53.335077 128215 net.cpp:122] Setting up group2_block0_conv0_scale
I0321 00:34:53.335085 128215 net.cpp:129] Top shape: 32 256 8 8 (524288)
I0321 00:34:53.335095 128215 net.cpp:137] Memory required for data: 235274624
I0321 00:34:53.335106 128215 layer_factory.hpp:77] Creating layer group2_block0_conv0_relu
I0321 00:34:53.335115 128215 net.cpp:84] Creating Layer group2_block0_conv0_relu
I0321 00:34:53.335124 128215 net.cpp:406] group2_block0_conv0_relu <- group2_block0_conv0
I0321 00:34:53.335134 128215 net.cpp:367] group2_block0_conv0_relu -> group2_block0_conv0 (in-place)
I0321 00:34:53.335638 128215 net.cpp:122] Setting up group2_block0_conv0_relu
I0321 00:34:53.335646 128215 net.cpp:129] Top shape: 32 256 8 8 (524288)
I0321 00:34:53.335655 128215 net.cpp:137] Memory required for data: 237371776
I0321 00:34:53.335664 128215 layer_factory.hpp:77] Creating layer group2_block0_conv1
I0321 00:34:53.335675 128215 net.cpp:84] Creating Layer group2_block0_conv1
I0321 00:34:53.335682 128215 net.cpp:406] group2_block0_conv1 <- group2_block0_conv0
I0321 00:34:53.335693 128215 net.cpp:380] group2_block0_conv1 -> group2_block0_conv1
I0321 00:34:53.373634 128215 net.cpp:122] Setting up group2_block0_conv1
I0321 00:34:53.373651 128215 net.cpp:129] Top shape: 32 256 8 8 (524288)
I0321 00:34:53.373663 128215 net.cpp:137] Memory required for data: 239468928
I0321 00:34:53.373677 128215 layer_factory.hpp:77] Creating layer group2_block0_conv1_bn
I0321 00:34:53.373688 128215 net.cpp:84] Creating Layer group2_block0_conv1_bn
I0321 00:34:53.373697 128215 net.cpp:406] group2_block0_conv1_bn <- group2_block0_conv1
I0321 00:34:53.373706 128215 net.cpp:367] group2_block0_conv1_bn -> group2_block0_conv1 (in-place)
I0321 00:34:53.374007 128215 net.cpp:122] Setting up group2_block0_conv1_bn
I0321 00:34:53.374017 128215 net.cpp:129] Top shape: 32 256 8 8 (524288)
I0321 00:34:53.374027 128215 net.cpp:137] Memory required for data: 241566080
I0321 00:34:53.374039 128215 layer_factory.hpp:77] Creating layer group2_block0_conv1_scale
I0321 00:34:53.374049 128215 net.cpp:84] Creating Layer group2_block0_conv1_scale
I0321 00:34:53.374056 128215 net.cpp:406] group2_block0_conv1_scale <- group2_block0_conv1
I0321 00:34:53.374066 128215 net.cpp:367] group2_block0_conv1_scale -> group2_block0_conv1 (in-place)
I0321 00:34:53.374125 128215 layer_factory.hpp:77] Creating layer group2_block0_conv1_scale
I0321 00:34:53.374292 128215 net.cpp:122] Setting up group2_block0_conv1_scale
I0321 00:34:53.374301 128215 net.cpp:129] Top shape: 32 256 8 8 (524288)
I0321 00:34:53.374311 128215 net.cpp:137] Memory required for data: 243663232
I0321 00:34:53.374322 128215 layer_factory.hpp:77] Creating layer group2_block0_proj
I0321 00:34:53.374334 128215 net.cpp:84] Creating Layer group2_block0_proj
I0321 00:34:53.374341 128215 net.cpp:406] group2_block0_proj <- group1_block8_sum_group1_block8_sum_0_split_1
I0321 00:34:53.374352 128215 net.cpp:380] group2_block0_proj -> group2_block0_proj
I0321 00:34:53.380627 128215 net.cpp:122] Setting up group2_block0_proj
I0321 00:34:53.380640 128215 net.cpp:129] Top shape: 32 256 8 8 (524288)
I0321 00:34:53.380650 128215 net.cpp:137] Memory required for data: 245760384
I0321 00:34:53.380661 128215 layer_factory.hpp:77] Creating layer group2_block0_proj_bn
I0321 00:34:53.380671 128215 net.cpp:84] Creating Layer group2_block0_proj_bn
I0321 00:34:53.380678 128215 net.cpp:406] group2_block0_proj_bn <- group2_block0_proj
I0321 00:34:53.380688 128215 net.cpp:367] group2_block0_proj_bn -> group2_block0_proj (in-place)
I0321 00:34:53.380988 128215 net.cpp:122] Setting up group2_block0_proj_bn
I0321 00:34:53.380996 128215 net.cpp:129] Top shape: 32 256 8 8 (524288)
I0321 00:34:53.381006 128215 net.cpp:137] Memory required for data: 247857536
I0321 00:34:53.381019 128215 layer_factory.hpp:77] Creating layer group2_block0_proj_scale
I0321 00:34:53.381028 128215 net.cpp:84] Creating Layer group2_block0_proj_scale
I0321 00:34:53.381036 128215 net.cpp:406] group2_block0_proj_scale <- group2_block0_proj
I0321 00:34:53.381044 128215 net.cpp:367] group2_block0_proj_scale -> group2_block0_proj (in-place)
I0321 00:34:53.381101 128215 layer_factory.hpp:77] Creating layer group2_block0_proj_scale
I0321 00:34:53.381265 128215 net.cpp:122] Setting up group2_block0_proj_scale
I0321 00:34:53.381274 128215 net.cpp:129] Top shape: 32 256 8 8 (524288)
I0321 00:34:53.381284 128215 net.cpp:137] Memory required for data: 249954688
I0321 00:34:53.381297 128215 layer_factory.hpp:77] Creating layer group2_block0_sum
I0321 00:34:53.381309 128215 net.cpp:84] Creating Layer group2_block0_sum
I0321 00:34:53.381315 128215 net.cpp:406] group2_block0_sum <- group2_block0_proj
I0321 00:34:53.381323 128215 net.cpp:406] group2_block0_sum <- group2_block0_conv1
I0321 00:34:53.381333 128215 net.cpp:380] group2_block0_sum -> group2_block0_sum
I0321 00:34:53.381368 128215 net.cpp:122] Setting up group2_block0_sum
I0321 00:34:53.381376 128215 net.cpp:129] Top shape: 32 256 8 8 (524288)
I0321 00:34:53.381386 128215 net.cpp:137] Memory required for data: 252051840
I0321 00:34:53.381392 128215 layer_factory.hpp:77] Creating layer group2_block0_sum_group2_block0_sum_0_split
I0321 00:34:53.381402 128215 net.cpp:84] Creating Layer group2_block0_sum_group2_block0_sum_0_split
I0321 00:34:53.381409 128215 net.cpp:406] group2_block0_sum_group2_block0_sum_0_split <- group2_block0_sum
I0321 00:34:53.381418 128215 net.cpp:380] group2_block0_sum_group2_block0_sum_0_split -> group2_block0_sum_group2_block0_sum_0_split_0
I0321 00:34:53.381430 128215 net.cpp:380] group2_block0_sum_group2_block0_sum_0_split -> group2_block0_sum_group2_block0_sum_0_split_1
I0321 00:34:53.381482 128215 net.cpp:122] Setting up group2_block0_sum_group2_block0_sum_0_split
I0321 00:34:53.381491 128215 net.cpp:129] Top shape: 32 256 8 8 (524288)
I0321 00:34:53.381500 128215 net.cpp:129] Top shape: 32 256 8 8 (524288)
I0321 00:34:53.381510 128215 net.cpp:137] Memory required for data: 256246144
I0321 00:34:53.381516 128215 layer_factory.hpp:77] Creating layer group2_block1_conv0
I0321 00:34:53.381527 128215 net.cpp:84] Creating Layer group2_block1_conv0
I0321 00:34:53.381534 128215 net.cpp:406] group2_block1_conv0 <- group2_block0_sum_group2_block0_sum_0_split_0
I0321 00:34:53.381544 128215 net.cpp:380] group2_block1_conv0 -> group2_block1_conv0
I0321 00:34:53.419643 128215 net.cpp:122] Setting up group2_block1_conv0
I0321 00:34:53.419661 128215 net.cpp:129] Top shape: 32 256 8 8 (524288)
I0321 00:34:53.419672 128215 net.cpp:137] Memory required for data: 258343296
I0321 00:34:53.419687 128215 layer_factory.hpp:77] Creating layer group2_block1_conv0_bn
I0321 00:34:53.419699 128215 net.cpp:84] Creating Layer group2_block1_conv0_bn
I0321 00:34:53.419708 128215 net.cpp:406] group2_block1_conv0_bn <- group2_block1_conv0
I0321 00:34:53.419719 128215 net.cpp:367] group2_block1_conv0_bn -> group2_block1_conv0 (in-place)
I0321 00:34:53.420019 128215 net.cpp:122] Setting up group2_block1_conv0_bn
I0321 00:34:53.420028 128215 net.cpp:129] Top shape: 32 256 8 8 (524288)
I0321 00:34:53.420037 128215 net.cpp:137] Memory required for data: 260440448
I0321 00:34:53.420051 128215 layer_factory.hpp:77] Creating layer group2_block1_conv0_scale
I0321 00:34:53.420061 128215 net.cpp:84] Creating Layer group2_block1_conv0_scale
I0321 00:34:53.420068 128215 net.cpp:406] group2_block1_conv0_scale <- group2_block1_conv0
I0321 00:34:53.420078 128215 net.cpp:367] group2_block1_conv0_scale -> group2_block1_conv0 (in-place)
I0321 00:34:53.420136 128215 layer_factory.hpp:77] Creating layer group2_block1_conv0_scale
I0321 00:34:53.420301 128215 net.cpp:122] Setting up group2_block1_conv0_scale
I0321 00:34:53.420311 128215 net.cpp:129] Top shape: 32 256 8 8 (524288)
I0321 00:34:53.420320 128215 net.cpp:137] Memory required for data: 262537600
I0321 00:34:53.420331 128215 layer_factory.hpp:77] Creating layer group2_block1_conv0_relu
I0321 00:34:53.420341 128215 net.cpp:84] Creating Layer group2_block1_conv0_relu
I0321 00:34:53.420348 128215 net.cpp:406] group2_block1_conv0_relu <- group2_block1_conv0
I0321 00:34:53.420357 128215 net.cpp:367] group2_block1_conv0_relu -> group2_block1_conv0 (in-place)
I0321 00:34:53.420887 128215 net.cpp:122] Setting up group2_block1_conv0_relu
I0321 00:34:53.420897 128215 net.cpp:129] Top shape: 32 256 8 8 (524288)
I0321 00:34:53.420907 128215 net.cpp:137] Memory required for data: 264634752
I0321 00:34:53.420913 128215 layer_factory.hpp:77] Creating layer group2_block1_conv1
I0321 00:34:53.420928 128215 net.cpp:84] Creating Layer group2_block1_conv1
I0321 00:34:53.420935 128215 net.cpp:406] group2_block1_conv1 <- group2_block1_conv0
I0321 00:34:53.420946 128215 net.cpp:380] group2_block1_conv1 -> group2_block1_conv1
I0321 00:34:53.458864 128215 net.cpp:122] Setting up group2_block1_conv1
I0321 00:34:53.458880 128215 net.cpp:129] Top shape: 32 256 8 8 (524288)
I0321 00:34:53.458892 128215 net.cpp:137] Memory required for data: 266731904
I0321 00:34:53.458905 128215 layer_factory.hpp:77] Creating layer group2_block1_conv1_bn
I0321 00:34:53.458920 128215 net.cpp:84] Creating Layer group2_block1_conv1_bn
I0321 00:34:53.458927 128215 net.cpp:406] group2_block1_conv1_bn <- group2_block1_conv1
I0321 00:34:53.458937 128215 net.cpp:367] group2_block1_conv1_bn -> group2_block1_conv1 (in-place)
I0321 00:34:53.459246 128215 net.cpp:122] Setting up group2_block1_conv1_bn
I0321 00:34:53.459255 128215 net.cpp:129] Top shape: 32 256 8 8 (524288)
I0321 00:34:53.459264 128215 net.cpp:137] Memory required for data: 268829056
I0321 00:34:53.459278 128215 layer_factory.hpp:77] Creating layer group2_block1_conv1_scale
I0321 00:34:53.459288 128215 net.cpp:84] Creating Layer group2_block1_conv1_scale
I0321 00:34:53.459295 128215 net.cpp:406] group2_block1_conv1_scale <- group2_block1_conv1
I0321 00:34:53.459305 128215 net.cpp:367] group2_block1_conv1_scale -> group2_block1_conv1 (in-place)
I0321 00:34:53.459364 128215 layer_factory.hpp:77] Creating layer group2_block1_conv1_scale
I0321 00:34:53.459534 128215 net.cpp:122] Setting up group2_block1_conv1_scale
I0321 00:34:53.459543 128215 net.cpp:129] Top shape: 32 256 8 8 (524288)
I0321 00:34:53.459553 128215 net.cpp:137] Memory required for data: 270926208
I0321 00:34:53.459564 128215 layer_factory.hpp:77] Creating layer group2_block1_sum
I0321 00:34:53.459574 128215 net.cpp:84] Creating Layer group2_block1_sum
I0321 00:34:53.459581 128215 net.cpp:406] group2_block1_sum <- group2_block1_conv1
I0321 00:34:53.459590 128215 net.cpp:406] group2_block1_sum <- group2_block0_sum_group2_block0_sum_0_split_1
I0321 00:34:53.459600 128215 net.cpp:380] group2_block1_sum -> group2_block1_sum
I0321 00:34:53.459635 128215 net.cpp:122] Setting up group2_block1_sum
I0321 00:34:53.459643 128215 net.cpp:129] Top shape: 32 256 8 8 (524288)
I0321 00:34:53.459653 128215 net.cpp:137] Memory required for data: 273023360
I0321 00:34:53.459661 128215 layer_factory.hpp:77] Creating layer group2_block1_sum_group2_block1_sum_0_split
I0321 00:34:53.459669 128215 net.cpp:84] Creating Layer group2_block1_sum_group2_block1_sum_0_split
I0321 00:34:53.459676 128215 net.cpp:406] group2_block1_sum_group2_block1_sum_0_split <- group2_block1_sum
I0321 00:34:53.459686 128215 net.cpp:380] group2_block1_sum_group2_block1_sum_0_split -> group2_block1_sum_group2_block1_sum_0_split_0
I0321 00:34:53.459698 128215 net.cpp:380] group2_block1_sum_group2_block1_sum_0_split -> group2_block1_sum_group2_block1_sum_0_split_1
I0321 00:34:53.459751 128215 net.cpp:122] Setting up group2_block1_sum_group2_block1_sum_0_split
I0321 00:34:53.459760 128215 net.cpp:129] Top shape: 32 256 8 8 (524288)
I0321 00:34:53.459769 128215 net.cpp:129] Top shape: 32 256 8 8 (524288)
I0321 00:34:53.459779 128215 net.cpp:137] Memory required for data: 277217664
I0321 00:34:53.459785 128215 layer_factory.hpp:77] Creating layer group2_block2_conv0
I0321 00:34:53.459797 128215 net.cpp:84] Creating Layer group2_block2_conv0
I0321 00:34:53.459805 128215 net.cpp:406] group2_block2_conv0 <- group2_block1_sum_group2_block1_sum_0_split_0
I0321 00:34:53.459815 128215 net.cpp:380] group2_block2_conv0 -> group2_block2_conv0
I0321 00:34:53.497678 128215 net.cpp:122] Setting up group2_block2_conv0
I0321 00:34:53.497694 128215 net.cpp:129] Top shape: 32 256 8 8 (524288)
I0321 00:34:53.497704 128215 net.cpp:137] Memory required for data: 279314816
I0321 00:34:53.497719 128215 layer_factory.hpp:77] Creating layer group2_block2_conv0_bn
I0321 00:34:53.497731 128215 net.cpp:84] Creating Layer group2_block2_conv0_bn
I0321 00:34:53.497740 128215 net.cpp:406] group2_block2_conv0_bn <- group2_block2_conv0
I0321 00:34:53.497752 128215 net.cpp:367] group2_block2_conv0_bn -> group2_block2_conv0 (in-place)
I0321 00:34:53.498067 128215 net.cpp:122] Setting up group2_block2_conv0_bn
I0321 00:34:53.498076 128215 net.cpp:129] Top shape: 32 256 8 8 (524288)
I0321 00:34:53.498085 128215 net.cpp:137] Memory required for data: 281411968
I0321 00:34:53.498100 128215 layer_factory.hpp:77] Creating layer group2_block2_conv0_scale
I0321 00:34:53.498108 128215 net.cpp:84] Creating Layer group2_block2_conv0_scale
I0321 00:34:53.498116 128215 net.cpp:406] group2_block2_conv0_scale <- group2_block2_conv0
I0321 00:34:53.498126 128215 net.cpp:367] group2_block2_conv0_scale -> group2_block2_conv0 (in-place)
I0321 00:34:53.498186 128215 layer_factory.hpp:77] Creating layer group2_block2_conv0_scale
I0321 00:34:53.498358 128215 net.cpp:122] Setting up group2_block2_conv0_scale
I0321 00:34:53.498366 128215 net.cpp:129] Top shape: 32 256 8 8 (524288)
I0321 00:34:53.498376 128215 net.cpp:137] Memory required for data: 283509120
I0321 00:34:53.498387 128215 layer_factory.hpp:77] Creating layer group2_block2_conv0_relu
I0321 00:34:53.498397 128215 net.cpp:84] Creating Layer group2_block2_conv0_relu
I0321 00:34:53.498405 128215 net.cpp:406] group2_block2_conv0_relu <- group2_block2_conv0
I0321 00:34:53.498414 128215 net.cpp:367] group2_block2_conv0_relu -> group2_block2_conv0 (in-place)
I0321 00:34:53.499416 128215 net.cpp:122] Setting up group2_block2_conv0_relu
I0321 00:34:53.499426 128215 net.cpp:129] Top shape: 32 256 8 8 (524288)
I0321 00:34:53.499436 128215 net.cpp:137] Memory required for data: 285606272
I0321 00:34:53.499444 128215 layer_factory.hpp:77] Creating layer group2_block2_conv1
I0321 00:34:53.499456 128215 net.cpp:84] Creating Layer group2_block2_conv1
I0321 00:34:53.499464 128215 net.cpp:406] group2_block2_conv1 <- group2_block2_conv0
I0321 00:34:53.499475 128215 net.cpp:380] group2_block2_conv1 -> group2_block2_conv1
I0321 00:34:53.537384 128215 net.cpp:122] Setting up group2_block2_conv1
I0321 00:34:53.537401 128215 net.cpp:129] Top shape: 32 256 8 8 (524288)
I0321 00:34:53.537413 128215 net.cpp:137] Memory required for data: 287703424
I0321 00:34:53.537426 128215 layer_factory.hpp:77] Creating layer group2_block2_conv1_bn
I0321 00:34:53.537441 128215 net.cpp:84] Creating Layer group2_block2_conv1_bn
I0321 00:34:53.537448 128215 net.cpp:406] group2_block2_conv1_bn <- group2_block2_conv1
I0321 00:34:53.537459 128215 net.cpp:367] group2_block2_conv1_bn -> group2_block2_conv1 (in-place)
I0321 00:34:53.537771 128215 net.cpp:122] Setting up group2_block2_conv1_bn
I0321 00:34:53.537781 128215 net.cpp:129] Top shape: 32 256 8 8 (524288)
I0321 00:34:53.537791 128215 net.cpp:137] Memory required for data: 289800576
I0321 00:34:53.537803 128215 layer_factory.hpp:77] Creating layer group2_block2_conv1_scale
I0321 00:34:53.537813 128215 net.cpp:84] Creating Layer group2_block2_conv1_scale
I0321 00:34:53.537822 128215 net.cpp:406] group2_block2_conv1_scale <- group2_block2_conv1
I0321 00:34:53.537830 128215 net.cpp:367] group2_block2_conv1_scale -> group2_block2_conv1 (in-place)
I0321 00:34:53.537891 128215 layer_factory.hpp:77] Creating layer group2_block2_conv1_scale
I0321 00:34:53.538069 128215 net.cpp:122] Setting up group2_block2_conv1_scale
I0321 00:34:53.538077 128215 net.cpp:129] Top shape: 32 256 8 8 (524288)
I0321 00:34:53.538087 128215 net.cpp:137] Memory required for data: 291897728
I0321 00:34:53.538098 128215 layer_factory.hpp:77] Creating layer group2_block2_sum
I0321 00:34:53.538137 128215 net.cpp:84] Creating Layer group2_block2_sum
I0321 00:34:53.538146 128215 net.cpp:406] group2_block2_sum <- group2_block2_conv1
I0321 00:34:53.538154 128215 net.cpp:406] group2_block2_sum <- group2_block1_sum_group2_block1_sum_0_split_1
I0321 00:34:53.538164 128215 net.cpp:380] group2_block2_sum -> group2_block2_sum
I0321 00:34:53.538200 128215 net.cpp:122] Setting up group2_block2_sum
I0321 00:34:53.538209 128215 net.cpp:129] Top shape: 32 256 8 8 (524288)
I0321 00:34:53.538218 128215 net.cpp:137] Memory required for data: 293994880
I0321 00:34:53.538228 128215 layer_factory.hpp:77] Creating layer group2_block2_sum_group2_block2_sum_0_split
I0321 00:34:53.538238 128215 net.cpp:84] Creating Layer group2_block2_sum_group2_block2_sum_0_split
I0321 00:34:53.538244 128215 net.cpp:406] group2_block2_sum_group2_block2_sum_0_split <- group2_block2_sum
I0321 00:34:53.538254 128215 net.cpp:380] group2_block2_sum_group2_block2_sum_0_split -> group2_block2_sum_group2_block2_sum_0_split_0
I0321 00:34:53.538264 128215 net.cpp:380] group2_block2_sum_group2_block2_sum_0_split -> group2_block2_sum_group2_block2_sum_0_split_1
I0321 00:34:53.538319 128215 net.cpp:122] Setting up group2_block2_sum_group2_block2_sum_0_split
I0321 00:34:53.538327 128215 net.cpp:129] Top shape: 32 256 8 8 (524288)
I0321 00:34:53.538336 128215 net.cpp:129] Top shape: 32 256 8 8 (524288)
I0321 00:34:53.538345 128215 net.cpp:137] Memory required for data: 298189184
I0321 00:34:53.538352 128215 layer_factory.hpp:77] Creating layer group2_block3_conv0
I0321 00:34:53.538364 128215 net.cpp:84] Creating Layer group2_block3_conv0
I0321 00:34:53.538372 128215 net.cpp:406] group2_block3_conv0 <- group2_block2_sum_group2_block2_sum_0_split_0
I0321 00:34:53.538383 128215 net.cpp:380] group2_block3_conv0 -> group2_block3_conv0
I0321 00:34:53.576257 128215 net.cpp:122] Setting up group2_block3_conv0
I0321 00:34:53.576275 128215 net.cpp:129] Top shape: 32 256 8 8 (524288)
I0321 00:34:53.576287 128215 net.cpp:137] Memory required for data: 300286336
I0321 00:34:53.576299 128215 layer_factory.hpp:77] Creating layer group2_block3_conv0_bn
I0321 00:34:53.576310 128215 net.cpp:84] Creating Layer group2_block3_conv0_bn
I0321 00:34:53.576318 128215 net.cpp:406] group2_block3_conv0_bn <- group2_block3_conv0
I0321 00:34:53.576329 128215 net.cpp:367] group2_block3_conv0_bn -> group2_block3_conv0 (in-place)
I0321 00:34:53.576643 128215 net.cpp:122] Setting up group2_block3_conv0_bn
I0321 00:34:53.576653 128215 net.cpp:129] Top shape: 32 256 8 8 (524288)
I0321 00:34:53.576663 128215 net.cpp:137] Memory required for data: 302383488
I0321 00:34:53.576675 128215 layer_factory.hpp:77] Creating layer group2_block3_conv0_scale
I0321 00:34:53.576684 128215 net.cpp:84] Creating Layer group2_block3_conv0_scale
I0321 00:34:53.576692 128215 net.cpp:406] group2_block3_conv0_scale <- group2_block3_conv0
I0321 00:34:53.576701 128215 net.cpp:367] group2_block3_conv0_scale -> group2_block3_conv0 (in-place)
I0321 00:34:53.576771 128215 layer_factory.hpp:77] Creating layer group2_block3_conv0_scale
I0321 00:34:53.576956 128215 net.cpp:122] Setting up group2_block3_conv0_scale
I0321 00:34:53.576966 128215 net.cpp:129] Top shape: 32 256 8 8 (524288)
I0321 00:34:53.576975 128215 net.cpp:137] Memory required for data: 304480640
I0321 00:34:53.576987 128215 layer_factory.hpp:77] Creating layer group2_block3_conv0_relu
I0321 00:34:53.576997 128215 net.cpp:84] Creating Layer group2_block3_conv0_relu
I0321 00:34:53.577003 128215 net.cpp:406] group2_block3_conv0_relu <- group2_block3_conv0
I0321 00:34:53.577013 128215 net.cpp:367] group2_block3_conv0_relu -> group2_block3_conv0 (in-place)
I0321 00:34:53.577524 128215 net.cpp:122] Setting up group2_block3_conv0_relu
I0321 00:34:53.577533 128215 net.cpp:129] Top shape: 32 256 8 8 (524288)
I0321 00:34:53.577543 128215 net.cpp:137] Memory required for data: 306577792
I0321 00:34:53.577549 128215 layer_factory.hpp:77] Creating layer group2_block3_conv1
I0321 00:34:53.577561 128215 net.cpp:84] Creating Layer group2_block3_conv1
I0321 00:34:53.577569 128215 net.cpp:406] group2_block3_conv1 <- group2_block3_conv0
I0321 00:34:53.577579 128215 net.cpp:380] group2_block3_conv1 -> group2_block3_conv1
I0321 00:34:53.615468 128215 net.cpp:122] Setting up group2_block3_conv1
I0321 00:34:53.615486 128215 net.cpp:129] Top shape: 32 256 8 8 (524288)
I0321 00:34:53.615497 128215 net.cpp:137] Memory required for data: 308674944
I0321 00:34:53.615510 128215 layer_factory.hpp:77] Creating layer group2_block3_conv1_bn
I0321 00:34:53.615522 128215 net.cpp:84] Creating Layer group2_block3_conv1_bn
I0321 00:34:53.615548 128215 net.cpp:406] group2_block3_conv1_bn <- group2_block3_conv1
I0321 00:34:53.615561 128215 net.cpp:367] group2_block3_conv1_bn -> group2_block3_conv1 (in-place)
I0321 00:34:53.615885 128215 net.cpp:122] Setting up group2_block3_conv1_bn
I0321 00:34:53.615893 128215 net.cpp:129] Top shape: 32 256 8 8 (524288)
I0321 00:34:53.615903 128215 net.cpp:137] Memory required for data: 310772096
I0321 00:34:53.615916 128215 layer_factory.hpp:77] Creating layer group2_block3_conv1_scale
I0321 00:34:53.615926 128215 net.cpp:84] Creating Layer group2_block3_conv1_scale
I0321 00:34:53.615933 128215 net.cpp:406] group2_block3_conv1_scale <- group2_block3_conv1
I0321 00:34:53.615942 128215 net.cpp:367] group2_block3_conv1_scale -> group2_block3_conv1 (in-place)
I0321 00:34:53.616004 128215 layer_factory.hpp:77] Creating layer group2_block3_conv1_scale
I0321 00:34:53.616178 128215 net.cpp:122] Setting up group2_block3_conv1_scale
I0321 00:34:53.616188 128215 net.cpp:129] Top shape: 32 256 8 8 (524288)
I0321 00:34:53.616197 128215 net.cpp:137] Memory required for data: 312869248
I0321 00:34:53.616209 128215 layer_factory.hpp:77] Creating layer group2_block3_sum
I0321 00:34:53.616219 128215 net.cpp:84] Creating Layer group2_block3_sum
I0321 00:34:53.616226 128215 net.cpp:406] group2_block3_sum <- group2_block3_conv1
I0321 00:34:53.616235 128215 net.cpp:406] group2_block3_sum <- group2_block2_sum_group2_block2_sum_0_split_1
I0321 00:34:53.616245 128215 net.cpp:380] group2_block3_sum -> group2_block3_sum
I0321 00:34:53.616281 128215 net.cpp:122] Setting up group2_block3_sum
I0321 00:34:53.616289 128215 net.cpp:129] Top shape: 32 256 8 8 (524288)
I0321 00:34:53.616298 128215 net.cpp:137] Memory required for data: 314966400
I0321 00:34:53.616305 128215 layer_factory.hpp:77] Creating layer group2_block3_sum_group2_block3_sum_0_split
I0321 00:34:53.616315 128215 net.cpp:84] Creating Layer group2_block3_sum_group2_block3_sum_0_split
I0321 00:34:53.616322 128215 net.cpp:406] group2_block3_sum_group2_block3_sum_0_split <- group2_block3_sum
I0321 00:34:53.616331 128215 net.cpp:380] group2_block3_sum_group2_block3_sum_0_split -> group2_block3_sum_group2_block3_sum_0_split_0
I0321 00:34:53.616343 128215 net.cpp:380] group2_block3_sum_group2_block3_sum_0_split -> group2_block3_sum_group2_block3_sum_0_split_1
I0321 00:34:53.616399 128215 net.cpp:122] Setting up group2_block3_sum_group2_block3_sum_0_split
I0321 00:34:53.616407 128215 net.cpp:129] Top shape: 32 256 8 8 (524288)
I0321 00:34:53.616416 128215 net.cpp:129] Top shape: 32 256 8 8 (524288)
I0321 00:34:53.616425 128215 net.cpp:137] Memory required for data: 319160704
I0321 00:34:53.616432 128215 layer_factory.hpp:77] Creating layer group2_block8_conv0
I0321 00:34:53.616444 128215 net.cpp:84] Creating Layer group2_block8_conv0
I0321 00:34:53.616451 128215 net.cpp:406] group2_block8_conv0 <- group2_block3_sum_group2_block3_sum_0_split_0
I0321 00:34:53.616461 128215 net.cpp:380] group2_block8_conv0 -> group2_block8_conv0
I0321 00:34:53.654395 128215 net.cpp:122] Setting up group2_block8_conv0
I0321 00:34:53.654412 128215 net.cpp:129] Top shape: 32 256 8 8 (524288)
I0321 00:34:53.654423 128215 net.cpp:137] Memory required for data: 321257856
I0321 00:34:53.654436 128215 layer_factory.hpp:77] Creating layer group2_block8_conv0_bn
I0321 00:34:53.654448 128215 net.cpp:84] Creating Layer group2_block8_conv0_bn
I0321 00:34:53.654456 128215 net.cpp:406] group2_block8_conv0_bn <- group2_block8_conv0
I0321 00:34:53.654467 128215 net.cpp:367] group2_block8_conv0_bn -> group2_block8_conv0 (in-place)
I0321 00:34:53.654785 128215 net.cpp:122] Setting up group2_block8_conv0_bn
I0321 00:34:53.654794 128215 net.cpp:129] Top shape: 32 256 8 8 (524288)
I0321 00:34:53.654803 128215 net.cpp:137] Memory required for data: 323355008
I0321 00:34:53.654817 128215 layer_factory.hpp:77] Creating layer group2_block8_conv0_scale
I0321 00:34:53.654827 128215 net.cpp:84] Creating Layer group2_block8_conv0_scale
I0321 00:34:53.654834 128215 net.cpp:406] group2_block8_conv0_scale <- group2_block8_conv0
I0321 00:34:53.654844 128215 net.cpp:367] group2_block8_conv0_scale -> group2_block8_conv0 (in-place)
I0321 00:34:53.654904 128215 layer_factory.hpp:77] Creating layer group2_block8_conv0_scale
I0321 00:34:53.655081 128215 net.cpp:122] Setting up group2_block8_conv0_scale
I0321 00:34:53.655091 128215 net.cpp:129] Top shape: 32 256 8 8 (524288)
I0321 00:34:53.655099 128215 net.cpp:137] Memory required for data: 325452160
I0321 00:34:53.655112 128215 layer_factory.hpp:77] Creating layer group2_block8_conv0_relu
I0321 00:34:53.655120 128215 net.cpp:84] Creating Layer group2_block8_conv0_relu
I0321 00:34:53.655128 128215 net.cpp:406] group2_block8_conv0_relu <- group2_block8_conv0
I0321 00:34:53.655138 128215 net.cpp:367] group2_block8_conv0_relu -> group2_block8_conv0 (in-place)
I0321 00:34:53.655653 128215 net.cpp:122] Setting up group2_block8_conv0_relu
I0321 00:34:53.655663 128215 net.cpp:129] Top shape: 32 256 8 8 (524288)
I0321 00:34:53.655671 128215 net.cpp:137] Memory required for data: 327549312
I0321 00:34:53.655678 128215 layer_factory.hpp:77] Creating layer group2_block8_conv1
I0321 00:34:53.655690 128215 net.cpp:84] Creating Layer group2_block8_conv1
I0321 00:34:53.655699 128215 net.cpp:406] group2_block8_conv1 <- group2_block8_conv0
I0321 00:34:53.655709 128215 net.cpp:380] group2_block8_conv1 -> group2_block8_conv1
I0321 00:34:53.693611 128215 net.cpp:122] Setting up group2_block8_conv1
I0321 00:34:53.693629 128215 net.cpp:129] Top shape: 32 256 8 8 (524288)
I0321 00:34:53.693640 128215 net.cpp:137] Memory required for data: 329646464
I0321 00:34:53.693655 128215 layer_factory.hpp:77] Creating layer group2_block8_conv1_bn
I0321 00:34:53.693665 128215 net.cpp:84] Creating Layer group2_block8_conv1_bn
I0321 00:34:53.693675 128215 net.cpp:406] group2_block8_conv1_bn <- group2_block8_conv1
I0321 00:34:53.693684 128215 net.cpp:367] group2_block8_conv1_bn -> group2_block8_conv1 (in-place)
I0321 00:34:53.694011 128215 net.cpp:122] Setting up group2_block8_conv1_bn
I0321 00:34:53.694020 128215 net.cpp:129] Top shape: 32 256 8 8 (524288)
I0321 00:34:53.694030 128215 net.cpp:137] Memory required for data: 331743616
I0321 00:34:53.694042 128215 layer_factory.hpp:77] Creating layer group2_block8_conv1_scale
I0321 00:34:53.694052 128215 net.cpp:84] Creating Layer group2_block8_conv1_scale
I0321 00:34:53.694059 128215 net.cpp:406] group2_block8_conv1_scale <- group2_block8_conv1
I0321 00:34:53.694069 128215 net.cpp:367] group2_block8_conv1_scale -> group2_block8_conv1 (in-place)
I0321 00:34:53.694138 128215 layer_factory.hpp:77] Creating layer group2_block8_conv1_scale
I0321 00:34:53.694315 128215 net.cpp:122] Setting up group2_block8_conv1_scale
I0321 00:34:53.694324 128215 net.cpp:129] Top shape: 32 256 8 8 (524288)
I0321 00:34:53.694334 128215 net.cpp:137] Memory required for data: 333840768
I0321 00:34:53.694345 128215 layer_factory.hpp:77] Creating layer group2_block8_sum
I0321 00:34:53.694355 128215 net.cpp:84] Creating Layer group2_block8_sum
I0321 00:34:53.694362 128215 net.cpp:406] group2_block8_sum <- group2_block8_conv1
I0321 00:34:53.694371 128215 net.cpp:406] group2_block8_sum <- group2_block3_sum_group2_block3_sum_0_split_1
I0321 00:34:53.694381 128215 net.cpp:380] group2_block8_sum -> group2_block8_sum
I0321 00:34:53.694417 128215 net.cpp:122] Setting up group2_block8_sum
I0321 00:34:53.694425 128215 net.cpp:129] Top shape: 32 256 8 8 (524288)
I0321 00:34:53.694435 128215 net.cpp:137] Memory required for data: 335937920
I0321 00:34:53.694442 128215 layer_factory.hpp:77] Creating layer global_avg_pool
I0321 00:34:53.694453 128215 net.cpp:84] Creating Layer global_avg_pool
I0321 00:34:53.694460 128215 net.cpp:406] global_avg_pool <- group2_block8_sum
I0321 00:34:53.694471 128215 net.cpp:380] global_avg_pool -> global_avg_pool
I0321 00:34:53.695499 128215 net.cpp:122] Setting up global_avg_pool
I0321 00:34:53.695509 128215 net.cpp:129] Top shape: 32 256 1 1 (8192)
I0321 00:34:53.695519 128215 net.cpp:137] Memory required for data: 335970688
I0321 00:34:53.695526 128215 layer_factory.hpp:77] Creating layer fc
I0321 00:34:53.695538 128215 net.cpp:84] Creating Layer fc
I0321 00:34:53.695545 128215 net.cpp:406] fc <- global_avg_pool
I0321 00:34:53.695555 128215 net.cpp:380] fc -> fc
I0321 00:34:53.695938 128215 net.cpp:122] Setting up fc
I0321 00:34:53.695948 128215 net.cpp:129] Top shape: 32 10 (320)
I0321 00:34:53.695957 128215 net.cpp:137] Memory required for data: 335971968
I0321 00:34:53.695968 128215 layer_factory.hpp:77] Creating layer fc_fc_0_split
I0321 00:34:53.695978 128215 net.cpp:84] Creating Layer fc_fc_0_split
I0321 00:34:53.695986 128215 net.cpp:406] fc_fc_0_split <- fc
I0321 00:34:53.695996 128215 net.cpp:380] fc_fc_0_split -> fc_fc_0_split_0
I0321 00:34:53.696005 128215 net.cpp:380] fc_fc_0_split -> fc_fc_0_split_1
I0321 00:34:53.696064 128215 net.cpp:122] Setting up fc_fc_0_split
I0321 00:34:53.696074 128215 net.cpp:129] Top shape: 32 10 (320)
I0321 00:34:53.696082 128215 net.cpp:129] Top shape: 32 10 (320)
I0321 00:34:53.696090 128215 net.cpp:137] Memory required for data: 335974528
I0321 00:34:53.696097 128215 layer_factory.hpp:77] Creating layer loss
I0321 00:34:53.696107 128215 net.cpp:84] Creating Layer loss
I0321 00:34:53.696115 128215 net.cpp:406] loss <- fc_fc_0_split_0
I0321 00:34:53.696123 128215 net.cpp:406] loss <- label_dataLayer_1_split_0
I0321 00:34:53.696132 128215 net.cpp:380] loss -> loss
I0321 00:34:53.696144 128215 layer_factory.hpp:77] Creating layer loss
I0321 00:34:53.696791 128215 net.cpp:122] Setting up loss
I0321 00:34:53.696801 128215 net.cpp:129] Top shape: (1)
I0321 00:34:53.696810 128215 net.cpp:132]     with loss weight 1
I0321 00:34:53.696825 128215 net.cpp:137] Memory required for data: 335974532
I0321 00:34:53.696831 128215 layer_factory.hpp:77] Creating layer softmax
I0321 00:34:53.696841 128215 net.cpp:84] Creating Layer softmax
I0321 00:34:53.696847 128215 net.cpp:406] softmax <- fc_fc_0_split_1
I0321 00:34:53.696856 128215 net.cpp:380] softmax -> softmax
I0321 00:34:53.697464 128215 net.cpp:122] Setting up softmax
I0321 00:34:53.697474 128215 net.cpp:129] Top shape: 32 10 (320)
I0321 00:34:53.697484 128215 net.cpp:137] Memory required for data: 335975812
I0321 00:34:53.697490 128215 layer_factory.hpp:77] Creating layer Accuracy
I0321 00:34:53.697499 128215 net.cpp:84] Creating Layer Accuracy
I0321 00:34:53.697507 128215 net.cpp:406] Accuracy <- softmax
I0321 00:34:53.697515 128215 net.cpp:406] Accuracy <- label_dataLayer_1_split_1
I0321 00:34:53.697525 128215 net.cpp:380] Accuracy -> Accuracy
…
